02-Autoencoder/01-PT-MNIST-basic/cnn-autoencoder.pth (torch, 67265 bytes, 11 tensors)

encoder.0.weight f4 [16, 1, 3, 3]
000000 8a e9 c9 3e a3 8e 19 3e 66 ef f3 be 94 0c f1 3b
       0.3943599 0.14995818 -0.47643584 0.0073562358
000010 51 fd 31 be f0 4b 43 bd 34 10 d5 bd ca f9 cd 3e
       -0.17381789 -0.04767984 -0.10403481 0.40229636
000020 91 a9 40 3e b6 3c c6 be 1b 39 ec bd bf e6 a6 be
       0.18814684 -0.38718194 -0.115343295 -0.3259792
000030 b4 24 a5 3e ce 96 86 3e 6b c2 92 3e b8 df 21 3e
       0.32254565 0.2628693 0.28663954 0.15807998
000040 f6 cc ba 3c 86 59 0f 3d 2a 89 32 be 2b 65 57 be
       0.022802811 0.034997486 -0.17435136 -0.21034686
000050 6b 06 be 3e 4d c5 bd be cf 55 53 bd d4 c0 03 3f
       0.37114272 -0.3706459 -0.051595505 0.5146611
000060 df f7 ed be 24 f1 7e bb db 06 78 3e c9 ec 86 bd
       -0.46478173 -0.0038901055 0.24221365 -0.06588132
000070 e3 d5 02 3f a8 d9 e3 be 9a ba 88 3e c2 b5 a9 3e
       0.51107615 -0.44501996 0.26704866 0.33146483
000080 31 56 e0 be 1d 24 8c be a6 4a 8e 3d 1c e7 6c bb
       -0.4381576 -0.27371302 0.06947832 -0.0036148494
000090 e6 8f 3f bf 89 00 fe be 4f 18 2b be 45 a5 c7 be
       -0.74828947 -0.49609783 -0.16708492 -0.38993278
0000a0 11 4a 3b be 93 46 30 bd aa 1c cf 3e 51 06 4a 3f
       -0.18289973 -0.043036055 0.40451556 0.7891589
0000b0 7d d3 16 3f e2 48 ec be 6f fa 12 3f 5a 7d 8b be
       0.58916456 -0.46149355 0.5741338 -0.27244073
0000c0 da c7 71 be 38 77 d8 3e 3f 2e 31 be 47 98 c3 be
       -0.23611394 0.42278457 -0.17302798 -0.38202116
0000d0 fd 69 3e 3e 3a d7 88 bc 40 c9 3d bd dd cd a8 3e
       0.18595119 -0.01670419 -0.046334505 0.3296956
0000e0 65 23 9e 3e ff dc ee bc 87 d9 75 3d 88 2e 94 be
       0.3088638 -0.029158114 0.060021903 -0.2894175
0000f0 23 30 4e 3e b2 2a cd 3c 70 e7 40 be ce 5e 0f 3d
       0.2013555 0.025044773 -0.18838286 0.035002522
000100 f1 b6 88 3b a7 c2 d0 bd f9 ff 11 3e 05 ed 0d 3f
       0.004172199 -0.10193377 0.14257802 0.5543979
000110 08 1a 0e 3f 79 24 74 be 39 0d e7 be 58 3b 11 bf
       0.5550847 -0.23842038 -0.45127276 -0.56731176
000120 c8 87 c1 3e d9 94 67 3d da b7 eb be 54 79 b2 bd
       0.37798905 0.056538437 -0.46038705 -0.08714548
000130 97 b6 60 3e ca 59 cf 3d 1d 96 95 bf 88 bd 1d bf
       0.21944652 0.10124548 -1.1686436 -0.61617327
000140 8f a4 96 bf 8e 95 4d be 91 e3 03 3f a0 b9 a1 3e
       -1.1768969 -0.20076582 0.51519114 0.31586933
000150 9b cb 81 bd 45 12 0f 3e 7c e3 40 3e d0 2a b7 3b
       -0.06337663 0.13971813 0.18836778 0.0055898204
000160 be 5a 88 3e 97 93 88 3e 01 46 e2 3d c4 8b a8 be
       0.2663173 0.26675102 0.110485084 -0.32919133
000170 23 c3 b7 3d ea 00 c0 bd 16 cb a2 3d 9e 54 3a 3e
       0.08972766 -0.09375174 0.07948892 0.18196341
000180 d9 bf 86 3d ed 12 2c 3e 63 92 cd 3e 59 b1 3e 3f
       0.06579561 0.16804095 0.40150747 0.7448936
000190 61 93 09 bf 6d 90 0f bf 0a ad cb 3e 66 fb 2f be
       -0.5374051 -0.5607975 0.39780456 -0.17185745
0001a0 dc ab 71 3e 3e 72 d0 3c 78 eb a6 be ca db 73 bf
       0.23600715 0.0254451 -0.32601523 -0.95257246
0001b0 ab 02 4b 3e 22 c4 d8 be 62 21 45 bf 28 ff 93 3e
       0.19825236 -0.42337137 -0.77004063 0.28905606
0001c0 04 d7 25 3e 4f 74 e0 be 00 f8 21 3f 80 32 e0 3e
       0.16195303 -0.43838736 0.6326904 0.43788528
0001d0 14 66 f9 3c eb 39 32 bf 51 22 13 bd 97 42 b4 3e
       0.030444182 -0.69619626 -0.0359214 0.35207054
0001e0 37 eb d3 bd d5 53 89 3b 41 85 66 3e 36 d2 fc 3c
       -0.10347598 0.0041909018 0.2251177 0.030861955
0001f0 6a 7e 8c 3d 8f 18 6b 3e 8e 5d 13 3d d3 7a 13 3d
       0.06860049 0.22958587 0.035977893 0.036005806
000200 4a 75 54 3e bd c9 3d 3e d6 7c 66 3e fb da f6 bb
       0.20747867 0.18533988 0.22508559 -0.0075334287
000210 25 71 13 3e 33 8a 68 3e 5a 19 bb ba 61 c1 3a 3d
       0.1439863 0.22708969 -0.0014274523 0.045594577
000220 9d fc 0c 3f 7a f6 15 3f 51 db 61 be 5e e4 5f 3e
       0.5507296 0.5857922 -0.22056319 0.21864459
000230 a8 b7 93 3d b7 54 e6 bf d4 ea 8b bf 60 b2 98 bf
       0.07212764 -1.7994603 -1.0931039 -1.1929436

encoder.0.bias f4 [16]
000000 e3 6b 31 3b c2 20 07 bc 03 5d 9a bb e0 fb 80 bb
       0.0027072362 -0.008247556 -0.004710795 -0.003936276
000010 39 5f c9 bb 35 11 88 bb a7 5a 7e bb 36 f0 a5 3d
       -0.0061453846 -0.004152442 -0.0038811357 0.08102457
000020 aa 5b b9 3e d0 5e 14 bf b2 fe 21 bb 6d a9 2f bb
       0.36202747 -0.5795717 -0.002471846 -0.0026803866
000030 aa e7 bc bb b9 f6 2f bb 31 9d 9a 3b 10 10 4c ba
       -0.005764921 -0.002684994 0.0047184457 -0.0007784376

encoder.2.weight f4 [32, 16, 3, 3]
000000 e7 ca db be 5f 08 82 be a3 8a 1f 3e 55 1c 2f be
       -0.4292824 -0.25397012 0.1558023 -0.17100652
000010 46 06 b0 bc 86 4b a6 3d f7 08 19 bf ed 4e be 3e
       -0.021487366 0.08119874 -0.59779304 0.3716959
000020 ac d2 fd 3e 48 ee e0 3d 9b 0c be be 9e 4d 7b be
       0.49574792 0.109829485 -0.37118992 -0.24541327
000030 b7 93 cb be 57 88 fa be 4c cd 03 3c fe 68 4d bf
       -0.39761135 -0.48932144 0.008044552 -0.8023833
000040 9b 74 89 be ce 94 65 3e d3 f9 1a be 82 6e c2 bc
       -0.26846775 0.22420046 -0.15134363 -0.023734335
000050 0f ec 86 3d 48 39 59 3e b9 e3 40 3e 5d 50 e4 3d
       0.06587993 0.21213257 0.1883687 0.111481406
000060 bf 68 a3 3d 9a 07 18 3e d6 4a cc 3e 82 d2 83 be
       0.07978963 0.1484665 0.39900845 -0.25746542
000070 60 bc e2 3d 0c 84 6d 3e 39 0a 46 3d 98 40 f2 3d
       0.11071086 0.23194903 0.048349593 0.118287265
000080 ed 97 d0 3e ef 1a 5e 3d b8 46 22 3e 58 cf 84 3e
       0.4074091 0.054224905 0.1584729 0.2593944
000090 0d 91 06 3f ca b1 74 bd 6a 8c 56 be 63 10 00 bf
       0.5256508 -0.059739865 -0.20952001 -0.50025004
0000a0 b9 da f2 be 04 42 1a be 4d 2c 3d bf da 4b 3f bf
       -0.47432497 -0.15064245 -0.7389572 -0.74725115
0000b0 b2 e5 d0 be f2 00 6d be 40 4a 4a 3e f8 0d 08 3f
       -0.40800244 -0.23144892 0.19754887 0.53146315
0000c0 34 0d c3 3e fd 98 92 3e ca 03 e1 3e 8f 4c a2 3e
       0.3809601 0.28632346 0.43948203 0.31699035
0000d0 57 93 2f 3e 73 94 89 3f f9 72 b9 bd 3d 67 49 3e
       0.1714605 1.0748428 -0.090551324 0.19668289
0000e0 06 51 de 3e d3 8b ed bd ef ea 33 be 10 e5 5f 3e
       0.4342119 -0.11598935 -0.17570089 0.21864724
0000f0 7b 90 29 bf cb 98 0a be 67 c1 15 3a b9 ba 8b bd
       -0.66236085 -0.13534848 0.0005712718 -0.06822724
000100 db 3c f7 be 15 8c c6 be f8 95 95 be 7f 35 33 bf
       -0.48288617 -0.3877875 -0.2921598 -0.70003504
000110 12 ec c0 be 58 b8 21 3e 7e df a3 3e 03 27 e6 bc
       -0.37680107 0.15792978 0.32006449 -0.028094774
000120 e4 4a 0b 3e ed 87 03 3f 4d dd 29 3e 65 9c a5 3e
       0.13602787 0.5137928 0.16588326 0.32345882
000130 f5 86 2c be d4 c6 a9 be 19 fa 9e 3e 05 98 88 3d
       -0.16848357 -0.33159506 0.31050184 0.066696204
000140 51 82 9d be 60 b7 b6 be 6e 9d 71 bd cb 1a 50 3e
       -0.30763486 -0.3568678 -0.058988027 0.2032272
000150 1e 65 35 bf 17 66 5a be a2 e5 ac 3e b4 68 60 be
       -0.7085742 -0.21328007 0.33768946 -0.21914941
000160 13 41 24 bd b2 a7 e3 3e 18 81 45 3e 21 5e 32 3e
       -0.040101122 0.4446388 0.19287527 0.1741872
000170 ff 85 05 be 61 42 c7 bd 03 41 33 3d 3c ec 32 3e
       -0.13039397 -0.09729458 0.043763172 0.17472929
000180 de e4 1d be 06 73 3e be a0 f3 a0 3e dc 51 2d bc
       -0.15419337 -0.18598565 0.3143587 -0.010578599
000190 2a 07 b7 3e 87 d5 2f 3c 11 f4 43 bf 53 9d c6 be
       0.35747653 0.010732061 -0.7654429 -0.38791904
0001a0 a9 e9 61 3f e1 a1 fc bf 5c 85 c4 be c5 46 21 3f
       0.8824716 -1.9736902 -0.38382995 0.6299861
0001b0 a2 00 5e bd 01 59 af bf a3 2e c5 be 8d bc 78 be
       -0.054199822 -1.3699037 -0.38512143 -0.24290676
0001c0 2f 4c 07 be 7b 5e e3 3c ff 50 0f c0 2e f1 33 3b
       -0.13212655 0.027755013 -2.2393186 0.0027456987
0001d0 0d 20 41 3e c6 d5 91 3e a6 97 c2 3e c2 35 45 3e
       0.18859883 0.2848341 0.38006324 0.19258788
0001e0 2b c0 4f be a0 90 54 3d 30 e2 fe bd 9b 95 a1 be
       -0.2028815 0.051895738 -0.124454856 -0.31559452
0001f0 4b 63 3a 3c 8b 05 b2 3d ba 1f 63 bd bd 23 d9 bd
       0.011376212 0.086924635 -0.05545018 -0.1060252
000200 70 75 e7 3c 0e bb 00 bf 35 9d 3b bd ee bf c9 3e
       0.02825424 -0.5028542 -0.04580422 0.39404243
000210 e1 70 2a bf fd 8a 71 bd 20 56 9e 3e 64 81 33 bc
       -0.6657849 -0.05897044 0.30925083 -0.010956142
000220 d9 97 18 be c3 5f 06 bf e6 14 07 be 37 71 a7 bf
       -0.14901675 -0.5248987 -0.13191566 -1.3081425
000230 66 f2 2f bf c1 b8 78 3e 59 d4 2c be 9d 86 3c bf
       -0.68729246 0.24289228 -0.16877879 -0.73642904
000240 c8 6e c2 3d 5f 8a c0 3d 43 b0 11 be f5 48 4d 3d
       0.09493786 0.09401392 -0.14227395 0.050118405
000250 06 fa 01 bd e5 8d 35 be 5d 01 99 bd 1e 02 ae bd
       -0.03173258 -0.1772991 -0.07470963 -0.084964976
000260 81 ef 5e be 18 68 20 3e c0 4c b0 3d 01 74 21 3d
       -0.21771051 0.15664709 0.08608389 0.03941727
000270 0d 5f dd bc 39 1a ca bd b0 12 b5 3d 07 b1 c0 3d
       -0.027022863 -0.09868283 0.08841455 0.09408765
000280 25 ba 75 be b4 dc 3f 3e fe 61 58 3c 7a 9f 47 be
       -0.2399679 0.18736535 0.013206957 -0.19494429
000290 36 4b de 3d a0 52 b9 3d 93 12 27 be f5 83 f4 3d
       0.10854189 0.090489626 -0.16315679 0.11939231
0002a0 84 16 39 bf 6d 50 47 3e 4e 88 72 bc 82 cd 58 be
       -0.7229998 0.19464274 -0.014803005 -0.21172145
0002b0 43 8f bf bd 07 21 6c be 2e 3a 22 3e 85 77 77 bc
       -0.09353497 -0.23059474 0.15842506 -0.015104179
0002c0 32 64 90 be e5 89 5a bc 71 90 44 bd 3c f5 f2 bd
       -0.28201443 -0.013338541 -0.047989313 -0.11863181
0002d0 f1 27 42 bd 09 4e 72 3d cd 7f ad 3d ef a6 04 bc
       -0.047401372 0.05915645 0.08471642 -0.008096441
0002e0 61 a1 05 bd d1 f0 75 3e a3 95 60 be 77 ad 9c bd
       -0.032624606 0.24017645 -0.21932082 -0.07650273
0002f0 f4 ad 3a bc 7a b5 a2 3d 0f ad db be 21 6c 4c bf
       -0.011394013 0.0794477 -0.4290547 -0.7985249
000300 70 1d 14 3e 42 c6 62 3e a9 82 a7 bd 3d 35 aa be
       0.14464355 0.22145942 -0.08179218 -0.33243743
000310 fb d4 85 be 3b 12 0d 3e ef ae a3 3c 47 44 dd bd
       -0.26139054 0.13776486 0.019980876 -0.108040385
000320 81 21 0a be ef d9 f5 3d 04 c6 95 3d 07 06 20 3d
       -0.13489343 0.12004458 0.07313159 0.039068248
000330 86 a4 8c bd 94 c7 f4 bc e2 e3 87 3c fd f8 04 bd
       -0.06867318 -0.029880323 0.016588155 -0.032464016
000340 0d 8f 43 bd 7b e2 06 3d 55 35 5d 3e ef a9 81 bd
       -0.047743846 0.032930832 0.21602376 -0.063312404
000350 30 6b 3a bd e9 6c 1b bc 37 44 2d 3c a1 9d e2 3d
       -0.04551238 -0.009486415 0.010575346 0.110652216
000360 63 bd b7 be 3b d4 08 be ea c9 35 bd 4f d8 45 3d
       -0.35886678 -0.1336221 -0.044382013 0.04830199
000370 46 fb 03 be 9a 27 e7 bd 52 95 6a 3e 84 63 1c 3d
       -0.12888822 -0.1128685 0.22908524 0.038180843
000380 42 9f 9c bd 69 97 06 3e 49 0a 30 bc 46 9d 3c 3e
       -0.076475635 0.13143696 -0.01074464 0.1841937
000390 07 c2 ad 3e 70 fa 10 bd f8 dd 9c 3d f8 15 a9 bd
       0.33937094 -0.035395086 0.07659525 -0.08256143
0003a0 81 21 d8 bd 4f 6e a4 3e bf 67 f3 3d d7 02 4b bd
       -0.10553265 0.3211541 0.11885022 -0.049563255
0003b0 52 c6 e3 3c 66 95 aa 3d 46 2c 29 bd 2d ea 48 3e
       0.027804527 0.08329277 -0.041301988 0.19620581
0003c0 46 a7 76 bd fb 81 a5 bd 9a 5e b0 3d 51 d4 c7 bd
       -0.060218118 -0.080814324 0.08611794 -0.09757293
0003d0 96 53 98 3d 89 2b c3 be cb ff 04 3e 1b f6 ab 3d
       0.07437818 -0.38119152 0.12988202 0.0839655
0003e0 95 eb c9 be a8 be f4 3d fe 5e c5 3d 92 17 95 3d
       -0.39437547 0.11950427 0.09637259 0.07279886
0003f0 11 9b c2 3d b6 d8 90 bd 98 4d 3c be 21 68 c5 3d
       0.09502233 -0.07072584 -0.18388975 0.09639002

encoder.2.bias f4 [32]
000000 97 4b e9 3c a3 67 a6 bd 60 49 b5 3d db db 51 3d
       0.028478427 -0.08125236 0.08851886 0.05123506
000010 67 f5 3a bd 58 e1 7d 3d 42 d1 b9 bd 69 a5 3f bd
       -0.04564419 0.061982483 -0.09073116 -0.046788607
000020 4c 44 1c bd f9 20 fc 3d d1 35 ee 3d 12 03 34 3e
       -0.03815107 0.123109765 0.116313584 0.17579296
000030 db 7c 72 3e cb 09 40 3d 58 f3 2a bc 8e b4 65 3e
       0.23680441 0.04688434 -0.010433994 0.22432157
000040 f2 d4 65 3d be 83 a3 bd 4c 65 11 3e 5f da 56 3d
       0.056111284 -0.07984112 0.14198798 0.05245435
000050 72 7c 6a bc 88 69 27 3e 85 00 89 3d 83 19 27 bd
       -0.014311897 0.1634885 0.06689552 -0.040795814
000060 b3 cd 26 3e f0 32 34 bd 31 17 78 bc bb ce 9b bc
       0.16289406 -0.04399389 -0.015142248 -0.019019475
000070 e1 cb 75 3d f7 6d f4 3d 8a fb b6 3d 35 cb 62 be
       0.060008887 0.11935037 0.08934696 -0.2214783

encoder.4.weight f4 [2, 32, 7, 7]
000000 e1 7a cd 3d b4 1e d3 bd 31 b3 72 3e 3c a4 81 3d
       0.10033203 -0.103085905 0.23701169 0.06330153
000010 f1 fa 82 3d f6 0d 66 3c af c0 a2 be a6 11 d1 3e
       0.063955195 0.0140414145 -0.3178763 0.40833777
000020 3f db 37 3d 51 13 b3 3d 3b 85 6b 3d 3a b8 d3 3d
       0.044886824 0.08743919 0.057500105 0.10337873
000030 32 fd 9b 3e 20 bb 72 bd 05 d8 35 3e 52 14 cd bd
       0.3046661 -0.059260488 0.17758186 -0.100136414
000040 f1 c3 9b 3b eb b9 28 3d 62 9b 67 3e 4d 2c 2b 3e
       0.0047535826 0.04119293 0.22617868 0.16716118
000050 84 5c 00 bd 8c 05 f5 3e 71 bd 7c bd f1 e1 01 bd
       -0.03133823 0.47855794 -0.061704103 -0.031709615
000060 31 ae 9d bd a8 9f 4d bd ad b2 0b bc 4a 82 b5 bd
       -0.0769924 -0.05020109 -0.008526486 -0.08862741
000070 76 41 ae bc f3 27 8b bc af 64 87 3c dc e2 de bd
       -0.021271449 -0.016986823 0.016527502 -0.10883114
000080 04 33 6d be 81 52 82 3d e0 0a 31 3e 4f 8b 11 bd
       -0.23163992 0.063633926 0.17289305 -0.035533246
000090 87 f1 23 3d 25 01 58 3d e3 58 51 3e 90 95 1f 40
       0.04002526 0.052735467 0.20444064 2.4935036
0000a0 40 06 0c 3f c1 25 96 bd 5e ca aa be 37 99 c7 3d
       0.54697037 -0.0733142 -0.3335752 0.0974602
0000b0 71 3a fa 3d ce 31 ad 3c 8b 0a 0b 3e c8 77 4b be
       0.12218178 0.021141913 0.1357824 -0.19869912
0000c0 38 c0 72 3d cf 40 d2 3c 89 3c 11 be d3 fa 18 3e
       0.059265345 0.025665669 -0.14183249 0.14939432
0000d0 c5 28 d6 ba f6 a8 ae bd 28 a4 31 bf 93 a4 41 3e
       -0.0016339055 -0.085283205 -0.6939111 0.18910436
0000e0 4a c7 24 3d c3 cb a0 3d 30 68 b6 be 1c fe ec ba
       0.04022912 0.078513645 -0.35626364 -0.0018081102
0000f0 8b 21 e4 bd 56 44 90 3b 29 02 96 3c bb e1 ac 3e
       -0.1113921 0.0044026775 0.018311577 0.3376597
000100 c5 1e 13 be 07 3e 99 3b 87 15 04 3e 92 f1 0d 3e
       -0.14367206 0.0046765837 0.12898837 0.13861683
000110 56 3d 92 3d e5 21 12 bd e9 61 25 3e 7d fb 3a 3d
       0.07140605 -0.035676856 0.16150631 0.045649994
000120 74 01 91 3d 8b 93 0d be 77 4d e6 3d e0 57 41 bd
       0.07080355 -0.13825814 0.11245244 -0.047202945
000130 89 30 80 bd a2 3c b1 bd 42 f3 01 3d 84 8d d4 bc
       -0.06259257 -0.08654143 0.03172613 -0.025946386
000140 71 34 e5 3d 95 74 5e 3d c6 94 1e bd 5c b7 be 3d
       0.11191643 0.0543104 -0.0387161 0.09312317
000150 13 95 2f 3e 7c b0 7e bd 72 a8 81 3d 2e 35 0d 3e
       0.17146711 -0.062180027 0.063309565 0.13789818
000160 94 6d 99 bd ff d9 1e bd e6 96 dc bd 8a 16 7d 3d
       -0.074916035 -0.038782116 -0.10770969 0.061789073
000170 91 16 16 be 11 ad da bd 8a c7 8d be 34 95 2c be
       -0.14657046 -0.10677541 -0.276913 -0.16853791
000180 48 84 f6 be 74 f3 1c 3f eb fd 3a 3d ef 03 d4 bd
       -0.48147798 0.6130898 0.04565231 -0.10352313
000190 d5 13 b7 bd 89 dc 2b 3d 68 77 c4 bc 33 bb cb 3c
       -0.089393295 0.041958366 -0.023982719 0.024869537
0001a0 71 61 24 be ef f0 03 3e 57 89 75 bd d7 3b ad be
       -0.16052796 0.12884878 -0.05994543 -0.33834717
0001b0 67 84 33 be f3 8e d8 bd b4 22 cb bd b8 59 48 be
       -0.17530976 -0.105741404 -0.099187285 -0.19565475
0001c0 b6 9b d8 be b1 40 6f be 28 7c 94 3e 77 33 1f 3e
       -0.42306298 -0.23364522 0.29000974 0.15546976
0001d0 eb 02 ed 3d 46 0d 4b 3e 09 e9 19 3d cc a0 d1 bd
       0.11572822 0.19829282 0.037575755 -0.10235748
0001e0 6c 28 15 bd 43 9f 89 3d 8b 7f 96 3c 8a 51 4f 3e
       -0.036415502 0.0671983 0.018371364 0.20245948
0001f0 b6 c7 14 3e b0 e7 8e 3c 79 5f 25 3e 76 62 f5 3d
       0.14529309 0.017444462 0.16149701 0.119816706
000200 12 4e 3f bc ba 3f e0 3c 40 dd 90 3b ba 83 98 bd
       -0.011676328 0.027374137 0.0044209063 -0.07447
000210 90 50 ac 3d 3e 5d ac 3e ff bb 90 3a 74 e5 a8 3d
       0.084138036 0.33664888 0.0011042355 0.0824689
000220 d9 07 81 3d 9b cf 60 3b 1b ce 9e bd bf de 82 be
       0.06300325 0.003430343 -0.07754155 -0.25560567
000230 ed dd 8b ba dd 9d 7d bd 08 83 3e 3e a2 85 a8 3e
       -0.0010670997 -0.06191813 0.18604672 0.32914454
000240 20 81 f8 3e e1 66 be be 87 5a c8 3e 2c f3 3d bd
       0.48536015 -0.37187865 0.39131567 -0.046374485
000250 70 07 a9 bd 71 b6 33 bd b0 51 6d 3c 82 e1 e6 bd
       -0.08253372 -0.04387516 0.014484808 -0.11273481
000260 7d ae 2a bd 1b 9b d0 bd 20 9e 1b be dd c2 8e 3a
       -0.04167031 -0.10185834 -0.15197039 0.0010891814
000270 1b 4e c7 3d 81 34 a1 3d 46 fc 22 bc 99 d8 17 3d
       0.09731694 0.078713425 -0.009947842 0.037071798
000280 f2 4d ba 3b 55 c0 5d bd b1 66 af bd 58 af c6 bc
       0.0056855613 -0.0541385 -0.08564509 -0.024253532
000290 fc 20 61 bd d0 a7 8c 3d 28 b7 b1 3c 56 e6 05 3e
       -0.054963097 0.06867945 0.021693781 0.13076147
0002a0 88 76 e9 bd 70 87 e1 3c 8e 08 68 3e a2 76 1a bc
       -0.11399561 0.027530402 0.22659513 -0.009427698
0002b0 3c a7 fe 3c 91 a2 c3 3d 5d 57 81 3c 68 5d 03 be
       0.031085603 0.095524915 0.015788728 -0.128286
0002c0 ce f2 8b bb a9 2c 2f bd a1 89 75 bd 8b 32 52 bd
       -0.004270888 -0.0427672 -0.059945706 -0.051317733
0002d0 37 c2 3c 3d fa 85 b4 bd 31 18 a0 3c 82 9c 21 3d
       0.046083655 -0.088146165 0.019542785 0.039455898
0002e0 48 e9 18 be c0 fa b5 3d e1 94 bb 3d 43 c9 1a 3e
       -0.1493274 0.088857174 0.09159256 0.15115838
0002f0 8c 2b 34 bd ec 9a cd bd 33 8f 15 bc b4 9b 91 bd
       -0.043986842 -0.10039315 -0.00912838 -0.07109776
000300 55 ee 15 3e a9 62 1e 3e e6 cd 07 3e eb 60 b8 3d
       0.14641698 0.15467323 0.13262138 0.09002861
000310 13 81 9f bd 5d 3c f6 bd 00 05 8b be 14 5a 09 bf
       -0.07788291 -0.12023232 -0.27152252 -0.53653073
000320 9e 6d 35 be 6d 2a a1 bd dc 7b b7 bd 33 58 5b be
       -0.17717597 -0.0786942 -0.08959171 -0.21420364
000330 4a e3 75 3e 7e eb ad 3d 19 41 30 be 3e 03 b9 bd
       0.24012485 0.08492182 -0.17212333 -0.090338215
000340 c9 08 86 3d 9e bd 9b bc 5f 19 8f 3c 3c a6 1e 3d
       0.065446444 -0.019011315 0.017468153 0.038732752
000350 00 c2 d8 3a e3 f4 0f 3a d6 8e 04 3d 5b 84 d3 3d
       0.0016537309 0.0005491508 0.03236278 0.10327979
000360 f4 8b 14 3e 96 42 69 be fc 69 f9 bd 76 ea 34 be
       0.14506513 -0.22779307 -0.12178418 -0.17667565
000370 43 5a f8 3d 54 27 8a 3d 7b 87 19 3e 43 87 a0 3c
       0.12126591 0.067457825 0.14993088 0.019595748
000380 6c 65 3d be 91 e2 95 bd 10 83 af bd cc 9a a5 bd
       -0.1849572 -0.07318605 -0.0856992 -0.08086166
000390 99 a2 2a be 35 e9 e3 3d b1 c6 c2 bd 4e a7 9b bd
       -0.16663589 0.11128465 -0.09510554 -0.0760027
0003a0 5b e2 68 3d 48 c6 04 3e b5 00 80 3e 7e 3c 14 3c
       0.056856494 0.12966263 0.2500054 0.009047626
0003b0 8f 8b c0 3e 86 9a 00 3e 3f bb 15 be ab fd 06 bc
       0.37606475 0.12558946 -0.1462221 -0.00823919
0003c0 8b e4 c3 3d 67 1a a1 bc 42 7e 35 3f 38 f4 0b 3f
       0.095650755 -0.01966591 0.7089578 0.54669523
0003d0 e3 61 07 bd 9f 32 d7 bd fd 61 d6 be 41 cb a6 3d
       -0.033052336 -0.10507702 -0.41871634 0.08144236
0003e0 89 cb 3b 3e 86 94 1f 3e fc 95 8a bd 45 08 82 bd
       0.18339361 0.15584001 -0.067668885 -0.063492335
0003f0 3a 52 8b bd 71 d2 f1 bc 76 07 28 3d 25 66 99 3d
       -0.06802793 -0.029519292 0.04102274 0.07490186

encoder.4.bias f4 [2]
000000 d3 cc 49 3e 9a 8f a1 bd
       0.1970704 -0.07888718

decoder.1.weight f4 [2, 32, 7, 7]
000000 bd 64 87 bd 83 19 7f 3e af 28 ba 3e b9 43 47 3f
       -0.06611011 0.24912076 0.36359164 0.7783771
000010 11 a8 01 3f 04 f8 bb bd 66 ba 38 3f b1 ba 38 3e
       0.50647074 -0.091781646 0.7215942 0.18039967
000020 cd 3a a1 3d 01 58 5e bd a6 6d fd be e7 5c 43 bf
       0.078725435 -0.054283146 -0.49497718 -0.7631363
000030 ba 35 67 be 32 01 76 be 13 e2 8f bd 34 6b f5 bc
       -0.22579089 -0.24023893 -0.07025542 -0.029958345
000040 9b fe 27 bc e7 45 0f bf 7c b1 2c bf 56 05 6a be
       -0.010253574 -0.5596604 -0.6745832 -0.22853598
000050 46 c9 84 be bc 01 d8 bd 80 5e 1e bd fa e8 07 bb
       -0.2593481 -0.10547206 -0.03866434 -0.002073823
000060 27 9a 6c be 67 5e d1 be 4f 0d 8e be 23 29 b7 3d
       -0.2310568 -0.40892336 -0.2774453 0.08943393
000070 9b da 4f 3c 3a 40 b3 be 5c 12 f4 bc 50 95 e0 be
       0.012686397 -0.35009938 -0.02979391 -0.43863916
000080 b1 10 f0 be 52 81 ae bd f6 9b a3 be 04 09 64 bd
       -0.46887735 -0.0852076 -0.31954926 -0.05567266
000090 df d0 1a 3d 9f 6c b5 be a0 4b 39 bf 01 65 5a be
       0.03779685 -0.35434434 -0.7238102 -0.21327592
0000a0 2e 5b d0 3a 24 10 91 3d fb e2 81 be 78 33 9f be
       0.0015896314 0.07083157 -0.25368485 -0.31093955
0000b0 ef 32 56 be 09 45 10 be ff 8e ba bd 78 e1 5d bc
       -0.20917867 -0.14088835 -0.091093056 -0.0135425255
0000c0 10 40 dc bc 86 e7 00 be 96 89 c8 be f1 8b 44 3c
       -0.026886016 -0.12588319 -0.3916747 0.011996255
0000d0 df 86 01 bf ba 19 52 3f f2 a7 94 bb 18 1c c5 39
       -0.5059642 0.82070506 -0.004536622 0.000375957
0000e0 c1 92 ab bd e9 e2 27 bd fe e0 76 bb 6f 7c 6b 3e
       -0.083776005 -0.040987883 -0.0037670727 0.22996686
0000f0 ca 82 a6 3e db f7 1f bf a5 ff 9a be 65 ff 6e bc
       0.3252166 -0.6248757 -0.30273166 -0.014587258
000100 5a 8e 70 be 92 e2 64 3d fd 9d 91 be ee d5 1d bf
       -0.23491803 0.055880137 -0.28440848 -0.61654556
000110 71 fd 06 bd 6a 90 7c 3e cc ab a3 3c 8e fc 0e be
       -0.032956544 0.24664465 0.01997938 -0.1396353
000120 c9 6a 36 be f6 4f a9 3d 18 7f 35 bc be 0e c3 be
       -0.17814173 0.082672045 -0.011077665 -0.38097185
000130 21 90 88 39 71 8d b6 bd de 83 86 bd ae e2 8b bb
       0.00026047326 -0.089136966 -0.065681204 -0.0042689657
000140 b7 25 9c bb 49 2b 53 3e 0a 61 68 3c 8d 13 5c 3e
       -0.004765238 0.2062198 0.014183292 0.21491833
000150 81 e3 30 3e f3 2e 2e bc 3b 68 4b be 5e ce 20 be
       0.17274286 -0.010631311 -0.1986398 -0.15703723
000160 40 af 06 3e c3 0f 09 bc 11 47 f7 ba 33 35 6f 3c
       0.1315279 -0.008365574 -0.0018865784 0.014600086
000170 32 05 83 bd 8e 2a 00 3e d8 b0 6b 3e 4e 32 98 3d
       -0.06397475 0.12516233 0.2301668 0.0743147
000180 73 b5 77 3b 8c a4 fc bc 59 53 27 3f 89 2c 0e 3e
       0.003779736 -0.03084018 0.65361553 0.13884176
000190 94 0c 1d be b5 8a e6 be 52 0b ba be 89 ce 4d 3e
       -0.1533683 -0.450277 -0.36336762 0.20098318
0001a0 cc 10 52 3e c6 33 0f 3f 95 49 13 be 06 1f 0d be
       0.2051422 0.55938375 -0.14383538 -0.13781366
0001b0 a4 c8 ac be 6d 95 ee be df 47 0c bf 2f 25 34 bd
       -0.33746827 -0.46598378 -0.54797167 -0.043980774
0001c0 e6 b1 1c 3f 10 c1 d4 bd d3 e3 49 be 49 09 71 be
       0.6120895 -0.10388386 -0.19715814 -0.23538698
0001d0 5d aa d3 be 48 4f cf be bf 24 30 bf e9 ba 4b 3e
       -0.41340914 -0.40490174 -0.6880607 0.1989552
0001e0 23 8a 82 3c 76 d6 7c bd 8b dc 95 bd dc a2 11 be
       0.01593501 -0.061727963 -0.07317456 -0.14222282
0001f0 2c 0c c6 bd 85 a7 b2 bd 1d 1c 38 bd c1 85 0f 3e
       -0.0967029 -0.08723358 -0.044948686 0.14015867
000200 d2 d5 31 3d 2e 2f a1 be 24 ac d8 bd 98 fa 3d 3e
       0.043416806 -0.31481308 -0.10579708 0.18552625
000210 d4 72 3a be df 8e 13 3d 2b eb b6 be 5f b8 b7 be
       -0.18207866 0.036024924 -0.35726294 -0.3588285
000220 42 52 ee be ab ff b7 be 86 1a bd bb ed 58 51 3c
       -0.46547133 -0.35937247 -0.005770984 0.012777549
000230 d7 e9 c4 3e 09 20 8d 3e 3e fd 11 bc 6c c9 ff 3d
       0.38459656 0.27563503 -0.008910475 0.1248959
000240 41 33 9c 3d 5e cf d4 3d c3 f3 ad bc 30 91 64 3c
       0.076269634 0.10391115 -0.021234399 0.013950631
000250 7a 32 98 3d f7 c3 19 bc af 55 81 bc df 9c 4e bd
       0.07431503 -0.009385101 -0.015787927 -0.050442573
000260 bd 19 ef bc 55 08 62 3c af 45 58 3c 58 67 ad bc
       -0.029187078 0.013795932 0.013200208 -0.021167442
000270 e8 b7 85 bb cf 8a 41 bd ef 89 b8 bb 36 28 9c be
       -0.004080761 -0.04725152 -0.0056316773 -0.3049943
000280 76 46 75 be a3 ec 91 3b df 23 08 bc 01 e7 23 be
       -0.2395266 0.004453258 -0.008309334 -0.1600609
000290 c7 ca f9 bd bc 09 3e 3b 49 01 1a be 81 2f fa 3d
       -0.1219688 0.0028997501 -0.15039553 0.12216092
0002a0 86 c7 fa 3a ff ad 68 bc a6 12 2c be d4 ad 9b bc
       0.0019132949 -0.01420164 -0.16803989 -0.019003786
0002b0 96 d4 16 3e de b1 be bd 50 b2 62 bd 41 bb 85 3b
       0.14729533 -0.09311269 -0.055345833 0.0040811603
0002c0 f6 dc 93 bc 4f 60 80 bc 6c 88 82 bf 20 9a 3f bf
       -0.018049698 -0.015670924 -1.0197883 -0.7484455
0002d0 25 61 87 bc f3 6d 3b be ac 39 ef bb 08 a2 51 bc
       -0.016525814 -0.18303661 -0.007300576 -0.012794979
0002e0 f9 19 05 bf 62 89 e2 be b9 af ae bd 38 fa fc 3d
       -0.51992756 -0.4424544 -0.0852961 0.12352413
0002f0 3a e9 f9 bd 67 21 9c 3e 85 80 03 3e 33 2a 79 be
       -0.122026876 0.30494234 0.12841995 -0.24332504
000300 b4 cb 8d 3e 13 ff 25 3e e8 82 de 3d 68 0a 16 3b
       0.27694476 0.16210584 0.10864812 0.0022894386
000310 56 27 ec 3e 09 6e e0 3e 85 ea cf bd cc 53 ce bd
       0.4612376 0.4383395 -0.10152153 -0.10074577
000320 14 15 13 be 7a 61 06 3f 38 53 2d 3f 5e 77 ec 3e
       -0.1436351 0.5249249 0.67705107 0.4618482
000330 89 11 27 3d 03 0e 57 be 00 f8 ae 3d 5e 15 b1 be
       0.040788207 -0.21001439 0.08543396 -0.34586614
000340 81 d4 b1 3d ba b3 e1 3d ef e3 aa 3e 2d 0f 69 3d
       0.0868311 0.11020608 0.33377025 0.05689924
000350 e1 5f c8 3c 1c c5 53 be a1 09 10 bd 1a a3 c3 bd
       0.024459781 -0.2068066 -0.035165433 -0.095525935
000360 e4 10 77 3e c0 28 e0 3e 89 e3 a2 bd 17 1e 0c be
       0.24127537 0.4378109 -0.07953555 -0.13683353
000370 6c c2 08 bd b7 dc fe bc a8 60 f8 bd 60 90 20 3c
       -0.03338854 -0.031111104 -0.12127811 0.009800047
000380 4b 65 da 3e 2d 95 f9 be 9b 39 b6 bc b7 74 8d bd
       0.42655405 -0.48746625 -0.022244265 -0.06907027
000390 44 48 08 bd 49 d2 71 bc 9d ee c1 3d 8a 95 a8 3e
       -0.033272043 -0.014759609 0.0946934 0.3292659
0003a0 92 66 3e 3e f5 71 0e bd 91 52 0c be 56 5d 2d be
       0.18593815 -0.034776647 -0.13703372 -0.16930136
0003b0 54 3b f8 bc 06 6f 42 3e 46 40 cb 3e 4f de 2d 3f
       -0.030301727 0.18987665 0.39697474 0.6791734
0003c0 e5 7b bd 3e 4a 45 3f 3e f8 20 7b 3e 24 be 2c 3e
       0.37008587 0.18678775 0.24524295 0.16869408
0003d0 91 cb 42 bd 7f 00 1c 3e 1b d2 d6 3e d0 cf 0d 3f
       -0.047557417 0.15234564 0.41957173 0.5539522
0003e0 f4 63 ca 3e f3 aa 4f 3f d5 c0 f0 3e b8 61 ad 3e
       0.39529383 0.8112022 0.4702212 0.33863616
0003f0 5e 4d 2b 3e f0 81 1f 3e 51 aa d6 bc 81 aa ff 3d
       0.16728732 0.15576911 -0.02620426 0.12483693

decoder.1.bias f4 [32]
000000 71 c3 b5 3f 09 73 41 bf d2 90 d0 3e 1b 62 70 bf
       1.4200269 -0.75566155 0.4073549 -0.938997
000010 99 dd 74 bb c0 4d 40 bb e5 6c bb be a2 27 d7 bf
       -0.0037363528 -0.0029343218 -0.36606517 -1.680897
000020 76 51 32 bf af c1 11 3f b4 ab 3b be 89 60 2d be
       -0.6965555 0.5693616 -0.18327218 -0.16931356
000030 c3 92 91 be d4 66 a1 be 8a 55 9a 3e c7 50 48 3f
       -0.28432283 -0.31523764 0.30143386 0.78248256
000040 0c 61 9d be b1 b4 6b 3d 93 9e 8a bf 7e a3 7a bf
       -0.30738103 0.057545368 -1.0829643 -0.9790572
000050 6a 00 ca 3f 54 20 b9 3e 93 fb 4b bf 58 cc 65 3e
       1.5781376 0.36157477 -0.79680747 0.22441232
000060 c7 82 7f bf ac 68 8f 3d 22 78 1e bf 97 5f 65 3f
       -0.99808925 0.070023865 -0.6190206 0.89598984
000070 14 63 82 3f 99 88 50 be 2b d7 2e 3f 8f 3d 81 3e
       1.0186486 -0.20364608 0.6829707 0.25242278

decoder.3.weight f4 [32, 16, 3, 3]
000000 be 2b ac 3e b4 d6 25 3e e5 16 2c be 42 82 d2 3e
       0.33627123 0.16195184 -0.16805609 0.41115004
000010 78 74 06 3f 18 a1 42 3e 75 22 2c 3c 85 6b e5 bd
       0.5252147 0.19006765 0.010506262 -0.11202148
000020 a6 fc 2a bd 11 b3 49 be 0b 9d 73 be fa 4a 59 be
       -0.04174485 -0.19697215 -0.23790376 -0.21220008
000030 b7 7a 85 3e dc 9e 29 3e e1 13 4b 3d be 28 21 3e
       0.26070186 0.16564506 0.049579505 0.15738198
000040 ca b2 76 3e 91 1b 80 3d 72 99 c7 bd 9e 23 bb 3d
       0.2409164 0.06255258 -0.09746064 0.09137653
000050 1f 3e 79 be ee 65 86 3e 03 ff 63 3e 58 42 85 3e
       -0.24340104 0.2624964 0.22265248 0.2602718
000060 e0 29 fe 3c dc 0f 15 bc d7 a7 5f bd f7 c8 94 bd
       0.031025827 -0.009098019 -0.054603424 -0.072648935
000070 54 45 49 3d 22 2a 76 3e 38 77 75 be 84 c1 ad 3e
       0.049138382 0.2403951 -0.2397126 0.33936703
000080 e1 b9 1b bf eb fb e0 bd e6 00 7b 3d 00 83 ec bd
       -0.60830504 -0.109855495 0.061280154 -0.11548424
000090 9d 97 92 3d a4 52 9d 3e 72 15 fc bd 23 7a 24 3e
       0.07157824 0.30727112 -0.12308778 0.16062216
0000a0 e7 ec 01 3d 80 5c aa be 32 67 d4 bc 39 98 f5 3d
       0.03172007 -0.33273697 -0.025928114 0.11991925
0000b0 10 b8 a9 3e 16 af a5 be ab 7a 42 be 71 05 99 3d
       0.3314824 -0.32360142 -0.18992107 0.07471741
0000c0 da cb 11 bf 2f 91 a3 be d3 4e 3b bd 59 a6 bb be
       -0.5695168 -0.31946704 -0.04572947 -0.3665035
0000d0 fc 36 ab bc a0 37 45 3e 80 45 35 bd 23 8a aa 3d
       -0.020900242 0.192595 -0.044255733 0.08327129
0000e0 d0 8b be bc 70 7d 85 3e a1 a7 d8 3e 1f ee 8c 3e
       -0.023260027 0.26072264 0.4231539 0.27525422
0000f0 2c 5a ef 3e c6 bc 9b 3e 31 8a c8 3d 26 12 1c b9
       0.46748483 0.3041746 0.09791983 -0.0001488408
000100 60 60 85 bd af 1d 80 3d b2 cf f5 3d b7 0e 0f 3e
       -0.06512523 0.06255662 0.12002505 0.13970457
000110 43 a1 42 3e 94 3d b6 bd 91 1d 1d 3e be 39 0d be
       0.19006829 -0.08898464 0.1534331 -0.13791558
000120 42 b1 17 be 1f 86 1d bf 06 81 5e bd f1 e8 53 3d
       -0.14813712 -0.6153278 -0.054322265 0.051735822
000130 00 50 39 3e 40 47 a0 3c 0a 55 49 3e 97 d0 be bd
       0.18096924 0.019565225 0.19661346 -0.09317129
000140 5f 0b c1 3c c8 7b d7 bb ad e0 3d 3e 01 3c c3 3b
       0.023564992 -0.006576035 0.18542738 0.0059580808
000150 e5 7f 08 bf 2f 67 90 3e 77 05 fa 3e 7e 06 b6 be
       -0.5332015 0.28203723 0.48832294 -0.35551828
000160 75 17 19 be 4c fc 20 be ef 8a 0a 3b 45 96 25 3e
       -0.14950354 -0.15721244 0.002113994 0.16170605
000170 1e cd 3f be 49 4d 04 3f 16 69 2a 3f 29 b4 95 3e
       -0.1873059 0.5168043 0.665666 0.29239014
000180 49 77 14 3d dd 53 2f 3e 3b 1c 21 be 48 a3 57 3b
       0.03624657 0.17121835 -0.15733425 0.003290372
000190 d1 9c 7d 3e 00 9e c4 3d 68 67 4e 3d bc 10 a2 3e
       0.24766852 0.096004486 0.050391585 0.31653392
0001a0 4a 5c f0 3e a8 32 39 be 55 61 e6 3d 34 59 74 bd
       0.4694541 -0.1808573 0.11249033 -0.059655383
0001b0 a1 4d ec be d4 16 78 3e 0c 9e c2 bd 53 06 9f 3e
       -0.46152976 0.24227458 -0.09502801 0.31059512
0001c0 48 0c a3 bd 73 3c 76 be 11 db d8 be cd a6 e2 3d
       -0.07961327 -0.24046497 -0.42354634 0.11066971
0001d0 02 8a 3f 3d 00 14 17 be 66 df b6 3e 10 6a dc 3d
       0.046762474 -0.14753723 0.35717314 0.10762417
0001e0 d3 17 93 3d 26 b1 29 3d 07 39 3d be 8d 45 06 3e
       0.071822785 0.041428708 -0.18478785 0.13112469
0001f0 b1 0d 80 3e 00 2a 1b be 1c ae 10 3e 04 dd 33 be
       0.25010446 -0.1515274 0.14128917 -0.1756478
000200 2a 83 25 3e aa 4d 81 3e 97 01 10 3e aa de 0d 3c
       0.16163316 0.25254565 0.14063106 0.008659044
000210 1b 01 00 3e 7a dc 8a 3c e5 28 98 3d 38 bd 84 be
       0.12500422 0.016950835 0.07429675 -0.25925612
000220 6d 4a 15 be 1c 73 a0 be 5a 44 3b 3e 9e c3 4f 3d
       -0.14579172 -0.3133782 0.18287793 0.050723664
000230 b0 91 99 be e2 93 8b 3e 49 4e 96 be 17 e4 34 be
       -0.29993963 0.27261263 -0.29356602 -0.17665134
000240 3b b3 15 3e ed 49 82 bd 8b 9e 99 be b9 9d 81 3e
       0.14619152 -0.063617565 -0.3000377 0.25315645
000250 55 1a bc be e3 9b fc 3d 68 47 e2 bd a3 65 ca 3d
       -0.3673884 0.123344205 -0.11048776 0.09882667
000260 2d 83 20 3e cd 77 e3 bd d3 39 96 be 03 b3 33 3d
       0.1567504 -0.111068346 -0.2934099 0.04387189
000270 16 cc 5f 3e b6 8e 27 3e 6a 39 93 3e 95 ed e5 bc
       0.21855196 0.16363034 0.2875474 -0.02806739
000280 11 14 b3 3b b3 09 a9 be 6a 5d cc bd 9e 6f 67 be
       0.0054650386 -0.33015212 -0.09978755 -0.22601172
000290 b1 d7 6d 3d 83 1c 80 3e 6f 0b 43 3d 35 4e 5d 3d
       0.058067027 0.25021753 0.047618326 0.054029662
0002a0 c0 16 f4 bd 4e 8a 78 3e 05 be 1b be b0 a4 bd 3d
       -0.11918402 0.24271509 -0.15209205 0.09259927
0002b0 b8 d8 0b bd c7 48 08 3e f9 31 c4 3d ae 06 95 3e
       -0.034142226 0.13309012 0.09579844 0.2910666
0002c0 30 63 88 bd c7 ca 04 be 45 21 87 3e ce da 80 be
       -0.066595435 -0.12967978 0.2639257 -0.25166935
0002d0 30 ee 65 3d 08 53 d0 3c af 0b 95 3d 31 95 f9 bd
       0.056135356 0.025430217 0.07277619 -0.12186659
0002e0 a0 88 54 bd 7b 03 51 3e f5 91 8d be c7 06 b4 3d
       -0.05188811 0.20411484 -0.2765042 0.08790355
0002f0 4c ff 0e 3d 62 5d 5b bc b0 59 78 bd d7 79 1d 3d
       0.03491144 -0.013388963 -0.060632408 0.038446274
000300 fe 39 a7 be 25 0a 12 be 96 2b c8 bd 23 3c 4f be
       -0.32661432 -0.14261682 -0.09773938 -0.20237784
000310 7a 29 5d 3e 6f 6f 3f 3e ba fd 3c 3e 8b 56 57 3d
       0.21597853 0.18694852 0.18456164 0.05257277
000320 16 44 e2 3d 31 68 87 3c fc ab 2a be 33 82 1d be
       0.110481426 0.016529175 -0.1666717 -0.15381698
000330 c0 41 ae 3c e1 aa 53 3d 5d be 6f be 1f 30 74 bd
       0.021271586 0.051676635 -0.23412462 -0.059616204
000340 94 f6 34 3e 76 2d 2a be eb db 64 3d ad da 07 bf
       0.17672187 -0.16618904 0.055873793 -0.5306805
000350 4b fd ed bd 5e 76 05 bf a1 5e 95 be ea 81 7b bd
       -0.116205774 -0.5213374 -0.2917376 -0.061403193
000360 da 44 2d 3c 09 21 48 3d d6 97 11 3e 96 fc c3 bd
       0.0105754975 0.04885963 0.14218077 -0.09569661
000370 80 f7 ab 3c 91 35 24 3e 7e 9d 9f bd b9 ab 12 be
       0.02099204 0.16036059 -0.07793711 -0.1432332
000380 b1 2b 0c be 53 90 e0 3d 60 ff cd bd 2b 99 19 be
       -0.13688542 0.10965028 -0.100584745 -0.14999835
000390 ed f1 b2 3d cd 1e e9 bd 0c 5c 02 3e 3e 25 39 bf
       0.0873755 -0.11382828 0.12730426 -0.7232245
0003a0 c9 9a 34 3c 72 c1 8c be 9e 32 85 3d 7d a4 54 be
       0.011023232 -0.27491337 0.06503795 -0.20765872
0003b0 3e 9c 2c bd 60 4a 02 be d5 5c ec bc 36 1b 92 3e
       -0.04214119 -0.12723684 -0.02885286 0.28536385
0003c0 d7 d5 98 bc fc 84 49 3e fb f7 07 be 2f ff bf bb
       -0.018656654 0.19679636 -0.13278191 -0.0058592777
0003d0 17 38 05 3e 24 91 0e 3e 51 84 d1 bd 22 79 10 3f
       0.13009678 0.13922554 -0.102303155 0.56434834
0003e0 b5 aa 5f 3e b0 c9 c0 bc 1c ce b3 3d 5b 11 99 be
       0.21842463 -0.023533672 0.087795466 -0.29896054
0003f0 55 c3 13 bf 84 d5 f0 3d 3b fb 95 3e bf 07 a5 be
       -0.5771993 0.11759475 0.29293236 -0.32232472

decoder.3.bias f4 [16]
000000 fa 55 30 3e b9 e5 8e 3e 07 83 7c 3e c4 2f a0 be
       0.17220297 0.2790964 0.24659358 -0.31286442
000010 7e 87 00 bf 53 f6 a9 be ba fc f5 3e cc 5d 96 3e
       -0.50206745 -0.33195743 0.48044378 0.29368436
000020 7b f5 10 3e d6 31 9e 3e 74 d8 70 3d d6 65 84 3d
       0.14156143 0.30897397 0.058800176 0.06464736
000030 92 32 51 be ed 0d c9 be 55 82 be 3e e7 49 09 bf
       -0.20429447 -0.39268437 0.3720881 -0.5362839

decoder.5.weight f4 [16, 1, 3, 3]
000000 dc 79 ff 3e 70 b3 66 3f 6c 59 04 3f 39 cd 62 3f
       0.4989766 0.9011755 0.51698947 0.88594395
000010 04 26 a9 3f 87 40 1c 3f 4a fa 0d 3f 7b 9a 37 3f
       1.3214726 0.6103596 0.55460036 0.71720093
000020 48 12 77 3e d3 9f 01 bf e9 dd 30 bf 22 d0 ba be
       0.24128067 -0.506345 -0.6908861 -0.36486918
000030 af c2 54 bf 0b 5d 80 bf 78 73 da be dd 3a bc be
       -0.83109564 -1.0028394 -0.4266622 -0.3676366
000040 f5 57 88 be b4 cb 42 3c 31 68 42 3e 34 12 8a bd
       -0.26629606 0.011889387 0.18985058 -0.06741753
000050 30 02 44 be 27 a7 83 3e da d8 3f be 6a cd bb be
       -0.1914146 0.25713465 -0.18735066 -0.36680156
000060 4c 13 8d bd dd c3 09 bf 67 65 e4 be 6f a7 b9 be
       -0.06888446 -0.5381449 -0.44608614 -0.36260554
000070 01 22 49 bf 46 c4 20 bf 54 62 6c bf 4a d4 d9 bf
       -0.7856751 -0.6279949 -0.92337537 -1.701791
000080 26 0d 8b bf 24 d1 33 bf c6 12 95 bf 4b 0a 1a bf
       -1.0863388 -0.70241 -1.1646354 -0.60171956
000090 1a 56 4a 3e 7b 8e fc 3e 0d bc ba 3e 9c 60 11 3f
       0.19759408 0.49327454 0.36471596 0.5678804
0000a0 c0 9f 83 3f 99 74 1f 3f 6d 63 c2 3e 32 26 1c 3f
       1.0283127 0.6228729 0.3796648 0.6099578
0000b0 67 7b 96 3e 8d 00 09 bf cc be 8a bf 75 6f 3f bf
       0.29391024 -0.53516465 -1.0839477 -0.74779445
0000c0 f2 ee 96 bf 50 be ff bf b6 49 95 bf df 30 4d bf
       -1.179167 -1.9979954 -1.166312 -0.80152696
0000d0 77 bb 99 bf f3 42 13 bf ef c8 90 be b5 2a 2a bf
       -1.2010335 -0.5752403 -0.282783 -0.66471416
0000e0 d2 36 e2 be 65 04 2e bf a7 b7 9f bf 36 84 29 bf
       -0.4418245 -0.67975456 -1.2477921 -0.6621736
0000f0 96 48 cf be 54 2b 1d bf d6 8c 7a be f7 91 be 3e
       -0.40485066 -0.6139424 -0.24467787 0.37220737
000100 12 26 43 3f 2a a0 fc 3e d2 95 45 3f ed f4 9e 3f
       0.76229966 0.49340945 0.7718173 1.2418495
000110 88 51 2c 3f 01 ac 02 3f 13 e0 3a 3f 5f d3 a3 3e
       0.67311907 0.5104371 0.7299816 0.319972
000120 ae 50 49 3e 24 b2 ba bc 6f d4 9f be 58 d2 0e 3d
       0.19659683 -0.022790022 -0.3121676 0.03486857
000130 e3 8b 0d bf d0 62 3f bf 8c 87 59 be 7a a5 37 bf
       -0.55291575 -0.7476015 -0.21243113 -0.7173687
000140 ca 09 2b bf b5 12 b8 3e 22 34 4b 3f 5b 44 1f 3f
       -0.6681181 0.35951772 0.79376423 0.6221368
000150 e1 38 5b 3f 68 b0 c1 3f 70 83 7e 3f fd 68 22 3f
       0.85633665 1.513196 0.9941931 0.6344145
000160 4e 4b 7a 3f 8c d5 08 3f 94 6b a9 be e3 93 07 bf
       0.97771156 0.53450847 -0.33089888 -0.5296003
000170 59 cf a3 be 6a 3a 38 bf 05 f4 81 bf 97 84 f9 be
       -0.3199413 -0.7196413 -1.0152594 -0.4873397
000180 cb 2b a9 be a1 11 ae be 95 9f 8b bd 51 95 b4 bd
       -0.33041224 -0.33997825 -0.06817547 -0.08817542
000190 cc 6c ba be f3 13 2b be 12 bd e9 be b9 9c 70 bf
       -0.3641113 -0.16706829 -0.45652062 -0.9398914
0001a0 34 22 be be 2a fb a3 be 8f 7c 14 bf ca 76 51 be
       -0.3713547 -0.3202756 -0.5800256 -0.2045547
0001b0 da 38 23 3e 4a 1b e9 3e 84 26 c5 3e 86 88 d7 3e
       0.15939656 0.45528632 0.38505948 0.42096347
0001c0 e9 d3 54 3f 79 b8 19 3f 50 b5 a0 3e ff c9 0d 3f
       0.8313585 0.6004711 0.3138833 0.55386347
0001d0 11 d7 ad 3e d9 57 9d 3e 96 cc 31 3f 8c a3 f1 3e
       0.33953145 0.30731085 0.694528 0.4719509
0001e0 fd 0d 1e 3f f5 ff 91 3f 08 0e 28 3f 57 6f d3 3e
       0.61740094 1.1406237 0.6564641 0.41295883
0001f0 e9 ab 24 3f e1 3e 9b 3e 55 fa b6 3e d4 1f 68 3f
       0.64324814 0.3032141 0.35737863 0.90673566
000200 57 67 24 3f a8 bb 6e 3f 58 26 e7 3f 63 85 8a 3f
       0.64220184 0.9325509 1.8058577 1.0821956
000210 5a da 2e 3f 81 38 87 3f b4 2b 04 3f af 5b ae 3e
       0.6830193 1.0564119 0.51629186 0.34054324
000220 10 d6 47 3f 81 dc 05 3f a9 8d 4b 3f 97 c0 b5 3f
       0.7806101 0.5228959 0.7951303 1.4199399
000230 16 fa 52 3f 8f da 0f 3f bd a3 5b 3f 9a 39 d7 3e
       0.8241285 0.5619287 0.8579672 0.42036134
