02-Autoencoder/01-PT-MNIST-basic/cnn-autoencoder.pth (torch, 67265 bytes, 11 tensors)

encoder.0.weight f4 [16, 1, 3, 3]
000000 dc 63 c3 3e 2b 2d 13 3e 72 b6 ea be c3 00 5d 3b
       0.38162124 0.14372699 -0.4584232 0.0033722378
000010 3b 4f 1c be 51 71 a0 bc 0f 94 d0 bd 89 f4 be 3e
       -0.15264599 -0.019585283 -0.1018449 0.3729594
000020 13 6b 49 3e 7b 7a cd be 22 02 2e be 7f e1 9e be
       0.19669752 -0.40132508 -0.16993001 -0.31031415
000030 4d 17 ab 3e 61 67 91 3e 91 b5 91 3e d3 08 1a 3e
       0.33416215 0.28399184 0.28458837 0.15042429
000040 0c e7 0c bc 03 f1 61 bc 8b 6d 15 be 4e 6b 31 be
       -0.008600008 -0.013790372 -0.14592569 -0.1732609
000050 7a 2c b6 3e ac af b2 be 31 42 84 bd 74 8e 03 3f
       0.35580808 -0.34899652 -0.064579375 0.5138924
000060 54 3b e5 be 68 ee 3f bc 89 a3 71 3e 8f 41 85 bd
       -0.44771826 -0.011714555 0.2359754 -0.06506645
000070 7f 85 04 3f d7 43 e7 be eb 6d 75 3e a5 f1 a2 3e
       0.517662 -0.45168945 0.23967712 0.31824985
000080 5e fc cc be b5 27 87 be dd 37 c0 3d 13 e0 35 bd
       -0.4003629 -0.26397482 0.09385655 -0.044403147
000090 f5 d6 31 bf 36 d6 f9 be 71 a8 13 be 2d e0 c2 be
       -0.69468623 -0.48796242 -0.14419724 -0.38061658
0000a0 5f b7 4d be 13 57 f3 bc dc 58 b5 3e a3 c5 42 3f
       -0.20089482 -0.029704606 0.35419357 0.7608282
0000b0 e2 9e 11 3f 96 61 e6 be f6 02 0f 3f a1 29 88 be
       0.5688306 -0.44996327 0.55863893 -0.2659426
0000c0 f8 a5 70 be 14 f5 d3 3e 1f 26 18 be 9d 21 b4 be
       -0.23500812 0.41397917 -0.14858292 -0.35181895
0000d0 cb c1 2f 3e 2b 48 a8 bc 6e 1b a3 bd a7 45 9f 3e
       0.1716377 -0.020542225 -0.07964216 0.31107828
0000e0 86 d7 95 3e 73 ae 1b bd 64 56 5c 3d 02 c3 8d be
       0.29265994 -0.038008165 0.053793326 -0.27687842
0000f0 7e 75 60 3e f4 b1 1e 3d 10 7b 38 be df 0e eb 3c
       0.2191982 0.038743928 -0.18015695 0.028693615
000100 d6 eb 04 bc 60 c0 a6 bd 1e 3e 03 3e 51 99 02 3f
       -0.008112868 -0.08142161 0.12816665 0.5101519
000110 2b 68 10 3f 83 69 77 be 8b 42 01 bf 8e f9 11 bf
       0.5640895 -0.24161343 -0.5049216 -0.57021415
000120 81 ac a1 3e 98 5c 2b 3d db 27 fd be 53 a2 a0 bd
       0.31576923 0.04183635 -0.4944447 -0.07843461
000130 c9 73 7e 3e e4 00 a1 3d 6b dc 91 bf fb 05 1c bf
       0.24848856 0.07861498 -1.1395391 -0.60946625
000140 4a a6 b1 bf d6 20 37 be 9e 19 fe 3e 33 12 94 3e
       -1.3878872 -0.1788362 0.4962892 0.28920135
000150 e2 3a ac bd 1f 3c 16 3e 8e 2e 35 3e c4 0d 7f 3b
       -0.084096685 0.14671372 0.1769354 0.0038918117
000160 c6 8b 7d 3e 96 83 86 3e 90 5e 93 3d 5e 5f 9d be
       0.2476035 0.26272267 0.07195771 -0.30736822
000170 2a b7 9c 3d d9 da 90 bd cb f0 87 3d a5 38 28 3e
       0.07652123 -0.07072992 0.066377245 0.16427858
000180 a7 58 97 3d 96 94 10 3e d0 00 ba 3e b4 b5 3a 3f
       0.07389956 0.14119181 0.36328745 0.72933507
000190 30 2b 08 bf a7 4c 0c bf 19 86 d4 3e 66 0f 36 be
       -0.531909 -0.5480446 0.41508558 -0.17779312
0001a0 d8 d8 55 3e 62 2e 6f 3c 7f e3 a7 be da 72 79 bf
       0.208835 0.014598461 -0.32790753 -0.97440875
0001b0 78 14 13 3e c1 00 e3 be e6 f5 3c bf 7b 6c a1 3e
       0.14363277 -0.44336513 -0.7381271 0.31528077
0001c0 6d 7c 0b 3e d1 bd df be bc f6 23 3f ff fa d8 3e
       0.13621683 -0.43699506 0.6404836 0.42378995
0001d0 63 1f 00 3d 3f cc 37 bf c1 32 5a bd a2 88 ac 3e
       0.031279933 -0.7179603 -0.05327106 0.33697993
0001e0 a3 fa cd bd f1 e6 f9 3c f3 76 63 3e 5a 93 c6 3c
       -0.10057571 0.03050563 0.22213344 0.024240185
0001f0 81 39 4d 3d f5 ca 77 3e 71 67 72 3d 86 82 dc 3c
       0.050103668 0.24198516 0.05918068 0.026917707
000200 bb 95 47 3e 47 88 26 3e d2 24 4f 3e 87 d7 37 bc
       0.19490711 0.16262923 0.2022889 -0.011220819
000210 24 b3 0c 3e 37 71 7a 3e 67 9f 10 bc 79 65 27 3d
       0.13740212 0.2445725 -0.008827067 0.040868256
000220 01 dd 09 3f 7b 3f 1c 3f f3 6a 70 be 42 b6 72 3e
       0.5385285 0.61034364 -0.23478298 0.23702338
000230 e4 d6 12 3d 2e a3 f1 bf a7 bf 8e bf 59 5e 9c bf
       0.035849467 -1.8877923 -1.1152238 -1.2216293

encoder.0.bias f4 [16]
000000 9e f9 04 ba 47 0e b4 bb b3 12 a2 b9 62 e4 88 bb
       -0.0005072596 -0.005494866 -0.0003091298 -0.004177616
000010 f5 c8 36 3c bc e8 58 bb b6 26 39 bb 07 67 53 3d
       0.01115631 -0.0033097705 -0.0028251833 0.051611926
000020 51 cc c6 3e fe 6f 12 bf 6d 00 18 bb bb 1d 05 bb
       0.38827756 -0.57202137 -0.0023193613 -0.002031191
000030 c3 9e 9a bb 21 31 96 bb d5 d0 bf 3a 8b 75 0b 3a
       -0.004718633 -0.0045834933 0.001463438 0.00053199445

encoder.2.weight f4 [32, 16, 3, 3]
000000 9f b4 f9 be b2 73 8f be 8f c9 0f 3e bb 9e 85 be
       -0.48770615 -0.28017956 0.14041732 -0.26097664
000010 7b 68 b6 bc 05 89 a0 3d a1 e1 0f bf b0 78 c2 3e
       -0.022266617 0.078386344 -0.5620366 0.37982702
000020 21 6c 07 3f 24 8c 6d 3e 53 7e e2 be 8f ff 79 be
       0.52899367 0.2319799 -0.44237003 -0.24413894
000030 d7 31 bc be 4e c8 22 bf 2e 1c 05 bd e9 91 34 bf
       -0.36756775 -0.6358689 -0.032497577 -0.7053514
000040 04 e3 b9 be 44 34 05 3e 3d c9 09 be 8f ef 9c bc
       -0.36306012 0.13008219 -0.13455673 -0.0191572
000050 8d b8 94 3d 7d 0b 33 3e c0 73 28 3e c2 07 f0 3d
       0.07261763 0.17484851 0.16450405 0.1172023
000060 9b ce f0 3d 75 a0 0b 3e 0f db d4 3e d6 6b 9d be
       0.11758157 0.13635428 0.41573378 -0.30746335
000070 b3 cd 4e 3d 9e ca 9b 3e c7 97 4a 3e 5b 0c 66 3e
       0.05048914 0.30428022 0.19784461 0.2246565
000080 d0 7f fc 3e 04 2e 6b 3e 85 12 b3 3d ba fe a3 3e
       0.49316263 0.22966772 0.08743767 0.32030278
000090 72 36 ed 3e 5d 55 d9 bd a5 51 68 be 47 9f b2 be
       0.463306 -0.10611985 -0.22687395 -0.34887144
0000a0 12 a7 f6 be e1 cf 7c be 09 e4 3c bf 57 aa 37 bf
       -0.4817434 -0.24688675 -0.73785454 -0.7174429
0000b0 20 c6 c8 be 51 9f 8c be 88 6f 39 3e 4f 05 f6 3e
       -0.39213657 -0.274653 0.18108952 0.48050925
0000c0 26 c0 e7 3e 8e 83 86 3e dc b0 aa 3e 73 8a f0 3e
       0.45263785 0.26272243 0.33338058 0.46980628
0000d0 d6 a6 0d 3e 25 8e 76 3f 7e 85 0c be a7 84 63 3e
       0.13833174 0.96310645 -0.13722798 0.22218572
0000e0 c4 c5 eb 3e 6a 23 04 be c9 9e 41 be 56 89 19 3e
       0.4604932 -0.12904134 -0.18908228 0.14993796
0000f0 29 71 27 bf 84 0a 50 be 77 bb 6a 3c 5d ed 37 be
       -0.65407044 -0.20316511 0.014326922 -0.1796164
000100 67 03 02 bf 16 3a 08 bf 11 ad b8 be 33 19 51 bf
       -0.5078644 -0.5321363 -0.3606954 -0.81679076
000110 71 f3 f5 be 21 57 37 3e 1b 1c a6 3e 14 15 54 3b
       -0.48037294 0.17904331 0.32443318 0.0032361196
000120 5b 73 17 3e 9f e6 06 3f 1e 76 2f 3e ab 8c af 3e
       0.14790098 0.5269565 0.17134902 0.3428701
000130 a4 ad 29 be 24 27 c3 be 57 54 a8 3e fd bb 03 3e
       -0.16570145 -0.381158 0.32876846 0.1286468
000140 7e a1 b8 be bc 59 03 bf 45 f1 cf bd 50 86 62 3e
       -0.3606071 -0.513088 -0.101534404 0.22121549
000150 ca 49 40 bf a5 75 63 be 29 e4 cd 3e d0 01 ab be
       -0.75112593 -0.22212847 0.40213135 -0.3339982
000160 b3 d5 b9 3a 14 bf e5 3e ee 37 51 3e 71 6a 30 3e
       0.0014178067 0.44872344 0.20431492 0.17228104
000170 a9 1c 0a be ad 2d c7 bd 38 9d 67 3d 6c d2 32 3e
       -0.13487495 -0.09725509 0.05654642 0.17463082
000180 0c c8 18 be 52 96 41 be c1 f8 99 3e 7b 35 62 bd
       -0.14920062 -0.18904999 0.30072597 -0.055226784
000190 de 9a af 3e 6e d8 42 3d 12 e9 31 bf a6 94 e5 be
       0.34297842 0.047569685 -0.6949626 -0.44839972
0001a0 c0 d3 70 3f 9d c9 f4 bf 85 ad 80 be f2 cc 04 3f
       0.94073105 -1.9124027 -0.25132385 0.5187522
0001b0 3c 0d 1f 3b 81 cb bf bf fe eb c6 be 7d 45 ac be
       0.0024269363 -1.498398 -0.38851923 -0.33646765
0001c0 f6 2a 96 be 5b 9e f6 bc c1 be 29 c0 21 25 27 3d
       -0.29329652 -0.030104807 -2.6522677 0.040806893
0001d0 06 1d 0b 3e fc 06 c7 3e 04 c5 be 3e db 42 5f 3e
       0.1358529 0.38872516 0.37259686 0.21802847
0001e0 0e 78 39 be 9d 00 00 3d 9e f9 f2 bd 80 0b 90 be
       -0.18112203 0.031250585 -0.11864017 -0.28133774
0001f0 e2 94 a4 bb 24 72 a7 3d f7 0e 8c bd a2 dc 0f be
       -0.005022631 0.081760675 -0.06838792 -0.14049008
000200 f4 f0 06 3d a3 97 0b bf ba 15 2f bd 64 5b cc 3e
       0.032944635 -0.54528254 -0.04274533 0.39913476
000210 93 29 35 bf 62 00 a5 bd ad 72 a3 3e f8 77 8c bd
       -0.7076656 -0.08056714 0.31923428 -0.0685882
000220 de 8f 19 be 75 81 0a bf 37 fd a8 bd 5b 3f 96 bf
       -0.14996287 -0.54103786 -0.08251422 -1.1738085
000230 d1 f1 7a bf ac fe b9 3e 7e e9 e0 bd 93 9a 46 bf
       -0.9802523 0.36327112 -0.10982035 -0.7757961
000240 77 b7 ab 3d e1 e3 c1 3d 62 0c fd bd d2 35 8c 3d
       0.083846025 0.094672926 -0.123558775 0.06846203
000250 52 8e 76 bd 1a fe 01 be cc 8f ec bd 7a 0a 9f bd
       -0.06019432 -0.12694588 -0.115508646 -0.0776567
000260 22 1e 72 be 16 f3 f0 3d a9 0d d9 3d e9 87 30 3d
       -0.23644307 0.11765115 0.105983086 0.043098364
000270 4a ab 93 bd a5 05 a6 bd ee 5f 8b 3d 27 be 1e 3d
       -0.07210405 -0.08106545 0.068054065 0.038755562
000280 cf 90 78 be ea ec 7b 3e fb 43 26 3d 08 ce 80 be
       -0.2427399 0.24602094 0.040592175 -0.2515719
000290 e5 1d 9e 3d 1e c6 a6 3d a7 20 09 be 28 29 be 3d
       0.07720546 0.081432566 -0.13391362 0.09285194
0002a0 7e 57 1e bf a1 6e 2f 3e 0d e8 43 3d 6e 87 75 be
       -0.6185225 0.17132045 0.047828723 -0.23977444
0002b0 21 de 90 bd 46 89 4a be b6 b3 1a 3e e6 df 8f bd
       -0.07073618 -0.19778928 0.15107617 -0.07025127
0002c0 8d e3 93 be 40 01 91 bc d5 10 a5 bd 16 f6 e3 bd
       -0.28884545 -0.017700791 -0.08059851 -0.111309215
0002d0 cd be 3b bd 85 a6 61 3d 6e 96 f4 3d 1d df 8a bc
       -0.04583626 0.055090446 0.11942755 -0.016952092
0002e0 61 43 a1 bd d3 23 8b 3e 87 8d 22 be 11 bb ba bd
       -0.0787418 0.2717577 -0.15874301 -0.09117711
0002f0 22 35 00 3c cd 2a 23 3d 97 09 f2 be 44 47 62 bf
       0.007825168 0.03983574 -0.4727294 -0.8838999
000300 b0 58 99 3d cd 55 a8 3e 49 5d 2b bd 0c 5a 97 be
       0.07487619 0.3287796 -0.04183701 -0.29560888
000310 7d 37 90 be 44 54 5d 3e 57 52 39 bb 92 bf c9 bd
       -0.28167334 0.21614176 -0.0028277838 -0.09850992
000320 72 80 9c bd f1 96 d9 3d f4 25 32 3e 9c 3b e3 3d
       -0.076416865 0.10624493 0.1739729 0.11095354
000330 e3 54 91 bd b4 1d bc 3b 5b 04 ec 3c 95 aa ea bc
       -0.07096269 0.0057408456 0.02881067 -0.028645793
000340 db 71 97 bd 91 06 f5 3d be 39 70 3e e7 97 10 bd
       -0.07394763 0.11964143 0.23459527 -0.035301115
000350 8d b9 ba bd 9d 6d ae 3c 3e c3 0b bd e5 2d 35 3e
       -0.09117422 0.021292502 -0.034121744 0.17693289
000360 fb 62 aa be 9f a1 11 be 20 54 bd bc a3 0f 85 3d
       -0.3327864 -0.1422181 -0.023111403 0.06497123
000370 04 af 1c be d8 ab d3 bd c9 b1 6b 3e 60 4c 90 3d
       -0.15301138 -0.10335511 0.23017038 0.070458174
000380 86 93 8a bd 8c 6d 0a 3e 12 b5 81 3c e0 a0 0c 3e
       -0.06766419 0.13518351 0.015833411 0.13733244
000390 b1 88 9e 3e a9 61 2d bc 33 36 7a 3d 81 a9 41 bd
       0.30963662 -0.010582366 0.061086845 -0.047280792
0003a0 d4 07 e4 bd 4e 09 a9 3e 6c a2 f9 3d 96 14 0f bd
       -0.111343056 0.3301491 0.12189183 -0.03493174
0003b0 19 0a 93 3c 50 eb b2 3d 04 7d 8d bd 97 ab 3a 3e
       0.01794915 0.087362885 -0.069086105 0.18229519
0003c0 22 d7 1e bd 2d c4 a2 bd d3 99 90 3d d3 c1 15 be
       -0.038779385 -0.07947574 0.0706059 -0.1462472
0003d0 7c da f7 3c 78 e0 c3 be 4d 4e 3b 3e b3 a2 7f 3d
       0.030255549 -0.38257194 0.18291588 0.06241102
0003e0 a4 47 cc be 56 6c f0 3d 28 4b b4 3d 8a 11 1d 3e
       -0.39898407 0.117394134 0.088033974 0.15338722
0003f0 68 a8 ee 3d 23 c7 e9 bd b5 7a 27 be a6 ad 9a 3d
       0.11653215 -0.114149354 -0.16355403 0.07552652

encoder.2.bias f4 [32]
000000 4d 9b f5 3c 5d 01 8d bd b3 9f a5 3d e8 0f 7b 3d
       0.02998128 -0.06885026 0.08087101 0.061294466
000010 da 5f 16 bd 3a 36 a8 3d 20 5b 75 bd 75 76 5e bd
       -0.036712505 0.08213468 -0.059901357 -0.05431219
000020 43 cb f0 bc 7e b3 ce 3d 11 90 14 3e 37 fb 3e 3e
       -0.029393798 0.10092829 0.14508082 0.18650518
000030 02 26 72 3e 67 64 62 3d e2 13 f6 3b 52 c4 72 3e
       0.23647311 0.055271532 0.0075096944 0.23707703
000040 c3 5d 97 3d da d8 bc bd 2d dd 1d 3e a1 d2 80 3d
       0.073909305 -0.09221049 0.15416403 0.06290174
000050 5b 64 b7 3b 10 77 1d 3e 3f df bc 3d dd ff 5f bd
       0.00559668 0.1537745 0.09222268 -0.05468737
000060 39 14 2d 3e 3e 07 78 bd e6 e6 03 bc 94 f7 8b bc
       0.16902246 -0.06055378 -0.008050656 -0.017085828
000070 d2 47 9d 3d 48 8e e1 3d aa 2a a8 3d d2 98 6f be
       0.07679714 0.11013466 0.082112625 -0.2339814

encoder.4.weight f4 [2, 32, 7, 7]
000000 d7 82 0c 3e 23 5d 25 be 13 ee 5b 3e e4 3d 8e 3c
       0.13721786 -0.1614881 0.21477537 0.017363496
000010 0e 28 24 3d 30 d7 e4 3d 63 29 94 be b3 e8 a0 3e
       0.04007726 0.11173856 -0.28937826 0.31427535
000020 a7 32 fd 3c f9 f3 d9 3d fa a5 91 3d 6c af 91 3d
       0.030907942 0.10642237 0.07111736 0.07113537
000030 0a 8a 99 3e 1e 5f 81 bd 84 de 0e 3e 8c 11 20 be
       0.29988128 -0.0631697 0.1395207 -0.15631694
000040 a8 4d 48 bc 07 d1 ed 3c 86 b2 79 3e 4f 1b 3a 3e
       -0.012225546 0.029030336 0.24384508 0.1817448
000050 0b e6 3a 3d cf c5 d6 3e 97 67 72 bd 06 45 84 bc
       0.045629542 0.4194779 -0.059180822 -0.016146194
000060 54 76 d9 bd ab 8c 01 bd 0c c3 23 bc 69 48 85 bd
       -0.106182724 -0.031628292 -0.009995233 -0.06507952
000070 5b 10 16 3c 46 a4 3c bd bb 20 44 3b e7 38 d7 bd
       0.009159173 -0.0460551 0.0029926735 -0.105089
000080 58 52 5b be 95 76 c7 3d 57 78 4d 3e 75 a1 c8 3c
       -0.2141813 0.097394146 0.20065437 0.024491051
000090 2d d8 80 3d 95 ed 26 3d d3 f2 4c 3e f9 82 2b 40
       0.06291232 0.04075392 0.20014505 2.679869
0000a0 21 59 2f 3f b8 cf 72 bd 68 33 7b be c0 e3 9b 3d
       0.68495375 -0.059280127 -0.24531329 0.07611799
0000b0 1b dc 01 3d ca 01 e5 bd 96 4b 20 3c f6 d0 4c be
       0.03170405 -0.11181982 0.009783646 -0.20001587
0000c0 03 10 2c 3d 23 67 bf 3c b7 36 57 be 33 6b 2c 3e
       0.042007457 0.02336461 -0.21016966 0.16837768
0000d0 8d ba 6e 3b a1 b7 a6 bd 4f 4e 59 bf 3e 9d 94 3e
       0.003642711 -0.08140493 -0.84885114 0.29026216
0000e0 92 3d 20 3e 9d ab c4 3d f5 d1 95 be 7f 28 0b 3d
       0.15648487 0.09603045 -0.29261747 0.033974167
0000f0 60 f7 d3 bd 1e cb 2e bd 34 f3 ed b8 c6 fd 8b 3e
       -0.103499174 -0.042674176 -0.00011346341 0.2734205
000100 a3 78 40 be ab e6 98 bc d0 cb f7 3d 52 b1 10 3e
       -0.1879602 -0.018664679 0.12099421 0.14130142
000110 c5 83 14 3d ab 53 07 bd 4d a6 31 3e d8 f6 09 3d
       0.036258478 -0.033038776 0.17348595 0.033682674
000120 30 60 7b 3d 40 2f 0f be dd 21 06 3e 8d aa 20 bd
       0.06137103 -0.13982868 0.13098855 -0.03922515
000130 b0 78 94 bd 0a 14 ed bd 0a fe ac 3c b6 e7 5e bd
       -0.07249582 -0.11576088 0.021117229 -0.054420196
000140 b4 1e bf 3d cd 54 cd 3c 69 7b 56 bd 72 02 f2 3d
       0.09332028 0.02506485 -0.052363787 0.11816873
000150 22 45 13 3e ba 5b 71 bd dd 7e 5b 3d c3 b3 0b 3e
       0.14381841 -0.058925368 0.053587783 0.13642792
000160 dc 73 50 bd 2c f9 e5 bc b9 76 c8 bd ab 9d 28 bc
       -0.050891742 -0.028072916 -0.097882695 -0.010291497
000170 48 f2 00 be 20 af fa bd 79 d2 97 be a5 bb 21 be
       -0.12592423 -0.12240434 -0.29652765 -0.15794237
000180 e2 1b dc be a1 81 1b 3f 1a 74 6f 3d ef 41 64 bd
       -0.42990023 0.60744673 0.058460332 -0.05572694
000190 2e b6 ff bd 20 23 d6 3c cd a0 13 bc 36 d3 18 3c
       -0.1248592 0.026139796 -0.009010506 0.0093277
0001a0 74 b7 0f be cb 99 70 3d cb 8d ad 3d 64 cb fc be
       -0.14034826 0.05874042 0.084743105 -0.49373925
0001b0 99 c3 58 be 29 63 07 be b7 06 77 bd 7f ac 90 be
       -0.21168365 -0.1322142 -0.06030914 -0.28256604
0001c0 95 8b c6 be d4 85 8d be bb dd 88 3e 37 fb 0d 3e
       -0.38778368 -0.27641165 0.26731667 0.13865362
0001d0 44 04 c8 3d 47 00 3e 3e aa 49 dd 3c ac 19 a7 be
       0.097664386 0.18554793 0.027012665 -0.32636774
0001e0 3b 7c 64 bd 62 1e 95 3d 66 d1 6b bc 7e c4 39 3e
       -0.055782538 0.07281186 -0.014393186 0.18141362
0001f0 05 38 f8 3d 76 7b 4d bd 2a 2b 94 3e ac fd 0c 3e
       0.1212006 -0.05016657 0.28939182 0.13768643
000200 55 3d b5 bc c0 78 1a 3d 3c 17 7f 3c 07 5b 9d bd
       -0.022123972 0.037712812 0.015569504 -0.07683378
000210 cb d7 b1 3c 35 8b bc 3e 1c 6d 57 bc 39 89 5d 3d
       0.021709343 0.36824957 -0.013148572 0.054085944
000220 4c 1f 4b 3b b7 97 c2 bb be b4 66 bd 20 2e 52 be
       0.0030993996 -0.005938496 -0.056324713 -0.20525408
000230 c4 9f 02 3b 8a 83 98 bd b6 ea 32 3e 37 94 ad 3e
       0.0019931654 -0.07446964 0.17472348 0.3390214
000240 fd 64 16 3f 68 36 d9 be 2c 4b 0d 3f 51 44 45 be
       0.58747846 -0.4242432 0.5519283 -0.19264342
000250 d8 c1 33 be 16 89 9d bd 31 e4 26 bc 64 7a 08 be
       -0.17554414 -0.07692163 -0.010186241 -0.13327938
000260 2f e0 af bd b7 6b 18 be 48 29 82 be 62 b1 22 bb
       -0.085876815 -0.1488484 -0.2542212 -0.0024824967
000270 2d f7 a2 3d 82 96 97 3d 0e 0f 46 bc df db 16 3d
       0.07957301 0.07401754 -0.01208855 0.03683078
000280 a8 3e 16 3b 4b 00 ff 3d ac 66 dc bb 2f 6d a5 3c
       0.002292553 0.12451228 -0.0067261066 0.020193664
000290 77 51 26 bd a6 7c ad 3d fa 3c 33 bb 04 1a 0d 3e
       -0.040605035 0.084710404 -0.0027349577 0.13779455
0002a0 26 6b a5 3d 10 cf 1d 3c 3e a1 33 3e 66 f6 ca bb
       0.080770776 0.009631887 0.17541978 -0.0061939238
0002b0 ab db da 3c 59 03 aa 3d c5 de 12 3d c8 8e ee bd
       0.026716074 0.0830142 0.03585698 -0.11648327
0002c0 b7 e7 08 bc 58 bf 53 bd f8 5d 42 bd b7 3b ef bc
       -0.008356026 -0.05169615 -0.047452897 -0.029203279
0002d0 7e c3 07 3d 58 80 b6 bd 9f 44 8e 3e e2 38 c3 3c
       0.03314542 -0.089111984 0.2778673 0.023830835
0002e0 25 95 28 be 15 76 a5 3d fe 91 d5 3d d6 8d 16 3e
       -0.16463144 0.08079163 0.104282364 0.14702544
0002f0 42 22 a7 bd dd d9 f9 bd d3 01 e8 bc c9 94 c3 bd
       -0.08160831 -0.12199757 -0.028321182 -0.09549863
000300 c9 54 e3 3d b8 7a 25 3e 22 17 e4 3d d8 35 b1 3d
       0.11100156 0.16160095 0.11137225 0.08652848
000310 64 34 91 bd 8f 63 b6 bb 54 09 81 be 7c 47 0b bf
       -0.07090071 -0.0055660675 -0.2520243 -0.5440595
000320 ab 93 5c be 58 93 c3 bd d3 9d 15 bd 0a 1f 55 be
       -0.21540706 -0.09549588 -0.036527466 -0.20812622
000330 fc 66 6b 3e 26 83 9a 3d 48 93 35 be b7 a1 ce bd
       0.22988504 0.07544546 -0.17731965 -0.100894384
000340 27 55 f4 3c bf 7a 40 bd bb 62 e9 3c ad 04 1b 3d
       0.02982576 -0.04699206 0.028489461 0.037846256
000350 d3 e0 5b 3c 0f 1f 08 3c 90 2e 48 3c bc cf a8 3d
       0.0134203015 0.008308186 0.012218133 0.08242747
000360 c6 1c 00 3e 76 b9 5a be 5c bd d9 bd df 3e 21 be
       0.12510976 -0.2135981 -0.106318206 -0.1574664
000370 b2 5a e1 3d 97 b1 bc 3d 20 a8 0b 3e c3 84 13 3c
       0.11003627 0.0921356 0.13638353 0.009003821
000380 ac 8a 37 be 31 c3 89 bd 49 ca a8 bd e4 f8 15 be
       -0.17923993 -0.06726683 -0.08241708 -0.14645725
000390 e5 8a 42 be 66 24 c9 3d ba c1 b4 bd ab 4a 9a bd
       -0.18998297 0.098213956 -0.08826013 -0.07533773
0003a0 f2 2b 59 3d 42 77 02 3e 00 b6 a1 3e 65 53 58 bc
       0.053020425 0.12740806 0.31584167 -0.013203477
0003b0 c4 b1 97 3e 6e 6a 0a 3e bd 3a 1c be 8d ec c1 bb
       0.29627812 0.13517162 -0.15256782 -0.0059180916
0003c0 55 b4 e0 3d 52 4f 16 3d 1d 1d 37 3f c3 a7 03 3f
       0.109718956 0.03669674 0.715288 0.5142786
0003d0 e1 b0 71 bd 7b e7 c3 bd b6 c3 f5 be 4b 8a 2e 3e
       -0.059006575 -0.09565636 -0.48000878 0.17044942
0003e0 fa a0 22 3e 4a f1 dc 3d 5a 62 94 3c 1b 6e 3e bd
       0.1588172 0.1078821 0.018113304 -0.046491724
0003f0 f8 a9 7d bd 2d 33 75 bc 8b ca b8 3c e0 a6 42 3d
       -0.061929673 -0.014965815 0.022557518 0.047522426

encoder.4.bias f4 [2]
000000 b0 be 5f 3e 06 3f a5 bd
       0.21850085 -0.080686614

decoder.1.weight f4 [2, 32, 7, 7]
000000 73 db 8c bd c6 86 26 3e 1d af bf 3e 03 99 46 3f
       -0.06877794 0.1626235 0.37438288 0.7757723
000010 a3 90 1e 3f 5b 4a 8b bd e7 28 56 3f f1 58 de 3d
       0.6193945 -0.068012916 0.8365616 0.10856808
000020 08 d4 3c 3d 08 16 69 bd bb 17 03 bf 8b 4a 47 bf
       0.046100646 -0.056905776 -0.51208085 -0.7784812
000030 09 ef 64 be e4 33 85 be 8b 13 c4 bd 4e a6 db bc
       -0.2235681 -0.26016152 -0.0957404 -0.026812699
000040 75 89 55 bc c8 ba 14 bf be 97 36 bf 4a 31 84 be
       -0.013033261 -0.58097506 -0.7132529 -0.25818855
000050 09 e0 96 be 0e a4 0e be 54 e2 32 bd 25 4d 47 bc
       -0.294678 -0.1392977 -0.043672875 -0.012164389
000060 9c 14 81 be 83 33 d5 be 8e 5b 96 be 47 ad b3 3d
       -0.25211036 -0.41640863 -0.29366726 0.087732844
000070 c5 dc 70 3d bc 17 a4 be c5 75 d5 bc ef da e9 be
       0.058804292 -0.32049358 -0.026057133 -0.45674846
000080 85 1b 07 bf 18 96 c3 bd b3 6d b0 be 67 64 ee bc
       -0.52776366 -0.095501125 -0.34458694 -0.02910061
000090 c8 b9 32 3d bd f1 c0 be dc 57 4b bf ab 47 64 be
       0.043634206 -0.37684432 -0.7943094 -0.22292964
0000a0 9c a0 27 3c 24 81 60 3d 61 1a 8b be 4f ba 9b be
       0.010231163 0.054810658 -0.27168563 -0.3041558
0000b0 4a b4 63 be 1b 5e 16 be f9 fc c6 bd 7d 51 e0 bc
       -0.22236744 -0.14684336 -0.097162195 -0.027382607
0000c0 73 d6 c0 bc 45 ad eb bd 47 51 d7 be cc ec 32 3c
       -0.023539757 -0.11507658 -0.42054197 0.010920715
0000d0 a0 a3 d8 be 89 05 59 3f a3 e1 51 3e 5e 61 fd be
       -0.42312336 0.8477407 0.2049623 -0.49488348
0000e0 8d 06 ac bd 75 93 5b bd a4 be 60 bb 76 75 6e 3e
       -0.08399687 -0.053607423 -0.0034293318 0.23286995
0000f0 8a b3 af 3e 77 58 e1 be 41 b2 a2 be 9f 89 86 3d
       0.34316665 -0.44012806 -0.31776622 0.06569218
000100 12 a7 6b be 44 93 72 3d 3d 9d a6 be b3 9b 52 bf
       -0.23012951 0.059222475 -0.32541838 -0.8226883
000110 4d c7 f5 bc 5a 50 89 3e 5a d5 cf 3c 44 e1 13 be
       -0.03000226 0.26819116 0.025370289 -0.14441401
000120 6e 8c fc bd b3 36 91 3d 58 39 25 bc f3 0e c5 be
       -0.12331472 0.07090511 -0.010084473 -0.38487968
000130 70 a4 78 39 10 b3 2f be 21 6f 69 bd a7 b0 7e bb
       0.00023712381 -0.1715815 -0.056990746 -0.0038862617
000140 49 26 8e bb d4 c3 57 3e 8b e5 39 3c 47 9c 49 3e
       -0.00433806 0.21070796 0.011346231 0.19688521
000150 01 61 52 3e 00 47 d0 bb 54 a5 5c be 3c 47 04 be
       0.20544817 -0.00635612 -0.21547443 -0.12917799
000160 cb 2f 18 3e 2a b5 25 bc e1 1b e1 ba 35 c3 59 3c
       0.14861982 -0.010113994 -0.0017174446 0.01329117
000170 c4 a5 a0 bd ca 82 0b 3e 5a e3 62 3e ed 6d a3 3d
       -0.07844117 0.13624111 0.2215704 0.07979951
000180 94 80 61 3b 1e 4d 60 bd c7 e1 fc 3e 80 55 cb 3d
       0.0034408914 -0.054761045 0.49391004 0.09928417
000190 f6 15 38 be 02 9d f6 be d3 f5 74 be 8e 32 47 3e
       -0.17977127 -0.48166662 -0.239219 0.19452879
0001a0 c7 52 37 3e d2 c5 ca 3e 06 c9 19 be ef ef 39 be
       0.17902671 0.3960405 -0.1501809 -0.18157934
0001b0 2a 84 c3 be 26 b1 1d bf b9 4f 33 bf 84 9c 59 bd
       -0.3818677 -0.6159843 -0.7004352 -0.05312778
0001c0 44 1f db 3e a4 b3 ff bd ef 3d 66 be 1c bd 57 be
       0.4279729 -0.124854356 -0.22484563 -0.21068233
0001d0 8f fe e8 be 7d eb d0 be a7 55 3f bf 48 11 f7 3d
       -0.45506713 -0.40804663 -0.7474007 0.12063843
0001e0 de c0 0c 3d 99 b7 a0 bd e9 ee bf bd 9c 84 30 be
       0.03436362 -0.078475185 -0.0937174 -0.17238086
0001f0 05 33 eb bd 0f f5 bf bd dc 2c fd ba 98 6c 21 3e
       -0.114843406 -0.09372913 -0.0019315737 0.15764081
000200 7e 4f 30 3d 8c c1 b2 be 7c b6 e0 bd ef 36 3e 3e
       0.04304456 -0.3491329 -0.10972306 0.18575643
000210 1b 44 30 be 71 61 0b 3e 38 a2 d0 be 11 99 b8 be
       -0.1721348 0.1361139 -0.40748763 -0.3605428
000220 1c 34 dd be b7 27 cd be b6 32 47 bc db 40 1b 3d
       -0.4320382 -0.40069363 -0.0121580865 0.037903648
000230 e4 88 c6 3e 10 30 8d 3e bf 86 a9 3a 34 cc e9 3d
       0.38776314 0.2757573 0.0012933834 0.11415902
000240 15 b5 93 3d 5d 29 c4 3d 49 d1 42 bd 2d fa 07 3c
       0.07212273 0.09578202 -0.04756287 0.008299393
000250 a0 b3 a7 3d f5 fa 0b bc 89 7a 6b bc ea 16 3c bd
       0.081885576 -0.00854372 -0.014372476 -0.04592029
000260 34 aa d9 bc e1 c4 4d 3c 0a e2 44 3c 66 db 9d bc
       -0.026570417 0.012559147 0.012016783 -0.019269656
000270 32 76 73 bb c2 86 83 bd 94 fe a7 bb db b5 bf be
       -0.0037149307 -0.064221874 -0.0051267836 -0.37443432
000280 5d d2 5b be a7 d7 84 3b 20 df f7 bb 32 1b 18 be
       -0.21466966 0.004054028 -0.0075644404 -0.14854124
000290 58 be 0a be fa db 92 bc 38 4e 1c be 56 89 03 3e
       -0.13549173 -0.017927159 -0.15264213 0.12845358
0002a0 1f 4c e4 3a f5 d1 53 bc 65 d1 2d be fa b8 8d bc
       0.0017417705 -0.012928476 -0.16974409 -0.017300118
0002b0 76 e0 23 3e 42 27 cf bd 48 5f 4e bd 47 7c 73 3b
       0.16003594 -0.1011491 -0.050383836 0.0037152932
0002c0 33 9b 86 bc 0b bc 69 bc 34 f7 89 bf 0e a1 4d bf
       -0.016431427 -0.014266024 -1.0778565 -0.80323875
0002d0 47 7c 76 bc 30 ed 3b be 4b c7 d9 bb fb d6 3e bc
       -0.015044278 -0.18352199 -0.006646072 -0.011647935
0002e0 cd a6 01 bf 25 7a f4 be 8c 06 9f bd 76 3f 04 3e
       -0.5064514 -0.4774944 -0.077649206 0.12914833
0002f0 7d 81 e3 bd 51 fa 83 3e eb 00 19 3e f8 d9 7a be
       -0.11108682 0.25776914 0.14941756 -0.24497211
000300 f7 96 92 3e 2b b9 2c 3e 0c fa e6 3d c8 e9 d1 3c
       0.28630802 0.16867511 0.112781614 0.02562417
000310 42 59 22 3f da a9 e1 3e eb 42 1c be c9 71 df bd
       0.63417447 0.440749 -0.15259902 -0.10910375
000320 d1 79 20 be a0 b7 07 3f e6 39 72 3f 8e b4 04 3f
       -0.1567147 0.53014565 0.94619596 0.51838005
000330 cb 0b 34 3d 6c bd 46 be 67 2f b3 3d 5c 51 b9 be
       0.04395656 -0.19408196 0.08749276 -0.36194885
000340 85 d8 e7 3d 3c ae bc 3d df 2e b5 3e e8 55 68 3d
       0.11320595 0.0921292 0.35387322 0.05672255
000350 a5 9e e8 3c 8a e9 3d be a9 53 1c bd 15 10 97 bd
       0.02839596 -0.1854612 -0.038165722 -0.07376114
000360 44 91 96 3e f5 ea df 3e 95 de a6 bd 7f 8b 27 be
       0.29407704 0.43733945 -0.08147923 -0.16361807
000370 9b 5e 38 bd a0 bd da bc 9a 10 0a be 18 23 5d 3c
       -0.045012098 -0.026701748 -0.13482895 0.0134971365
000380 a5 72 c3 3e 64 75 c2 be b4 23 80 bd 78 09 b7 bd
       0.38173404 -0.37980187 -0.0625681 -0.08937353
000390 a3 4b 0d bd 99 b6 88 bc b6 e3 bf 3d 60 b8 ac 3e
       -0.03449596 -0.016688632 0.09369604 0.33734417
0003a0 08 e7 4c 3e 2f 46 44 bd a8 40 10 be f3 00 1d be
       0.20010006 -0.047918495 -0.14087164 -0.15332393
0003b0 91 12 30 bd e4 58 4a 3e aa ff fa 3e 32 5b 2e 3f
       -0.042986456 0.19760472 0.4902318 0.68107903
0003c0 8d 3c c2 3e 71 2f 3e 3e 06 26 7b 3e fe 9b 28 3e
       0.37936822 0.18572785 0.24526224 0.16465756
0003d0 69 8c 41 bd 0f 2e 9c 3d a0 d6 96 3e 09 10 05 3f
       -0.047253046 0.076259725 0.2946062 0.5197759
0003e0 37 5b d2 3e 99 92 5b 3f f4 4a 03 3f 70 5c 08 3f
       0.41085216 0.85770565 0.51286244 0.5326605
0003f0 dd 0f 62 3e 87 70 29 3e c3 15 4f bd e2 87 17 3e
       0.22076364 0.16546832 -0.050557863 0.14797929

decoder.1.bias f4 [32]
000000 4c 67 b5 3f 2b 40 45 bf be d7 d9 3e 5f 13 74 bf
       1.4172149 -0.7705104 0.4254741 -0.9534206
000010 5c 44 64 3b a0 20 3d bc 97 29 b9 be c6 4a d3 bf
       0.0034830784 -0.011543423 -0.36164543 -1.6507194
000020 fe 14 36 bf f4 b5 16 3f 91 fa 42 be 9f 7a 3a be
       -0.7112578 0.5887139 -0.19040896 -0.18210839
000030 60 4c 9a be d0 df a5 be eb fc b1 3e 32 63 40 3f
       -0.30136395 -0.32397318 0.34763274 0.7515136
000040 7d d5 87 be d7 f0 06 3d 84 2c 8b bf 48 fe 7e bf
       -0.26530066 0.032944527 -1.087296 -0.9960675
000050 9d 08 c6 3f b8 dd bb 3e d8 46 4b bf fb 14 59 3e
       1.5471379 0.36692595 -0.79404974 0.2119941
000060 c3 1e 7a bf 6c 6a c2 3d 32 7c 1c bf 0d b5 63 3f
       -0.9770319 0.094929546 -0.61127007 0.88948137
000070 12 33 81 3f 3d 7e 15 be 7a 60 33 3f 28 32 7c 3e
       1.009371 -0.14598937 0.70069087 0.24628508

decoder.3.weight f4 [32, 16, 3, 3]
000000 b7 19 b6 3e 92 f9 40 3e e8 02 2a be d1 20 cc 3e
       0.35566494 0.18845204 -0.16602671 0.39868787
000010 99 9d 10 3f 73 39 51 3e 7f b0 9a 3c da 1e e5 bd
       0.56490475 0.20432071 0.018882988 -0.11187525
000020 69 34 8e bd 32 06 63 be 55 83 71 be 6e 92 63 be
       -0.0694359 -0.22170332 -0.23585255 -0.22223827
000030 f6 8d 59 3e 34 65 54 3e 10 fe 91 3d 0e 98 32 3e
       0.2124556 0.20741731 0.07128537 0.17440817
000040 50 22 81 3e 09 cd b9 3d f1 02 e1 bd 12 bb fe 3d
       0.2522149 0.090723105 -0.10986889 0.124380246
000050 bf 0b 71 be ae c6 a6 3e 90 d5 4b 3e 1a 20 8c 3e
       -0.23539637 0.32573456 0.19905686 0.27368242
000060 62 90 65 3d 96 d3 dc bc c4 39 8e bd 54 6e 8b bd
       0.056045897 -0.02695636 -0.06944612 -0.06808153
000070 28 8b a4 3d d0 b2 82 3e 8b d9 66 be 46 05 e1 3e
       0.080343544 0.25527048 -0.22543924 0.43949336
000080 99 02 13 bf 35 e6 fe bd 70 c9 15 3d ce 67 fd bd
       -0.5742584 -0.12446252 0.03656906 -0.12373315
000090 4e 85 d5 3d 96 6b a7 3e 52 5e f6 bd de 26 27 3e
       0.104258165 0.3269927 -0.12029709 0.1632342
0000a0 48 8e ec 3c 41 8a be be 0d 06 87 bc 90 64 00 3e
       0.028876439 -0.37214854 -0.016482377 0.12538362
0000b0 f8 aa b7 3e 3b de 88 be 3f 4f 14 be 38 9a a9 3d
       0.35872626 -0.26732048 -0.14483355 0.08281368
0000c0 03 18 04 bf f2 53 99 be 26 00 ba bc 69 e4 b4 be
       -0.5159914 -0.29946858 -0.022705149 -0.35330513
0000d0 28 44 52 bd 91 1f 4b 3e df ea 24 bd 1d 21 f9 3d
       -0.05133453 0.1983626 -0.040263053 0.12164519
0000e0 ed 25 58 bc fa 78 93 3e 6f 9c cb 3e c3 56 9c 3e
       -0.013192636 0.28803235 0.39767787 0.30534944
0000f0 07 8a e1 3e 35 d9 a5 3e fb 65 c2 3d a0 cf 2f bb
       0.4405062 0.32392278 0.094921075 -0.0026826635
000100 3f 89 20 bd 6f af ac 3d 5c ec 04 3e 4b 2e 04 3e
       -0.039193388 0.08431899 0.12980789 0.12908284
000110 cf c6 4d 3e 60 d5 a6 bd 3e c3 04 3e ac 71 dc bd
       0.2009537 -0.08146167 0.12965104 -0.10763869
000120 ab d4 15 be 35 45 1f bf 0e 1f b8 bc 32 32 14 3c
       -0.14631908 -0.62214977 -0.022475746 0.009045171
000130 92 99 2b 3e 58 66 27 3c 3b af 83 3e 93 29 51 bd
       0.16757801 0.010217272 0.25719628 -0.05106504
000140 9f ac 4d 3b ea c2 67 b9 b8 1b 30 3e 5c 3f 03 bc
       0.0031383408 -0.00022102488 0.17198074 -0.0080107115
000150 e5 dc 07 bf ed 3f b1 3e 72 90 00 3f 72 28 a9 be
       -0.53071433 0.34619084 0.50220406 -0.3303867
000160 13 08 15 be 74 18 1e be 01 31 24 bc 0e 0a 1f 3e
       -0.14553861 -0.15439016 -0.010021449 0.1553118
000170 76 a1 44 be 91 2f 18 3f a2 a7 23 3f b1 09 9e 3e
       -0.19202217 0.5944758 0.6392766 0.3086677
000180 9e b4 e8 3c 5d d6 14 3e 89 cd 0a be 99 35 51 bd
       0.028406437 0.14534898 -0.13554968 -0.051076505
000190 b8 3c 85 3e ae f1 98 3d db 48 9d 3c d1 92 ac 3e
       0.26022887 0.07467972 0.01919978 0.33705762
0001a0 97 ce e9 3e 89 c1 2f be 7b da df 3d 4a f4 d5 bc
       0.45665428 -0.17163672 0.10930344 -0.026117463
0001b0 1b 69 da be 46 85 5a 3e 08 02 f1 bd 6f 80 aa 3e
       -0.42658314 0.21339902 -0.117679656 0.33301112
0001c0 ed 6d 94 bd 6d 63 91 be 93 63 db be b7 a7 0e 3e
       -0.07247529 -0.28396168 -0.42849407 0.13931166
0001d0 ff b9 0c 3d 7c 08 2f be e9 23 ae 3e a0 b7 c5 3d
       0.034357067 -0.1709308 0.34011772 0.09654164
0001e0 d6 5d 01 3e 28 4e 04 3d 58 a7 55 be b3 fc 24 3e
       0.12633452 0.032301098 -0.20864618 0.16112022
0001f0 8a e5 88 3e 8d 7d 29 be cd 6c fc 3d 2b c6 18 be
       0.26737624 -0.165518 0.123254396 -0.14919345
000200 ae d5 0b 3e 99 b9 84 3e 7f 9a d8 3d 52 3d db 3c
       0.13655731 0.2592285 0.10576343 0.026762638
000210 54 b0 2c 3e a8 4d 36 3d f3 5f 95 3d da f3 74 be
       0.16864139 0.044507653 0.072936915 -0.23921147
000220 d0 58 b9 bd 77 dc b1 be 11 7f 48 3e 97 9b 78 3d
       -0.09050143 -0.34738514 0.19579722 0.060695257
000230 f2 53 6e be ef 26 92 3e eb 22 60 be b8 fa 66 be
       -0.2327421 0.2854533 -0.2188832 -0.22556579
000240 80 12 2c 3e aa bc 82 bd 02 5c cb be 42 ab 83 3e
       0.16803932 -0.06383641 -0.39718634 0.25716597
000250 ff 9a b6 be a9 d9 f9 3d 25 48 fe bd 69 6c f1 3d
       -0.35665128 0.121997185 -0.12416104 0.11788256
000260 7c 1a 1c 3e c3 93 16 be 8c 5d 9f be e2 ac 4d 3d
       0.15244478 -0.14704804 -0.31126058 0.050213702
000270 49 db 40 3e ba 7f 30 3e 3f 3e 95 3e ff 4d 14 bd
       0.1883365 0.17236224 0.29149053 -0.036207195
000280 80 b7 8f 3c da 35 c2 be 71 86 01 be 62 41 90 be
       0.017543554 -0.3793171 -0.12648942 -0.28174883
000290 00 c7 d6 3d fd 75 70 3e 0d 7c 20 3d 0e fe 12 3d
       0.10487175 0.23482509 0.039180804 0.035886817
0002a0 19 f1 01 be 98 dc 71 3e c8 5a 0d be 16 fe 8f 3d
       -0.12689628 0.23619306 -0.13804162 0.07030885
0002b0 1b 33 86 bc f2 78 11 3e 01 92 e4 3d 7d 96 ab 3e
       -0.01638179 0.14206293 0.111606605 0.3351325
0002c0 07 46 88 bd 02 76 26 be 5f 1b 91 3e f3 35 55 be
       -0.06653982 -0.16255954 0.28341195 -0.20821361
0002d0 92 82 56 3d d0 d0 43 3d 98 ed ad 3d e1 30 79 bd
       0.052370615 0.04780656 0.08492583 -0.06083763
0002e0 23 7b 41 bd 43 66 52 3e 48 44 a2 be ca f2 b9 3d
       -0.047236573 0.20546822 -0.3169272 0.090795115
0002f0 f3 99 1c 3d 28 fc 2e bc 69 02 5f bd 4e 2d 93 3d
       0.038232755 -0.010680236 -0.054445658 0.071863756
000300 b4 3b 9e be fa b1 07 be 00 50 9e bd bf 2e 3d be
       -0.30904925 -0.13251486 -0.077301025 -0.18474863
000310 b3 fc 5a 3e 18 c3 64 3e ba da 33 3e f7 f3 8d 3d
       0.2138546 0.22340047 0.17563906 0.06931298
000320 fc a8 d6 3d 90 d7 5d 3d 6f c7 2f be 4f 91 4c be
       0.1048145 0.054160655 -0.17165922 -0.19977306
000330 30 fd 93 3c 61 e6 69 3d 23 4d 71 be d7 af 47 bd
       0.018065065 0.057104472 -0.23564582 -0.04875168
000340 c6 2d 1d 3e 5a 57 0e be cf 1e 55 3d c8 1b 16 bf
       0.15349492 -0.1390051 0.052031334 -0.5863614
000350 88 ef e5 bd f9 40 0b bf 64 81 93 be b4 25 8f bd
       -0.112273276 -0.54396015 -0.28809655 -0.06989613
000360 d3 67 b4 ba 43 4f 74 3d b2 55 20 3e 69 b1 8b bd
       -0.0013763852 0.059645902 0.1565769 -0.06820948
000370 75 9b 1c 3d 01 a1 19 3e 99 4d ce bd b5 29 20 be
       0.038234193 0.15002824 -0.10073394 -0.1564091
000380 96 4f 39 be 87 a8 db 3d 52 a4 a1 bd 99 46 07 be
       -0.18096766 0.107255034 -0.0789267 -0.13210525
000390 df f4 a0 3d 84 16 e1 bd 31 a6 02 3e 4b cb 37 bf
       0.078592055 -0.10990623 0.1275871 -0.71794575
0003a0 ac 6d e3 3a 4f 7b 76 be 75 6c 2a 3d e6 72 71 be
       0.001735141 -0.24070476 0.04160734 -0.23578987
0003b0 bc 05 9a bc 56 d7 e9 bd 9d 48 a1 bc ea 6d 8a 3e
       -0.018801562 -0.11418025 -0.019687945 0.27036983
0003c0 67 7b 83 bc 26 cb 5f 3e 4b 69 0f be c4 c6 b9 bc
       -0.016050054 0.21854839 -0.1400501 -0.022677787
0003d0 1c c4 02 3e 9f d3 0f 3e a7 3d 1c be b4 63 16 3f
       0.12770122 0.14045571 -0.15257894 0.58745885
0003e0 bb 9a 57 3e f0 31 5e 3c 50 71 b3 3d da e0 82 be
       0.21055119 0.013561711 0.08761847 -0.25562173
0003f0 66 d3 0e bf 81 f8 1b 3e 6d 59 8e 3e 98 56 bf be
       -0.5579132 0.15231515 0.278026 -0.37370753

decoder.3.bias f4 [16]
000000 f4 f0 32 3e db f2 98 3e be 4b 83 3e fd 43 ab be
       0.17474729 0.29872784 0.25643724 -0.33450308
000010 f2 d5 01 bf 91 8f a6 be ad df fd 3e 39 f3 9b 3e
       -0.5071708 -0.32531407 0.49584714 0.30459002
000020 82 9d 3c 3e a7 ee 9f 3e 2d 6e 70 3d 96 77 98 3d
       0.1841946 0.31236765 0.05869882 0.07444684
000030 76 de 3d be b7 7f cd be a6 3a bd 3e 92 10 02 bf
       -0.18541893 -0.401365 0.36958808 -0.50806534

decoder.5.weight f4 [16, 1, 3, 3]
000000 e8 d9 03 3f d3 66 70 3f 2b 34 0e 3f 1b 41 6b 3f
       0.51504374 0.939069 0.5554835 0.9189622
000010 4a b9 b2 3f 4f ce 27 3f 40 51 12 3f 1f 47 40 3f
       1.3962796 0.65549177 0.5715523 0.7510852
000020 08 8f 84 3e ea 56 03 bf 4e 66 34 bf aa ce b8 be
       0.25890374 -0.51304495 -0.70468605 -0.36095172
000030 84 98 5a bf fc 06 86 bf eb e4 dc be 19 ea c2 be
       -0.8538897 -1.0470881 -0.431434 -0.38069227
000040 78 d0 92 be 85 e9 31 3c 41 23 5d 3e 22 fc a3 bc
       -0.28674674 0.010858898 0.2159548 -0.020017687
000050 c3 80 31 be b2 ec 94 3e dc bb 12 be a1 de b4 be
       -0.17334275 0.29086834 -0.14329475 -0.35326102
000060 77 49 24 bd 1c d4 02 bf a1 bc e4 be 22 bc bb be
       -0.040109124 -0.51104903 -0.44675162 -0.3666697
000070 4d e3 4e bf 19 56 24 bf e4 4c 71 bf d1 fb e1 bf
       -0.80815583 -0.64193875 -0.9425795 -1.7654973
000080 4c 85 8e bf 2c ce 33 bf a9 c7 99 bf 0d e7 1d bf
       -1.1134429 -0.7023647 -1.2014056 -0.6168068
000090 ba 2a 4a 3e 95 4d f9 3e 20 01 b4 3e 53 a2 10 3f
       0.19742861 0.48692003 0.35157108 0.5649769
0000a0 6f 4a 82 3f e7 4b 1c 3f 6a 5e bd 3e b4 df 19 3f
       1.0178965 0.6105332 0.36986095 0.6010697
0000b0 2f 7e 96 3e cd 95 09 bf a4 8d 8a bf ad f7 3b bf
       0.29393145 -0.537442 -1.0824475 -0.734248
0000c0 73 21 9b bf b1 0f 01 c0 a6 70 93 bf 3f 88 4d bf
       -1.2119583 -2.0165827 -1.1518753 -0.8028602
0000d0 5c e9 99 bf b9 a6 10 bf 2d d5 90 be e9 6e 2a bf
       -1.2024341 -0.565044 -0.2828764 -0.66575485
0000e0 88 90 e1 be 80 9a 2e bf dc 01 a1 bf 40 8c 29 bf
       -0.4405558 -0.682045 -1.2578692 -0.6622963
0000f0 2f e0 ce be 58 e1 1f bf 2a 09 7e be 1b fc c3 3e
       -0.40405414 -0.6245322 -0.24808183 0.3827828
000100 27 16 4e 3f 2f aa 04 3f b9 f3 4d 3f fa 4b a7 3f
       0.8050255 0.5182218 0.80450016 1.3070061
000110 49 3b 35 3f 0a 41 06 3f 63 e7 3f 3f 1d 2a a8 3e
       0.70793587 0.5244299 0.74962443 0.3284463
000120 26 9f 4e 3e f2 58 c2 bc b8 17 a9 be 9f a3 46 3d
       0.20177898 -0.023724053 -0.33025908 0.048495885
000130 23 1a 0c bf b1 1c 42 bf 43 15 54 be 17 47 3a bf
       -0.5472738 -0.7582503 -0.20711236 -0.72764724
000140 c0 d2 2f bf 77 c2 c1 3e 85 a7 51 3f 9e 0c 22 3f
       -0.68680954 0.37843677 0.8189624 0.633005
000150 fd e8 63 3f 85 d7 c7 3f ae 22 81 3f 25 96 25 3f
       0.89027387 1.5612646 1.0088708 0.6468223
000160 16 59 80 3f b9 2e 09 3f 0c c1 b1 be 04 c5 0f bf
       1.0027187 0.5358692 -0.34717596 -0.56159997
000170 5c 2e aa be 26 c8 3f bf 03 19 88 bf f7 08 01 bf
       -0.33238494 -0.7491478 -1.0632633 -0.50404304
000180 e3 11 b5 be 73 7a be be 3d ea aa bd 87 a1 cf bd
       -0.3536521 -0.37202796 -0.08345459 -0.10138231
000190 47 68 c1 be fb 38 3b be db bb f5 be 2b b8 76 bf
       -0.3777487 -0.18283455 -0.47994885 -0.9637477
0001a0 81 71 ca be 82 0f a9 be 10 99 17 bf 75 40 61 be
       -0.39539722 -0.33019644 -0.5921793 -0.21997245
0001b0 f2 5e 29 3e 7b 06 eb 3e 3e 92 c7 3e 1e f8 d9 3e
       0.16540125 0.45903382 0.3897876 0.4257211
0001c0 06 ad 59 3f b4 a2 1b 3f a2 72 a3 3e 5a 13 11 3f
       0.8502964 0.6079514 0.31923395 0.56670153
0001d0 10 42 ad 3e 4c a3 9c 3e 49 78 34 3f 4d cf f5 3e
       0.33839464 0.30593336 0.7049604 0.4800972
0001e0 15 27 20 3f 16 3b 94 3f 1a 9e 2b 3f 39 86 d8 3e
       0.62559634 1.1580532 0.6703812 0.42289904
0001f0 bf 2a 2a 3f aa 1b a3 3e 6b f8 c0 3e 20 84 70 3f
       0.66471475 0.31857044 0.37689528 0.93951607
000200 44 37 27 3f 0a 76 74 3f 73 d1 ee 3f f0 6c 8e 3f
       0.65318704 0.95492613 1.8657669 1.1126995
000210 6e d0 30 3f 7c 3e 8a 3f 01 ef 05 3f 19 a3 ae 3e
       0.6906804 1.0800319 0.52317816 0.3410881
000220 9f 7b 4b 3f c9 24 0a 3f 54 2e 4f 3f c1 b0 b9 3f
       0.79485506 0.5396238 0.80930066 1.4507066
000230 bc 47 58 3f 45 1c 12 3f 16 5f 61 3f 3b b4 dd 3e
       0.8448446 0.57074386 0.88035715 0.43301567
