02-Autoencoder/01-PT-MNIST-basic/cnn-autoencoder.pth (torch, 67265 bytes, 11 tensors)

encoder.0.weight f4 [16, 1, 3, 3]
000000 2e cb c1 3e 59 7d 08 3e 28 35 ee be 75 cf 96 3b
       0.37850326 0.13329066 -0.4652493 0.0046023675
000010 40 4c 02 be 80 e3 56 bc 01 9f d3 bd a8 ed ab 3e
       -0.127244 -0.013115764 -0.10333062 0.33579755
000020 bf 5a 40 3e 28 4b c3 be ae a7 5f be e3 f0 93 be
       0.18784617 -0.38143277 -0.21841308 -0.2889472
000030 01 91 b6 3e f6 1e 9a 3e 0f 19 96 3e 51 72 08 3e
       0.35657504 0.30101746 0.29315993 0.13324858
000040 9d 31 28 bc 51 a4 63 39 43 6a 0e be d3 80 19 be
       -0.010265735 0.0002170962 -0.13907723 -0.14990549
000050 20 60 a7 3e b4 af ab be d3 9c 91 bd 3f b3 01 3f
       0.32690525 -0.33532488 -0.0710999 0.5066413
000060 0e 10 e4 be 8c 9a 6d bc 3f 3a 67 3e c5 c7 74 bd
       -0.445435 -0.014502179 0.22580813 -0.059760828
000070 ae b8 05 3f 69 2e ec be 09 39 5c 3e 03 7e 9f 3e
       0.52234924 -0.46129158 0.21506132 0.31150827
000080 07 71 c4 be ac 97 81 be db d4 dd 3d 3d 5d b6 bd
       -0.38367483 -0.2531103 0.108316146 -0.089045025
000090 92 ef 20 bf ba 12 fa be 0d 78 11 be a8 c7 ca be
       -0.62865555 -0.48842412 -0.14205952 -0.3960545
0000a0 7c 7c 5a be aa 3d 69 bc e9 03 a7 3e 92 00 41 3f
       -0.2133655 -0.014235893 0.3262017 0.75391495
0000b0 9f 3a 0c 3f 1e 96 e3 be f1 1d 0c 3f b7 8d 84 be
       0.5477695 -0.44450468 0.54733187 -0.2588937
0000c0 7b 8c 7e be 5a 82 d3 3e 86 79 04 be 69 1f b9 be
       -0.24858277 0.41310388 -0.12936983 -0.36156777
0000d0 63 bb 1c 3e 7e 21 c3 bc ae 00 c5 bd 6c ce a4 3e
       0.15305857 -0.023819681 -0.0961927 0.32188737
0000e0 69 05 87 3e 39 d3 c5 bc f2 3f 37 3d ba 19 7f be
       0.26371315 -0.02414857 0.044738717 -0.24912158
0000f0 da 3a 72 3e 1f b0 53 3d 62 7a 29 be 15 e8 b6 3c
       0.23655263 0.051681634 -0.16550592 0.022327462
000100 0e 1a b6 bb 13 ed 63 bd 52 98 ea 3d ed 59 f7 3e
       -0.005557305 -0.055646013 0.11454834 0.48310795
000110 69 03 16 3f 27 7a 7c be 85 a4 04 bf 28 22 0f bf
       0.58598953 -0.24655972 -0.51813537 -0.55911493
000120 eb de 8f 3e e0 60 46 3d e2 86 04 bf 59 ab 88 bd
       0.2809976 0.04843223 -0.51768315 -0.06673307
000130 23 44 80 3e 41 d6 b5 3d d1 a2 88 bf a5 df 13 bf
       0.25051984 0.08878756 -1.0674688 -0.5776313
000140 fb e5 ba bf 07 f5 23 be cf 05 f4 3e da c9 8a 3e
       -1.4601434 -0.1601144 0.47660682 0.27107126
000150 7f 99 da bd 99 49 18 3e 9f 25 2c 3e 83 ad 4d 3b
       -0.10673808 0.14871825 0.16811226 0.0031383939
000160 8f 13 75 3e 35 fd 8a 3e d2 5d 7e 3d 93 98 91 be
       0.23933242 0.27146307 0.062101193 -0.28436717
000170 5d ec 77 3d ce 35 82 bd 1a be 4b 3d 72 6c 22 3e
       0.060528148 -0.06357919 0.04974184 0.15861681
000180 a7 f7 80 3d 87 3d 02 3e 71 b3 a9 3e 56 b1 37 3f
       0.06297236 0.12718783 0.33144715 0.7175497
000190 ab 90 08 bf b2 c3 0c bf 82 01 de 3e 75 27 45 be
       -0.53345746 -0.5498611 0.43360525 -0.19253333
0001a0 d7 b6 20 3e 84 f6 bf 3c ed e4 a7 be 0a a7 7e bf
       0.15694748 0.023432977 -0.32791844 -0.9947363
0001b0 cd 5b ec 3d ec de e9 be a7 8d 33 bf c4 eb ac 3e
       0.11540947 -0.45677888 -0.7013802 0.33773625
0001c0 d8 42 f8 3d 58 69 e3 be b3 db 2c 3f 6a 32 d1 3e
       0.121221244 -0.44416308 0.67522734 0.40858775
0001d0 28 05 d0 3c 26 aa 3a bf b9 82 6e bd 90 63 a3 3e
       0.025393084 -0.72915876 -0.058230136 0.31911898
0001e0 b7 f4 bd bd 8b 59 57 3d 7b 84 68 3e 49 9a 98 3c
       -0.09275191 0.05257563 0.22706787 0.018628256
0001f0 2b 9d 48 3d 12 74 7e 3e d6 00 9a 3d 65 27 b7 3c
       0.048978012 0.24848965 0.07519691 0.022357652
000200 6c 2a 35 3e dd 86 1b 3e 61 65 45 3e 92 64 da b9
       0.17691964 0.15188165 0.19276954 -0.0004165513
000210 4c ef fd 3d 9e 6a 8a 3e cb 58 1c bc 7e 7c 0b 3d
       0.12399158 0.27034467 -0.009542654 0.034054272
000220 ab aa 01 3f 15 86 21 3f 20 47 84 be 15 39 51 3e
       0.50651044 0.6309522 -0.25835514 0.20431931
000230 5f 63 0f 3c 5d 53 f8 bf 84 a3 92 bf 4c 33 99 bf
       0.008751719 -1.940044 -1.1456151 -1.196878

encoder.0.bias f4 [16]
000000 8a 94 92 bb d8 d5 c2 bc 66 63 4d ba a7 7e 94 bb
       -0.0044732736 -0.02378361 -0.0007834941 -0.0045316997
000010 f5 43 84 3c 85 45 98 bb 63 f1 3c ba 58 da 01 3d
       0.016145686 -0.0046469592 -0.00072076 0.03170237
000020 a5 ed cf 3e e2 14 0d bf ee a9 8b bb 2b c2 3a 3a
       0.40610996 -0.5510999 -0.0042622006 0.000712427
000030 b9 fd a9 bb a3 9b ea bb 4c b4 8d 3b a1 78 c8 bb
       -0.005187717 -0.0071596666 0.0043244716 -0.0061178957

encoder.2.weight f4 [32, 16, 3, 3]
000000 24 cb 15 bf e5 59 af be b3 58 13 3e 52 5f ab be
       -0.58513093 -0.34248272 0.14389305 -0.3347116
000010 32 74 d0 bb eb 1d 98 3d c4 d8 11 bf 63 7f ac 3e
       -0.006361508 0.074275814 -0.56971383 0.33690938
000020 7d 3d 04 3f 6e ac 2a 3e 5c ec 00 bf 68 ce 88 be
       0.51656324 0.16667339 -0.50360656 -0.26719975
000030 c1 d3 b6 be fa 33 32 bf ec 2a a6 bd 2e 96 17 bf
       -0.3570843 -0.6961056 -0.081136554 -0.5921353
000040 db b4 d2 be ff e7 84 3d 3b 5e d0 bd 58 ae c1 bc
       -0.41153607 0.06489562 -0.10174223 -0.023642704
000050 3e 59 da 3d 98 4a 16 3e 94 fe 26 3e 49 66 d6 3d
       0.10661553 0.14676893 0.16308051 0.10468728
000060 74 7a 25 3e 9c e8 17 3e 07 22 c6 3e be 7e cc be
       0.16159993 0.14834827 0.38697836 -0.39940447
000070 51 68 2f be 3d 0b aa 3e 75 51 b5 3e 7e ad 84 3e
       -0.17129637 0.332117 0.3541371 0.25913614
000080 47 9a 11 3f b6 0a a4 3e a9 72 80 3d 6b 4e b9 3e
       0.56876034 0.32039422 0.0627187 0.3619264
000090 7c c2 e1 3e 45 dc 2b be 7f 88 89 be 28 92 56 be
       0.44093692 -0.16783245 -0.2686195 -0.20954192
0000a0 ba 74 04 bf d1 b5 9e be 5c e7 3d bf f4 a8 34 bf
       -0.5174061 -0.3099809 -0.7418115 -0.705703
0000b0 5e 78 b2 be e9 c4 e3 be b8 bb 30 3e ad 55 d1 3e
       -0.34857458 -0.44486168 0.17259109 0.40885678
0000c0 d9 0e f4 3e 93 63 71 3e 05 55 7c 3e e8 c7 23 3f
       0.47667578 0.23573141 0.24641807 0.6397691
0000d0 c0 9b bf 3d dd 54 63 3f 23 3c 0f be 16 85 86 3e
       0.09355879 0.88801366 -0.13987784 0.26273412
0000e0 08 e9 eb 3e 69 76 1e be 6d a2 4c be 33 9b b5 3d
       0.46076226 -0.15474857 -0.19983836 0.088674925
0000f0 97 0f 24 bf 61 5d 84 be d9 1d 3c 3d 3c ee 83 be
       -0.6408629 -0.25852492 0.045926902 -0.25767696
000100 7e fc 0a bf d0 da 27 bf 86 2c d7 be d0 23 4a bf
       -0.5429152 -0.65568256 -0.42026156 -0.78960896
000110 54 5d 13 bf c2 ba 64 3e b9 ac b2 3e 4b 73 6f 3d
       -0.5756428 0.22336867 0.34897402 0.05845956
000120 a1 94 05 3e 21 55 ed 3e 56 88 1e 3e e5 e7 b5 3e
       0.13044979 0.4635401 0.15481696 0.35528484
000130 a2 c5 3f be f8 51 dc be 12 71 b0 3e 71 06 36 3e
       -0.18727735 -0.43031287 0.34461266 0.17775895
000140 2a 08 cd be 75 9f 23 bf 5f 01 dd bd 39 24 80 3e
       -0.4004529 -0.6391519 -0.10791277 0.25027636
000150 05 4c 3f bf a4 d7 5e be d9 e8 e3 3e 3e bb c9 be
       -0.7472537 -0.21761948 0.44513586 -0.39400667
000160 93 1f b1 3c b6 74 e6 3e 2c b5 67 3e 70 17 28 3e
       0.021621501 0.45010918 0.22627705 0.1641519
000170 46 2a f7 bd 1c c7 b6 bd e5 56 86 3d 74 29 33 3e
       -0.1206861 -0.08924696 0.065595426 0.17496282
000180 63 9c 0e be f6 49 34 be 20 3b 96 3e 69 ca 38 be
       -0.13926844 -0.17606339 0.29341984 -0.18045963
000190 dc 5e 73 3e ab b3 f7 3d db 87 1d bf 9a 91 0a bf
       0.23766655 0.12094816 -0.61535424 -0.5412842
0001a0 68 a7 77 3f f8 55 ef bf fa e1 33 bd 76 29 e1 3e
       0.96739817 -1.869811 -0.04391668 0.43976945
0001b0 bd a4 a7 3c 11 ea bb bf b1 2c b6 be d1 d1 08 bf
       0.020464296 -1.4680806 -0.35580972 -0.53445154
0001c0 e5 3d c2 be a5 f8 97 bd 2b a2 4a c0 4e 48 0b bc
       -0.37937847 -0.07420472 -3.166148 -0.0085011255
0001d0 d5 34 95 3d fd 57 db 3e 8e 1c a3 3e da 3d 5c 3e
       0.072854675 0.42840567 0.31857723 0.2150797
0001e0 bf d7 13 be c3 8c 7f 3c 44 9c e8 bd bd fe 6f be
       -0.1443777 0.015597525 -0.1135793 -0.23437019
0001f0 74 69 3c 3c e6 77 87 3d de 53 9f bd f1 01 1b be
       0.011499751 0.06614666 -0.07779668 -0.1513746
000200 7a 2f 3f 3d 05 01 0f bf 3f 71 1b bd 44 d3 d0 3e
       0.046676137 -0.5586093 -0.037949797 0.40786183
000210 e3 1a 3f bf d5 19 ed bd 40 9b ac 3e b5 18 d5 bd
       -0.746504 -0.11577193 0.33712196 -0.10405103
000220 21 94 29 be 10 28 10 bf c8 8d a1 3b d5 72 7c bf
       -0.16560413 -0.5631113 0.0049302317 -0.9861272
000230 6b 7e a4 bf 83 99 f4 3e ef 4d 62 bd c9 6e 33 bf
       -1.285108 0.4777337 -0.055250105 -0.7009092
000240 38 b0 79 3d 20 4a 92 3d 5c 67 c2 bd 7b 5d 79 3d
       0.06095907 0.071430445 -0.094923705 0.060880166
000250 3b c0 4e bd b2 7d fc bd 9a 4c 05 be cf be d5 bd
       -0.050476294 -0.12328662 -0.13017502 -0.104367845
000260 fd af 3a be ec f6 71 3d 38 c5 fb 3d 31 1b 45 3d
       -0.18231197 0.059073374 0.12293476 0.048121635
000270 4f ce 8b bd b2 3e 84 bd fc e5 59 3d 63 53 c8 3c
       -0.068264596 -0.06457271 0.053197846 0.024453824
000280 cf c4 6e be 8d 8c 99 3e e4 9b 9a 3d 21 73 94 be
       -0.23317264 0.29990044 0.07549265 -0.28994086
000290 48 ab 9b 3d f9 91 38 3d 7f 62 d9 bd f4 2f ee 3d
       0.07601029 0.045061085 -0.1061449 0.1163024
0002a0 18 28 0f bf 4b ee 13 3e 0b 9f 69 3d 96 dc 78 be
       -0.55920553 0.1444637 0.05703644 -0.24302897
0002b0 07 c7 a6 bd 38 84 04 be 15 bd 09 3e 64 97 d8 bd
       -0.0814343 -0.12941062 0.13451035 -0.105757505
0002c0 63 d1 a1 be 23 f1 92 bb 17 69 19 be 3f 61 ab bd
       -0.31605062 -0.004484312 -0.14981495 -0.083681576
0002d0 40 91 08 bd 0b fb 3e 3d a4 6c 0b 3e 3a 16 5c bc
       -0.033341646 0.046626132 0.13615662 -0.013433034
0002e0 81 2b 79 bd 80 99 91 3e b0 28 d5 bd ed 22 c2 bd
       -0.060832504 0.28437424 -0.10408151 -0.09479318
0002f0 01 83 52 3d 55 cc bc 3c ce 1b fa be 9f 44 5d bf
       0.051394466 0.023046652 -0.48849338 -0.8643283
000300 4c 14 c4 3c 81 4c b7 3e 59 d7 02 bd 35 87 95 be
       0.02393546 0.35800555 -0.031943653 -0.29204717
000310 b7 04 c1 be c0 91 89 3e 7a 0e 9d bc 4c 56 b4 bd
       -0.3769891 0.2686901 -0.019171942 -0.08805522
000320 e4 18 57 bc ff d3 f0 3d 6d 3d 70 3e a8 fe 16 3e
       -0.013128493 0.11759185 0.23460932 0.14745581
000330 13 2c cf bd b0 cd 31 3d 5a c6 13 3d 42 68 b8 bc
       -0.10115828 0.04340905 0.036077835 -0.022510651
000340 bc fe e2 bd 57 ca 27 3e cd d7 71 3e ff 4d e4 3b
       -0.11083743 0.1638578 0.23617478 0.0069673057
000350 36 80 b2 bd ce 75 90 3c ad ac c1 bc 20 8d 59 3e
       -0.087158605 0.017634299 -0.023641909 0.21245241
000360 92 1c ab be 0d 1a 0e be 4b 9d 38 bd 7a 53 48 3d
       -0.33420235 -0.13877125 -0.04507188 0.048907734
000370 19 16 22 be 62 fc f4 bd 03 be 90 3e 15 05 cd 3d
       -0.15828742 -0.11962201 0.28269967 0.10010735
000380 46 a7 af bd 62 66 17 3e ac 93 b4 3c 02 bd 07 3e
       -0.08576827 0.1478515 0.022043072 0.13255695
000390 c5 f1 85 3e 1c 83 05 bd 79 a8 6a 3d 28 7d 22 bd
       0.26161018 -0.03259574 0.057289574 -0.03967014
0003a0 aa f5 fe bd 5a 55 a2 3e 8d 96 f6 3d cd b8 18 bd
       -0.124492005 0.31705743 0.12040434 -0.037285615
0003b0 6e 42 a8 3c 94 90 b5 3d 4c 90 cc bd ef 63 30 3e
       0.020539489 0.08865467 -0.0998846 0.17225622
0003c0 a7 a0 a8 bc b5 b1 c0 bd 9b 74 99 3d ba 59 81 be
       -0.020584418 -0.09408895 0.07492944 -0.25263768
0003d0 59 8b d2 b9 0f 76 d7 be 02 99 75 3e 61 74 5d 3d
       -0.00040158143 -0.4208226 0.23984149 0.054066066
0003e0 3c 5c c8 be 25 95 9b 3d ab e1 70 3d fe da 08 3e
       -0.3913287 0.075968064 0.058808964 0.13364789
0003f0 6a 99 12 3e 93 3f ef bd 9a d0 28 be b8 8f 92 3d
       0.14316335 -0.11682048 -0.16485825 0.071563184

encoder.2.bias f4 [32]
000000 f6 a3 c4 3c 72 f1 8e bd 89 fb c4 3d b7 ef 62 3d
       0.024003964 -0.06979646 0.09618289 0.05540439
000010 f6 e4 0a bd cf bc b9 3d 78 1d 18 bd 0a a0 77 bd
       -0.03390976 0.090692155 -0.03713748 -0.06045536
000020 f9 5c 98 bc b2 3a 80 3d 3b 5e 30 3e 2a f1 44 3e
       -0.01859902 0.06261195 0.17223446 0.19232622
000030 17 c0 74 3e c9 ea 88 3d ec eb 28 3c 07 84 82 3e
       0.23901401 0.06685407 0.010310154 0.25491354
000040 a6 f6 b1 3d f7 96 d8 bd bc dc 25 3e b3 72 94 3d
       0.086896226 -0.10575669 0.16197485 0.0724844
000050 d8 46 b3 3c 6b db 13 3e 74 a6 df 3d ba 3c 60 bd
       0.021884367 0.1443917 0.1092042 -0.054745413
000060 f1 e7 2e 3e d3 bf 57 bd b7 36 61 bc 3c 95 06 bc
       0.17080666 -0.052673172 -0.013745955 -0.008214291
000070 00 0a ce 3d a6 8c c3 3d 76 fb 9a 3d 39 c6 68 be
       0.10060501 0.09548311 0.075674936 -0.22731866

encoder.4.weight f4 [2, 32, 7, 7]
000000 84 4b 88 3e a5 06 3b be ef 15 d5 3d 0e 73 d5 bc
       0.26620114 -0.18264253 0.10404574 -0.026055839
000010 a6 af a9 39 44 2d 27 3e 99 e0 86 be 38 d7 43 3e
       0.0003236506 0.16325861 -0.2634323 0.19125068
000020 e7 02 13 3d 68 39 ed 3d ec 5d 93 3d ae 9a 48 bb
       0.03589144 0.11583215 0.071956486 -0.0030609774
000030 66 60 7c 3e e4 b4 65 bd af a3 19 3e 8e 4f 2d be
       0.24646148 -0.056080714 0.15003847 -0.16924879
000040 1f 2d af bc 6a b8 8b 3c d2 dc 85 3e fc 6b e4 3d
       -0.02138382 0.017055709 0.26145035 0.11153409
000050 c1 4b f0 3d 64 67 d1 3e 2a a4 55 bd be 97 c7 bc
       0.11733199 0.40899193 -0.052158512 -0.024364349
000060 a3 ca 0c be 0f 40 7c bb a2 43 e7 bb 69 9c 99 bd
       -0.13749175 -0.003849033 -0.007057623 -0.07500536
000070 d3 bd c0 3c 28 29 88 bd 52 1a 2a bb 49 03 bc bd
       0.023528015 -0.06648475 -0.002595563 -0.09180314
000080 ac 6d 47 be c9 65 fa 3d 5e 24 30 3e b0 72 46 3d
       -0.1947543 0.12226445 0.17201373 0.04844922
000090 91 3b c6 3d eb 2d 3f 3c ed eb 54 3e 84 bf 2d 40
       0.0967933 0.011668663 0.20793124 2.7148142
0000a0 c8 13 24 3f 95 be 03 bd 34 88 18 be 32 f8 c0 3d
       0.64092684 -0.032164175 -0.14895707 0.094223395
0000b0 94 c4 9a bc 68 7a 3a be ef 24 b0 bd 33 fe 2e be
       -0.018892564 -0.18210757 -0.086007945 -0.17089157
0000c0 55 70 2f 3d 5b 3e ae 3c 81 5a 78 be 43 e9 0c 3e
       0.042831738 0.021269968 -0.24253275 0.13760857
0000d0 7c eb d6 3c e3 07 12 bc 3b a9 7c bf 5f 28 81 3e
       0.026235335 -0.008913013 -0.98695725 0.25226113
0000e0 73 ad 3c 3e 65 d7 a5 3d 10 4f 71 be 21 c8 63 3d
       0.1842554 0.08097724 -0.23565316 0.05561078
0000f0 df 9d c1 bd 61 05 ab bd 26 4b 38 bd f2 dc 86 3e
       -0.0945394 -0.08350635 -0.044993542 0.26340443
000100 b5 7d 3e be 1c 72 d2 bc f9 2b 07 3e 73 67 1c 3e
       -0.18602641 -0.025689177 0.13200368 0.15273838
000110 dd b7 84 3c 6d 3c 1b bd 4a b8 0b 3e f8 00 c4 3c
       0.016200954 -0.037899423 0.1364452 0.023926243
000120 9f 2c 8f 3d 69 c6 fc bd bb 12 fc 3d 4b 6c 8a bc
       0.06990933 -0.12342531 0.1230826 -0.016897341
000130 15 9a 41 bd 2a 67 1b be a6 f3 61 38 e8 8d 91 bd
       -0.047266085 -0.15176073 5.3871096e-05 -0.071071446
000140 26 5e c4 3d e2 74 20 3d 1b 7b 46 bd fe 4b 27 3e
       0.0958827 0.039173968 -0.048457246 0.16337582
000150 29 84 e6 3d 9f 03 e3 bc cf 53 16 3d 4d 17 09 3e
       0.11255676 -0.027711688 0.03670102 0.13387795
000160 53 24 68 bd 18 65 fa bc 41 01 e5 bd 4b ba 9e bd
       -0.056675266 -0.030565783 -0.1118188 -0.07750376
000170 ee bb a1 bd 09 46 f5 bd e3 43 a3 be 05 9a 11 be
       -0.07897173 -0.11976249 -0.3188773 -0.1421891
000180 2e b8 af be 95 1f 28 3f e5 ee 95 3d c6 69 ea 3b
       -0.34320205 0.6567319 0.07320956 0.0071537225
000190 0d c2 4e be ad 54 86 bb b8 3a 24 bd d3 a3 22 3d
       -0.20191212 -0.0040994496 -0.04009506 0.039707016
0001a0 7b 91 a7 bd 42 ad 20 3e c4 c4 27 3e df a9 25 bf
       -0.08182045 0.15691093 0.16383654 -0.6471233
0001b0 17 35 83 be a7 98 12 be d7 f5 20 bd 9b e5 ae be
       -0.25626442 -0.14316045 -0.03929695 -0.3415955
0001c0 05 2f e5 be 48 0f aa be 4e 4a 8a 3e ca db 02 3e
       -0.44762436 -0.33214784 0.27009815 0.12779155
0001d0 50 ec bd 3d 08 26 2b 3e 72 15 d5 3c 29 fd d7 be
       0.09273589 0.16713727 0.026011202 -0.42185333
0001e0 26 b4 e8 bd 56 06 8c 3d 40 d1 1a bd 21 32 21 3e
       -0.113624856 0.06837146 -0.037797213 0.15741779
0001f0 3e 3e c2 3d 12 17 c0 bd bd ce c9 3e 6e cf 0a 3e
       0.09484528 -0.093794 0.3941554 0.1355569
000200 89 8b a6 bc 02 c0 33 3d bd 2f 1d 3d 11 4b 9a bd
       -0.020330207 0.043884285 0.038375605 -0.07533849
000210 a7 a0 0e bd 83 d4 68 3e d0 2f 68 3d da d9 cb 3c
       -0.03482118 0.22737317 0.056686223 0.024884153
000220 c0 d9 cd bc d9 8c 2f bd 06 85 7e bd 6f 94 58 be
       -0.025128245 -0.042858932 -0.06213858 -0.21150373
000230 45 16 d2 3c 30 3d 9a bd b7 2e 16 3e 34 fc af 3e
       0.025645385 -0.07531202 0.14666258 0.34372103
000240 25 39 37 3f 7e 4a c5 be 84 21 04 3f e1 bc 54 be
       0.7157157 -0.38533396 0.5161364 -0.20775177
000250 2b 78 3f be 60 b5 21 bd 02 62 67 bc b3 c6 2b be
       -0.18698184 -0.039479613 -0.014122488 -0.16775016
000260 57 44 05 be 0a 63 14 be eb 18 ab be cf e8 ef bc
       -0.13014351 -0.14490905 -0.33417448 -0.029285816
000270 82 60 84 3d d8 cc a7 3d fa e0 73 bc 83 1d 58 3d
       0.0646372 0.08193368 -0.014885182 0.05276252
000280 1c 88 44 3c 6c dd 84 3e 14 0a 05 3d ff 1c 37 3d
       0.011995342 0.2595018 0.032480314 0.044705387
000290 3c bd 07 bd ff c8 b1 3d 19 2c 8c bc 2a 6b 08 3e
       -0.033139452 0.08680915 -0.017110871 0.1332213
0002a0 a6 4a 8b 3e 5c b0 d9 3c 09 57 0c 3e 76 40 ca ba
       0.2720539 0.026573353 0.13705076 -0.0015430588
0002b0 db a6 79 3c ae 89 9a 3d f7 f3 59 3d f6 f0 31 bc
       0.015237535 0.075457916 0.05321118 -0.010860672
0002c0 79 7d 61 bc 0f 4b 28 bd dc 4c e8 bc fc 84 8e bc
       -0.013762825 -0.041087206 -0.028356962 -0.017397396
0002d0 ad ec be 3c 0a 68 d2 bd 7a 5d c1 3e 8a 78 11 bc
       0.023306215 -0.1027375 0.3776663 -0.008878836
0002e0 73 c1 1b be d3 68 8c 3d b1 5d d5 3d 74 9d 14 3e
       -0.15210514 0.06855931 0.10418261 0.14513189
0002f0 4e 77 d5 bd bd 4d 84 bd 18 88 0f bd fc b5 e4 bd
       -0.10423146 -0.0646014 -0.0350419 -0.11167523
000300 90 dd aa 3d 8a a5 27 3e a0 1d 96 3d a1 14 61 3d
       0.08343041 0.16371742 0.07329869 0.054951314
000310 e7 2f 84 bd 2d 7e 30 3d bb 36 6d be d8 d1 04 bf
       -0.06454449 0.04308908 -0.2316541 -0.51882696
000320 62 5f 32 be f3 fc 84 bd 6d 2a 23 bd f1 52 4b be
       -0.17419198 -0.06493559 -0.039835382 -0.19855858
000330 fe ec 68 3e 0d ae 8c 3d d2 33 33 be c6 d2 e0 bd
       0.22746655 0.06869135 -0.17500237 -0.10977702
000340 70 02 77 bb a8 9c 78 bd 86 e2 03 3d 5c 88 14 bb
       -0.0037690662 -0.060696274 0.03219845 -0.0022664284
000350 f3 b0 b0 bb 10 43 13 3c 3a f0 de bc 36 86 b4 3d
       -0.0053921877 0.008988157 -0.027214158 0.08814661
000360 f5 9f eb 3d 3b ff 65 be 48 43 ad bd 42 43 1c be
       0.11505119 -0.22460644 -0.084600985 -0.15260032
000370 7a 95 a5 3d 6b 03 b4 3d 46 74 ef 3d 34 81 d8 bc
       0.08085151 0.087897144 0.11692099 -0.026428796
000380 e5 1d 28 be 5f d2 34 bd d8 3e 93 bd 45 3f 2b be
       -0.16417654 -0.044145938 -0.07189721 -0.16723354
000390 96 f8 43 be bd 67 8e 3d 9d bf b4 bd fe af c1 bd
       -0.19137797 0.0695338 -0.0882561 -0.09457396
0003a0 e6 f9 5d 3d 6e 57 16 3e 4b ff b0 3e 41 2f cc bc
       0.0541934 0.1468179 0.34569773 -0.024924876
0003b0 16 64 6f 3e eb 6d 10 3e ab c0 2f be cb 1e 06 3a
       0.23378024 0.1410443 -0.17163341 0.0005116283
0003c0 9c af ba 3d b7 ef 8d 3d c0 70 3f 3f 04 f7 f1 3e
       0.09115526 0.069304876 0.7478142 0.4725877
0003d0 ed fb a0 bd a1 57 b2 bd fd 0f f8 be 8a f8 75 3e
       -0.07860551 -0.0870812 -0.48449698 0.24020591
0003e0 6a 7b ca 3d 0f 38 e1 3d 1d 5d ca bb 43 ce 72 3d
       0.098868206 0.109970205 -0.0061756507 0.059278738
0003f0 2f ec 66 bd 3b 44 9b 3c c6 5e 87 3c ac 72 d5 3c
       -0.056377586 0.018953433 0.016524684 0.026055656

encoder.4.bias f4 [2]
000000 d7 96 70 3e f8 df a1 bd
       0.23495041 -0.07904047

decoder.1.weight f4 [2, 32, 7, 7]
000000 e4 1b 2c be df 16 b2 3d 41 69 aa 3e c8 8f 46 3f
       -0.16807514 0.086957686 0.33283427 0.7756314
000010 26 86 55 3f c9 be 91 bd a3 02 39 3f cc f5 b9 3d
       0.8340782 -0.071164675 0.7226965 0.09080085
000020 c0 88 4a 3d 74 18 74 bd 28 d5 e1 be 73 4c 57 bf
       0.04944682 -0.059593633 -0.44107938 -0.8410103
000030 f4 47 73 be 9c 5d 87 be 47 5e 08 be 6d f8 e6 bc
       -0.23757917 -0.26438606 -0.13317214 -0.02819463
000040 d6 fb ac bc fa 3d 1a bf 0e 88 45 bf 17 34 87 be
       -0.021116178 -0.6025082 -0.7716073 -0.2640693
000050 99 86 9a be f7 24 63 be 3e 31 0f bd cc 0e 80 bc
       -0.30180815 -0.2218207 -0.03495907 -0.015632056
000060 8b 17 94 be b5 63 e0 be 4c d1 99 be 7e 80 b0 3d
       -0.28924212 -0.4382607 -0.30042493 0.08618258
000070 17 90 a5 3d 5e a8 a5 be f4 1e a1 bc 39 cf f7 be
       0.080841236 -0.32355016 -0.01966808 -0.48400286
000080 c4 a0 13 bf 8a 41 bd bd 10 98 be be 93 0f 03 bc
       -0.57667184 -0.09241016 -0.3722539 -0.007999319
000090 8e 55 6d 3d 4e 1c c4 be aa 01 59 bf 43 37 64 be
       0.05794292 -0.38302845 -0.84768164 -0.22286706
0000a0 bf 27 a4 3c a9 e4 fe 3c 3a bd 94 be 35 4d a5 be
       0.020038484 0.031114893 -0.29050618 -0.32285467
0000b0 68 10 72 be e6 e6 1f be b7 cf cf bd 76 8c 6b bd
       -0.23639071 -0.15615425 -0.1014704 -0.057507
0000c0 7d 8e a3 bc a1 4a f7 bd 76 4a d6 be 81 e8 22 3c
       -0.019965405 -0.12074781 -0.41853684 0.009943129
0000d0 b8 a4 ff be 5d 90 5d 3f fa d0 d8 3e 0f b8 52 bf
       -0.49930358 0.86548406 0.42346936 -0.823121
0000e0 8f 47 8e bd 1d e6 35 bd cb 98 4c bb ff 59 76 3e
       -0.069472425 -0.044408906 -0.0031219001 0.24057768
0000f0 7f 86 ba 3e 93 3a fa be 37 f0 b1 be dc a5 16 3e
       0.36430737 -0.48872814 -0.34753582 0.14711708
000100 db cd 71 be b0 4f 7f 3d c1 36 af be be 35 67 bf
       -0.23613684 0.062331855 -0.3422146 -0.9031638
000110 95 be df bc 9a ea 96 3e bd 4b d6 3c 63 50 17 be
       -0.027312556 0.29475862 0.026159162 -0.14776759
000120 f1 ba ae bd b0 f6 8c 3d 82 69 16 bc 3c 35 d6 be
       -0.0853175 0.068829894 -0.009180428 -0.4183749
000130 b0 59 62 39 88 94 37 be f7 ac 71 bd 56 db 67 bb
       0.00021586451 -0.17927754 -0.059002843 -0.0035378537
000140 0b 68 81 bb 9a d7 62 3e d6 bd a7 3c 95 86 49 3e
       -0.0039491705 0.22152558 0.020476263 0.19680245
000150 05 5a 87 3e 37 0f f1 3a e0 0c 0e be e6 d6 f0 bd
       0.26435867 0.0018391375 -0.13872099 -0.117597386
000160 cb b3 29 3e 15 24 76 bc 3e ed cc ba 6e 3d 46 3c
       0.16572492 -0.015023251 -0.0015634669 0.012099607
000170 af 22 b4 bd c4 45 19 3e a4 9a 5c 3e 2b 4b af 3d
       -0.08795678 0.1496802 0.21543366 0.08559259
000180 0c 49 4d 3b d7 ad d2 bd 45 d8 8f 3e 23 36 a6 3d
       0.0031324057 -0.102870636 0.28094688 0.081157945
000190 11 e2 2d be 9f 65 c7 be d7 f7 60 be 33 c2 39 3e
       -0.16980769 -0.38944718 -0.21969543 0.18140487
0001a0 f1 20 42 3e 54 ff 48 3e ae 7e 19 be 2f 04 48 be
       0.18957879 0.1962865 -0.1498973 -0.19532846
0001b0 34 b1 d0 be e4 a6 32 bf cf e2 5a bf df 43 7d bd
       -0.40760195 -0.69785905 -0.8550233 -0.061832305
0001c0 11 a9 83 3e 87 ec 08 be 2c 23 76 be bb e4 4f be
       0.25714925 -0.13371478 -0.24036855 -0.20302097
0001d0 c6 01 00 bf 05 93 a2 be 92 43 47 bf 67 70 ea 3d
       -0.50002706 -0.31752792 -0.7783748 0.1144722
0001e0 68 8c e4 3c 07 39 a7 bd ad cb db bd e5 31 33 be
       0.027898982 -0.08165174 -0.107322074 -0.17499502
0001f0 5a fa e5 bd b4 ba ed bd 49 1e 4e 3d 67 de 24 3e
       -0.112293914 -0.116078764 0.05032185 0.16100465
000200 77 bb 29 3d d2 a5 c6 be b5 bf 02 be e8 76 3e 3e
       0.041438546 -0.38798386 -0.12768443 0.18600047
000210 11 74 dc bd 0e af 48 3e 97 68 e5 be b2 a1 c8 be
       -0.107643254 0.19598028 -0.44806358 -0.39185864
000220 ad 1b d7 be 97 f0 d8 be f1 39 83 bc 41 55 86 3d
       -0.42013302 -0.42371055 -0.01601884 0.0655923
000230 10 00 87 3e 26 42 76 3e 2e 3c 60 bc 1f 79 db 3d
       0.26367235 0.24048671 -0.013686223 0.107164614
000240 bd e8 95 3d 08 d5 c5 3d 05 ca 8a bd 73 c9 d4 3b
       0.07319782 0.09659773 -0.067768134 0.006493741
000250 fa 43 78 3d b9 dc fe bb 42 5e 56 bc 31 3a 2b bd
       0.060611703 -0.007777777 -0.013083996 -0.041803543
000260 af 26 c6 bc 5b 52 3b 3c 49 3b 33 3c 9b b4 8f bc
       -0.024188368 0.011433209 0.010939428 -0.017542174
000270 64 a2 5d bb f6 81 cb bd e0 ee 98 bb d0 1a f7 be
       -0.0033818716 -0.099368975 -0.004667148 -0.48262644
000280 42 cc 76 be ba dd 71 3b 6c a6 e1 bb 2f 1c 11 be
       -0.24101356 0.003690584 -0.006886294 -0.14170907
000290 58 13 0b be 94 c3 06 bd 7d 97 19 be b3 06 09 3e
       -0.13581598 -0.03290136 -0.14999194 0.13381462
0002a0 60 d4 cf 3a 3d d4 40 bc 79 cd 36 be 23 04 81 bc
       0.0015856139 -0.011769352 -0.17851819 -0.015749043
0002b0 68 86 37 3e cb fe de bd 08 df 3b bd e4 a7 5d 3b
       0.17922366 -0.10888442 -0.045866996 0.0033821994
0002c0 44 14 75 bc ae c7 54 bc 7a 23 90 bf 1c c9 57 bf
       -0.014958445 -0.0129870605 -1.1260827 -0.84291244
0002d0 40 63 60 bc 6f 5b 38 be 22 41 c6 bb 2f bb 2d bc
       -0.013695538 -0.18003629 -0.006050245 -0.01060371
0002e0 1d 9a 08 bf d0 57 0a bf 10 c5 90 bd 84 1c 06 3e
       -0.5336016 -0.5404024 -0.07068837 0.13096815
0002f0 30 1c cf bd f5 7d 6b 3e a8 fc 0d 3e 2d 4e 93 be
       -0.10112798 0.22997268 0.13865912 -0.2877058
000300 18 30 96 3e f4 d7 33 3e 61 ef eb 3d ab f2 03 3d
       0.29333568 0.17562848 0.11520267 0.032213848
000310 be 33 6c 3f d9 95 da 3e 39 97 75 be 95 54 f4 bd
       0.9226645 0.4269245 -0.23983468 -0.11930195
000320 c3 f8 a5 be 4d 7c 11 3f 06 73 b3 3f 95 4d 88 3f
       -0.32416353 0.5683029 1.4019477 1.0648676
000330 7d 77 4f 3d 87 c7 71 be 1c 2f a4 3d 3f 15 ca be
       0.050651062 -0.2361127 0.08016798 -0.39469334
000340 c7 ce 04 3e 14 cf 92 3d 2d f6 e2 3e 36 0f 22 3d
       0.12969504 0.07168403 0.44328442 0.039565288
000350 bb 76 f7 3c 48 5f 2b be 93 13 6d bd 5a f4 83 bd
       0.030207982 -0.16735566 -0.057879996 -0.06443091
000360 f6 8a 9f 3e 85 9e 24 3f 1f 0e 8f bd 19 e2 3f be
       0.31160706 0.6430438 -0.06985115 -0.18738593
000370 7a f3 7b bd f5 50 ff bc 43 1c 0f be ee 3a 39 ba
       -0.061511494 -0.031166533 -0.13975625 -0.0007065971
000380 c3 ce b1 3e 1b 8b 9f be d5 f3 41 bd b7 32 e5 bd
       0.3472806 -0.31160817 -0.047351677 -0.11191314
000390 4d 19 08 bd f7 b5 c0 bc 5d bc c5 3d b1 a6 a2 3e
       -0.033227254 -0.023524268 0.09655068 0.317678
0003a0 73 f1 51 3e b6 4b cd bd a7 89 1d be ff e0 02 be
       0.20502262 -0.10024206 -0.15384541 -0.12781142
0003b0 1d 0b 37 bd 76 0b 5a 3e 0c 29 0b 3f 3c 33 2e 3f
       -0.044688333 0.21293435 0.5435951 0.6804693
0003c0 7e b4 ca 3e 5c ab 3f 3e d2 9d 81 3e cd 8b 3a 3e
       0.3959083 0.18717712 0.2531572 0.18217392
0003d0 67 57 cc bd db a3 e9 3c 6b e9 4e 3e ad 44 ff 3e
       -0.09977608 0.028520515 0.2020623 0.49857083
0003e0 e1 04 e1 3e 8a 4e 5d 3f 9a d0 11 3f e9 b5 18 3f
       0.43949035 0.86447966 0.56958926 0.5965257
0003f0 f9 04 ba 3e 28 a0 43 3e 2e 45 09 bd d5 83 28 3e
       0.3633192 0.19104064 -0.03351324 0.1645654

decoder.1.bias f4 [32]
000000 ea 2e b4 3f 8b 63 46 bf dc 69 e7 3e e5 9a 74 bf
       1.4076817 -0.7749564 0.45197952 -0.9554885
000010 69 43 2d 3c 62 db db bc 67 5c b2 be f3 4f d2 bf
       0.010575154 -0.026838008 -0.34836122 -1.6430649
000020 fb de 2f bf 2e f1 20 3f 5f 4f 38 be 36 31 39 be
       -0.68699616 0.6286801 -0.17999028 -0.18085179
000030 3f 91 a6 be fe 8f b2 be 06 d7 c5 3e 07 20 36 3f
       -0.3253269 -0.34875482 0.38640612 0.7114262
000040 97 02 58 be 38 0c fc 3b c7 70 8b bf ec 72 7d bf
       -0.21094738 0.0076918863 -1.0893792 -0.9900348
000050 9a 8f c1 3f c4 6f ba 3e 3a ab 4c bf ea d3 53 3e
       1.5121949 0.36413395 -0.7994877 0.20686308
000060 69 7b 74 bf 91 a5 f6 3d 13 b1 1a bf eb ec 60 3f
       -0.9550081 0.12043298 -0.60426444 0.8786151
000070 e5 8f 81 3f 17 c3 10 be 19 76 34 3f b3 14 70 3e
       1.0122038 -0.14136921 0.704927 0.23445396

decoder.3.weight f4 [32, 16, 3, 3]
000000 4a 0d b9 3e 63 6e 6b 3e 41 f2 20 be f8 07 d7 3e
       0.3614295 0.22991328 -0.15717413 0.41998267
000010 a7 37 0c 3f b5 89 49 3e f7 3f d6 3c e2 87 ee bd
       0.5477242 0.19681437 0.026153548 -0.11647011
000020 bf 79 ec bd 8c 28 72 be ec ac 70 be 9c 10 58 be
       -0.11546659 -0.2364828 -0.23503464 -0.21100086
000030 96 98 64 3e 17 c2 7b 3e b8 33 bd 3d a3 f5 61 3e
       0.22323832 0.24585758 0.0923838 0.22066359
000040 e6 75 6b 3e d5 08 a8 3d d8 27 00 be 43 f0 24 3e
       0.22994193 0.082048096 -0.12515199 0.16107278
000050 4e 71 77 be 57 d5 b0 3e 80 5d 40 3e 04 f8 82 3e
       -0.24164316 0.34537765 0.18785667 0.25579846
000060 47 76 ba 3d 0e a4 fa bc e6 e6 a1 bd 37 f9 3c bd
       0.09104591 -0.030595805 -0.079053685 -0.046136107
000070 76 68 e3 3d 11 59 82 3e 7f 90 50 be 55 2d ee 3e
       0.11103909 0.25458577 -0.20367621 0.4651896
000080 ad 15 03 bf 2e 58 13 be 00 4e 90 3c bf bf e2 bd
       -0.5120495 -0.14389107 0.017615318 -0.11071729
000090 fb d4 d0 3d f1 ef bb 3e 70 8f d5 bd 9e cf 20 3e
       0.10196873 0.36706498 -0.10427749 0.157042
0000a0 19 59 d7 3c 1e 50 ca be 66 92 66 bc 0a 75 0b 3e
       0.026287602 -0.3951425 -0.01407299 0.13618866
0000b0 e9 0d bd 3e 0d c8 71 be 22 79 03 be 03 fb b0 3d
       0.36924675 -0.2361147 -0.12839177 0.08641627
0000c0 9b c3 fb be 0e 16 9c be dc fa b1 bc 16 53 b3 be
       -0.49172673 -0.30485576 -0.021726064 -0.35024327
0000d0 0e d5 cf bd 9c c6 42 3e 23 aa ea bc 15 06 10 3e
       -0.10148059 0.19021076 -0.02864558 0.1406482
0000e0 f7 bc eb ba 41 6c a2 3e 61 1e c7 3e 7d f8 ac 3e
       -0.0017985393 0.31723216 0.38890365 0.33783332
0000f0 9b de d8 3e a1 96 af 3e 82 92 a1 3d 43 92 c4 bc
       0.42357334 0.34294608 0.07889272 -0.023995524
000100 66 17 75 bc 58 7b d9 3d 77 4c 08 3e 4b 6e 10 3e
       -0.014959192 0.10619229 0.13310419 0.14104573
000110 ac 30 56 3e 38 6f 8f bd 50 aa fa 3d 08 a7 ca bd
       0.20917004 -0.07003635 0.12239516 -0.0989514
000120 44 aa 0b be b0 3b 1c bf 17 46 53 3b 5e 53 2e 3c
       -0.1363917 -0.61028576 0.0032237822 0.0106399935
000130 df 18 1f 3e b4 1b 0e bb 52 46 94 3e f9 07 1d bd
       0.15536831 -0.0021683993 0.289599 -0.03833768
000140 a8 3b 23 bc 94 31 bb bc 0f b5 12 3e 95 a6 c1 bc
       -0.009962954 -0.02285079 0.14326881 -0.023639003
000150 e1 6e 07 bf d1 1b bf 3e 62 0a 04 3f 18 26 a9 be
       -0.5290356 0.3732591 0.5157834 -0.33036876
000160 3f 14 19 be 32 15 1a be 11 de 91 bc cc d1 19 3e
       -0.1494913 -0.15047148 -0.017806085 0.15021437
000170 2d d6 3d be dd af 26 3f 32 21 1f 3f 04 16 ac 3e
       -0.18538733 0.65112096 0.6216003 0.33610547
000180 cd 68 70 3d 67 5b 13 3e 9e 81 14 be d5 07 90 bd
       0.058693696 0.14390336 -0.1450257 -0.07032744
000190 0e 93 89 3e 42 f1 ac 3d 01 6c 66 3b f2 b7 b6 3e
       0.26870006 0.08444454 0.003515959 0.35687214
0001a0 7c f2 e6 3e a8 1b 24 be dd c8 d8 3d 93 dd 0a bc
       0.45106876 -0.16026175 0.10585187 -0.008475679
0001b0 c4 d3 d1 be aa 41 5a 3e 8d c4 d6 bd de 0d a3 3e
       -0.40981877 0.21314111 -0.10486708 0.31846517
0001c0 7b 1f 87 bd 8d 46 b3 be 53 ed d7 be 13 d2 25 3e
       -0.06597801 -0.35014763 -0.42173252 0.16193418
0001d0 94 9e de 3c 09 4f 4b be 9d e4 a2 3e 80 3c 9b 3d
       0.027175225 -0.19854368 0.31815043 0.07579899
0001e0 2e f6 01 3e ae 66 06 3d 28 1a 3e be 16 45 43 3e
       0.12691566 0.032812767 -0.18564665 0.19069323
0001f0 49 be 99 3e d8 8b 29 be 22 61 14 3e df 40 0c be
       0.3002799 -0.16557252 0.14490178 -0.13696621
000200 32 14 ab 3d b5 1c 80 3e 06 d6 ac 3d fb f7 34 3d
       0.08353461 0.25021902 0.08439259 0.044181805
000210 94 2d 2c 3e 0c c0 83 3d fb ce 91 3d bb a6 91 be
       0.16814262 0.064331144 0.071195565 -0.28447518
000220 69 c6 a6 bd ee cc bb be a9 be 2f 3e 15 44 9d 3d
       -0.081433125 -0.36679786 0.17162575 0.07679001
000230 f0 19 46 be 29 5d 8f 3e 2d 25 5c be 81 6b 79 be
       -0.19345832 0.28000763 -0.21498556 -0.24357416
000240 87 8a 2d 3e 07 38 b0 bd 05 2a f7 be 56 d0 92 3e
       0.16947375 -0.08604436 -0.48274246 0.28674573
000250 5f af b7 be db c4 eb 3d 8f eb 06 be 1a b9 07 3e
       -0.35875985 0.115121566 -0.13175796 0.13254204
000260 ae 74 10 3e 19 cf 1c be dd 0b 9e be 67 61 22 3d
       0.1410701 -0.15313376 -0.30868426 0.03964367
000270 cc 5f 2f 3e f5 db 2a 3e d8 ea 89 3e 2b 7f 6c bc
       0.17126387 0.1668547 0.26936984 -0.014434616
000280 51 e4 4a bc 7b 55 d6 be d7 c4 22 be 96 24 c6 be
       -0.012383536 -0.4186209 -0.15895401 -0.38699788
000290 af 19 b3 3d 6f 4f 8d 3e 47 ed c8 3c e5 e5 4c 3d
       0.08745133 0.27599666 0.024527205 0.050023932
0002a0 1d 5b 07 be 41 df 7a 3e 3f 00 06 be aa 3d e7 3c
       -0.1321835 0.24499227 -0.13086031 0.028227646
0002b0 20 02 81 3c fc 34 0d 3e e0 9e b3 3d f8 eb a9 3e
       0.015748084 0.13789743 0.087705374 0.33187842
0002c0 08 9c 52 bd e4 16 17 be 44 b2 95 3e 1a b8 45 be
       -0.051418334 -0.14754826 0.29237568 -0.1930851
0002d0 ce cb 01 3d 3a c8 51 3d ce f7 cc 3d 4c b0 94 3d
       0.031688504 0.05121634 0.100082025 0.072601885
0002e0 5c 22 30 bd a0 9f 66 3e c9 03 a8 be 69 18 87 3d
       -0.043001518 0.2252183 -0.32815388 0.06596453
0002f0 07 6a fb 3c 9b f9 df bb 7e cf 5b bd 80 6e b3 3d
       0.030690206 -0.006835175 -0.053664677 0.087613106
000300 30 84 8d be d9 0c e9 bd da e7 52 bd 23 0d 45 be
       -0.27639914 -0.113794036 -0.051490642 -0.19243293
000310 9b 6d 5d 3e 05 70 7a 3e 22 63 28 3e 83 75 ab 3d
       0.21623842 0.24456795 0.16444066 0.08372023
000320 d0 53 e6 3d 41 4a d4 3d 82 1d 24 be 1c b5 80 be
       0.11246455 0.10365725 -0.16026881 -0.25138175
000330 a9 e7 95 3c 76 b7 8d 3d 7a d5 6d be 75 3b 1b bd
       0.01829894 0.06919758 -0.23225966 -0.0378985
000340 2d fc fc 3d 3e 38 c1 bd ec 6c f5 3c 69 60 1e bf
       0.12352786 -0.094345555 0.029959165 -0.6186586
000350 63 a8 ee bd fe ea 07 bf 8f e8 aa be a1 64 c1 bd
       -0.11653211 -0.53092945 -0.33380553 -0.094430216
000360 6b 38 e2 3b 9b 83 b2 3d 67 0f 2a 3e 44 68 2f bd
       0.006903698 0.08716508 0.16607438 -0.042824045
000370 d0 88 08 3d e6 7f 01 3e cf 6b de bd ed 7c 2f be
       0.0333336 0.12646446 -0.108604066 -0.17137499
000380 56 2f 65 be 7b 07 fe 3d 7c 2c f2 bc 02 65 02 be
       -0.22381338 0.124037705 -0.029562227 -0.12733844
000390 b7 cf c0 3d b0 23 e3 bd c3 bc eb 3d 27 8e 36 bf
       0.094146185 -0.11090791 0.11510613 -0.7131066
0003a0 e2 8e c2 bc d6 40 79 be fe 58 af 3c 5f 42 92 be
       -0.023749772 -0.24341139 0.02140474 -0.28566262
0003b0 77 09 e3 bb f4 ab ac bd 1f 84 26 bd 99 88 8e 3e
       -0.0069286185 -0.08431235 -0.040653344 0.2783859
0003c0 0c cf 0e bb cf 37 73 3e f3 e4 10 be 4b e2 e4 bc
       -0.002179089 0.23751758 -0.14149837 -0.027939936
0003d0 bb 40 c4 3d a5 a3 05 3e ae a4 40 be c4 d3 23 3f
       0.09582659 0.13050707 -0.1881282 0.63995004
0003e0 38 ed 3a 3e 13 58 de 3c 16 e6 b0 3d 9a fc 69 be
       0.18254554 0.027141606 0.086376354 -0.22850266
0003f0 a7 8d 01 bf e8 0a 3e 3e 97 fd 85 3e a2 56 d9 be
       -0.5060677 0.18558848 0.26170036 -0.42448908

decoder.3.bias f4 [16]
000000 6e b8 31 3e 64 9a a1 3e ef 9a 80 3e b0 d2 aa be
       0.1735551 0.31563103 0.25118205 -0.33363867
000010 b5 39 ff be 61 bc a9 be 0e 8f 01 3f 57 ba 9f 3e
       -0.49848714 -0.33151534 0.5060891 0.31196854
000020 6f 2d 42 3e f4 99 a6 3e a8 38 68 3d 14 7e cb 3d
       0.18962644 0.32539332 0.056694657 0.09936157
000030 a2 9c 3e be ac 96 cf be 93 2f b6 3e 58 23 ef be
       -0.18614438 -0.4054464 0.3558317 -0.46706653

decoder.5.weight f4 [16, 1, 3, 3]
000000 6b fd 04 3f c9 ee 7a 3f 86 0d 16 3f 01 fa 72 3f
       0.51949185 0.9802061 0.58614385 0.94912726
000010 f0 c9 bb 3f e7 45 32 3f bc bd 14 3f f5 43 47 3f
       1.4671001 0.6963791 0.5810201 0.7783807
000020 78 14 8c 3e 6a d2 04 bf 06 cc 39 bf 93 fa bc be
       0.27359366 -0.51883566 -0.7257694 -0.36909923
000030 9c ab 60 bf e4 3f 8a bf cf ca e3 be d7 11 cd be
       -0.87761855 -1.0800748 -0.44490668 -0.40052673
000040 94 a3 9f be c4 22 fd bb d7 82 6e 3e 72 98 84 3c
       -0.31179488 -0.0077250917 0.23292099 0.016185973
000050 91 10 27 be 9a 0b 9f 3e 81 22 cf bd a2 c2 ab be
       -0.16314913 0.3106354 -0.10114003 -0.3354693
000060 eb 0d 02 bd 3a 15 fe be 8a 1d e3 be 51 97 bd be
       -0.031751554 -0.4962557 -0.44358474 -0.37029508
000070 6b 37 56 bf 56 ea 25 bf 5e 76 7a bf 96 ce e9 bf
       -0.8367831 -0.64810693 -0.97836864 -1.826617
000080 b1 c4 91 bf a1 70 39 bf 54 29 9d bf 97 2f 23 bf
       -1.138815 -0.72437483 -1.2278237 -0.6374449
000090 5e 71 41 3e 46 1d f3 3e 2a 34 b3 3e ea be 0a 3f
       0.18890902 0.4748327 0.35000736 0.5419756
0000a0 95 cc 7c 3f 6c 06 1b 3f 1a 09 bc 3e 2f 9a 17 3f
       0.9874967 0.60556674 0.36725694 0.5921964
0000b0 48 e4 98 3e 00 9c 08 bf b2 9d 8a bf 0a 89 3b bf
       0.29861665 -0.5336304 -1.0829375 -0.7325598
0000c0 65 30 9b bf 26 5c 01 c0 de 02 94 bf ae ff 4c bf
       -1.2124144 -2.0212493 -1.1563375 -0.80077636
0000d0 de b5 9a bf 99 87 14 bf 19 bb 92 be e6 6e 2c bf
       -1.2086751 -0.58019406 -0.2865837 -0.6735672
0000e0 c7 41 e1 be 83 29 31 bf f2 97 a3 bf 25 b9 2b bf
       -0.43995497 -0.69203967 -1.2780745 -0.67079383
0000f0 ed 5a d1 be 81 97 22 bf fa 1a 83 be f6 99 c9 3e
       -0.40889683 -0.63512427 -0.2560652 0.39375275
000100 be 9e 52 3f 27 cd 09 3f f5 a9 51 3f 6f 6c ab 3f
       0.8227347 0.5382866 0.8189996 1.3392466
000110 01 fc 3c 3f 6f 00 08 3f 21 42 43 3f a7 d9 b0 3e
       0.7382203 0.5312566 0.7627278 0.34541056
000120 42 ec 4e 3e 6b 48 ca bc b4 ef ac be bb 9a 25 3d
       0.20207313 -0.024692735 -0.3377663 0.040430766
000130 8c 43 0d bf fb 11 44 bf c4 db 4f be 96 de 3a bf
       -0.55181193 -0.76589936 -0.20298678 -0.7299589
000140 40 d6 2f bf 5b 6a cc 3e 78 48 5a 3f fa ee 23 3f
       -0.68686295 0.39924893 0.8526683 0.64036524
000150 32 03 6f 3f 51 04 ce 3f b7 9c 82 3f 55 5e 2d 3f
       0.9336425 1.6095067 1.0204076 0.67722064
000160 49 67 82 3f 12 84 09 3f 70 d9 b4 be f4 1d 16 bf
       1.018777 0.5371715 -0.35322142 -0.58639455
000170 ae 4b b2 be 36 e5 43 bf f2 0b 8e bf 8f 23 08 bf
       -0.34823364 -0.76521623 -1.1097395 -0.5317926
000180 0d 76 be be 12 12 d2 be 78 90 d4 bd a5 34 da bd
       -0.3719944 -0.41029412 -0.10379118 -0.106545724
000190 04 65 ca be b4 02 4f be f6 a8 f8 be d2 c5 7e bf
       -0.39530194 -0.20215875 -0.48566407 -0.995206
0001a0 0c 3e dd be 51 8c ac be 84 a0 1e bf 5d ac 77 be
       -0.432114 -0.33700803 -0.6196368 -0.24186845
0001b0 49 1c 2f 3e 48 ab f0 3e c1 48 c9 3e 4a 62 e3 3e
       0.17100634 0.47005677 0.3931332 0.44410926
0001c0 dd e3 5d 3f 5b 4a 1d 3f b7 e5 a6 3e 8b 11 12 3f
       0.86675817 0.6144158 0.32597134 0.5705802
0001d0 3d f4 b2 3e 77 00 a0 3e 15 5a 38 3f f7 34 f9 3e
       0.34951964 0.31250355 0.72012454 0.4867322
0001e0 05 e4 22 3f 8b 24 96 3f 25 e9 2c 3f a2 b8 d8 3e
       0.6362918 1.1729902 0.6754325 0.42328364
0001f0 c9 1c 2d 3f ca c6 a4 3e 0c 9a c2 3e d2 df 75 3f
       0.6762205 0.32182914 0.38008153 0.9604465
000200 02 1b 2c 3f 94 93 77 3f 07 26 f3 3f 38 88 91 3f
       0.6722871 0.9670956 1.899598 1.1369696
000210 3c 1f 34 3f 79 ad 8d 3f 6d b6 09 3f 1b 06 ad 3e
       0.7036016 1.1068565 0.53793985 0.3379372
000220 99 fc 4a 3f 92 a6 0a 3f 07 26 50 3f a8 2b ba 3f
       0.79291683 0.54160416 0.81308025 1.4544573
000230 1f dd 58 3f de 80 10 3f 0f e9 60 3f 53 7a e1 3e
       0.84712404 0.56446636 0.8785562 0.44038638
