02-Autoencoder/01-PT-MNIST-basic/cnn16-cropped-autoencoder.pth (torch, 242881 bytes, 11 tensors)

encoder.0.weight f4 [16, 1, 3, 3]
-0.14378987 0.16658543 -0.15712729 0.15854686 -0.053191572 0.032989934 0.20116916 -0.10653678
0.17803487 0.21895906 -0.06403117 -0.14349307 -0.3921116 -0.44342008 -0.04898587 0.17284621
0.17249452 0.5274498 0.13006893 0.16698398 0.16974615 0.072402485 0.21209185 -0.175494
-0.1018899 -0.12916462 -0.11290875 0.37429202 0.12588444 0.23359683 -0.10261027 -0.18339145
-0.34074327 0.22602186 0.091397166 -0.29029888 0.007910318 -0.044300452 0.38827783 -0.067775026
-0.1813314 0.177079 -0.23314774 -0.25074986 0.19705586 0.14503767 0.18154436 0.09113106
0.070769444 0.06970041 0.26770285 -0.16444013 0.03266614 -0.12715214 0.10871822 -0.12854494
-0.09808849 -0.05072002 0.017690422 0.02340737 -0.13657667 -0.18987048 0.34706435 -0.18325086
-0.043493733 -0.21243694 0.11054408 -0.06383774 -0.094948806 0.3498966 0.021984022 -0.041594323
0.38543883 -0.103013255 -0.19861154 0.015453671 -0.14545648 -0.24769843 0.34381863 0.18818569
-0.00935878 -0.3712939 -0.5045875 -0.7430783 -0.41861454 0.3592487 -0.49634656 -0.57917166
-0.7264514 -1.4487667 0.17167448 0.12345341 -0.009828839 0.16061828 -0.29373857 0.08758514
-0.1792723 0.006738202 0.20076454 -0.1591061 0.28556433 -0.20131774 0.004015515 0.30605683
-0.16323751 -0.33358592 0.2388201 -0.58886445 -0.49774364 -0.30408853 0.12643138 -0.7548714
-0.13003747 0.16114637 -0.51777667 0.16218694 0.36282605 -0.14639218 0.013946067 -0.22423995
-0.15777265 -0.13056616 -0.18960546 -0.08469071 0.003201469 0.025761396 -0.25915757 0.2783964
0.17161629 0.23720644 0.09888576 -0.007125233 0.2168002 -0.021241711 -0.062621586 0.043367635
0.0030255 -0.09564781 0.29016936 0.1560703 0.058047295 0.079279125 0.21322002 0.30576792
00000000: a73d 13be 5f95 2a3e fae5 20be 1c5a 223e
00000010: 68df 59bd 7420 073d 4aff 4d3e f52f dabd
00000020: c64e 363e ce36 603e c622 83bd d9ef 12be
00000030: dac2 c8be f507 e3be 68a5 48bd 99fe 303e
00000040: 67a2 303e f306 073f ca30 053e d9fd 2a3e
00000050: efd1 2d3e c147 943d 9b2e 593e b3b4 33be
00000060: a7ab d0bd bb43 04be b43c e7bd 34a3 bf3e
00000070: dae7 003e 0234 6f3e 5525 d2bd f8ca 3bbe
00000080: e775 aebe 4672 673e 702e bb3d 0ea2 94be
00000090: 479a 013c 6474 35bd 5acc c63e a2cd 8abd
000000a0: f0ae 39be 3354 353e 48be 6ebe 4962 80be
000000b0: 03c9 493e c184 143e c4e6 393e eca2 ba3d
000000c0: 92ef 903d 17bf 8e3d 5910 893e fe62 28be
000000d0: eecc 053d 2c34 02be a8a7 de3d 49a1 03be
000000e0: 9ee2 c8bd ccbf 4fbd 81eb 903c d0c0 bf3c
000000f0: c1da 0bbe 686d 42be 6bb2 b13e 1da6 3bbe
00000100: 7c26 32bd 1289 59be ef64 e23d 5cbd 82bd
00000110: 8574 c2bd a625 b33e d617 b43c cf5e 2abd
00000120: 3d58 c53e 9df8 d2bd d360 4bbe 6531 7d3c
00000130: 8bf2 14be a8a4 7dbe ff08 b03e c0b3 403e
00000140: 9255 19bc 3c1a bebe a52c 01bf 613a 3ebf
00000150: a554 d6be 72ef b73e 2321 febe 9844 14bf
00000160: b8f8 39bf 3071 b9bf 6fcb 2f3e 24d5 fc3d
00000170: 2409 21bc 1e79 243e e764 96be d65f b33d
00000180: 2893 37be 23cc dc3b 3895 4d3e b6ec 22be
00000190: 7d35 923e 3d26 4ebe 9594 833b 7bb3 9c3e
000001a0: bc27 27be c6cb aabe 428d 743e d2bf 16bf
000001b0: 41d8 febe 7eb1 9bbe 3a77 013e 413f 41bf
000001c0: 8b28 05be 8e03 253e 038d 04bf 5514 263e
000001d0: 56c4 b93e d5e7 15be 0b7e 643c 289f 65be
000001e0: 278f 21be 23b3 05be ef27 42be 5372 adbd
000001f0: bdcf 513b 9009 d33c 4db0 84be f989 8e3e
00000200: 2ebc 2f3e 3fe6 723e 9e84 ca3d c97a e9bb
00000210: df00 5e3e 1903 aebc bf3f 80bd 43a2 313d
00000220: 7847 463b 00e3 c3bd 1491 943e e5d0 1f3e
00000230: 00c3 6d3d 185d a23d 5956 5a3e 9d8d 9c3e

encoder.0.bias f4 [16]
0.09533998 -0.004556682 0.04585718 -0.0016631366 -0.0005393602 -0.08242168 0.12247862 0.07402965
-0.00031902976 0.26315254 -0.004616208 0.025359029 0.041458294 -0.21504019 -0.21754445 -0.123161346
00000000: 9c41 c33d 3850 95bb bdd4 3b3d 9bfd d9ba
00000010: da63 0dba b3cc a8bd 12d6 fa3d db9c 973d
00000020: 7343 a7b9 eebb 863e 8f43 97bb bdbd cf3c
00000030: 2cd0 293d 7f33 5cbe f9c3 5ebe 043c fcbd

encoder.2.weight f4 [32, 16, 3, 3]
-0.10230844 -0.13564754 0.06137126 -0.038958568 0.06972194 0.078126535 -0.09408351 -0.063477196
0.012453056 -0.26723996 -0.4220638 -0.23829265 -0.4159942 -0.40840563 -0.23783137 -0.33058137
-0.10889926 0.21637386 -0.036036953 0.034384985 0.08089475 -0.00880248 0.08124649 0.17007393
-0.077932365 0.08698854 0.113909744 -0.16584517 0.020022383 0.18624617 -0.048662927 -0.045428276
0.13746612 -0.028959634 0.09743353 0.17379878 -0.321436 -0.27009216 -0.111342095 -0.25534758
-0.024503449 -0.06297074 -0.072777554 0.040024072 -0.02382807 -0.1382886 0.040779877 0.14491475
-0.20302354 0.048921354 0.14866444 0.061557382 0.07597939 0.19241466 -0.097958416 -0.15296565
0.04588625 -0.24149156 -0.26186362 -0.007870966 -0.12611511 -0.2081801 0.080970466 0.31255865
-0.16810985 -0.23671043 -0.0956652 -0.03656152 -0.23223642 -0.22306393 -0.13494574 -0.0752718
-0.097361945 -0.1324211 -0.077005796 0.12186114 -0.12243088 0.07174636 0.009077449 -0.045347232
0.024787527 0.46587843 -0.34652573 -0.66918164 0.037513215 -0.17418261 -0.15207992 0.4838179
0.3807367 0.2905681 -0.1737036 0.11153109 0.07210881 0.081297986 0.13641745 0.06853507
-0.05019938 0.14014496 -0.029766656 0.30720046 -0.0022954252 0.3851878 -0.048584513 0.18766223
0.30486372 -0.028645335 0.1673655 -0.008293965 0.050776847 0.26254335 0.1900778 -0.02490912
0.03878286 0.13407724 0.21673094 0.047331158 0.013040569 0.038580842 0.013221674 0.002136536
0.001461565 0.046250504 0.047598775 0.004526521 -0.05449494 0.008532987 -0.06626341 -0.059098795
0.096003346 -0.08819699 -0.008666988 0.28480697 -0.035035573 0.14957738 0.3017777 -0.15732586
-0.15329726 0.12203295 0.14016008 0.13174666 0.2785466 0.044731624 0.02898743 0.16091982
0.052571647 0.13007627 0.054911416 0.116838224 0.08119716 0.111683674 -0.0016688955 0.08920016
0.08336829 -0.12629385 -0.02055595 0.18926673 -0.27193007 -0.09480053 0.12546962 -0.1697877
-0.15517429 -0.1866811 -0.04359306 0.08205098 0.049215943 -0.007852798 0.07627539 0.1253583
0.012329642 -0.010510651 0.034753487 -0.100382775 0.11615317 0.08819087 -0.06199944 0.07749289
0.1531643 -0.0754211 0.00090049376 0.12761994 -0.10219885 -0.05443729 -0.01393935 -0.19262995
-0.09191904 -0.13731444 0.065577805 0.031541932 -0.045616698 -0.088505864 -0.09412735 -0.054850053
-0.05420234 -0.0006736646 -0.049282547 0.028651629 0.04394374 -0.015109276 0.17221263 0.15492544
0.13264562 0.14293404 0.047505785 0.09288779 0.11596083 0.07992575 -0.012107185 -0.1208545
0.015230566 -0.012975403 -0.076120675 -0.15157144 0.023038195 0.11007472 -0.015099883 0.100016735
0.011931039 0.15704851 0.051951144 0.12701994 0.10623695 0.029141491 0.20152433 -0.043343548
0.070421666 -0.08790627 -0.062960766 -0.16127032 -0.12699836 0.04683484 -0.05578025 -0.08945111
-0.13410406 -0.044338837 -0.046008598 -0.0003622841 0.0042046383 0.028154286 -0.001512731 0.0659195
0.028715847 -0.021224773 0.043009307 -0.19093607 -0.08420307 0.047601547 0.01002442 0.033898402
-0.110079065 0.083030306 0.040751405 -0.2762383 0.09570433 0.041103687 -0.07523521 0.08252887
00000000: 1687 d1bd 30e7 0abe 6e60 7b3d 0593 1fbd
00000010: 60ca 8e3d ce00 a03d dbae c0bd 5500 82bd
00000020: e707 4c3c add3 88be bf18 d8be fd02 74be
00000030: 31fd d4be 8b1a d1be 118a 73be f641 a9be
00000040: 9306 dfbd 1c91 5d3e 7c9b 13bd 45d7 0c3d
00000050: 26ac a53d 4738 10bc 8f64 a63d dc27 2e3e
00000060: 019b 9fbd 0c27 b23d 8349 e93d 51d3 29be
00000070: fb05 a43c 51b7 3e3e c752 47bd 0013 3abd
00000080: ebc3 0c3e c13c edbc 3b8b c73d 4ff8 313e
00000090: 4293 a4be 8549 8abe 5307 e4bd ebbc 82be
000000a0: 75bb c8bc cef6 80bd 660c 95bd 48f0 233d
000000b0: 1633 c3bc 879b 0dbe cd08 273d 8864 143e
000000c0: 67e5 4fbe c261 483d 7e3b 183e 9823 7c3d
000000d0: 159b 9b3d 5908 453e 6c9e c8bd 07a3 1cbe
000000e0: 38f3 3b3d 9049 77be fd12 86be 39f5 00bc
000000f0: 5224 01be 2a2d 55be d8d3 a53d b007 a03e
00000100: fd24 2cbe 3864 72be 1eec c3bd 88c1 15bd
00000110: 62cf 6dbe df6a 64be 372f 0abe 1a28 9abd
00000120: b365 c7bd 6699 07be 37b5 9dbd 5592 f93d
00000130: 0bbd fabd c1ef 923d 95b9 143c 05be 39bd
00000140: 360f cb3c 9e87 ee3e d26b b1be 7d4f 2bbf
00000150: 75a7 193d ed5c 32be d7ba 1bbe fbb6 f73e
00000160: ecef c23e 58c5 943e 5bdf 31be 6a6a e43d
00000170: c9ad 933d 8f7f a63d 04b1 0b3e 1d5c 8c3d
00000180: dd9d 4dbd 2982 0f3e 34d9 f3bc 6149 9d3e
00000190: d86e 16bb 5637 c53e 8e00 47bd 872a 403e
000001a0: 1917 9c3e 9fa9 eabc dd61 2b3e 69e3 07bc
000001b0: 62fb 4f3d 156c 863e c1a3 423e 360e ccbc
000001c0: c7da 1e3d 8b4b 093e b7ee 5d3e 51de 413d
000001d0: 1ca8 553c f206 1e3d b89f 583c 2005 0c3b
000001e0: fc91 bf3a 2b71 3d3d eff6 423d 3653 943b
000001f0: 1636 5fbd f1cd 0b3c 1cb5 87bd 9411 72bd
00000200: 679d c43d a0a0 b4bd fcff 0dbc 38d2 913e
00000210: 7681 0fbd d02a 193e 9b82 9a3e 081a 21be
00000220: f5f9 1cbe 69ec f93d 2086 0f3e 99e8 063e
00000230: a99d 8e3e 8238 373d 0c77 ed3c 2ac8 243e
00000240: 5e55 573d b732 053e cbea 603d e148 ef3d
00000250: b24a a63d 69ba e43d d7be daba 93ae b63d
00000260: febc aa3d 2d53 01be f464 a8bc 23cf 413e
00000270: 6b3a 8bbe c826 c2bd 1c7b 003e d4dc 2dbe
00000280: 02e6 1ebe 5529 3fbe a38e 32bd 580a a83d
00000290: a896 493d 06a9 00bc 4636 9c3d ed5d 003e
000002a0: 4402 4a3c de34 2cbc ac59 0e3d 7c95 cdbd
000002b0: b7e1 ed3d 6a9d b43d 20f3 7dbd 98b4 9e3d
000002c0: 1ad7 1c3e 6176 9abd 1d0f 6c3a cdae 023e
000002d0: a14d d1bd a3f9 5ebd df61 64bc c940 45be
000002e0: 0d40 bcbd 289c 0cbe a84d 863d 1d32 013d
000002f0: 93d8 3abd 9042 b5bd d7c5 c0bd 73aa 60bd
00000300: 4603 5ebd de98 30ba 7fdc 49bd d2b6 ea3c
00000310: 5afe 333d e68c 77bc 8258 303e c6a4 1e3e
00000320: 41d4 073e 4d5d 123e 6d95 423d f43b be3d
00000330: df7c ed3d 1db0 a33d 375d 46bc 9082 f7bd
00000340: a089 793c c996 54bc 28e5 9bbd 8b35 1bbe
00000350: 99ba bc3c db6e e13d 8065 77bc 93d5 cc3d
00000360: 687a 433c 53d1 203e b9ca 543d 8411 023e
00000370: c292 d93d 23ba ee3c 655c 4e3e 0189 31bd
00000380: 3c39 903d 3408 b4bd 93f1 80bd 0c24 25be
00000390: dc0b 02be e4d5 3f3d d579 64bd 2532 b7bd
000003a0: 9352 09be a49c 35bd 8373 3cbd f3f0 bdb9
000003b0: 10c7 893b d1a3 e63c d446 c6ba ce00 873d
000003c0: 7f3d eb3c 93df adbc 872a 303d bf84 43be
000003d0: a972 acbd d7f9 423d 773d 243c 0dd9 0a3d
000003e0: 2271 e1bd cb0b aa3d f2ea 263d 1b6f 8dbe
000003f0: a200 c43d 575c 283d eb14 9abd e504 a93d

encoder.2.bias f4 [32]
0.017229166 0.08757897 0.09042813 0.08388494 0.0026632538 0.08320443 -0.11710065 0.09129698
-0.0053074816 -0.10287958 0.021031208 0.1292433 0.0352742 -0.036467895 0.13929886 0.07530944
0.00021637749 0.084574915 -0.1091976 -0.01627408 0.04498007 0.09505546 -0.034835864 -0.004961936
0.016825508 -0.019605808 0.0590993 -0.023816612 0.074522614 -0.16026781 -0.09615921 0.107390925
00000000: 2e24 8d3c 9a5c b33d 6232 b93d decb ab3d
00000010: fc89 2e3b 1667 aa3d 77d2 efbd e9f9 ba3d
00000020: 62ea adbb 87b2 d2bd a449 ac3c 5b58 043e
00000030: ae7b 103d 5c5f 15bd 5ca4 0e3e d63b 9a3d
00000040: 64e3 6239 9d35 ad3d fea2 dfbd 3851 85bc
00000050: 063d 383d 70ac c23d 0db0 0ebd bc97 a2bb
00000060: a6d5 893c 5c9c a0bc 1c12 723d 0e1b c3bc
00000070: 509f 983d 3f1d 24be 1fef c4bd c6ef db3d

encoder.4.weight f4 [16, 32, 7, 7]
0.043656733 0.120695196 0.11352019 0.15403476 0.16110046 0.08832047 0.15397592 0.16647224
0.032701857 0.03972921 0.016625311 0.019875411 -0.03821982 -0.093861446 -0.011689803 -0.11432281
-0.1306853 -0.11517235 -0.22020303 -0.2783949 -0.17682962 -0.087333724 -0.068097785 -0.035489544
-0.047255833 -0.1777369 -0.22347261 -0.0739482 -0.019433584 0.13122769 0.18437074 0.15106402
-0.04298776 -0.045930453 0.11973483 0.05459433 0.04075401 0.097434826 0.00097175664 -0.09293986
0.037418906 0.2490741 -0.032318924 -0.06325435 -0.056518253 -0.10719072 -0.0825296 0.054372776
0.15029483 -0.019677345 0.01748898 -0.022208037 -0.065063365 -0.041750945 -0.014439453 -0.013689781
-0.027595185 0.005545417 -0.011676061 -0.0440508 -0.07656735 0.042731952 0.020938847 0.11339727
0.022358077 0.06537731 0.04846455 0.16799659 0.11451029 -0.07931754 0.0022585196 -0.06182995
-0.071344845 0.058755457 0.17706583 0.13291419 -0.11345375 -0.16176146 -0.20496927 -0.12621233
0.011517888 0.034704957 -0.046590414 -0.088478036 -0.04538882 -0.056538153 0.03410705 0.046334587
-0.089994915 -0.17329355 -0.10237049 0.03670182 -0.020079574 0.06824349 0.077948146 -0.005182596
-0.14267929 0.08006613 0.0027388982 -0.005762451 -0.047089364 -0.06422306 -0.08116905 -0.020564303
0.0264518 -0.11892966 -0.06332945 -0.13674729 -0.21667689 -0.13419387 -0.15632717 -0.029704971
-0.0024515302 0.045475245 -0.014093041 -0.060562123 -0.03313512 0.060328186 0.107804276 0.11255946
0.072482295 -0.00062623806 -0.015426339 0.1437606 0.28036582 0.107517935 0.055881783 -0.17131989
-0.10090961 -0.013847222 -0.068321526 0.045486063 -0.042177156 -0.13419515 -0.09857701 -0.072181515
-0.065683044 0.03279881 0.10740416 -0.21995835 0.028699216 0.10832887 0.17464997 0.10853999
0.03280138 0.08758461 0.11085747 0.084792756 -0.01779601 0.045403056 0.029567378 -0.012445881
0.08591159 0.059052978 -0.12367386 0.06523522 0.08814813 -0.03996604 -0.026538068 0.064698316
0.0524408 -0.03200943 0.02717614 -0.036688168 -0.14367211 -0.094824314 -0.087007105 0.048153874
0.09552165 -0.0070322216 -0.12226924 -0.111363985 0.039340433 -0.13979475 -0.054305416 0.032854404
-0.012064133 -0.15420085 -0.068592116 0.07722368 -0.048828408 -0.07110843 -0.004036815 0.006752043
-0.095483236 0.10224831 0.10332841 -0.14517768 -0.07459917 -0.05827185 -0.041622207 0.052600026
0.118111625 -0.0786026 -0.17879558 0.025720155 -0.066124074 -0.014067432 0.020803211 -0.122471586
-0.12813307 -0.19831035 -0.13688122 -0.020053709 0.02393601 0.011063752 -0.14445321 -0.08654447
-0.051367182 0.05543629 0.04083012 0.2969801 0.12502669 0.032407645 0.08600951 0.11430705
0.009051618 0.07836942 0.18714757 0.06172018 -0.0044809245 0.097408876 0.084623545 -0.120197855
0.084017545 -0.043788075 -0.14177595 -0.13537236 -0.01263762 0.043842547 -0.03176585 0.05700553
-0.1475065 -0.16328333 -0.03009513 0.054803707 0.055174395 -0.06669561 0.08432167 0.08455607
0.15843564 0.27484313 0.19108142 -0.016514895 -0.1778904 -0.0902464 -0.09989658 -0.077991754
-0.10389755 -0.12309045 -0.16156064 -0.013658454 -0.10316228 -0.16308321 -0.03928303 -0.08594807
00000000: 67d1 323d 0b2f f73d 467d e83d 4abb 1d3e
00000010: 85f7 243e 5de1 b43d ddab 1d3e b377 2a3e
00000020: 62f2 053d 19bb 223d ce31 883c c2d1 a23c
00000030: 638c 1cbd 6e3a c0bd 9686 3fbc 1422 eabd
00000040: 5ed2 05be 7bdf ebbd e77c 61be c789 8ebe
00000050: d312 35be 06dc b2bd da76 8bbd 7c5d 11bd
00000060: 558f 41bd a900 36be 01d6 64be 2772 97bd
00000070: 2e33 9fbc 8d60 063e afcb 3c3e 87b0 1a3e
00000080: ef13 30bd 9221 3cbd 8937 f53d 4e9e 5f3d
00000090: aded 263d e98b c73d 7cbd 7e3a 4157 bebd
000000a0: 9144 193d 480d 7f3e d960 04bd 7f8b 81bd
000000b0: af7f 67bd cf86 dbbd 4705 a9bd fdb5 5e3d
000000c0: e3e6 193e 6232 a1bc 0d45 8f3c a1ed b5bc
000000d0: f13f 85bd 0a03 2bbd 7593 6cbc 1a4b 60bc
000000e0: 4c0f e2bc 54b6 b53b f34c 3fbc 9d6e 34bd
000000f0: 58cf 9cbd b307 2f3d f287 ab3c d43c e83d
00000100: 4928 b73c 8ae4 853d c482 463d 4c07 2c3e
00000110: 5f84 ea3d 3c71 a2bd ac03 143b 6741 7dbd
00000120: 3f1d 92bd 90a9 703d bf50 353e a81a 083e
00000130: 715a e8bd cca4 25be 77e3 51be ce3d 01be
00000140: 86b5 3c3c c926 0e3d 97d5 3ebd f933 b5bd
00000150: a1e9 39bd 8d94 67bd d6b3 0b3d 56c9 3d3d
00000160: 414f b8bd dd73 31be 9fa7 d1bd a654 163d
00000170: eb7d a4bc 3ec3 8b3d 47a3 9f3d c4d2 a9bb
00000180: 851a 12be b6f9 a33d 167f 333b f1d2 bcbb
00000190: c7e0 40bd 6187 83bd f53b a6bd 7876 a8bc
000001a0: 72b1 d83c 6591 f3bd dfb2 81bd 7b07 0cbe
000001b0: 8ce0 5dbe 1e6a 09be 3b14 20be d757 f3bc
000001c0: daa9 20bb 4044 3a3d 80e6 66bc fd0f 78bd
000001d0: b1b8 07bd b01a 773d 7dc8 dc3d 9385 e63d
000001e0: 9971 943d 202a 24ba c1be 7cbc fb35 133e
000001f0: 1c8c 8f3e 5d32 dc3d 4ce4 643d 7b6e 2fbe
00000200: b3a9 cebd 75df 62bc 28ec 8bbd 984f 3a3d
00000210: f4c1 2cbd 746a 09be bee2 c9bd e7d3 93bd
00000220: d584 86bd 0c58 063d b6f6 db3d c33c 61be
00000230: 9e1a eb3c 87db dd3d 71d7 323e 374a de3d
00000240: bd5a 063d 8f5f b33d 3e09 e33d d3a7 ad3d
00000250: f0c8 91bc 8ef8 393d 4937 f23c cfe9 4bbc
00000260: 6af2 af3d 89e1 713d b948 fdbd 0b9a 853d
00000270: 0287 b43d 6eb3 23bd 5d66 d9bc 8d80 843d
00000280: 2acc 563d 521c 03bd 7fa0 de3c 5546 16bd
00000290: c81e 13be 4033 c2bd c830 b2bd ff3c 453d
000002a0: dba0 c33d 8d6e e6bb 4c68 fabd cd12 e4bd
000002b0: 6f23 213d 5b26 0fbe 5b6f 5ebd 5792 063d
000002c0: a4a8 45bc d4e6 1dbe 067a 8cbd 7327 9e3d
000002d0: 4c00 48bd 4ca1 91bd 4247 84bb 3e40 dd3b
000002e0: b78c c3bd 9067 d13d d89d d33d 75a9 14be
000002f0: 73c7 98bd 77ae 6ebd 0c7c 2abd 2073 573d
00000300: 82e4 f13d 66fa a0bd 3016 37be 13b3 d23c
00000310: 0f6c 87bd 167b 66bc 7f6b aa3c 62d2 fabd
00000320: 5135 03be de11 4bbe 972a 0cbe ad47 a4bc
00000330: 7415 c43c bd44 353c 8beb 13be 3a3e b1bd
00000340: 6566 52bd 2a11 633d 7c3d 273d c70d 983e
00000350: ff06 003e e1bd 043d c125 b03d d119 ea3d
00000360: 3d4d 143c 2580 a03d 9da3 3f3e 4dce 7c3d
00000370: b8d4 92bb 4e7e c73d 1c4f ad3d 4b2a f6bd
00000380: 6411 ac3d 205b 33bd b72d 11be 0d9f 0abe
00000390: 050e 4fbc 3e94 333d e81c 02bd a17e 693d
000003a0: f20b 17be bf33 27be 108a f6bc da79 603d
000003b0: 8cfe 613d b597 88bd d7b0 ac3d bc2b ad3d
000003c0: f43c 223e 3db8 8c3e d9aa 433e 3f4a 87bc
000003d0: e728 36be 1bd3 b8bd 9496 ccbd 24ba 9fbd
000003e0: 3dc8 d4bd d916 fcbd 2770 25be b5c7 5fbc
000003f0: bf46 d3bd 49ff 26be 3ee7 20bd 8b05 b0bd

encoder.4.bias f4 [16]
-0.114080906 0.07351607 0.044708416 0.08513906 0.09543973 -0.061276946 0.08880127 0.13352093
-0.09386121 -0.046745557 -0.05128447 -0.150997 -0.05144975 0.09298747 -0.075621195 -0.015746046
00000000: 40a3 e9bd 988f 963d 2c20 373d 635d ae3d
00000010: e875 c33d 89fd 7abd 71dd b53d b6b9 083e
00000020: 4e3a c0bd 4578 3fbd aa0f 52bd f59e 1abe
00000030: f9bc 52bd 3770 be3d 49df 9abd dafd 80bc

decoder.1.weight f4 [16, 32, 7, 7]
-0.07352072 -0.07856857 -0.022674117 -0.09070266 -0.06643277 0.15977737 0.07453259 -0.096269526
-0.180064 -0.019424427 -0.019182242 0.17533098 0.052973375 -0.004296898 0.18927924 -0.026900917
0.0034059505 0.13747782 0.16092241 0.12018328 0.21515927 -0.05273623 0.43090326 0.7387374
0.43433622 0.17843926 -0.011832325 -0.025698058 -0.11315617 -0.12558703 -0.040076826 -0.028874302
0.09196187 0.018308775 -0.01212996 0.047205977 -0.041435473 -0.014915468 0.3271884 0.17755136
-0.07576382 0.06595142 0.068155184 0.26569322 0.16531762 0.09290151 -0.10610891 0.35099617
-0.0545562 0.022037903 0.031913176 -0.044569243 -0.05607666 0.3252554 -0.07688054 -0.11091479
0.3235896 0.090908796 -0.07930376 0.1755484 0.4349998 0.21449535 0.33308735 0.09184974
0.22147618 -0.050527632 0.01195772 -0.032591064 0.25537843 0.17223497 -0.18000278 -0.18956494
-0.3143351 0.20467278 -0.09250737 -0.05930834 -0.11595223 0.2439894 -0.023379788 -0.23937224
0.111714154 0.08521699 0.07363725 -0.0827885 -0.074503794 0.13625029 0.13681418 0.3585155
0.11306112 0.16822423 -0.10539933 0.1678406 -0.05435999 0.44285497 0.2816456 0.28318143
-0.07826973 0.051979147 0.26889557 0.034757767 -0.089112885 0.1367285 -0.05723781 -0.068897285
0.28197053 -0.09269922 0.19552413 -0.12239466 -0.12357544 -0.0427406 0.25203115 0.22322902
0.058995023 0.049430806 -0.025684629 0.040406413 0.40995368 0.22278406 0.031117208 0.2677979
0.030183308 -0.10586792 0.20744708 -0.0374719 0.0605342 0.1839991 0.28535616 0.023359874
0.104731984 0.20798123 -0.019494567 -0.09589879 -0.21638753 -0.024555426 0.027560292 0.34086195
0.36095792 -0.0011626617 0.12303889 0.0249096 0.2149741 0.08832643 0.007889309 0.15465604
-0.007566713 -0.012995889 0.029498303 0.027565455 -0.00133904 0.03327855 -0.0063922927 0.05448914
-0.116475016 0.53216785 0.111762494 -0.03035697 -0.042766668 0.010354942 -0.0879932 -0.29957107
-0.09003921 -0.07600275 -0.09377948 -0.15691817 -0.11945127 -0.28440225 -0.4034472 -0.33532512
-0.22230361 -0.088318475 0.025834883 -0.13376889 -0.3055874 -0.29703283 0.18440145 -0.1934571
0.18803887 0.026668116 -0.038352277 -0.18841597 -0.1370939 0.3031543 0.017256314 0.00019316585
0.0172738 -0.28017175 -0.2015173 -0.13339503 -0.008492421 -0.10710475 -0.25761968 -0.0086265495
-0.22013862 -0.13922569 -0.12637222 0.017885244 0.023069618 -0.043760482 0.04417113 0.010448215
-0.12330947 -0.105985716 -0.22027248 -0.097108796 -0.088280715 -0.055188637 0.015691418 -0.16326651
0.025652172 0.16879722 -0.042890053 0.09844498 0.35001817 -0.0035221714 -0.02015349 0.1832869
-0.028463343 -0.030663777 0.2393934 0.1972018 0.05509673 -0.06305441 -0.016030505 0.15998863
0.019160377 0.16334149 0.18254998 -0.107400194 -0.12980883 -0.14684188 0.017733576 0.03804699
-0.17187852 0.035461485 -0.22228725 0.124395974 0.22194144 -0.26767015 -0.08296647 0.48696068
-0.10501942 -0.09353855 0.16296308 0.12138123 -0.017036557 0.30246297 -0.2240483 0.009517659
0.13759595 -0.1804124 0.30011055 -0.12049395 -0.02333675 -0.19974911 -0.14421368 0.051724575
00000000: 0892 96bd 8fe8 a0bd 12bf b9bc 51c2 b9bd
00000010: e70d 88bd ae9c 233e 8ba4 983d f528 c5bd
00000020: b262 38be fa1f 9fbc 1424 9dbc f789 333e
00000030: 9cfa 583d fecc 8cbb 6bd2 413e 505f dcbc
00000040: 5e36 5f3b fcc6 0c3e d8c8 243e a722 f63d
00000050: b652 5c3e f201 58bd 5a9f dc3e e51d 3d3f
00000060: 5161 de3e c8b8 363e 5edc 41bc bc84 d2bc
00000070: 6cbe e7bd e399 00be 9927 24bd cd89 ecbc
00000080: 8156 bc3d 49fc 953c bdbc 46bc 0e5b 413d
00000090: 3eb8 29bd 0260 74bc 3d85 a73e 06d0 353e
000000a0: 102a 9bbd 8a11 873d f294 8b3d f108 883e
000000b0: 0649 293e 2643 be3d a14f d9bd c5b5 b33e
000000c0: 5276 5fbd d588 b43c 64b7 023d 3d8e 36bd
000000d0: a4b0 65bd e087 a63e 8b73 9dbd 4b27 e3bd
000000e0: 89ad a53e 642e ba3d 026a a2bd f6c2 333e
000000f0: 4bb8 de3e aba4 5b3e 6d8a aa3e b71b bc3d
00000100: a7ca 623e 10f6 4ebd 50ea 433c 357e 05bd
00000110: f6c0 823e 5d5e 303e a652 38be 501d 42be
00000120: 88f0 a0be be95 513e 8174 bdbd 4ded 72bd
00000130: 5d78 edbd 5bd8 793e f886 bfbc ff1d 75be
00000140: 64ca e43d 3f86 ae3d 20cf 963d 048d a9bd
00000150: 7295 98bd 3285 0b3e 0419 0c3e 588f b73e
00000160: 978c e73d f942 2c3e 9bdb d7bd 68de 2b3e
00000170: 95a8 5ebd e3bd e23e da33 903e 28fd 903e
00000180: e14b a0bd 16e8 543d aeac 893e 295e 0e3d
00000190: d180 b6bd 8e02 0c3e 3272 6abd 051a 8dbd
000001a0: 715e 903e 17d9 bdbd 7a37 483e 0daa fabd
000001b0: 1f15 fdbd c410 2fbd 3a0a 813e 2696 643e
000001c0: c4a4 713d f577 4a3d 9268 d2bc 3281 253d
000001d0: 73e5 d13e 8121 643e 84e9 fe3c ce1c 893e
000001e0: fc42 f73c 48d1 d8bd 026d 543e 237c 19bd
000001f0: b6f2 773d 436a 3c3e 341a 923e 355d bf3c
00000200: b97d d63d 08f9 543e 12b3 9fbc 9666 c4bd
00000210: b194 5dbe 7628 c9bc 1fc6 e13c 7585 ae3e
00000220: 7acf b83e 7464 98ba d0fb fb3d 380f cc3c
00000230: 2c22 5c3e 7de4 b43d 2942 013c 275e 1e3e
00000240: 30f2 f7bb b6ec 54bc 6da6 f13c f3d0 e13c
00000250: ba82 afba 174f 083d 7076 d1bb 0130 5f3d
00000260: 748a eebd 273c 083f bce3 e43d 2eaf f8bc
00000270: 1a2c 2fbd c6a7 293c c735 b4bd 6161 99be
00000280: 7a66 b8bd 54a7 9bbd 750f c0bd 28af 20be
00000290: dea2 f4bd 2c9d 91be a290 cebe bcaf abbe
000002a0: 8fa3 63be 51e0 b4bd ada3 d33c b6fa 08be
000002b0: f475 9cbe b014 98be bcd3 3c3e 9e19 46be
000002c0: 438d 403e 1877 da3c 4717 1dbd 1ef0 40be
000002d0: 5862 0cbe 0a37 9b3e 1d5d 8d3c 908c 4a39
000002e0: c981 8d3c ac72 8fbe 8d5a 4ebe b598 08be
000002f0: cc23 0bbc bc59 dbbd bae6 83be 5f56 0dbc
00000300: 056c 61be 2e91 0ebe b867 01be 1384 923c
00000310: 7ffc bc3c 313e 33bd c9ec 343d fd2e 2b3c
00000320: ad89 fcbd 0a0f d9bd 1c8f 61be fae0 c6bd
00000330: 85cc b4bd 7b0d 62bd 4a8b 803c 562f 27be
00000340: 8124 d23c 2ed9 2c3e 7bad 2fbd 869d c93d
00000350: 9535 b33e 3bd4 66bb ef18 a5bc 90af 3b3e
00000360: f52b e9bc 9a32 fbbc 8b23 753e 45ef 493e
00000370: 1cad 613d ac22 81bd 6852 83bc 0fd4 233e
00000380: 39f6 9c3c fe42 273e 62ee 3a3e a2f4 dbbd
00000390: 9bec 04be b85d 16be 0146 913c 29d7 1b3d
000003a0: ec00 30be 1040 113d 459f 63be 51c3 fe3d
000003b0: 9e44 633e 100c 89be 53ea a9bd e952 f93e
000003c0: 6c14 d7bd 2491 bfbd cbdf 263e b996 f83d
000003d0: 4090 8bbc 6ddc 9a3e eb6c 65be f5ef 1b3c
000003e0: f4e5 0c3e 07be 38be 17a8 993e 88c5 f6bd
000003f0: b62c bfbc 088b 4cbe c0ac 13be 26dd 533d

decoder.1.bias f4 [32]
-0.28247163 0.17849955 -0.07159414 -0.37368143 -0.9504794 0.041006923 -0.5630176 -0.30016813
-0.3552821 -0.24717827 -0.5218516 0.11392323 0.4971981 -0.40414625 -0.1478797 -0.7480374
-0.19463229 -0.1957609 -0.18782654 0.08775821 -0.7419373 -0.29090077 -0.7318132 0.34501088
-0.62060493 -0.4109856 -0.3233119 -0.44150725 0.030961093 -0.22851211 -0.62015504 -0.4043872
00000000: 1fa0 90be 96c8 363e f39f 92bd 2c53 bfbe
00000010: 9e52 73bf e0f6 273d ec21 10bf a3af 99be
00000020: 89e7 b5be 4d1c 7dbe 1198 05bf 9550 e93d
00000030: c090 fe3e 42ec cebe c76d 17be 617f 3fbf
00000040: b04d 47be 8c75 48be 9a55 40be 94ba b33d
00000050: 9aef 3dbf f2f0 94be 1c58 3bbf 44a5 b03e
00000060: f7df 1ebf b46c d2be 2389 a5be 3d0d e2be
00000070: 1ea2 fd3c 14ff 69be 7bc2 1ebf d70b cfbe

decoder.3.weight f4 [32, 16, 3, 3]
-0.021615557 -0.02896497 -0.45702243 -0.23864321 -0.03247554 -0.80267596 0.016587498 -0.033739097
-0.3164954 0.051998373 -0.02051765 0.0019042902 -0.010269243 0.06509427 -0.27577525 -0.015820911
0.017935319 -0.21818806 0.3158428 0.12017869 -0.10919091 -0.57028913 0.1505034 -0.15805611
0.14511965 -0.25645718 -0.011493545 -0.22104901 -0.22363651 -0.012071022 0.07867082 -0.08670719
-0.050324805 0.28882617 -0.21309045 0.065344654 -0.13619658 -0.18447228 0.16115326 -0.3105177
-0.2462731 0.07052978 -0.24531525 -0.27559432 -0.07643946 -0.08233781 -0.2288872 0.0884047
-0.20948243 -0.13785602 -0.15062633 -0.03242618 -0.33023933 -0.12220749 -0.186703 -0.24364467
-0.16335133 -0.19226989 -0.4366948 -0.043606818 -0.19206457 -0.2404085 -0.07999491 -0.49943185
-0.22509402 -0.11701961 -0.34746173 0.12143595 0.15806334 -0.23675403 0.10634467 0.2913571
0.08071151 0.16264652 0.20338373 0.1311443 0.2239125 0.3804182 0.06275635 0.13811566
0.37860823 0.044598408 0.18402886 0.199296 0.13509858 0.3560927 0.2392724 0.12385372
0.41963604 0.2920281 -0.09125492 0.0568225 -0.37170863 0.001202053 -0.054499105 -0.08743643
0.28680754 -0.23604868 0.18295854 -0.5772462 -0.124678575 0.5926118 -0.044873476 0.19890338
-0.06735696 -0.2666893 -0.006690426 0.45133987 -0.26331928 -0.4007411 -0.18216957 -0.17940451
-0.3823965 -0.074536406 -0.24135946 -0.14610203 -0.00832533 0.089407295 0.12562773 -0.12008086
-0.20378554 0.03596579 -0.17591427 0.1689325 0.17819437 -0.15968044 0.0631121 0.16394971
0.2090779 0.107904024 0.20655061 0.4239076 0.18741396 0.38912833 0.3674497 0.005002665
-0.04479767 -0.116226695 -0.07249188 0.098880224 -0.07654823 0.117246024 0.23653884 -0.3388336
-0.34071857 0.030727591 0.0028883142 -0.029052205 0.004630657 -0.05608287 -0.014790692 -0.21326545
-0.110435136 -0.18710168 -0.17228052 -0.01652266 0.10134534 0.015502592 -0.03107636 0.09628419
-0.010356976 0.018933536 0.2508169 0.03309823 0.16136698 0.11681777 -0.017536107 0.17609707
0.043125585 0.14456314 0.18633735 -0.011888197 0.093677245 -0.0046786247 0.121859506 -0.16917576
0.09054778 -0.11537886 0.066539876 0.06920536 -0.03029318 0.0916612 0.07388568 -0.03793011
0.14675558 0.23407608 0.007419305 0.19911388 0.16932605 -0.05281954 0.008436328 0.013811479
0.20475899 0.11623291 0.31690624 0.05168667 0.26383385 0.30135137 -0.031135354 -0.05974113
-0.19300742 -0.10976936 -0.13807599 0.005411472 -0.07852575 -0.034477394 0.10321749 -0.2054486
-0.04045502 -0.12655403 -0.26096794 -0.06265319 0.0048152446 0.028288314 0.035893477 0.14700204
0.10001087 0.04276244 0.016093725 0.1190411 0.16802855 0.059808776 0.1839745 0.103069514
0.08070503 -0.21007709 -0.35835853 -0.23101416 -0.17167358 -0.27513212 -0.1880158 -0.0024056938
-0.10516611 -0.12364652 -0.13635565 0.18392895 -0.4514402 -0.0965865 -0.1321279 -0.006098646
-0.057700466 -0.075671315 -0.5230209 0.18133116 0.0067879516 -0.08544888 -0.107716955 -0.19977205
0.05469357 -0.5401391 0.1826668 -0.031666994 0.13421662 -0.17853285 0.22012103 0.07561117
00000000: 1c13 b1bc f247 edbc d8fe e9be e35e 74be
00000010: 1205 05bd 2c7c 4dbf 81e2 873c 0232 0abd
00000020: af0b a2be 3ffc 543d a114 a8bc 6099 f93a
00000030: 5440 28bc 2550 853d 6a32 8dbe db9a 81bc
00000040: 17ed 923c b16c 5fbe 26b6 a13e 3f20 f63d
00000050: 7c9f dfbd 78fe 11bf 901d 1a3e 76d9 21be
00000060: 3f9a 143e 5b4e 83be 6c4f 3cbc ac5a 62be
00000070: f800 65be 89c5 45bc 2b1e a13d 8a93 b1bd
00000080: 6221 4ebd 06e1 933e 6234 5abe 6bd3 853d
00000090: 1e77 0bbe 4de6 3cbe 5c05 253e 2dfc 9ebe
000000a0: 042f 7cbe eb71 903d ec33 7bbe b31a 8dbe
000000b0: 4b8c 9cbd baa0 a8bd 6861 6abe 860d b53d
000000c0: 9082 56be 212a 0dbe ca3d 1abe 50d1 04bd
000000d0: 2115 a9be ec47 fabd 122f 3fbe fd7d 79be
000000e0: 9245 27be 66e2 44be 7696 dfbe 109d 32bd
000000f0: 93ac 44be a52d 76be 5fd4 a3bd 88b5 ffbe
00000100: 0c7f 66be faa7 efbd 81e6 b1be 69b3 f83d
00000110: 5bdb 213e a66f 72be 3ccb d93d c22c 953e
00000120: 134c a53d cf8c 263e d343 503e b14a 063e
00000130: 5249 653e 2dc6 c23e 6786 803d 316e 0d3e
00000140: f0d8 c13e d2ac 363d 1072 3c3e 4014 4c3e
00000150: 4857 0a3e c851 b63e d303 753e 05a7 fd3d
00000160: 89da d63e b584 953e dce3 babd b6be 683d
00000170: 9850 bebe 358e 9d3a 743a 5fbd df11 b3bd
00000180: 70d8 923e bfb6 71be 7c59 3b3e 68c6 13bf
00000190: 7b57 ffbd 68b5 173f 40cd 37bd 54ad 4b3e
000001a0: 72f2 89bd 808b 88be 5c3b dbbb 0516 e73e
000001b0: c9d1 86be f02d cdbe a98a 3abe d1b5 37be
000001c0: 79c9 c3be 8ba6 98bd ef26 77be c59b 15be
000001d0: f766 08bc 2c1b b73d 8ea4 003e f4ec f5bd
000001e0: 28ad 50be dd50 133d df22 34be a4fc 2c3e
000001f0: 9678 363e 4583 23be eb40 813d 6fe2 273e
00000200: 8418 563e c9fc dc3d 0182 533e 6b0a d93e
00000210: 72e9 3f3e d43b c73e 5e22 bc3e 65ed a33b
00000220: c37d 37bd 4308 eebd 9f76 94bd b781 ca3d
00000230: 52c5 9cbd af1e f03d 3d37 723e 997b adbe
00000240: aa72 aebe 6eb8 fb3c df49 3d3b e4fe edbc
00000250: c4bc 973b 27b7 65bd a954 72bc 4262 5abe
00000260: d12b e2bd 9597 3fbe 4e6a 30be 885a 87bc
00000270: 258e cf3d 95fe 7d3c da93 febc a530 c53d
00000280: 4eb0 29bc 811a 9b3c 136b 803e 0292 073d
00000290: 633d 253e 283e ef3d e2a7 8fbc ca52 343e
000002a0: 74a4 303d 5c08 143e 38cf 3e3e b6c6 42bc
000002b0: dbd9 bf3d 264f 99bb 7a91 f93d 693c 2dbe
000002c0: 1d71 b93d c04b ecbd 0f46 883d 8abb 8d3d
000002d0: 6729 f8bc deb8 bb3d 6051 973d 9a5c 1bbd
000002e0: 1847 163e a4b1 6f3e a41d f33b 82e4 4b3e
000002f0: cf63 2d3e 4d59 58bd 8638 0a3c 8b49 623c
00000300: 57ac 513e 850b ee3d 8941 a23e 67b5 533d
00000310: 3b15 873e ba4a 9a3e 920f ffbc 1db3 74bd
00000320: bda3 45be c2ce e0bd cb63 0dbe b852 b13b
00000330: 1cd2 a0bd 2b38 0dbd b163 d33d 1e61 52be
00000340: 2ab4 25bd 6197 01be 979d 85be 5150 80bd
00000350: 33c9 9d3b e5bc e73c 0a05 133d b487 163e
00000360: 80d2 cc3d ab27 2f3d fdd6 833c d2cb f33d
00000370: ad0f 2c3e 0cfa 743d d063 3c3e 1c16 d33d
00000380: ae48 a53d 731e 57be c57a b7be fa8e 6cbe
00000390: 33cb 2fbe 1ede 8cbe 3787 40be d8a8 1dbb
000003a0: 5461 d7bd 633a fdbd d1a0 0bbe df57 3c3e
000003b0: 2b23 e7be 25cf c5bd 894c 07be 27d7 c7bb
000003c0: 5357 6cbd 90f9 9abd b3e4 05bf e0ae 393e
000003d0: 776d de3b d3ff aebd b59a dcbd 0b91 4cbe
000003e0: 5d06 603d 8e46 0abf 010d 3b3e 40b5 01bd
000003f0: 1570 093e 51d1 36be 6867 613e 07da 9a3d

decoder.3.bias f4 [16]
-0.2533657 0.0027577826 0.11141024 -0.7895991 -0.2915032 0.8684229 0.36134437 0.36858287
0.298401 -0.108127005 0.18942134 0.4262563 0.46313182 -0.07512478 0.9614254 -0.4077027
00000000: 26b9 81be eabb 343b 0d2b e43d 2b23 4abf
00000010: e83f 95be f750 5e3f 2102 b93e e5b6 bc3e
00000020: 04c8 983e b171 ddbd abf7 413e 443e da3e
00000030: 9d1f ed3e 05db 99bd fa1f 763f 69be d0be

decoder.5.weight f4 [16, 1, 3, 3]
-0.13837081 0.15583968 0.2306656 -0.017728686 0.36259544 0.22552288 0.27785227 0.41717806
0.22334217 0.15173632 -0.004301438 0.18951681 0.011623421 -0.011776213 0.3952758 -0.0817173
0.19553772 0.32293552 0.10692465 0.25242457 -0.004147964 0.14918578 0.07209709 -0.37088028
0.02152602 -0.27482542 -0.44679797 0.4061139 0.35143834 0.08404128 0.7336454 0.599371
-0.020820139 0.49123457 0.30641058 0.0035174543 -0.39049903 -0.6980876 -0.65028995 0.3162863
0.09956724 -0.42382878 -0.008065156 0.43758547 -0.27709404 0.0038461566 0.23076993 0.31847107
-0.47161233 -0.10841474 0.36990273 -0.35741732 -0.05497949 0.26938996 -0.30574876 -0.41967127
-0.21229137 -0.3920104 -0.14648043 0.0051084855 -0.18723053 -0.06338566 -0.11237408 0.03462942
-0.27723968 -0.2256612 -0.23940365 -0.6668195 -0.2843071 -0.11701182 -0.14511524 0.17647903
-0.474766 -0.24610056 -0.03735183 -0.3224077 -0.35216826 -0.20941195 -0.09198808 -0.17611535
-0.29536235 -0.49842572 0.40752566 0.1123726 -0.7136017 0.027480448 0.25538117 -0.48323286
-0.47066665 -0.37656146 0.21080895 0.3860411 0.21623941 0.06542277 0.030028053 -0.0870106
-0.14160965 -0.28668308 -0.22551733 0.05740235 -0.17403266 -0.14923294 0.060261566 -0.36093783
-0.34553954 0.10671202 -0.23232292 -0.58347315 0.24033822 0.2633824 0.21132892 -0.25086275
-0.46486527 -0.06692649 -0.26485658 -0.35108677 -0.028239978 0.26254925 0.16036469 0.012004987
0.3755733 0.13469166 0.17165333 0.13900803 0.21199629 -0.3943145 0.2614879 -0.45070797
-0.31460726 0.3410543 -0.24783425 -0.22383428 0.38565138 0.2986721 0.291343 -0.0777838
0.29799834 0.41222546 0.116458155 0.407462 0.3133567 0.26861387 0.28730318 0.069870345
00000000: 14b1 0dbe 7094 1f3e 9a33 6c3e c03b 91bc
00000010: 1ca6 b93e 78ef 663e a742 8e3e 5d98 d53e
00000020: cfb3 643e c460 1b3e 14f3 8cbb b210 423e
00000030: 2970 3e3c 04f1 40bc 9761 ca3e 665b a7bd
00000040: 0a3b 483e ce57 a53e 50fb da3d cb3d 813e
00000050: a5eb 87bb 28c4 183e a4a7 933d 05e4 bdbe
00000060: 5657 b03c ebb5 8cbe b4c2 e4be 29ee cf3e
00000070: baef b33e d61d ac3d 2fd0 3b3f 6170 193f
00000080: ff8e aabc 1983 fb3e d9e1 9c3e 1785 663b
00000090: 7def c7be deb5 32bf 6779 26bf 47f0 a13e
000000a0: e9e9 cb3d 1600 d9be b723 04bc 340b e03e
000000b0: 45df 8dbe cd0f 7c3b f44e 6c3e a40e a33e
000000c0: 2c77 f1be 8c08 debd e463 bd3e 67ff b6be
000000d0: 2c32 61bd 7bed 893e 1a8b 9cbe 27df d6be
000000e0: e962 59be 96b5 c8be f7fe 15be 1565 a73b
000000f0: 5cb9 3fbe 57d0 81bd 6224 e6bd 94d7 0d3d
00000100: 5cf2 8dbe bb13 67be 3b26 75be afb4 2abf
00000110: b390 91be e5a3 efbd 1799 14be ebb6 343e
00000120: 8714 f3be c901 7cbe 3cfe 18bd 9f12 a5be
00000130: 664f b4be 1670 56be 3f64 bcbd 9557 34be
00000140: bc39 97be a831 ffbe 34a7 d03e 9b23 e63d
00000150: 9aae 36bf ad1e e13c 52c1 823e 4c6a f7be
00000160: 38fb f0be aacc c0be 4dde 573e 2ea7 c53e
00000170: dd6d 5d3e 60fc 853d 64fd f53c 9d32 b2bd
00000180: 1f02 11be 20c8 92be 04ee 66be ba1e 6b3d
00000190: 9e35 32be 85d0 18be d5d4 763d d8cc b8be
000001a0: 8fea b0be d58b da3d 0fe6 6dbe 7f5e 15bf
000001b0: 391b 763e 0fda 863e 9c66 583e 1571 80be
000001c0: d202 eebe c110 89bd 489b 87be a5c1 b3be
000001d0: 8757 e7bc db6c 863e a436 243e 91b0 443c
000001e0: 254b c03e 9cec 093e e4c5 2f3e 1f58 0e3e
000001f0: 8e15 593e 97e3 c9be bee1 853e 32c3 e6be
00000200: 3414 a1be ab9e ae3e 43c8 7dbe d034 65be
00000210: 1974 c53e 8deb 983e e92a 953e 1d4d 9fbd
00000220: 3d93 983e 370f d33e 9d81 ee3d dc9e d03e
00000230: 4a70 a03e c287 893e 6719 933e 2f18 8f3d
