02-Autoencoder/01-PT-MNIST-basic/cnn16-autoencoder.pth (torch, 242881 bytes, 11 tensors)

encoder.0.weight f4 [16, 1, 3, 3]
0.5087599 0.49327245 0.3149838 0.54763055 0.15046735 -0.0045206496 -0.13895287 -0.18730004
0.07781037 -0.5744029 0.40267035 0.2721868 -0.54322994 -0.31828132 -0.023908906 -0.2593846
-0.26621106 -0.55398655 -0.3232813 -0.04268345 -0.16233382 -0.0828156 -0.07108627 -0.1943328
-0.060528703 -0.017554324 -0.34897462 -0.17948711 -0.042979404 -0.25856963 -0.26216927 -0.62577486
-0.13927914 -0.25312427 0.20970872 0.6797127 -0.36313292 0.087872244 0.1461058 0.049732927
0.087869525 -0.2427708 0.24361874 0.21819167 0.29545254 0.06550955 0.24134511 0.04877927
0.44980827 0.5287197 -0.26714617 0.39180857 -0.25155762 -0.70006484 -0.23389721 0.2870122
-0.014702319 0.057195615 0.72747874 0.39224282 0.008161604 0.73092633 0.06385448 0.15229149
0.3164085 0.0887242 -0.16023602 -0.06880573 0.09104159 0.064540185 0.10945849 -0.18096308
0.02704823 -0.45083085 0.28562835 -0.03586225 -0.4713259 0.38306805 -0.12011995 -0.48434767
0.40122896 0.2720742 -0.43234625 -0.19641846 0.025257379 -0.29317778 0.25297776 0.07618503
-0.0059494693 0.17167829 -0.07348353 -0.056473844 0.3444592 -0.27917084 0.31342834 0.34786722
-0.34779894 0.12105529 0.13219836 0.042789727 -0.4950781 -0.8419622 0.4679624 -0.07804001
-0.45526338 0.5404092 0.6640415 0.37920272 0.1163662 -0.10275476 -0.12289813 0.091914676
0.4215393 0.4334 0.23534441 0.14166312 0.17041929 0.0344034 -0.107431 -0.12593536
-0.33350027 0.04522451 -0.21557081 -0.19693963 -0.09594891 -0.18911351 0.015929902 0.08200198
0.3280571 -0.08587494 0.24344511 0.54937243 0.001386386 0.16292457 0.18657611 -0.31942216
-0.14808238 0.05350053 -0.06589704 -0.46635613 -0.562417 0.3126829 0.3027687 -0.10123441
00000000: 173e 023f 358e fc3e 8e45 a13e 8431 0c3f
00000010: 1d14 1a3e f521 94bb a949 0ebe 95cb 3fbe
00000020: 0b5b 9f3d 120c 13bf cf2a ce3e 115c 8b3e
00000030: 1e11 0bbf c5f5 a2be 9cdc c3bc 0fce 84be
00000040: d14c 88be 10d2 0dbf 2085 a5be d7d4 2ebd
00000050: d63a 26be 3a9b a9bd ae95 91bd 2dff 46be
00000060: f2ec 77bd 16ce 8fbc cdac b2be 78cb 37be
00000070: 2c0b 30bd 3d63 84be 0d3b 86be c832 20bf
00000080: 319f 0ebe 8199 81be e2bd 563e a701 2e3f
00000090: 8fec b9be 5df6 b33d c29c 153e c1b4 4b3d
000000a0: f0f4 b33d e998 78be 3177 793e a36d 5f3e
000000b0: 8e45 973e df29 863d 2c23 773e c6cc 473d
000000c0: 454d e63e 2d5a 073f 62c7 88be 229b c83e
000000d0: 29cc 80be 7337 33bf c082 6fbe 43f3 923e
000000e0: ffe1 70bc f345 6a3d 0c3c 3a3f 0dd4 c83e
000000f0: 40b8 053c fd1d 3b3f 23c6 823d 4df2 1b3e
00000100: 4b00 a23e 09b5 b53d e914 24be 05ea 8cbd
00000110: 0374 ba3d a52d 843d c62b e03d 634e 39be
00000120: 4094 dd3c 4dd3 e6be e13d 923e 4be4 12bd
00000130: a151 f1be 7f21 c43e 7301 f6bd 6bfc f7be
00000140: e26d cd3e 4f4d 8b3e 7d5c ddbe ec21 49be
00000150: 90e8 ce3c 661b 96be 4d86 813e e606 9c3d
00000160: c4f3 c2bb 6fcc 2f3e 887e 96bd 1e51 67bd
00000170: f55c b03e 7bef 8ebe ae79 a03e a71b b23e
00000180: b412 b2be d6eb f73d 025f 073e 4844 2f3d
00000190: e07a fdbe d68a 57bf c598 ef3e 71d3 9fbd
000001a0: 4818 e9be 4258 0a3f a0fe 293f dc26 c23e
000001b0: 6751 ee3d 1671 d2bd 04b2 fbbd c33d bc3d
000001c0: 00d4 d73e 9be6 dd3e 20fe 703e 2310 113e
000001d0: 6582 2e3e 94ea 0c3d c904 dcbd 33f5 00be
000001e0: 8cc0 aabe 563d 393d 98be 5cbe 8baa 49be
000001f0: dd80 c4bd f9a6 41be 6d7f 823c a7f0 a73d
00000200: 1af7 a73e 33df afbd ad49 793e aca3 0c3f
00000210: 65b7 b53a b3d5 263e cf0d 3f3e 4d8b a3be
00000220: e8a2 17be 5f23 5b3d 07f5 86bd 3bc6 eebe
00000230: 8ffa 0fbf f917 a03e 8004 9b3e fd53 cfbd

encoder.0.bias f4 [16]
-0.0021110228 0.33472812 0.37289172 0.15729183 -0.00021618721 -5.7763275e-05 0.020058803 0.18668601
0.2188486 0.3533927 0.011991451 -0.0023962245 -0.16549689 0.44806284 0.013379798 0.27415076
00000000: 1659 0abb 7c61 ab3e aaeb be3e 1c11 213e
00000010: 50b0 62b9 d846 72b8 5c52 a43c 9e2a 3f3e
00000020: d919 603e e3ef b43e ca77 443c fa09 1dbb
00000030: 0478 29be 7e68 e53e f136 5b3c 7d5d 8c3e

encoder.2.weight f4 [32, 16, 3, 3]
0.09972882 -0.06958517 -0.41004333 0.30370355 -0.09157769 -0.15348056 0.43510124 -0.07022537
-0.0066138394 -0.3131225 0.13773197 0.036016736 -0.39026156 0.092480384 -0.12307448 -0.16477165
0.12608878 0.051903374 -0.088770755 0.10749667 0.07831434 -0.07512698 0.028950268 -0.14376226
-0.32219994 0.21347089 -0.055937238 -0.11567119 0.037994932 0.16641645 -0.101782024 0.13316467
0.18152067 -0.65665436 0.046026442 0.13219965 0.044709533 0.011215579 0.06446229 0.17077975
-0.049347665 0.077731475 0.12392682 -0.10673778 -0.01780033 0.20351575 -0.10242804 -0.13344845
0.3673485 -0.21836735 0.17877641 0.19470125 -0.29928946 -0.0021598362 0.13019803 -0.2554106
0.05422252 0.10908445 -0.7426829 -0.07193101 0.05687164 -0.28086135 0.07710684 -0.011642847
0.028649844 -0.09233986 0.096179046 -0.013738018 -0.010363231 0.13411953 -0.026161686 0.036499448
0.32797733 0.36475688 0.103969045 0.17499854 0.16207588 0.09220689 0.08809061 -0.02812413
0.08388441 0.19315855 0.07662424 0.0070280354 0.11267274 -0.025055071 0.122560315 0.061572734
0.04390624 0.01750748 0.43546623 -0.012368387 0.039028157 0.41643596 -0.4045726 0.128646
0.3757745 0.026745794 -0.034816053 -0.0639399 -0.18516442 -0.21619296 0.17107865 0.0458493
-0.14712241 0.27737665 -0.14221315 -0.05035784 0.06809525 0.037737735 -0.1205938 0.080359176
-0.23488125 -0.06134481 -0.0008287695 0.007366858 0.012979795 -0.2193339 0.14870243 -0.032015204
-0.24169147 0.05992376 -0.011229091 -0.3012457 0.0922548 -0.027043724 0.07754625 -0.30792236
0.08786681 -0.0074729933 -0.5284403 0.23130874 -0.03702373 -0.073038906 0.16611882 -0.08055801
0.013451042 0.09539212 0.06390888 0.101742536 -0.031690147 -0.0659435 0.19797614 0.07126296
-0.17562844 -0.27172968 -1.8310734 0.09537858 -0.119336 0.48247805 0.1773331 -0.2727976
-0.11237377 -0.004894073 -0.06333141 -0.022338316 -0.09898679 -0.002777633 0.048355807 -0.21776417
-0.2854095 -0.23644097 0.26283473 0.091780886 0.16276829 0.14168327 0.04176019 -0.022056878
0.034152362 -0.074178964 -0.13027908 0.0031736118 -0.005820114 0.17155755 -0.04766662 -0.045825068
-0.058008358 0.30680054 0.21702628 0.3154546 -0.1875611 -0.25452873 -0.3983759 -0.033547815
-0.10361147 0.11090868 0.07379213 0.17297302 0.17780092 -0.06320909 0.31739536 -0.8266364
0.061270606 -0.23029108 -0.250144 0.123237856 0.042881824 0.12235962 -0.29107752 0.013057399
-0.70941263 -0.18611695 -0.16915357 -0.3286511 -0.01283431 -0.06890862 0.20235619 0.053462148
0.023880599 -0.082816906 -0.015940037 0.019817354 -0.0015729181 -0.017538069 0.08470505 -0.014838933
0.2553117 0.13997014 0.04366074 0.18474934 0.044331446 -0.2054112 -0.077161394 -0.15304898
-0.10897522 0.39563334 0.093780525 0.15319856 0.04220095 0.032424495 -0.04068687 0.006954629
-0.020745633 -0.045166124 0.07994696 0.49541575 -1.488337 -0.35082704 -0.3221088 -0.26560608
-0.08278847 -0.07146646 0.017976336 0.17681727 0.22358043 0.50354517 0.09292183 -0.07422194
0.22273804 0.10161908 0.22360522 0.32999533 -0.061302144 -0.2683341 -0.1963211 0.019390738
00000000: a03e cc3d ab82 8ebd 33f1 d1be 087f 9b3e
00000010: 158d bbbd 022a 1dbe 97c5 de3e 52d2 8fbd
00000020: e8b8 d8bb 9851 a0be 9c09 0d3e 4986 133d
00000030: 5dd0 c7be 5b66 bd3d 790e fcbd e6b9 28be
00000040: 6b1d 013e a298 543d 71cd b5bd 3727 dc3d
00000050: 4563 a03d 2ddc 99bd 1d29 ed3c 6a36 13be
00000060: 64f7 a4be 1d98 5a3e 721e 65bd 04e5 ecbd
00000070: 93a0 1b3d 1369 2a3e 1873 d0bd 525c 083e
00000080: 8ee0 393e 801a 28bf 3986 3c3d 585f 073e
00000090: 5821 373d 8cc1 373c ce04 843d e3e0 2e3e
000000a0: c720 4abd ae31 9f3d 58cd fd3d 5699 dabd
000000b0: ffd1 91bc 6f66 503e cbc5 d1bd b6a6 08be
000000c0: 1a15 bc3e b19b 5fbe 2a11 373e c45f 473e
000000d0: 783c 99be 0a8c 0dbb a252 053e 2ec5 82be
000000e0: 6f18 5e3d ab67 df3d 7720 3ebf 9150 93bd
000000f0: 3df2 683d 0fcd 8fbe 31ea 9d3d a4c1 3ebc
00000100: 14b3 ea3c ae1c bdbd 85f9 c43d 6d15 61bc
00000110: 8bca 29bc a156 093e 0851 d6bc 7280 153d
00000120: a5ec a73e 6ac1 ba3e b9ed d43d d132 333e
00000130: 38f7 253e f7d6 bc3d da68 b43d 9364 e6bc
00000140: 97cb ab3d 5bcb 453e 2bed 9c3d 6f4b e63b
00000150: f7c0 e63d 4b40 cdbc e700 fb3d b133 7c3d
00000160: 08d7 333d d96b 8f3c 6ef5 de3e c6a4 4abc
00000170: fddb 1f3d 1837 d53e 2424 cfbe c7bb 033e
00000180: 8465 c03e ff19 db3c 479b 0ebd ecf2 82bd
00000190: be9b 3dbe b061 5dbe 3e2f 2f3e 7acc 3b3d
000001a0: 42a7 16be 5004 8e3e 53a0 11be 0644 4ebd
000001b0: 8675 8b3d e292 1a3d e2f9 f6bd 5a93 a43d
000001c0: b684 70be b244 7bbd c841 59ba af65 f13b
000001d0: 35a9 543c 1199 60be 7345 183e 6022 03bd
000001e0: f87d 77be 9e72 753d 39fa 37bc e03c 9abe
000001f0: 16f0 bc3d cd8a ddbc 91d0 9e3d 00a8 9dbe
00000200: 84f3 b33d 03e0 f4bb dd47 07bf 33dc 6c3e
00000210: 32a6 17bd 6c95 95bd 0d1b 2a3e 99fb a4bd
00000220: c261 5c3c f25c c33d a9e2 823d 645e d03d
00000230: 87cd 01bd 630d 87bd 42ba 4a3e 51f2 913d
00000240: f1d7 33be 2720 8bbe 9d60 eabf d855 c33d
00000250: 6f66 f4bd 5d07 f73e cf96 353e 21ac 8bbe
00000260: 3824 e6bd 765e a0bb e6b3 81bd d8fe b6bc
00000270: 96b9 cabd f308 36bb bd10 463d 92fd 5ebe
00000280: 3221 92be 951d 72be 4692 863e 9ef7 bb3d
00000290: bbac 263e 6b15 113e bc0c 2b3d a0b0 b4bc
000002a0: 59e3 0b3d 24eb 97bd e167 05be 5ffc 4f3b
000002b0: a8b6 bebb c8ac 2f3e 133e 43bd 11b3 3bbd
000002c0: 2c9a 6dbd f614 9d3e 233c 5e3e 4483 a13e
000002d0: 0410 40be 9751 82be edf7 cbbe 6f69 09bd
000002e0: 4032 d4bd 1724 e33d 5420 973d d71f 313e
000002f0: 7211 363e c473 81bd a581 a23e 719e 53bf
00000300: e3f6 7a3d 6dd1 6bbe e012 80be 2164 fc3d
00000310: daa4 2f3d ae97 fa3d 1d08 95be b3ee 553c
00000320: 119c 35bf 7195 3ebe 9836 2dbe f544 a8be
00000330: ff46 52bc f61f 8dbd 7636 4f3e 20fb 5a3d
00000340: 3fa1 c33c e99b a9bd ae94 82bc 0158 a23c
00000350: 602a ceba ffab 8fbc d779 ad3d ff1e 73bc
00000360: 37b8 823e 5554 0f3e 9bd5 323d ee2e 3d3e
00000370: e494 353d 5057 52be cb06 9ebd dfb8 1cbe
00000380: 662e dfbd 7490 ca3e 0110 c03d 15e0 1c3e
00000390: e7da 2c3d 8ccf 043d 47a7 26bd a8e3 e33b
000003a0: bff2 a9bc 1d00 39bd 3bbb a33d 22a7 fd3e
000003b0: d481 bebf 9a9f b3be 72eb a4be 85fd 87be
000003c0: 008d a9bd 025d 92bd 1c43 933c 960f 353e
000003d0: 45f2 643e 56e8 003f cd4d be3d ac01 98bd
000003e0: 7115 643e aa1d d03d c4f8 643e 26f5 a83e
000003f0: f517 7bbd 1663 89be 6608 49be 53d9 9e3c

encoder.2.bias f4 [32]
0.038419776 0.013953458 -0.011149476 -0.028492173 0.041844938 0.1342247 -0.091838494 0.039288044
0.14641461 0.06793091 -0.06270457 -0.014343792 0.018209191 0.06805755 0.0019543534 0.022046795
0.09255776 0.01492995 -0.11223068 -0.009509932 0.032702453 0.03703225 -0.08136819 0.015864255
-0.02145958 -0.060511123 0.048856113 0.066492215 -0.029097186 -0.04492064 0.053323515 -0.095092244
00000000: 0e5e 1d3d 0b9d 643c 4bac 36bc 6b68 e9bc
00000010: 9965 2b3d 3372 093e d215 bcbd 80ec 203d
00000020: b6ed 153e 5c1f 8b3d 416b 80bd 3902 6bbc
00000030: 712b 953c c261 8b3d 9c14 003b 7b9b b43c
00000040: ec8e bd3d c09c 743c 33d9 e5bd 8ccf 1bbc
00000050: 02f3 053d 21af 173d 5ea4 a6bd c1f5 813c
00000060: 00cc afbc 83da 77bd 591d 483d 122d 883d
00000070: 395d eebc b4fe 37bd c269 5a3d b9bf c2bd

encoder.4.weight f4 [16, 32, 7, 7]
-0.012165976 0.04904716 0.16336629 -0.09463505 0.016900584 0.047268555 0.008099287 0.019794844
0.068241835 0.18371448 0.11176558 0.0692509 0.063790895 0.0128568765 0.0013547253 -0.052019883
-0.037724894 -0.08040251 0.014967199 -0.05579972 -0.054963633 -0.009652954 -0.09611498 -0.04927662
0.09475403 0.0027327673 -0.031610955 -0.07084915 -0.001611911 0.03891085 0.033705283 0.08222519
-0.13803588 -0.022154829 0.085955225 -0.0057706726 -0.013835785 0.04360666 0.051799484 -0.24061759
-0.026545638 0.0062567196 0.025544258 -0.049726166 -0.095330775 -0.545033 -0.1881072 0.010655411
0.09193225 0.012062978 0.018688463 0.052137386 -0.03083546 -0.0016061529 0.032863002 0.029129324
-0.030754948 -0.008934961 0.013862478 -0.05140879 -0.029857233 0.042602807 0.017642675 0.022627456
0.08704655 0.31008393 0.08730885 -0.10163463 -0.04880501 -0.04791826 0.021149224 0.029227605
0.02673036 0.047359843 0.11110656 0.031801004 0.022189343 0.0032050356 0.028995024 0.0107401665
-0.50913846 -0.105443306 -0.16018926 -0.048629787 -0.004090109 0.012573638 -0.025098277 -0.064321704
0.2737928 -0.29235494 -0.044082947 0.016816165 0.09582889 0.06272909 -0.15159293 -0.15243042
0.019622836 0.0024690581 -0.020027308 -0.012009655 -0.009696145 0.008124329 -0.02091883 0.0015762647
0.011569736 0.008649184 0.004082965 -0.015859777 -0.009029675 -0.0042185467 0.010825775 -0.0025239172
-0.0048991055 0.0002773533 0.0152116055 -0.017567988 0.015471738 -0.0040212134 -0.020271204 -0.008844839
-0.008800231 0.003018748 -0.00068130705 0.0018078132 -0.00054825423 0.0059914924 -0.0020560895 0.019308023
0.01060393 0.008935429 0.012761798 -0.015950134 0.00072372565 -0.016518885 -0.014366259 0.00078873354
0.0150049655 -0.013989614 -0.010234728 -0.014358874 -0.014963645 0.009088048 0.018516947 -0.004963607
0.0076061366 -0.01936095 -0.014010815 0.1673772 -0.06611499 0.023687538 -0.037989415 -0.02833977
-0.07683358 0.09746478 -0.07205374 -0.06733618 -0.04355502 -0.010435802 -0.020012548 -0.022761215
-0.0014940319 -0.053338543 0.04220896 0.1891731 -0.03170544 -0.051141642 0.06270534 0.09395579
0.10343949 0.14662826 -0.03385816 -0.13265394 -0.04185613 0.12967975 0.10292199 0.038292125
-0.08425725 -0.09775058 -0.2228521 0.18208031 -0.08238857 -0.062232025 0.013709014 0.06371231
-0.14032535 -0.0953739 0.19580461 -0.052370887 -0.067607954 -0.01173402 -0.12637854 0.40689358
0.38505822 -0.306147 0.000114634946 0.08772203 0.030739842 0.013973545 0.0023614361 -0.0017841198
-0.036150854 0.007909113 0.02760078 0.0045775273 0.022166766 0.02498691 -0.11650822 -0.056131985
0.087511376 0.04682282 0.039587535 0.030799016 0.03697721 0.013498379 0.08234006 0.010776169
0.06023136 -0.012199527 0.027387854 0.06934253 0.120421246 0.27545708 0.051039595 0.009600923
-0.0143477395 0.029446363 -0.21149985 -0.04017946 0.15750425 -0.23188351 -0.13877626 0.015849344
-0.029361188 0.37794614 -0.3220608 -0.53331405 0.047646705 0.08805895 -0.009158952 -0.02215443
-0.017410506 0.07134299 0.08811991 0.07315884 0.11394826 0.068980485 0.028762462 0.0073737754
0.04565815 -0.002227702 0.017287856 0.05039698 0.06640349 0.021957695 0.07629001 -0.1857875
00000000: cd53 47bc ade5 483d 7e49 273e 05d0 c1bd
00000010: 1873 8a3c ac9c 413d dfb2 043c cc28 a23c
00000020: 60c2 8b3d a61f 3c3e 5ae5 e43d 6ad3 8d3d
00000030: cda4 823d a6a5 523c 0a91 b13a cd12 55bd
00000040: 6b85 1abd 12aa a4bd fc38 753c 3f8e 64bd
00000050: 8c21 61bd 6c27 1ebc eed7 c4bd 48d6 49bd
00000060: 670e c23d 3a18 333b 7d7a 01bd 5c19 91bd
00000070: c246 d3ba fc60 1f3d 8d0e 0a3d ae65 a83d
00000080: 4759 0dbe 0b7e b5bc 4b09 b03d e917 bdbb
00000090: 7daf 62bc e69c 323d b22b 543d 7564 76be
000000a0: 3d76 d9bc 2b05 cd3b 3142 d13c aaad 4bbd
000000b0: c83c c3bd 4887 0bbf 2d9f 40be 0894 2e3c
000000c0: fa46 bc3d cca3 453c 8c18 993c 038e 553d
000000d0: a69a fcbc 8c85 d2ba 5b9b 063d 9fa0 ee3c
000000e0: cdf1 fbbc f163 12bc 721f 633c 0692 52bd
000000f0: 2897 f4bc 4880 2e3d 5f87 903c 375d b93c
00000100: 7645 b23d 52c3 9e3e fbce b23d d125 d0bd
00000110: c3e7 47bd f045 44bd 2341 ad3c bb6e ef3c
00000120: a1f9 da3c 65fc 413d d68b e33d c541 023d
00000130: 6dc6 b53c 930b 523b f986 ed3c 86f7 2f3c
00000140: e656 02bf a9f2 d7bd a708 24be 0730 47bd
00000150: 5206 86bb a901 4e3c e79a cdbc 19bb 83bd
00000160: 922e 8c3e 8caf 95be 5290 34bd 0ec2 893c
00000170: f041 c43d 1c78 803d 2d3b 1bbe b816 1cbe
00000180: 12c0 a03c eccf 213b 4f10 a4bc 25c4 44bc
00000190: 94dc 1ebc e81b 053c f75d abbc ab9a ce3a
000001a0: fd8e 3d3c 4fb5 0d3c 65ca 853b 5dec 81bc
000001b0: 34f1 13bc bc3b 8abb 975e 313c 4e68 25bb
000001c0: ad88 a0bb bb69 9139 193a 793c beea 8fbc
000001d0: 2c7d 7d3c 62c4 83bb cc0f a6bc f2e9 10bc
000001e0: d82e 10bc 30d6 453b be99 32ba 25f4 ec3a
000001f0: b8b8 0fba 4854 c43b 75bf 06bb dc2b 9e3c
00000200: 1bbc 2d3c e865 123c dc16 513c dba9 82bc
00000210: 68b8 3d3a 9d52 87bc 7560 6bbc 03c3 4e3a
00000220: 63d7 753c b234 65bc 90af 27bc 7c41 6bbc
00000230: 132a 75bc 09e6 143c dab0 973c c1a5 a2bb
00000240: e63c f93b db9a 9ebc 9e8d 65bc ee64 2b3e
00000250: 4c67 87bd 5e0c c23c ca9a 1bbd ce28 e8bc
00000260: ed5a 9dbd 9d9b c73d e990 93bd 8de7 89bd
00000270: c066 32bd edfa 2abc 5bf1 a3bc ba75 babc
00000280: 64d3 c3ba 8479 5abd 4de3 2c3d 98b6 413e
00000290: 90dd 01bd e679 51bd a86b 803d e56b c03d
000002a0: 15d8 d33d b825 163e dbae 0abd 6fd6 07be
000002b0: 5571 2bbd c5ca 043e c4c8 d23d 34d8 1c3d
000002c0: 118f acbd 7531 c8bd 5733 64be 4373 3a3e
000002d0: 57bb a8bd 02e7 7ebd c69b 603c 997b 823d
000002e0: 73b1 0fbe 6453 c3bd 0181 483e db82 56bd
000002f0: 0a76 8abd 0c40 40bc 6069 01be 5b54 d03e
00000300: 5a26 c53e 4dbf 9cbe 2b68 f038 9ca7 b33d
00000310: 1fd2 fb3c 4cf1 643c 53c2 1a3b 20d9 e9ba
00000320: eb12 14bd 3995 013c 081b e23c 15ff 953b
00000330: 1497 b53c 59b1 cc3c dd9b eebd a7ea 65bd
00000340: 2a39 b33d 49c9 3f3d 8a26 223d 384e fc3c
00000350: 6a75 173d 4e28 5d3c e8a1 a83d 878e 303c
00000360: 29b5 763d 86e0 47bc 7e5c e03c 7503 8e3d
00000370: 6a9f f63d b608 8d3e e50e 513d 314d 1d3c
00000380: c812 6bbc 8039 f13c 6b93 58be 3893 24bd
00000390: cb48 213e df72 6dbe 5d1b 0ebe 7cd6 813c
000003a0: e086 f0bc 2882 c13e 27e5 a4be 4587 08bf
000003b0: 3129 433d 4058 b43d 6e0f 16bc 357d b5bc
000003c0: 7aa0 8ebc 461c 923d 3678 b43d 4dd4 953d
000003d0: b55d e93d a445 8d3d 419f eb3c b69f f13b
000003e0: 0a04 3b3d a3fe 11bb 439f 8d3c 106d 4e3d
000003f0: 8efe 873d a0e0 b33c f03d 9c3d 143f 3ebe

encoder.4.bias f4 [16]
0.006128653 -0.020077266 0.00861816 0.02763962 0.0036997825 0.028262539 -0.021901762 -0.020228177
-0.03748956 -0.097127974 0.01814282 -0.05219568 0.059801646 0.051264483 -0.0060572326 0.025615796
00000000: ded2 c83b 1479 a4bc 2f33 0d3c 7c6c e23c
00000010: 0d78 723b d786 e73c 536b b3bc 90b5 a5bc
00000020: a78e 19bd 08eb c6bd 40a0 943c 23cb 55bd
00000030: 92f2 743d b5fa 513d c07b c6bb 38d8 d13c

decoder.1.weight f4 [16, 32, 7, 7]
-0.04551324 0.035889905 -0.07890017 -0.084080525 -0.43150973 -0.08274469 0.031471416 0.03935724
0.07941369 0.04842316 -0.11428065 0.112643935 -0.044800095 0.11036115 -0.11497322 0.058203407
-0.14811186 -0.033429075 0.03102772 0.021773918 0.101649106 -0.21998048 0.14939122 -0.009584779
-0.16122395 -0.014949417 -0.16329493 -0.06820455 -0.03330537 -0.03497051 -0.03864737 0.08531675
-0.10810878 0.20644046 -0.22272506 -0.050892416 -0.17579064 -0.2519219 -0.17583309 -0.031212538
-0.1370645 -0.00024807747 0.020416062 -0.032579858 -0.00895701 -0.15255523 -0.13588837 0.0025243203
0.18713242 -0.016276866 -0.09635589 -0.27278125 -0.29182702 0.0022838942 0.19383043 -0.06727893
0.066771 -0.053555746 -0.09846308 0.11001174 0.06803515 -0.08069613 -0.13006537 -0.04700461
0.13152179 -0.07076276 -0.050988268 -0.11967755 -0.06798897 -0.14877844 -0.15684749 -0.13577637
-0.049193904 -0.03715792 0.002138077 -0.021176897 0.06642032 -0.004995826 0.0021091881 -0.040263657
0.022882983 0.17852755 0.1611897 -0.3585817 0.11054647 0.11666228 -0.015440434 0.046439253
-0.43100682 -0.18640481 -0.08847612 0.047254868 -0.07900729 -0.103943296 -0.028855158 -0.020700626
-0.1572241 0.113307826 0.032462656 -0.1842024 -0.032650743 -0.09077167 -0.17494144 0.18008193
-0.4349413 -0.118884504 0.15729961 -0.002882065 0.08879176 -0.053726275 -0.022304857 0.04537742
0.004685248 0.09448177 0.09847349 -0.123442836 0.017427254 0.010400954 -0.03519806 -0.064385585
-0.04039025 -0.2403511 -0.12250393 0.02948055 -0.09179211 -0.109991096 0.12472212 -0.0782291
-0.06036631 0.004124294 0.082561575 -0.3074101 -0.06965241 0.08785505 -0.00044598558 0.19742498
-0.09289211 -0.25450915 -0.29098427 0.087074675 -0.08495163 0.1353641 0.054396342 0.016960936
-0.4002008 -0.000113326314 0.11109504 0.033282984 0.10242813 -0.04680719 -0.068228334 0.021541562
-0.1407764 -0.1017096 0.15333804 0.09215265 -0.04324382 -0.0073991613 -0.08319071 0.04739266
0.030864583 -0.009073178 -0.034531504 -0.066730216 -0.21396475 -0.008226063 -0.0230724 -0.053150643
-0.021175632 0.020106066 -0.026691193 -0.0016236233 0.09276885 0.14101537 -0.02482869 0.004871479
0.11605491 -0.029834848 -0.046160016 0.20256718 -0.10913775 -0.17462826 0.07020125 0.06834252
0.05083036 -0.0081179 -0.31488216 -0.067262165 0.03635951 -0.039787233 -0.09357006 0.018968172
0.09239496 0.10153326 -0.036408093 0.12504865 0.02339729 0.073670685 0.07861908 0.1055165
0.23221582 0.21583731 -0.17173739 -0.03791217 0.042518467 -0.08059046 0.10193502 -0.23703535
-0.07242075 -0.21820772 0.2393415 0.025256503 0.17763239 0.053705595 -0.00063924596 -0.044501837
0.052607324 -0.12684733 0.05522183 -0.112734936 0.035874918 -0.06480314 0.026199186 0.06919956
0.12804122 0.016017267 -0.18217713 -0.04225881 -0.043686938 -0.044728186 -0.04432588 0.10729202
0.10533946 0.060826577 0.19486076 -0.3964735 0.40757462 -0.045893427 0.04376964 0.102101095
0.07063421 0.024612987 -0.1106904 -0.1880693 -0.00912219 -0.013050203 -0.0036026635 0.013662277
-0.062640086 -0.08860662 -0.041595455 -0.1842366 -0.018729212 -0.012129933 0.10340205 -0.09576351
00000000: 176c 3abd 4b01 133d 6a96 a1bd 6932 acbd
00000010: d8ee dcbe 0c76 a9bd 2ce8 003d 0f35 213d
00000020: a5a3 a23d 5d57 463d f90b eabd ddb1 e63d
00000030: 4e80 37bd 0705 e23d 1477 ebbd b266 6e3d
00000040: a3aa 17be edec 08bd d82d fe3c 375f b23c
00000050: 682d d03d 9042 61be 03fa 183e 7a09 1dbc
00000060: e417 25be 66ee 74bc c936 27be d4ae 8bbd
00000070: 366b 08bd 3d3d 0fbd b44c 1ebd 8cba ae3d
00000080: 2368 ddbd 2165 533e 0a12 64be 9174 50bd
00000090: 7602 34be e8fb 80be 970d 34be 70b1 ffbc
000000a0: a35a 0cbe 6510 82b9 963f a73c 7572 05bd
000000b0: 6cc0 12bc 7037 1cbe 5226 0bbe 116f 253b
000000c0: a49f 3f3e 1057 85bc 3d56 c5bd fca9 8bbe
000000d0: 5a6a 95be 63ad 153b 7c7b 463e 89c9 89bd
000000e0: 3cbf 883d 455d 5bbd 03a7 c9bd d64d e13d
000000f0: 0356 8b3d 0344 a5bd db2f 05be e887 40bd
00000100: a6ad 063e 11ec 90bd 13d9 50bd 8119 f5bd
00000110: cd3d 8bbd 6059 18be a19c 20be f608 0bbe
00000120: 8c7f 49bd e732 18bd fb1e 0c3b 2c7b adbc
00000130: 6007 883d 07b4 a3bb 4e3a 0a3b 81eb 24bd
00000140: 1875 bb3c edcf 363e ea0e 253e 0598 b7be
00000150: 3066 e23d a2ec ee3d e0f9 7cbc 1637 3e3d
00000160: edac dcbe e7e0 3ebe f832 b5bd 528e 413d
00000170: 93ce a1bd 39e0 d4bd a761 ecbc 5c94 a9bc
00000180: 5bff 20be ef0d e83d 90f7 043d 8e9f 3cbe
00000190: c9bc 05bd 7fe6 b9bd d923 33be 6667 383e
000001a0: a0b0 debe b879 f3bd 2613 213e 07e1 3cbb
000001b0: 74d8 b53d 1510 5cbd adb8 b6bc acdd 393d
000001c0: b586 993b a97f c13d 78ac c93d 99cf fcbd
000001d0: 9ac3 8e3c c368 2a3c d72b 10bd 97dc 83bd
000001e0: 3f70 25bd 991e 76be 57e3 fabd 3281 f13c
000001f0: 80fd bbbd 0343 e1bd 506e ff3d 9436 a0bd
00000200: aa42 77bd 1625 873b 0b16 a93d db64 9dbe
00000210: eca5 8ebd 59ed b33d 2cd3 e9b9 c629 4a3e
00000220: 383e bebd 064f 82be e4fb 94be 3554 b23d
00000230: 1ffb adbd e39c 0a3e b3ce 5e3d a9f1 8a3c
00000240: 1fe7 ccbe 9aa9 edb8 cc85 e33d bd53 083d
00000250: d7c5 d13d e5b8 3fbd 4cbb 8bbd ee77 b03c
00000260: b027 10be 1f4d d0bd a604 1d3e 87ba bc3d
00000270: 6f20 31bd aa74 f2bb e45f aabd ce1e 423d
00000280: b9d7 fc3c aba7 14bc e870 0dbd daa9 88bd
00000290: 9319 5bbe 9cc6 06bc 5402 bdbc 7db4 59bd
000002a0: 8578 adbc 7ab5 a43c 7da7 dabc c2cf d4ba
000002b0: 98fd bd3d 5566 103e 8965 cbbc eda0 9f3b
000002c0: 32ae ed3d 3668 f4bc 4912 3dbd c56d 4f3e
000002d0: 9d83 dfbd c0d1 32be acc5 8f3d 2af7 8b3d
000002e0: 7f33 503d f100 05bc 3c38 a1be bfc0 89bd
000002f0: b6ed 143d f0f7 22bd a9a1 bfbd 2463 9b3c
00000300: 9239 bd3d abf0 cf3d a720 15bd c10c 003e
00000310: acab bf3c a8e0 963d 0a03 a13d 0919 d83d
00000320: fcc9 6d3e 7504 5d3e eddb 2fbe cb49 1bbd
00000330: d827 2e3d 9c0c a5bd 4fc3 d03d 65b9 72be
00000340: 5551 94bd d871 5fbe f015 753e bae6 ce3c
00000350: 44e5 353e 66fa 5b3d 1293 27ba 8f47 36bd
00000360: c77a 573d 44e4 01be 4930 623d 93e1 e6bd
00000370: 94f1 123d 82b7 84bd ad9f d63c 80b8 8d3d
00000380: 3d1d 033e a536 833c a48c 3abe 9317 2dbd
00000390: 13f1 32bd e734 37bd 0e8f 35bd ebbb db3d
000003a0: 37bc d73d 4a25 793d 9489 473e 93fe cabe
000003b0: 9fad d03e bffa 3bbd cb47 333d 611a d13d
000003c0: aba8 903d 2da1 c93c a6b1 e2bd 3d95 40be
000003d0: 3d75 15bc 85d0 55bc aa1a 6cbb bed7 5f3c
000003e0: 7249 80bd 6377 b5bd ff5f 2abd 85a8 3cbe
000003f0: 016e 99bc a0bc 46bc 74c4 d33d a91f c4bd

decoder.1.bias f4 [32]
0.17335904 0.34891042 0.20173351 0.16462581 0.23274745 -0.68159825 0.16429062 0.15015218
0.11987375 0.04606031 0.077685535 0.26776275 0.088460274 0.060697984 -0.39057222 -0.63676834
-0.31933624 -0.43681753 -0.7946981 -0.1488513 -0.5441011 0.17124145 0.34139055 0.4608008
0.35171193 0.12305707 0.022587653 0.02790882 0.0601375 0.0731208 -0.47714487 -0.0362118
00000000: 0885 313e 63a4 b23e 3b93 4e3e ab93 283e
00000010: 5955 6e3e 397d 2ebf cd3b 283e 7ec1 193e
00000020: 5e80 f53d bca9 3c3d 9819 9f3d 3318 893e
00000030: a92a b53d 739e 783d 15f9 c7be 4003 23bf
00000040: 0a80 a3be 8ca6 dfbe 5671 4bbf 7a6c 18be
00000050: 364a 0bbf eb59 2f3e beca ae3e 15ee eb3e
00000060: 9613 b43e 5805 fc3d be09 b93c 0aa1 e43c
00000070: bd52 763d 5cc0 953d 554c f4be d352 14bd

decoder.3.weight f4 [32, 16, 3, 3]
-0.010387261 0.28217718 0.24875826 0.050167635 0.18107414 -0.059454482 -0.114874735 -0.09093096
-0.14490563 0.07392314 -0.0065377145 0.044110015 -0.05043514 0.25231078 -0.18776602 0.04570328
0.1688228 0.05522008 0.110291995 -0.12748942 -0.102753274 -0.07300184 -0.34194106 -0.018658588
0.1778527 -0.08881749 0.08023777 -0.13273722 -0.050464768 -0.02800129 0.28617662 0.02700457
-0.21995758 0.11786509 0.028612077 -0.063934654 -0.053042997 -0.04040449 0.047900844 0.031903177
-0.17086247 -0.10436418 -0.03594333 -0.1307895 -0.085827544 -0.03898588 0.08555113 0.010083454
-0.18143702 0.19806008 -0.022981824 -0.18107629 0.009578508 0.08295538 0.026251266 -0.12230366
-0.113698855 -0.26108125 -0.06246665 -0.036851224 0.09290982 -0.32591638 -0.011793295 -0.0018736679
-0.043746084 -0.07169926 0.09301058 -0.13680533 -0.09561873 -0.09759595 -0.038997922 -0.007854047
-0.1334603 -0.022548078 -0.16608165 -0.027024707 0.23590936 -0.056653503 0.08632588 0.14230205
-0.076190166 0.1122093 0.0076086265 -0.06785448 -0.09270508 -0.020971978 -0.059184846 -0.09305124
0.112301506 0.09953965 -0.06368321 -0.31628636 -0.07013498 0.20591213 0.07183079 -0.25531536
-0.02305982 -0.043800633 -0.12225554 0.09979262 -0.15961455 -0.034856964 0.0981856 0.17885168
0.2844248 0.09227668 0.2961191 0.051256146 0.072922334 -0.2435215 -0.0308156 -0.021923989
-0.014403329 -0.088533655 -0.208402 -0.02832937 0.20504168 -0.024667203 -0.11351291 0.07686408
0.059255872 -0.12888734 -0.27220842 0.12548706 0.006706757 -0.10054559 0.114931606 0.09427161
-0.18514432 0.11606533 -0.11701861 -0.12489897 -0.058350556 -0.063936844 0.057040617 -0.09461138
0.12747094 0.29981264 0.14411521 0.17404875 0.08334044 -0.07158949 0.0027767231 -0.109522305
0.08701085 0.20089681 0.14501531 0.12021103 0.06028388 0.17048506 -0.1209002 -0.099772625
-0.08910296 0.07387536 -0.024213245 -0.08456596 -0.19806902 0.14736183 -0.11809126 0.10018892
0.25187442 0.06352299 0.09633761 -0.13820274 -0.09592705 0.14508443 -0.16705672 -0.3565375
0.015472015 0.13568904 -0.11583064 -0.030775884 0.03497129 -0.2200669 0.32230112 -0.2036514
-0.24510138 0.02788553 -0.02138564 0.0003845228 -0.2921845 -0.56292737 -0.07614642 -0.0709874
-0.04636555 -0.21271692 -0.17224288 -0.2037552 -0.01377704 -0.066515245 -0.086262755 -0.046621356
0.094297275 0.33066636 0.14793421 0.0030433168 0.07369527 0.18683904 -0.13782121 -0.13158913
-0.1338627 -0.027579691 0.09855857 0.0023235928 -0.063480504 -0.24485503 0.053690966 -0.021937266
-0.032212023 -0.07626808 0.011101591 -0.08551393 -0.16777836 0.054215707 0.035090014 -0.031094706
-0.14117342 -0.21408176 -0.16113602 -0.11459067 0.25926712 0.04176077 0.09542284 0.120651275
0.039313886 0.07250437 -0.014969175 0.06482358 -0.1402994 -0.057189524 0.18352352 -0.24884352
-0.1848114 -0.008226886 0.08938601 -0.0031412016 -0.21479978 -0.0055224393 0.106172554 -0.09424354
0.017808735 0.01519673 -0.30686542 0.0473122 -0.2950908 0.09169341 -0.008112003 -0.090287894
0.044456497 0.14996128 0.06189546 0.07601824 0.11487886 -0.14809114 -0.18240006 0.0046713543
00000000: 552f 2abc 8779 903e 7cba 7e3e 947c 4d3d
00000010: 806b 393e 8b86 73bd 7243 ebbd 033a babd
00000020: 2462 14be 0465 973d 533a d6bb b4ac 343d
00000030: 1495 4ebd e12e 813e bc45 40be 5d33 3b3d
00000040: e2df 2c3e 732e 623d c5e0 e13d 968c 02be
00000050: 4f70 d2bd fd81 95bd e612 afbe e5d9 98bc
00000060: 051f 363e f2e5 b5bd b353 a43d 44ec 07be
00000070: 25b4 4ebd f662 e5bc be85 923e b038 dd3c
00000080: 8f3c 61be 4163 f13d e063 ea3c 2cf0 82bd
00000090: 9d43 59bd 2e7f 25bd ad33 443d e8ac 023d
000000a0: 92f6 2ebe e3bc d5bd 5039 13bd afed 05be
000000b0: 5ac6 afbd a8af 1fbd 6e35 af3d 1235 253c
000000c0: a0ca 39be 43d0 4a3e 6144 bcbc 106c 39be
000000d0: 2def 1c3c 83e4 a93d e50c d73c 577a fabd
000000e0: f2da e8bd 71ac 85be 08dd 7fbd 4ff1 16bd
000000f0: 8147 be3d 83de a6be aa38 41bc dd95 f5ba
00000100: 182f 33bd 10d7 92bd 557c be3d b216 0cbe
00000110: c1d3 c3bd 63e0 c7bd 49bc 1fbd 43ae 00bc
00000120: d1a9 08be bfb6 b8bc 4f11 2abe eb62 ddbc
00000130: 3992 713e 810d 68bd 9fcb b03d a1b7 113e
00000140: 9709 9cbd fdcd e53d c951 f93b 4af7 8abd
00000150: 29dc bdbd 6dcd abbc cf6b 72bd a691 bebd
00000160: 55fe e53d 72db cb3d 586c 82bd 49f0 a1be
00000170: eea2 8fbd a1da 523e 051c 933d b2b8 82be
00000180: f3e7 bcbc 4b68 33bd 1d61 fabd 1360 cc3d
00000190: ff71 23be 2dc6 0ebd 8815 c93d e524 373e
000001a0: 21a0 913e 8efb bc3d ec9c 973e f7f1 513d
000001b0: 4e58 953d b35d 79be ff70 fcbc f099 b3bc
000001c0: f1fb 6bbc 2251 b5bd 5567 55be ff12 e8bc
000001d0: 72f6 513e e012 cabc 7579 e8bd ea6a 9d3d
000001e0: 49b6 723d 0bfb 03be e75e 8bbe ae7f 003e
000001f0: 5bc4 db3b d9ea cdbd 4361 eb3d 7911 c13d
00000200: 7996 3dbe a9b3 ed3d 74a7 efbd 08cb ffbd
00000210: fe00 6fbd 52f1 82bd 6ca3 693d 9cc3 c1bd
00000220: be87 023e 0b81 993e f092 133e d639 323e
00000230: 65ae aa3d 839d 92bd aff9 353b 3b4d e0bd
00000240: bf32 b23d e5b7 4d3e e57e 143e 3331 f63d
00000250: 3bec 763d a393 2e3e 869a f7bd 9755 ccbd
00000260: 9d7b b6bd f74b 973d db5a c6bc eb30 adbd
00000270: 9bd2 4abe 05e6 163e d5d9 f1bd d92f cd3d
00000280: aff5 803e 5718 823d a74c c53d 0585 0dbe
00000290: 6775 c4bd 0391 143e eb10 2bbe 158c b6be
000002a0: 567e 7d3c 11f2 0a3e 9d38 edbd b51d fcbc
000002b0: 0e3e 0f3d 3859 61be a704 a53e fe89 50be
000002c0: dbfb 7abe 3270 e43c f030 afbc c799 c939
000002d0: 3599 95be 021c 10bf a7f2 9bbd d861 91bd
000002e0: cee9 3dbd 77d2 59be 7060 30be 34a5 50be
000002f0: 18b9 61bc 2539 88bd 87aa b0bd 09f6 3ebd
00000300: ee1e c13d 1a4d a93e 117c 173e 6272 473b
00000310: 8ced 963d bc52 3f3e 0121 0dbe 4dbf 06be
00000320: 4e13 09be ceee e1bc 13d9 c93d 6b47 183b
00000330: 1102 82bd 47bb 7abe 0feb 5b3d c8b5 b3bc
00000340: c1f0 03bd 7032 9cbd 73e3 353c ed21 afbd
00000350: 17ce 2bbe 4a11 5e3d 8cba 0f3d 53ba febc
00000360: c48f 10be 4038 5bbe d700 25be 83ae eabd
00000370: a9be 843e 570d 2b3d 0d6d c33d 0418 f73d
00000380: 9907 213d 2c7d 943d 4541 75bc 3ac2 843d
00000390: a5aa 0fbe 903f 6abd 97ed 3b3e d6d0 7ebe
000003a0: 333f 3dbe 10ca 06bc 0310 b73d 9edc 4dbb
000003b0: 79f4 5bbe 94f5 b4bb ff70 d93d c202 c1bd
000003c0: a0e3 913c b5fb 783c 771d 9dbe 70ca 413d
000003d0: 2416 97be c1c9 bb3d 35e8 04bc dce8 b8bd
000003e0: 0418 363d 738f 193e 1886 7d3d 73af 9b3d
000003f0: 9c45 eb3d 34a5 17be 15c7 3abe 2912 993b

decoder.3.bias f4 [16]
0.3733924 0.08176879 -0.0033562887 0.46839848 0.3646743 0.23360217 -0.050408687 -0.22992736
0.13948451 -0.3270484 0.470692 0.21832564 -0.123618826 -0.07687569 0.55055857 -0.06085744
00000000: 4a2d bf3e 6576 a73d 2ef5 5bbb edd1 ef3e
00000010: 97b6 ba3e 6835 6f3e 5779 4ebd 1472 6bbe
00000020: 07d5 0e3e e372 a7be 8bfe f03e c290 5f3e
00000030: de2b fdbd 0071 9dbd 68f1 0c3f a745 79bd

decoder.5.weight f4 [16, 1, 3, 3]
0.080687985 0.11922698 0.06904716 -0.21136111 -0.46289533 -0.25678903 -0.28461838 -0.49055555
-0.23948644 -0.064761534 -0.14226572 -0.10038529 -0.17074995 -0.31574732 -0.18714023 0.059485674
0.118711725 0.070428036 -0.23368402 -0.21400155 -0.07788693 -0.45738426 -0.35695446 -0.07552845
-0.3074094 -0.24279884 -0.045401614 -0.28398776 -0.312059 -0.068469286 -0.5384925 -0.5190662
-0.056619834 -0.31039 -0.24199979 0.00823281 0.17403615 0.2326867 0.10426509 0.11443119
-0.00907723 -0.10632263 -0.21002123 -0.4630727 -0.28178498 -0.11585205 -0.20746258 -0.008979682
-0.2871982 -0.40571538 -0.028537909 -0.20364328 -0.23509414 -0.01974764 -0.12246993 -0.36095497
-0.3620616 0.020695535 -0.16643967 -0.2764129 0.14950553 0.1215566 -0.053020835 0.1283841
0.32779148 0.2203903 0.2807336 0.60091954 0.35257652 0.122026175 0.23896813 0.108881876
-0.009525116 -0.11847407 -0.16881227 -0.104389764 -0.31264514 -0.36134937 -0.19881898 -0.4332072
-0.32978502 0.08600246 0.2974846 0.21571079 0.17448135 0.51314604 0.33348903 0.07549267
0.23442456 0.12785047 -0.052499965 -0.13066874 -0.07158149 -0.2229733 -0.41602215 -0.21824461
-0.25490138 -0.4288201 -0.182712 -0.09424231 -0.2828732 -0.09679579 -0.1342179 -0.40018034
-0.068374954 -0.03521074 -0.12943505 0.03149099 0.13466333 0.27511853 0.1913453 0.2902743
0.48411337 0.2800598 0.21530797 0.30323082 0.14958556 0.14001513 0.2558123 0.12518185
0.30903423 0.4773113 0.16563258 0.2069121 0.24676688 0.04561605 0.109520465 -0.1140349
-0.29987577 0.13704808 -0.3601611 -0.5422842 0.08869232 -0.2176883 -0.2713138 -0.23816553
-0.49897578 -0.3635388 -0.19780058 -0.3454137 -0.2884205 0.0486355 0.057288468 -0.029906724
00000000: be3f a53d 462d f43d 9968 8d3d 0c6f 58be
00000010: 9e00 edbe da79 83be 80b9 91be 192a fbbe
00000020: ef3b 75be b2a1 84bd 1bae 11be ce96 cdbd
00000030: 13d9 2ebe a2a9 a1be b0a1 3fbe 40a7 733d
00000040: 221f f33d 933c 903d dd4a 6fbe 3923 5bbe
00000050: 2f83 9fbd 452e eabe bcc2 b6be a9ae 9abd
00000060: c464 9dbe 42a0 78be 0bf7 39bd d866 91be
00000070: 32c6 9fbe a039 8cbd a5da 09bf 86e1 04bf
00000080: 33ea 67bd 70eb 9ebe cbce 77be e8e2 063c
00000090: 8836 323e 6c45 6e3e ef88 d53d e65a ea3d
000000a0: a9b8 14bc aebf d9bd ce0f 57be dd17 edbe
000000b0: 1f46 90be d743 edbd 1271 54be 841f 13bc
000000c0: a40b 93be edb9 cfbe 55c8 e9bc dd87 50be
000000d0: 85bc 70be cdc5 a1bc 84d1 fabd 17cf b8be
000000e0: 2360 b9be af89 a93c 296f 2abe fe85 8dbe
000000f0: fa17 193e abf2 f83d 602c 59bd 1f77 033e
00000100: 49d4 a73e ffad 613e 50bc 8f3e ddd5 193f
00000110: e984 b43e dce8 f93d 10b4 743e 76fd de3d
00000120: 3b0f 1cbc 89a2 f2bd 20dd 2cbe 4dca d5bd
00000130: 0613 a0be c902 b9be 3497 4bbe 56cd ddbe
00000140: 95d9 a8be 0f22 b03d e74f 983e 4ae3 5c3e
00000150: 3dab 323e 8a5d 033f 13bf aa3e e79b 9a3d
00000160: fe0c 703e 3ceb 023e 340a 57bd 07ce 05be
00000170: 5199 92bd 1d53 64be db00 d5be 847b 5fbe
00000180: 6f82 82be 4f8e dbbe db18 3bbe 1d02 c1bd
00000190: c2d4 90be df3c c6bd 6b70 09be 70e4 ccbe
000001a0: 2b08 8cbd 2339 10bd 9f8a 04be b2fc 003d
000001b0: 2fe5 093e 56dc 8c3e 06f0 433e d59e 943e
000001c0: b5dd f73e 0064 8f3e b179 5c3e 1241 9b3e
000001d0: f52c 193e 2060 0f3e d4f9 823e ac2f 003e
000001e0: bc39 9e3e 2662 f43e 969b 293e c4e0 533e
000001f0: 75b0 7c3e e5d7 3a3d 444c e03d 218b e9bd
00000200: 5189 99be 5556 0c3e 0967 b8be 23d3 0abf
00000210: 52a4 b53d afe9 5ebe a4e9 8abe aae1 73be
00000220: c179 ffbe c221 babe 3c8c 4abe 11da b0be
00000230: daab 93be 0536 473d 50a7 6a3d f2fe f4bc
