02-Autoencoder/01-PT-MNIST-basic/cnn16-autoencoder.pth (torch, 242881 bytes, 11 tensors)

encoder.0.weight f4 [16, 1, 3, 3]
0.40019652 0.3691779 0.25440705 0.47426745 0.1125221 0.041971266 -0.13201006 -0.20919228
0.054415036 -0.43941602 0.29574385 0.4027765 -0.67968696 -0.060099415 -0.07127781 -1.478448
-0.44342533 -0.59832543 -0.40716597 0.007877866 -0.23255073 -0.10188347 -0.15439104 -0.18538402
-0.04258183 -0.068936095 -0.42851177 -0.121811844 -0.10301348 -0.37030593 -0.4432858 -0.54930544
-0.22860591 -0.22586864 0.35432574 0.6627521 -0.44339722 0.042945355 0.23110887 0.031684633
0.036650006 -0.10182188 0.32628766 0.18716702 0.24106435 0.10677187 0.26499712 0.025458485
0.36722457 0.33733937 -0.32060942 0.3398148 -0.2704512 -0.52159584 -0.21353626 0.12835155
-0.13454945 0.032140996 0.5415224 0.22125903 -0.029697217 0.5061842 -0.04138389 0.1395879
0.32551545 0.0032814594 -0.32287315 -0.08950095 -0.119475156 0.14309071 0.21204132 -0.17237835
-0.0030332406 -0.3870248 0.26264685 0.052661583 -0.6027559 0.40796766 -0.108083226 -0.5172096
0.4143424 0.19751291 -0.3522379 -0.16350207 0.08817981 -0.29836625 0.24911873 0.08108152
0.009981871 0.15432256 -0.1577684 0.073146045 0.26164174 -0.42015144 0.3411182 0.24415344
-0.45175 0.20580588 0.08743439 -0.015417286 -0.46425587 -0.7741886 0.3697014 0.12105264
-0.30587992 0.3976581 0.5023057 0.22525369 0.13964675 -0.09574589 -0.03584759 0.19081779
0.3497268 0.35297287 0.245656 0.124634154 0.14065917 0.022455752 -0.106578074 -0.1029129
-0.23766956 0.036544636 -0.26977992 -0.2465219 -0.14103852 -0.14232011 0.023331035 0.05418154
0.27784267 -0.051116634 0.170854 0.43774065 -0.04888903 0.060568985 0.1341955 -0.30680296
-0.47127345 0.04815013 -0.02275687 -0.41370773 -0.8088154 0.58869064 0.36421934 -0.17790508
00000000: 8fe6 cc3e e304 bd3e a441 823e 2fd3 f23e
00000010: fd71 e63d 10ea 2b3d a52d 07be 8036 56be
00000020: 4de2 5e3d 23fb e0be bd6b 973e b938 ce3e
00000030: f7ff 2dbf ce2a 76bd 1afa 91bd c93d bdbf
00000040: a508 e3be db2b 19bf 0f78 d0be 2a12 013c
00000050: c721 6ebe 48a8 d0bd af18 1ebe 4fd5 3dbe
00000060: 496a 2ebd 5e2e 8dbd e565 dbbe 7d78 f9bd
00000070: bbf8 d2bd bd98 bdbe 5bf6 e2be 489f 0cbf
00000080: ab17 6abe 1c4a 67be 2f6a b53e 1faa 293f
00000090: f604 e3be 78e7 2f3d cea7 6c3e bfc7 013d
000000a0: 511e 163d fd87 d0bd 2d0f a73e b6a8 3f3e
000000b0: 93d9 763e 36ab da3d b4ad 873e 508e d03c
000000c0: dc04 bc3e bfb7 ac3e eb26 a4be 35fc ad3e
000000d0: 9478 8abe 4e87 05bf 40a9 5abe 976e 033e
000000e0: 55c7 09be 47a6 033d 36a1 0a3f ba91 623e
000000f0: 9447 f3bc 4a95 013f 2782 29bd 21f0 0e3e
00000100: f6a9 a63e c10d 573b a14f a5be 464c b7bd
00000110: 64af f4bd 5f86 123e 5c21 593e f383 30be
00000120: 55c9 46bb 1d28 c6be a679 863e acb3 573d
00000130: 364e 1abf 23e1 d03e bd5a ddbd d967 04bf
00000140: b024 d43e d340 4a3e 8758 b4be 166d 27be
00000150: 9e97 b43d 76c3 98be fb18 7f3e 110e a63d
00000160: 008b 233c bc06 1e3e 0a8e 21be 98cd 953d
00000170: e8f5 853e 171e d7be 0ba7 ae3e 5c03 7a3e
00000180: c74b e7be c7be 523e cd10 b33d c998 7cbc
00000190: f2b2 edbe 3931 46bf 8049 bd3e 72ea f73d
000001a0: 4b9c 9cbe d899 cb3e 1b97 003f e7a8 663e
000001b0: 8fff 0e3e 6c16 c4bd ecd4 12bd bd65 433e
000001c0: 640f b33e dcb8 b43e 3f8d 7b3e 3140 ff3d
000001d0: f508 103e 20f5 b73c 9b45 dabd 00c4 d2bd
000001e0: a65f 73be d4af 153d 9820 8abe 3d70 7cbe
000001f0: 676c 10be 5dbc 11be ba20 bf3c 76ed 5d3d
00000200: 6541 8e3e ad5f 51bd 5af4 2e3e 8b1f e03e
00000210: dd3f 48bd 2f17 783d 8c6a 093e 4715 9dbe
00000220: c14a f1be 1239 453d 9e6c babc 80d1 d3be
00000230: 870e 4fbf 6eb4 163f f57a ba3e c02c 36be

encoder.0.bias f4 [16]
0.0008894182 0.30465776 0.40813157 0.1553162 -0.0020953738 -0.0012375892 0.05167896 0.05153284
0.14888872 0.31575176 -0.0011470128 -0.0033856323 -0.17582239 0.43882024 0.015924027 0.18722168
00000000: d827 693a 1afc 9b3e 9ff6 d03e 360b 1f3e
00000010: 8a52 09bb 9a36 a2ba 51ad 533d 1914 533d
00000020: 4976 183e 37aa a13e 5d57 96ba 7ce1 5dbb
00000030: c90a 34be 0cad e03e 1b73 823c 0ab7 3f3e

encoder.2.weight f4 [32, 16, 3, 3]
0.1341602 -0.11575198 -0.48403683 0.2791813 -0.13830341 -0.33893043 0.4380265 0.012438139
0.040594652 -0.20838736 0.06505908 -0.08904314 -0.40667725 -0.0071556857 -0.15817821 0.065895356
0.028709758 -0.2000982 -0.0697098 0.03913679 0.15560886 -0.056324683 0.054750584 -0.13488354
-0.20812108 0.21969143 -0.16474317 -0.08710599 -0.101110905 -0.032978572 -0.13746527 0.053700764
0.16262193 -0.47390276 -0.02904349 0.025119647 0.048729837 0.11933611 0.021502506 0.18835059
-0.0031032572 0.16335453 0.20623785 -0.07180002 -0.0070056384 0.17258398 -0.07906535 0.11668059
0.29874986 -0.02396643 0.065146305 0.076708436 -0.4160606 0.069542386 0.1347508 -0.28969145
-0.0065662046 0.07737615 -0.45031014 0.0052254815 0.10120774 -0.23755673 0.10992971 0.018395899
-0.026630564 -0.20382136 -0.011491644 0.0363119 0.106696606 0.18227379 -0.10575214 0.11670574
0.17942175 0.55317134 0.09058554 0.23257676 0.26110122 0.10178383 0.20770398 -0.020260027
0.06122179 0.2670702 0.17589399 0.015040652 0.3480584 -0.00031179126 0.060085777 0.19600476
0.0050861496 -0.05833579 0.36641076 0.5544454 0.21359403 0.53787696 0.55034167 0.09089837
0.23607218 0.056645 -0.07592681 -0.055620443 -0.26945576 -0.2711779 -0.008947533 -0.12221805
-0.2831011 0.017943194 -0.028078994 -0.044393107 0.08610703 -0.03284438 -0.28780842 0.060119707
-0.15682153 -0.15228242 0.04991447 -0.05512777 -0.033343114 -0.20002525 0.11365862 -0.07632935
-0.23254803 0.040422913 0.03277175 -0.19176295 0.09406958 -0.14015047 0.10597465 -0.2852139
-0.07813882 -0.018701596 -0.4001515 0.07233127 0.014416569 -0.06363071 0.140542 -0.015746448
-0.11519233 -0.062278334 0.16063593 -0.021426322 -0.1530274 0.17054443 0.33962902 -0.0825209
-0.25274572 -0.30908918 -1.3326821 0.031108363 -0.15638895 0.10410543 0.15652417 -0.17011428
0.05946996 -0.093994826 -0.15010907 -0.14864184 -0.08073796 0.00083113887 0.0022114206 -0.4013958
-0.5053338 -0.11767655 0.26544374 0.09077299 0.15015331 0.1597017 0.04566422 0.0073674815
0.05789514 -0.050534897 -0.13121103 -0.13622014 -0.1761578 0.3137471 -0.008468813 -0.17410535
-0.084118865 0.3963857 0.35393524 0.30824172 -0.24060424 -0.21409978 -0.54372156 -0.19779216
-0.14020702 0.17905231 0.027255323 0.07800235 -0.047366083 -0.015922574 0.3682928 0.080039866
0.0140138855 -0.24371433 -0.503562 0.13759404 0.0149544915 0.032605857 -0.11471585 -0.09845795
-0.17574984 -0.19850467 -0.2628593 -0.35608706 0.1044677 0.10821566 0.18587822 -0.12808235
-0.16620386 -0.056364734 -0.10080452 -0.05147285 -0.19913074 -0.018130686 0.13595386 -0.22022274
0.2277202 0.2671044 0.056818485 0.2879843 -0.036784455 -0.28141603 -0.12177378 -0.36032578
-0.43399405 0.37448254 0.16939798 0.2167249 0.07131038 0.09665208 -0.072323434 0.0076351217
0.09761785 0.05387043 -0.4319532 1.1487104 -1.2748342 -0.48108113 -0.5492856 -0.42527512
-0.14074056 -0.28238842 -0.16156094 0.124103785 0.2551144 0.6876803 -0.00486061 -0.00019395766
0.14960785 -0.06786917 0.021650841 0.154169 -0.07291716 -0.63436717 -0.61401457 -0.014435868
00000000: 4b61 093e 600f edbd add3 f7be daf0 8e3e
00000010: 699f 0dbe 4a88 adbe 0245 e03e 56c9 4b3c
00000020: 9446 263d 7f63 55be b23d 853d 405c b6bd
00000030: 0038 d0be 3e7a eabb 78f9 21be 25f4 863d
00000040: ba30 eb3c 8be6 4cbe 03c4 8ebd e64d 203d
00000050: ee57 1f3e b6b4 66bd 2642 603d e91e 0abe
00000060: b11d 55be caf6 603e 6fb2 28be a064 b2bd
00000070: 3c13 cfbd 8a14 07bd b2c3 0cbe 55f5 5b3d
00000080: 5d86 263e 62a3 f2be 9dec edbc b8c7 cd3c
00000090: f098 473d 7e66 f43d 0626 b03c fade 403e
000000a0: 0460 4bbb 6946 273e 0430 533e e40b 93bd
000000b0: 8e8f e5bb dbb9 303e 04ed a1bd 3cf6 ee3d
000000c0: bef5 983e 3f55 c4bc 6d6b 853d 5019 9d3d
000000d0: e505 d5be 3d6c 8e3d 1dfc 093e 7052 94be
000000e0: 5129 d7bb 6377 9e3d 0d8f e6be 843a ab3b
000000f0: 0146 cf3d 1242 73be d422 e13d ffb2 963c
00000100: 5728 dabc 8cb6 50be 7347 3cbc c9bb 143d
00000110: c083 da3d fba5 3a3e 9494 d8bd 6b03 ef3d
00000120: 56ba 373e a39c 0d3f e984 b93d 9a28 6e3e
00000130: 0faf 853e 0a74 d03d 5ab0 543e 5bf8 a5bc
00000140: b3c3 7a3d 6dbd 883e 8e1d 343e 116d 763c
00000150: b634 b23e ea77 a3b9 811c 763d 79b5 483e
00000160: b7a9 a63b 82f1 6ebd 319a bb3e 22f0 0d3f
00000170: 65b8 5a3e 4eb2 093f 31e3 0c3f ed28 ba3d
00000180: e8bc 713e 9604 683d 847f 9bbd 43d2 63bd
00000190: 1bf6 89be d4d7 8abe ac98 12bc 754d fabd
000001a0: a1f2 90be 9bfd 923c eb05 e6bc 8cd5 35bd
000001b0: e258 b03d d487 06bd a05b 93be 1540 763d
000001c0: d395 20be ecef 1bbe 1e73 4c3d a8cd 61bd
000001d0: ca92 08bd 6bd3 4cbe dac5 e83d 9052 9cbd
000001e0: 1221 6ebe 7f92 253d ac3b 063d 825d 44be
000001f0: 8da7 c03d 9b83 0fbe 3d09 d93d 8e07 92be
00000200: 3f07 a0bd 1734 99bc a8e0 ccbe 6b22 943d
00000210: 7933 6c3c d150 82bd 3eea 0f3e b2fe 80bc
00000220: f5e9 ebbd 9117 7fbd bf7d 243e 4186 afbc
00000230: 37b3 1cbe 33a3 2e3e dbe3 ad3e b800 a9bd
00000240: e367 81be f040 9ebe 5495 aabf f7d6 fe3c
00000250: 6d24 20be 3a35 d53d df47 203e 7032 2ebe
00000260: c696 733d 5c80 c0bd 31b6 19be 9135 18be
00000270: f259 a5bd c9e0 593a 7bed 103b c083 cdbe
00000280: 8e5d 01bf 6700 f1bd 3ee8 873e 30e7 b93d
00000290: cac1 193e d888 233e 680a 3b3d ea6a f13b
000002a0: 7423 6d3d aefd 4ebd 2f5c 06be 4b7d 0bbe
000002b0: b662 34be 76a3 a03e c7c0 0abc ac48 32be
000002c0: 8346 acbd 11f3 ca3e 0037 b53e dcd1 9d3e
000002d0: f560 76be f93c 5bbe 5631 0bbf 078a 4abe
000002e0: 6e92 0fbe 7d59 373e 8e46 df3c b2bf 9f3d
000002f0: f002 42bd 0f70 82bc e090 bc3e f1eb a33d
00000300: 7f9a 653c 4090 79be 70e9 00bf 74e5 0c3e
00000310: af03 753c b88d 053d 25f0 eabd 52a4 c9bd
00000320: c4f7 33be cf44 4bbe 7f95 86be 0b51 b6be
00000330: 29f3 d53d 2ca0 dd3d dc56 3e3e 0528 03be
00000340: 5831 2abe b5de 66bd 9a72 cebd 32d5 52bd
00000350: eee8 4bbe ce86 94bc 7d37 0b3e 1282 61be
00000360: 7c2f 693e e8c1 883e 80ba 683d ae72 933e
00000370: 4cab 16bd c315 90be 8864 f9bd 9f7c b8be
00000380: 7834 debe 2dbc bf3e aa76 2d3e 22ed 5d3e
00000390: 2d0b 923d 87f1 c53d 4f1e 94bd 0b30 fa3b
000003a0: deeb c73d 3da7 5c3d f828 ddbe f108 933f
000003b0: c42d a3bf 4450 f6be fb9d 0cbf a9bd d9be
000003c0: 4b1e 10be 3795 90be 3b70 25be 202a fe3d
000003d0: 5b9e 823e d10b 303f c045 9fbb 1d61 4bb9
000003e0: cd32 193e fefe 8abd 1b5d b13c 7ade 1d3e
000003f0: 9855 95bd e365 22bf 0f30 1dbf 6b84 6cbc

encoder.2.bias f4 [32]
0.0029132203 0.03431736 -0.009239928 -0.007823836 0.039084144 0.09321639 -0.08815068 -0.0032567375
0.24750832 0.10448113 -0.0573313 -0.00062571873 0.056790356 0.024273006 0.009529329 -0.019438574
0.051647767 0.041835807 -0.12913078 -0.044077057 0.023833508 0.14315218 -0.083369695 -0.008493118
-0.006910773 -0.022755923 0.11480624 0.10558668 -0.019410005 -0.012909104 0.04650756 -0.09514216
00000000: baeb 3e3b 5c90 0c3d 1163 17bc 8c2f 00bc
00000010: b216 203d 3ce8 be3d 5888 b4bd fd6e 55bb
00000020: d272 7d3e 34fa d53d 3ad4 6abd 4607 24ba
00000030: 019d 683d 2fd8 c63c e720 1c3c a53d 9fbc
00000040: 9c8c 533d 065c 2b3d dc3a 04be 258a 34bd
00000050: 7d3e c33c 7c96 123e bbbd aabd b826 0bbc
00000060: c473 e2bb a16a babc 891f eb3d d43d d83d
00000070: bb01 9fbc b580 53bc b67e 3e3d e5d9 c2bd

encoder.4.weight f4 [16, 32, 7, 7]
0.0005461748 0.12376432 0.14700004 0.09318781 -0.06480132 -0.089884855 -0.13649008 0.030553216
0.020568835 0.20102441 0.046813004 0.075991645 0.06344351 0.0060609397 0.014682103 -0.13332927
0.0031297398 -0.14571334 0.027203629 -0.08110287 -0.027232708 0.013283806 0.022275582 -0.07617448
0.06158458 -0.055310424 -0.038702175 -0.08436436 0.023523029 0.08100046 0.051090207 0.07887464
-0.14278965 -0.058226205 0.09372557 0.006685426 -0.02402217 -0.03730856 -0.016999051 -0.16223316
-0.051697433 0.025705291 0.034936775 -0.27826372 0.020378163 -0.73132277 -0.21487154 0.044801414
0.21385606 0.24037322 -0.034560066 0.11989824 -0.08051278 -0.007834983 0.0072996328 0.077707514
-0.04111396 -0.009076841 -0.019261595 -0.015906766 -0.046504036 0.055661347 0.02379927 0.0545905
0.1241382 0.39420995 0.23339081 -0.016717477 -0.025880229 0.008014183 0.010287221 0.038085178
0.04511656 -0.019162048 -0.058075827 -0.00872652 -0.018646201 -0.039024062 0.04424901 0.021214714
-0.52175456 -0.032152466 -0.30851918 -0.07770815 0.021283945 -0.023687514 -0.0421137 -0.08688179
0.23061676 -0.3372279 -0.08567583 0.054379135 0.09069842 0.08585092 -0.030801637 -0.13315614
0.006297015 0.0074414397 -0.0165974 -0.0099528385 -0.008035493 0.00673297 -0.017336305 0.0013063066
0.009588304 0.0071678925 0.0033836907 -0.013143589 -0.007483228 -0.0034960692 0.008971663 -0.0020916816
-0.0040600677 0.00022985505 0.012606371 -0.014559338 0.012821999 -0.003332565 -0.016799394 -0.007330027
-0.0072931307 0.0025017299 -0.0005646244 0.0014982059 -0.00045435992 0.0049653584 -0.0017039677 0.016001305
0.00878775 0.007405113 0.010576139 -0.0132185 0.0005997816 -0.013689818 -0.0119058825 0.00065364846
0.012435143 -0.011593692 -0.008481879 -0.011899749 -0.012400867 0.0075316336 0.015345841 -0.004113483
0.006303463 -0.016045075 -0.011611285 0.14190628 -0.17453109 -0.04636647 -0.073954105 0.03394301
-0.19357613 0.020922638 0.009370596 -0.10842066 -0.024267085 0.013474455 -0.016406547 -0.037743155
0.014338105 -0.17316335 0.07032821 0.16966262 0.021177815 -0.060849242 0.07029924 0.054372046
0.3026599 0.12098767 -0.06764859 -0.13170946 -0.07881293 0.14427322 0.12569903 0.0686819
-0.09890377 -0.0747521 -0.17643698 0.21727255 0.011548475 -0.09722176 0.04077458 -0.010372804
-0.10118682 -0.065894656 0.13140188 0.030848153 -0.061466455 -0.072140135 0.00073590374 0.8284124
0.28687543 -0.011963354 -0.1591786 -0.061177254 0.030717306 0.019951034 -0.007402274 -0.018716484
-0.028389677 -0.0076609734 0.029728698 -0.0662807 -0.052756157 0.014152912 -0.1304877 -0.097818494
0.08273914 0.04666151 -0.042593088 0.042623498 -0.15811507 -0.05815138 0.033042368 -0.003204825
0.041212063 -0.10766151 0.011397462 -0.03761998 0.08717006 0.41071317 0.012642867 -0.02144638
-0.11480714 -0.050707083 -0.12381485 0.054467924 0.14814854 -0.26197994 -0.053092364 -0.047188293
-0.07746343 0.2703258 -0.42342222 -0.51693094 0.047688175 0.178633 -0.06078445 -0.06823442
-0.08691494 0.07626211 0.12993687 0.15977593 0.19790268 0.07197579 0.03806833 0.007914641
0.048527483 -0.009079771 0.0180631 0.059254818 0.06990704 0.039057028 0.10059344 -0.19411935
00000000: 2c2d 0f3a 2678 fd3d 2e87 163e 40d9 be3d
00000010: 8eb6 84bd 8d15 b8bd 0ec4 0bbe bd4a fa3c
00000020: f97f a83c 58d9 4d3e febe 3f3d 82a1 9b3d
00000030: acee 813d d99a c63b 348d 703c 7887 08be
00000040: 521c 4d3b e135 15be 25da de3c 4319 a6bd
00000050: 2117 dfbc 52a4 593c 487b b63c 5e01 9cbd
00000060: 1d40 7c3d 2f8d 62bd 2c86 1ebd 39c7 acbd
00000070: 5eb3 c03c 92e3 a53d f743 513d 0789 a13d
00000080: 7337 12be 9a7e 6ebd 31f3 bf3d 6b11 db3b
00000090: 24ca c4bc dcd0 18bd 9841 8bbc 7320 26be
000000a0: b0c0 53bd e793 d23c dd19 0f3d 9578 8ebe
000000b0: 1bf0 a63c f837 3bbf 4907 5cbe b081 373d
000000c0: 15fd 5a3e 6624 763e db8e 0dbd 358d f53d
000000d0: e2e3 a4bd 4d5e 00bc c231 ef3b 1e25 9f3d
000000e0: 1d67 28bd 08b7 14bc 7eca 9dbc e84e 82bc
000000f0: 047b 3ebd 27fd 633d b0f6 c23c 4a9a 5f3d
00000100: 2b3c fe3d e3d5 c93e 00fe 6e3e 17f3 88bc
00000110: c602 d4bc eb4d 033c bb8b 283c 34ff 1b3d
00000120: 24cc 383d baf9 9cbc ebe0 6dbd aef9 0ebc
00000130: ebbf 98bc b2d7 1fbd 733e 353d 7bca ad3c
00000140: b591 05bf 4eb2 03bd 3af6 9dbe 7325 9fbd
00000150: ab5b ae3c 510c c2bc 6a7f 2cbd 14ef b1bd
00000160: cd26 6c3e 23a9 acbe cf76 afbd a8bc 5e3d
00000170: 18c0 b93d 9bd2 af3d b753 fcbc 155a 08be
00000180: 3157 ce3b 52d7 f33b 45f7 87bc 3b11 23bc
00000190: 4da7 03bc 3fa0 dc3b de04 8ebc 6038 ab3a
000001a0: 4318 1d3c a4e0 ea3b e9c0 5d3b 3558 57bc
000001b0: de35 f5bb 4f1e 65bb e2fd 123c 9814 09bb
000001c0: 510a 85bb 3f05 7139 f48a 4e3c 4a8a 6ebc
000001d0: 5d13 523c 2a67 5abb e29e 89bc b930 f0bb
000001e0: 37fb eebb 10f4 233b 4d03 14ba 735f c43a
000001f0: 2837 eeb9 72b4 a23b ab57 dfba 2b15 833c
00000200: 7ffa 0f3c 97a6 f23b 8b47 2d3c 6892 58bc
00000210: a93a 1d3a 424b 60bc e410 43bc 9b59 2b3a
00000220: c5bc 4b3c 78f3 3dbc 94f7 0abc 2af7 42bc
00000230: 022d 4bbc eccb f63b 1f6d 7b3c 65ca 86bb
00000240: 488d ce3b f670 83bc 423d 3ebc e14f 113e
00000250: 47b8 32be c5ea 3dbd 4075 97bd d307 0b3d
00000260: d238 46be f465 ab3c 2187 193c a70b debd
00000270: c4cb c6bc f6c3 5c3c 0667 86bc 9198 1abd
00000280: 5fea 6a3c bc51 31be 3d08 903d 0abc 2d3e
00000290: 197d ad3c 0e3d 79bd 0cf9 8f3d 39b5 5e3d
000002a0: 3df6 9a3e 62c8 f73d 588b 8abd d8de 06be
000002b0: ac68 a1bd 5cbc 133e 3fb7 003e 19a9 8c3d
000002c0: 0f8e cabd a117 99bd e5ab 34be b27c 5e3e
000002d0: d135 3d3c 341c c7bd 3f03 273d b1f2 29bc
000002e0: 093b cfbd c7f3 86bd 378e 063e 44b5 fc3c
000002f0: 40c4 7bbd 35be 93bd aae9 403a d612 543f
00000300: 56e1 923e f201 44bc b7ff 22be 0095 7abd
00000310: dca2 fb3c 5a70 a33c c68e f2bb 5053 99bc
00000320: 7891 e8bc e708 fbbb 9989 f33c 2dbe 87bd
00000330: d716 58bd 9ee1 673c 919e 05be 1055 c8bd
00000340: 2373 a93d 2420 3f3d 1776 2ebd fa95 2e3d
00000350: ebe8 21be 2430 6ebd 6f57 073d 0b08 52bb
00000360: fbcd 283d a37d dcbd 6cbc 3a3c 6817 1abd
00000370: 3786 b23d ff48 d23e 0724 4f3c 52b0 afbc
00000380: 0120 ebbd 3bb2 4fbd a492 fdbd c219 5f3d
00000390: 40b4 173e 3c22 86be 6177 59bd 8348 41bd
000003a0: 26a5 9ebd 2568 8a3e ccca d8be 9655 04bf
000003b0: ad54 433d 92eb 363e 1ef9 78bd 7dbe 8bbd
000003c0: 7600 b2bd 4f2f 9c3d 2c0e 053e 4d9c 233e
000003d0: 00a7 4a3e 0b68 933d 8aed 1b3d 69ac 013c
000003e0: c1c4 463d 52c3 14bc 11f9 933c 2eb5 723d
000003f0: 6c2b 8f3d 43fa 1f3d ef03 ce3d 39c7 46be

encoder.4.bias f4 [16]
0.021932846 -0.062207606 0.029986182 0.053473607 0.02874965 0.042758543 -0.023396255 -0.04094718
-0.010085814 -0.111225754 0.022193788 -0.054396395 0.0644373 0.05725023 0.0034479166 0.02489469
00000000: 83ac b33c 67cd 7ebd 95a5 f53c 2407 5b3d
00000010: 6384 eb3c 9523 2f3d 81a9 bfbc 3bb8 27bd
00000020: f83e 25bc 54ca e3bd bfcf b53c c1ce 5ebd
00000030: b4f7 833d 387f 6a3d 71f6 613b f3ef cb3c

decoder.1.weight f4 [16, 32, 7, 7]
-0.039819945 0.1474996 -0.25272915 -0.19118993 -0.5306095 -0.10537309 -0.18809117 0.034692287
-0.0251025 0.10162426 -0.11596171 0.037494622 -0.030421488 0.20791447 -0.02399429 0.06156144
-0.16946347 -0.015501736 0.01592792 -0.011991884 0.0628269 -0.31542218 0.11859942 -0.007943176
-0.23765188 0.0057798875 -0.13219742 -0.14074275 -0.09488756 -0.16202468 -0.059271026 0.17940983
-0.17856899 0.19158153 -0.2741318 -0.18240307 -0.16784704 -0.26723945 -0.2287352 -0.025866954
-0.13831681 -0.010214198 -0.030541666 -0.029785378 0.028444024 -0.24092963 -0.25616282 -0.008394673
0.0035812955 -0.013015465 0.015977757 -0.61189663 -0.5126332 -0.070056126 0.25062445 -0.10865421
0.15949155 -0.049009487 -0.13341278 0.113896 0.10775474 -0.073772036 -0.051588096 0.014615136
0.11860628 -0.1818046 -0.042368572 -0.16221401 -0.08965821 -0.11042231 -0.10609531 -0.116222136
-0.04414972 -0.049904916 -0.10274067 0.013119054 0.024686249 0.13234694 0.043788068 -0.055525623
0.08851534 0.20657325 0.2886674 -0.24718417 0.20658815 0.12195884 -0.026935028 -0.009040134
-0.5886271 -0.2580633 -0.089807265 -0.00833144 -0.01740411 -0.042114053 -0.029852515 0.030631473
-0.16441505 0.11383492 0.03248723 -0.13364378 -0.13436459 -0.13203093 -0.24433678 0.2509207
-0.6778394 -0.11291005 0.14973183 0.049870007 0.109388195 -0.06884294 -0.052292384 0.058148265
-0.035128664 0.0989495 0.06680555 0.021662293 0.025859809 -0.0002621464 -0.08170555 -0.12232263
-0.085554235 -0.25397396 -0.17829067 0.041298203 -0.13541272 -0.032294866 -0.09567936 -0.11359498
-0.06196271 0.018414618 -0.021244619 -0.3515337 -0.10033811 0.1957554 -0.023290945 0.1963312
-0.07334389 -0.33746728 -0.4316997 0.10741135 -0.1071935 0.21633913 0.045091268 0.020596199
-0.45110667 0.0549869 0.18693666 0.03646811 0.07631045 0.03980345 -0.12607549 0.0019447536
-0.11393476 -0.14375573 0.22345462 0.022966202 0.041518826 0.028227085 -0.110582836 0.035275526
0.039828993 0.018407792 -0.20145786 -0.08871159 -0.087356545 -0.017810035 0.009887505 -0.06872568
0.027174026 -0.06948565 -0.022120075 0.00044722186 0.07388655 0.15470907 -0.033321746 -0.026829073
0.12810875 -0.06050969 -0.060393114 0.22110155 -0.10872419 -0.2768301 0.31442764 0.10575639
0.08181562 -0.0067276135 -0.46766156 -0.0956819 0.10526754 -0.15580454 -0.08269155 0.030294979
0.062403057 0.19813822 -0.05459858 0.1164907 0.01591884 0.1099496 0.02363212 0.29297793
0.30241603 0.21387753 -0.21511516 -0.13815612 0.064532764 0.18545096 0.08660842 -0.34356573
-0.14596322 -0.11515889 0.22743796 0.017518632 0.20284434 0.10796325 0.06492876 -0.022594701
0.057209212 -0.07765506 -0.004148531 -0.16142793 -0.025699295 -0.100101806 0.012671628 0.12746502
0.15957053 -0.0049160607 -0.23418525 -0.011326825 -0.09646149 -0.037067693 -0.09998021 0.006449153
0.12597515 0.08099672 0.17792848 -0.4303167 0.57557344 0.053635865 -0.024253745 0.21214427
-0.09218974 0.06670917 -0.18866788 -0.09935455 -0.04042402 -0.011347005 -0.0029856411 0.009269703
-0.083627634 -0.045725282 -0.005561449 -0.4405832 -0.015521665 -0.010052562 0.06363839 -0.15844135
00000000: 3d1a 23bd 230a 173e b765 81be 4bc7 43be
00000010: 06d6 07bf d9cd d7bd f99a 40be 8019 0e3d
00000020: c2a3 cdbc 6120 d03d 557d edbd f693 193d
00000030: 7c36 f9bc 88e7 543e ac8f c4bc d927 7c3d
00000040: d587 2dbe fefa 7dbc 457b 823c 9b79 44bc
00000050: 64ab 803d 047f a1be 41e4 f23d 1824 02bc
00000060: 045b 73be 3665 bd3b c35e 07be de1e 10be
00000070: 6954 c2bd cce9 25be 2dc6 72bd 36b7 373e
00000080: cada 36be f32d 443e 015b 8cbe dfc7 3abe
00000090: 18e0 2bbe 9cd3 88be 8f39 6abe efe6 d3bc
000000a0: eca2 0dbe 7459 27bc 8432 fabc 7700 f4bc
000000b0: 7103 e93c 42b6 76be c627 83be cf89 09bc
000000c0: 2bb4 6a3b d13e 55bc c9e3 823c 42a5 1cbf
000000d0: ee3b 03bf 9679 8fbd d951 803e 1986 debd
000000e0: c151 233e 2cbe 48bd 5c9d 08be 4e42 e93d
000000f0: 84ae dc3d cb15 97bd 0a4e 53bd 5374 6f3c
00000100: d9e7 f23d fc2a 3abe ab8a 2dbd 6e1b 26be
00000110: b99e b7bd 1825 e2bd 7f48 d9bd df05 eebd
00000120: 56d6 34bd 1969 4cbd b369 d2bd 4df1 563c
00000130: d13a ca3c f585 073e 1e5b 333d d66e 63bd
00000140: 8847 b53d f087 533e 37cc 933e d91d 7dbe
00000150: d88b 533e 8ec5 f93d d9a6 dcbc 121d 14bc
00000160: 44b0 16bf df20 84be dfec b7bd 9880 08bc
00000170: 1093 8ebc c97f 2cbd 438d f4bc dbee fa3c
00000180: 6b5c 28be 4822 e93d 5411 053d ead9 08be
00000190: df96 09be 1e33 07be 6c33 7abe ae78 803e
000001a0: e286 2dbf 623d e7bd 4d53 193e 7e44 4c3d
000001b0: eb06 e03d 87fd 8cbd 8a30 56bd e02c 6e3d
000001c0: 13e3 0fbd 09a6 ca3d 59d1 883d 1f75 b13c
000001d0: f3d7 d33c b270 89b9 3d55 a7bd 4984 fabd
000001e0: 0f37 afbd e008 82be d491 36be 4e28 293d
000001f0: a2a9 0abe 9f47 04bd 8af3 c3bd 7ca4 e8bd
00000200: 9ccc 7dbd 41da 963c 3209 aebc 3afc b3be
00000210: 117e cdbd 1b74 483e a7cc bebc 0c0b 493e
00000220: 5235 96bd 83c8 acbe be07 ddbe 7bfa db3d
00000230: 4488 dbbd 0188 5d3e 9fb1 383d 5cb9 a83c
00000240: 74f7 e6be f239 613d 536c 3f3e 965f 153d
00000250: a748 9c3d f108 233d ef19 01be 1ae7 fe3a
00000260: a156 e9bd b434 13be 4ad1 643e 9e23 bc3c
00000270: a50f 2a3d 7d3c e73c 4179 e2bd 127d 103d
00000280: ba23 233d f0cb 963c f84a 4ebe 6cae b5bd
00000290: fde7 b2bd 5ae6 91bc 34ff 213c 0dc0 8cbd
000002a0: 109c de3c 7e4e 8ebd 2935 b5bc 1a79 ea39
000002b0: d551 973d 0e6c 1e3e 627c 08bd a5c8 dbbc
000002c0: f12e 033e 02d9 77bd c55e 77bd 7268 623e
000002d0: caaa debd adbc 8dbe a9fc a03e ce96 d83d
000002e0: f38e a73d 5073 dcbb 5671 efbe dff4 c3bd
000002f0: 8296 d73d 3a8b 1fbe 305a a9bd 2d2d f83c
00000300: 599a 7f3d bfe4 4a3e c3a2 5fbd ad92 ee3d
00000310: 3a68 823c 422d e13d 2698 c13c 3401 963e
00000320: 46d6 9a3e b602 5b3e 2647 5cbe cc78 0dbe
00000330: c129 843d dbe6 3d3e c15f b13d d9e7 afbe
00000340: 6277 15be 6dd8 ebbd 7fe5 683e 3c83 8f3c
00000350: 6db6 4f3e d61b dd3d 5ff9 843d 8618 b9bc
00000360: 3554 6a3d 9e09 9fbd 66f0 87bb 5d4d 25be
00000370: 5487 d2bc 2d02 cdbd a99c 4f3c 3186 023e
00000380: 7566 233e e816 a1bb 42ce 6fbe 2694 39bc
00000390: 9a8d c5bd 4bd4 17bd 6dc2 ccbd 6b53 d33b
000003a0: a1ff 003e 9ce1 a53d e232 363e 7852 dcbe
000003b0: c858 133f 48b1 5b3d caaf c6bc 593c 593e
000003c0: f9cd bcbd d19e 883d 2732 41be 667a cbbd
000003d0: a893 25bd cae8 39bc bfaa 43bb f4df 173c
000003e0: f744 abbd 6f4a 3bbd d13c b6bb 1f94 e1be
000003f0: 954e 7ebc 80b3 24bc d854 823d 733e 22be

decoder.1.bias f4 [32]
0.23150606 0.67788154 0.28348553 0.21293701 0.24352776 -0.9521603 0.3693181 -0.07112762
0.24832134 0.011011856 0.14638765 0.47736508 -0.0035630933 0.0381547 -0.7377622 -0.97965443
-0.476421 -0.56162167 -1.1861844 -0.08111658 -0.74495935 0.4495774 0.6503959 0.6918333
0.4473184 0.2670914 0.028788667 -0.116930634 0.1459005 0.13190562 -0.63399017 0.02542954
00000000: ed0f 6d3e a589 2d3f 0425 913e 290c 5a3e
00000010: 575f 793e c7c0 73bf 4317 bd3e 5cab 91bd
00000020: f347 7e3e 126b 343c a5e6 153e 3269 f43e
00000030: c982 69bb 1a48 1c3d fcdd 3cbf a2ca 7abf
00000040: 74ed f3be 70c6 0fbf e4d4 97bf 7320 a6bd
00000050: a8b5 3ebf 022f e63e 5880 263f fd1b 313f
00000060: eb06 e53e 34c0 883e 36d6 eb3c 5479 efbd
00000070: f166 153e 4412 073e 2e4d 22bf 9c51 d03c

decoder.3.weight f4 [32, 16, 3, 3]
0.021586489 0.35703498 0.23285261 0.035398863 0.1296793 -0.05562791 -0.20056148 -0.11439694
-0.21797957 -0.09814791 -0.06989233 -0.16743255 0.011010939 0.3651095 -0.15441875 0.045798846
0.26348197 -0.045563295 0.1952371 0.025324991 -0.09471913 -0.066813946 -0.33795103 0.09595924
0.15590289 -0.085433185 0.06600656 -0.069949575 -0.0962394 -0.020403093 0.3341142 0.03615592
-0.17780703 0.13458797 0.009679032 -0.11467354 -0.20965311 -0.11296039 0.020655189 -0.04379448
-0.14012416 -0.12394113 0.20812918 -0.08146454 0.11571794 -0.09781319 0.19875072 0.08268814
-0.24630633 0.12127122 0.006501939 -0.17480755 -0.0420424 0.119711936 -0.08221312 -0.24932308
-0.14903462 -0.44970927 -0.31359273 -0.20644651 0.2395134 -0.0581939 0.034416847 -0.028727535
-0.036253814 -0.12346357 0.116749555 -0.26263523 -0.089468814 -0.16882303 -0.03231903 -0.04099124
-0.2535112 -0.09624968 -0.1920123 -0.059407827 0.27825174 -0.035085134 0.06785684 0.18126366
-0.05622315 0.05804632 -0.025677726 -0.15289512 -0.07756837 0.11359142 -0.06259808 -0.17628752
0.102527946 0.06545247 -0.22314964 -0.40411684 -0.19652314 0.3019847 -0.04024269 -0.51363736
0.09527097 -0.070642374 -0.24369898 0.15085009 -0.12164463 -0.050036322 0.14065927 0.31648317
0.24173318 -0.07405902 0.25677386 0.11629889 0.061795384 -0.36079818 -0.061440643 -0.08061506
-0.12674598 -0.12065228 -0.22991194 0.008834465 0.13517782 0.033706337 -0.044659358 0.023688128
0.082309075 -0.2667154 -0.34905 0.14525633 -0.015883438 -0.30007333 0.14562882 0.10940323
-0.14159179 0.17984328 -0.20052627 -0.08525685 -0.056075472 -0.06333026 0.09522687 -0.09844463
0.20960842 0.29613918 0.11389258 0.07143138 0.11988579 -0.09721415 0.051098093 -0.14179136
0.05754811 0.25070384 0.17736004 0.22864832 0.032645646 0.20443462 -0.17238669 -0.23634493
-0.12794305 -0.035044298 -0.06425377 -0.052321035 -0.21279962 0.28867763 -0.111161485 0.07150546
0.28888467 0.110089526 0.053062312 -0.06113337 -0.21634592 0.17805083 -0.31439883 -0.364796
-0.07251914 0.06805181 -0.25766766 -0.05311692 0.012721209 -0.17863193 0.36107156 -0.25491163
-0.30544245 -0.005524774 -0.031311296 -0.023754813 -0.3205286 -0.68130636 -0.14989284 -0.031922255
-0.2024511 -0.24398372 -0.3427124 -0.4061597 -0.095628396 0.0057076663 -0.13242269 -0.05755317
0.101271264 0.48076472 0.20680001 -0.07517246 0.052467015 0.1736676 -0.16989134 -0.05557424
-0.16874966 0.17865215 0.18839604 0.08975349 -0.1578698 -0.27576926 0.23184708 -0.033965938
-0.026695414 -0.12621006 0.101983495 0.041999117 -0.21043375 0.14786163 0.029073078 -0.067223
-0.18004456 -0.24070467 -0.14056972 -0.15085185 0.31131864 0.041047603 0.103301115 0.230662
0.09105827 -0.013467019 -0.029774789 0.03536509 -0.08310695 -0.025293637 0.3111805 -0.30006564
-0.17866397 0.043453008 0.13570493 -0.074763775 -0.18589734 -0.017439865 0.20888081 -0.077450246
0.036354385 0.0032082028 -0.3149161 0.021268757 -0.38409474 0.13712132 0.09775725 -0.27071705
0.046381287 0.21940582 0.06434357 0.14511853 0.2679711 -0.19464137 -0.17099674 0.16699497
00000000: 26d6 b03c 4acd b63e ea70 6e3e 66fe 103d
00000010: a7ca 043e 17da 63bd fd5f 4dbe f148 eabd
00000020: 0936 5fbe c501 c9bd b623 8fbd 7073 2bbe
00000030: 3a67 343c a2ef ba3e f31f 1ebe 9297 3b3d
00000040: 1ce7 863e 94a0 3abd 3cec 473e 5b76 cf3c
00000050: 1afc c1bd c0d5 88bd eb07 adbe 4786 c43d
00000060: 02a5 1f3e 98f7 aebd 732e 873d b941 8fbd
00000070: 2a19 c5bd 6324 a7bc 0411 ab3e 3b18 143d
00000080: 0c13 36be 6ed1 093e cd94 1e3c f6d9 eabd
00000090: 4eaf 56be c757 e7bd 1235 a93c d761 33bd
000000a0: b57c 0fbe d9d4 fdbd d11f 553e e1d6 a6bd
000000b0: 87fd ec3d 4852 c8bd 4f85 4b3e 6658 a93d
000000c0: ba37 7cbe 0c5d f83d 380e d53b c000 33be
000000d0: a734 2cbd 882b f53d 5a5f a8bd 8d4e 7fbe
000000e0: 889c 18be 4b40 e6be 3a8f a0be b766 53be
000000f0: 0043 753e ba5c 6ebd aef8 0c3d 0256 ebbc
00000100: e17e 14bd 78da fcbd 641a ef3d 2078 86be
00000110: 6d3b b7bd f2df 2cbe f660 04bd 6ee6 27bd
00000120: 38cc 81be 8d1e c5bd df9e 44be 9f55 73bd
00000130: 0377 8e3e 6eb5 0fbd 87f8 8a3d 2e9d 393e
00000140: 3f4a 66bd fac1 6d3d 185a d2bc 8a90 1cbe
00000150: 2adc 9ebd 9ea2 e83d 6c33 80bd b784 34be
00000160: 2cfa d13d f20b 863d 5781 64be 67e8 cebe
00000170: 5d3d 49be bd9d 9a3e 85d5 24bd bd7d 03bf
00000180: 6d1d c33d f3ac 90bd 3a8c 79be 7278 1a3e
00000190: d220 f9bd e3f2 4cbd fc08 103e 150a a23e
000001a0: e788 773e 41ac 97bd dd77 833e 1d2e ee3d
000001b0: 281d 7d3d 8aba b8be 2fa9 7bbd 8219 a5bd
000001c0: b3c9 01be 8b18 f7bd 096e 6bbe 6fbe 103c
000001d0: 0e6c 0a3e a80f 0a3d bbec 36bd 9b0d c23c
000001e0: a991 a83d ec8e 88be aeb6 b2be 13be 143e
000001f0: fc1d 82bc 36a3 99be b91f 153e cd0e e03d
00000200: 70fd 10be d628 383e c256 4dbe 259b aebd
00000210: 65af 65bd 4cb3 81bd 4e06 c33d 579d c9bd
00000220: 97a3 563e 8e9f 973e 8340 e93d 9e4a 923d
00000230: ae86 f53d 3618 c7bd 3c4c 513d c131 11be
00000240: 91b7 6b3d 415c 803e df9d 353e c922 6a3e
00000250: 71b7 053d 4f57 513e 2386 30be 6804 72be
00000260: 8103 03be 9c8a 0fbd 7b97 83bd 954e 56bd
00000270: 25e8 59be 8ecd 933e a2a8 e3bd 7471 923d
00000280: b1e8 933e 9e76 e13d de57 593d fc66 7abd
00000290: c989 5dbe f552 363e e2f8 a0be 8bc6 babe
000002a0: ea84 94bd bf5e 8b3d 04ed 83be 2191 59bd
000002b0: 9e6c 503c 4aeb 36be 5fde b83e c783 82be
000002c0: f462 9cbe 2a09 b5bb 4640 00bd 7499 c2bc
000002d0: 531c a4be 186a 2ebf 827d 19be e9c0 02bd
000002e0: 574f 4fbe ded6 79be 0078 afbe 2af4 cfbe
000002f0: d2d8 c3bd 6007 bb3b d099 07be dfbc 6bbd
00000300: 4f67 cf3d cb26 f63e 62c3 533e 05f4 99bd
00000310: a7e7 563d ebd5 313e fff7 2dbe d0a1 63bd
00000320: b6cc 2cbe 97f0 363e e4ea 403e aed0 b73d
00000330: 9fa8 21be a131 8dbe 5269 6d3e de1f 0bbd
00000340: 57b0 dabc 363d 01be b9dc d03d 4407 2c3d
00000350: f27b 57be 0a69 173e aa2a ee3c 36ac 89bd
00000360: 9a5d 38be 497b 76be 82f1 0fbe e878 1abe
00000370: 2865 9f3e 8821 283d 898f d33d a932 6c3e
00000380: c27c ba3d c6a4 5cbc 42ea f3bc fcda 103d
00000390: fa33 aabd 9a34 cfbc 0d53 9f3e 34a2 99be
000003a0: b0f3 36be c8fb 313d 3cf6 0a3e c01d 99bd
000003b0: df5b 3ebe 0cde 8ebc dae4 553e 3c9e 9ebd
000003c0: 56e8 143d b640 523b af3c a1be d13b ae3c
000003d0: 11a8 c4be 8869 0c3e f434 c83d 6d9b 8abe
000003e0: 4efa 3d3d ebab 603e 90c6 833d f499 143e
000003f0: 8233 893e 1150 47be c519 2fbe bb00 2b3e

decoder.3.bias f4 [16]
0.5476801 0.20900586 -0.12122959 0.6455896 0.5564586 0.40066645 0.18141936 -0.23407383
0.2302298 -0.343618 0.7551363 0.3021825 -0.111365385 -0.033201203 0.82804894 -0.200421
00000000: c334 0c3f a205 563e 3847 f8bd 5c45 253f
00000010: 1274 0e3f 2724 cd3e ffc5 393e 0db1 6fbe
00000020: 5cc1 6b3e b3ee afbe 9d50 413f aab7 9a3e
00000030: 8913 e4bd fcfd 07bd 04fb 533f 2a3b 4dbe

decoder.5.weight f4 [16, 1, 3, 3]
0.101133615 0.15754877 0.08480481 -0.19653429 -0.43964303 -0.2530132 -0.28951132 -0.4913339
-0.23429285 -0.10634303 -0.28449863 -0.2213823 -0.17642872 -0.39488095 -0.24434087 0.04307415
0.0828439 0.054282896 -0.2708922 -0.24381731 -0.022978112 -0.5115149 -0.4029832 -0.0098318895
-0.30493128 -0.18479423 0.039942868 -0.30854824 -0.32834938 -0.044845518 -0.59344006 -0.52670866
-0.026852418 -0.3489237 -0.25043038 0.009568331 0.18893957 0.2432176 0.09479795 0.16671233
0.020933203 -0.11635218 -0.16379364 -0.4203015 -0.28607315 -0.15805809 -0.23904142 -0.011332009
-0.36542967 -0.43868825 -0.025599498 -0.24028292 -0.24207081 -0.014441564 -0.15511367 -0.40106544
-0.3613501 -0.09085561 -0.30516717 -0.30180675 0.051842052 0.020459019 -0.031542916 0.13352337
0.3276315 0.230271 0.29624546 0.63109165 0.3697504 0.14624116 0.2845025 0.12068392
0.06573286 0.0011109643 -0.08926792 -0.06947287 -0.2986869 -0.33797115 -0.21127923 -0.47365436
-0.35137892 0.10595977 0.30219936 0.20583802 0.22731155 0.5518458 0.32578456 0.11181619
0.26287293 0.119000904 -0.07814979 -0.16701813 -0.114521 -0.2616141 -0.4973037 -0.29266235
-0.26304606 -0.4452061 -0.2096736 -0.09598876 -0.2828614 -0.100152016 -0.18503314 -0.4606652
-0.09837488 -0.073686324 -0.16176607 0.015048592 0.13248366 0.26794907 0.19151549 0.27830324
0.49462456 0.30643547 0.22102375 0.33062828 0.17112409 0.14184232 0.2625538 0.14222534
0.33962876 0.5148021 0.2224305 0.22363515 0.26756737 0.07515525 0.112555586 -0.12377895
-0.316742 0.15799001 -0.39649394 -0.58506376 0.09715639 -0.25330287 -0.3064412 -0.24264131
-0.52576613 -0.37129697 -0.22178352 -0.3880659 -0.28766194 0.04518039 0.032731485 -0.026781863
00000000: 241f cf3d 7754 213e 25ae ad3d 4940 49be
00000010: e418 e1be f28a 81be d43a 94be 1e90 fbbe
00000020: 77ea 6fbe 60ca d9bd cea9 91be 0bb2 62be
00000030: bba9 34be d62d cabe 7e34 7abe 856e 303d
00000040: 10aa a93d be57 5e3d 62b2 8abe 3fab 79be
00000050: 983c bcbc a4f2 02bf d053 cebe ef15 21bc
00000060: f41f 9cbe b33a 3dbe 229b 233d 09fa 9dbe
00000070: 691d a8be efaf 37bd b0eb 17bf 61d6 06bf
00000080: 9af9 dbbc 21a6 b2be 6938 80be 7dc4 1c3c
00000090: 6079 413e 090e 793e 6d25 c23d a3b6 2a3e
000000a0: 1c7c ab3c 0d4a eebd 85b9 27be c231 d7be
000000b0: 2e78 92be fbd9 21be 46c7 74be e4a9 39bc
000000c0: 9919 bbbe bf9b e0be 0ab6 d1bc ba0c 76be
000000d0: 69e1 77be 4f9c 6cbc 1ed6 1ebe 7358 cdbe
000000e0: e102 b9be 8212 babd df3e 9cbe 6a86 9abe
000000f0: 5558 543d ac99 a73c 2533 01bd 5aba 083e
00000100: 51bf a73e 29cc 6b3e 7cad 973e 398f 213f
00000110: ed4f bd3e 3ec0 153e 50aa 913e 2229 f73d
00000120: f39e 863d c79d 913a 19d2 b6bd cb47 8ebd
00000130: 7ded 98be 8e0a adbe 9559 58be d382 f2be
00000140: f0e7 b3be 7001 d93d e0b9 9a3e 34c7 523e
00000150: 5cc4 683e c445 0d3f 3ccd a63e e3ff e43d
00000160: 4897 863e bfb6 f33d ff0c a0bd cd06 2bbe
00000170: fc89 eabd 49f2 85be 979e febe d7d7 95be
00000180: f9ad 86be 0ef2 e3be adb4 56be c195 c4bd
00000190: 36d3 90be 801c cdbd 5479 3dbe 4fdc ebbe
000001a0: c578 c9bd dbe8 96bd 01a6 25be 5f8e 763c
000001b0: cca9 073e 9f30 893e a31c 443e c37d 8e3e
000001c0: 6e3f fd3e 1ce5 9c3e 0d54 623e 1c48 a93e
000001d0: 273b 2f3e 1d3f 113e 746d 863e 85a3 113e
000001e0: d2e3 ad3e 12ca 033f d2c4 633e 9d00 653e
000001f0: 97fe 883e ffea 993d 8b83 e63d d17f fdbd
00000200: 022c a2be 22c8 213e 4101 cbbe bdc6 15bf
00000210: eef9 c63d eab0 81be dce5 9cbe f776 78be
00000220: 9c98 06bf a31a bebe 381b 63be 93b0 c6be
00000230: 6d48 93be 130f 393d 7311 063d a365 dbbc
