02-Autoencoder/01-PT-MNIST-basic/cnn16-cropped-classifier.pth (torch, 124231 bytes, 10 tensors)

0.0.weight f4 [16, 1, 3, 3]
000000 3f d2 3c bd ed 6e 17 3e 6e b8 ea bd 5a 67 3f 3e
       -0.046098944 0.14788409 -0.114609584 0.18691769
000010 4c b4 4c be a4 45 0e 3d 4c b8 8e 3e 26 a1 10 bf
       -0.19990653 0.034734383 0.27874982 -0.56495893
000020 2c 03 8a 3e ff 4b 1f 3e 1d 06 c9 3b 22 b3 d8 bd
       0.26955545 0.15556334 0.006134762 -0.10581042
000030 2f 5c a9 be 33 91 0e bf 1e 4c 90 bd 08 80 2e 3e
       -0.33078143 -0.55690306 -0.07045768 0.17041028
000040 ce 99 99 3e d6 2a da 3e 3c d2 79 3e 87 76 77 3e
       0.30000156 0.42610806 0.24396604 0.24166308
000050 46 24 a8 3d d9 c4 51 3e e6 c3 2b 3e d6 92 e1 be
       0.082100436 0.20485248 0.16773948 -0.4405734
000060 9d 99 ad be 13 c6 0e bf d5 80 a0 be a1 72 e7 3e
       -0.3390626 -0.5577099 -0.3134829 0.45204642
000070 e6 c7 92 3e 22 b6 c0 3e c6 14 ce 3c bf fd 93 be
       0.28668135 0.37638956 0.02515639 -0.2890453
000080 f1 9d bf be 2d 76 c8 3c b7 c1 a6 bd ff 38 4b be
       -0.37425187 0.024470413 -0.08142417 -0.19845961
000090 6e 9a d9 bc b5 e7 36 3e 2a ab 19 3f 8d 84 a3 be
       -0.026562896 0.17861827 0.600268 -0.31937066
0000a0 06 0c df be 3a d0 8b 3e 5c 1c f1 bd eb 76 79 be
       -0.4356386 0.27307302 -0.11772987 -0.2436177
0000b0 d5 4f 1d 3e 28 8c a9 3d 57 13 67 3e 26 b3 15 be
       0.15362485 0.08278686 0.22565971 -0.14619121
0000c0 bb 0c f1 bb 8d 20 f9 3e 1f 75 4b 3e c7 fe 1a bf
       -0.007356254 0.48657647 0.19868897 -0.6054501
0000d0 3c 9d 38 be 69 b7 81 3c 44 2f 5b bb 1d 56 06 3c
       -0.1802873 0.015834527 -0.003344492 0.008199242
0000e0 1b 56 bd be 6a 44 33 3c 03 0b c0 3e c5 05 d7 3d
       -0.36979756 0.010941604 0.375084 0.10499147
0000f0 b2 80 a8 be c1 75 59 be 92 a0 8e 3e 55 03 b5 be
       -0.32910687 -0.21236326 0.2785688 -0.35354105
000100 d7 9b d1 be cb 62 dc be 24 78 b2 3e 35 26 0d 3d
       -0.4093921 -0.43044123 0.34857285 0.034460265
000110 c9 b8 d4 bd fc 13 a5 3e 63 80 74 3e 91 8f 09 3e
       -0.103868075 0.3224181 0.238771 0.13433672
000120 8b 64 a2 3e ab 00 4c bd 9d 9e a8 be 19 76 97 3e
       0.31717333 -0.049805325 -0.32933512 0.2958229
000130 69 f1 02 bd 84 a2 0a bf 1b 04 8e 3e 9c a0 44 3e
       -0.031968508 -0.5415423 0.27737507 0.19201893
000140 85 f6 75 bc 3a 02 91 bf fa db a7 c0 5b ce 6f bf
       -0.015012388 -1.1328804 -5.2456026 -0.9367425
000150 f1 7a c2 bf bd 60 07 c1 b6 55 8e c0 c5 8b 8d 3e
       -1.5193769 -8.461118 -4.4479628 0.27645698
000160 ac 84 0a c0 46 89 ac bf 37 94 b7 3e 9e ce 4b 3e
       -2.1643476 -1.3479393 0.35855266 0.19903037
000170 c3 72 0e bd f9 d7 bb bd f1 a1 ab be 7c ff e2 bd
       -0.034777414 -0.09172053 -0.3352199 -0.11083886
000180 4e ea 80 be 51 0a c9 3d 6b 5b 85 3e b6 b4 e0 bd
       -0.2517876 0.09816421 0.2604631 -0.10971968
000190 4e c2 8a 3e 32 cd c3 be 70 ca eb bd 7a fd e4 3e
       0.27101368 -0.3824249 -0.11513221 0.44724637
0001a0 eb 61 4a be d3 23 03 be e4 57 56 3e cf ac 9d be
       -0.19763915 -0.12806635 0.20931965 -0.30795905
0001b0 19 23 fa be 2c 7a 39 be 4a 93 1c 3d 7b 85 fe be
       -0.48854902 -0.18113011 0.038226403 -0.49711213
0001c0 c2 05 a4 3e e0 53 ae 3e d2 ed ec be 5f 79 91 3e
       0.32035643 0.34048367 -0.46275192 0.2841291
0001d0 c5 ff 8a 3e bd d7 30 bd da c5 86 3b de 70 87 bd
       0.27148262 -0.043174494 0.004112941 -0.066133246
0001e0 cb 96 3e bd f1 b8 1d bd 3a 0b 65 bd be 9c cc bc
       -0.046530526 -0.038506452 -0.05591891 -0.024977084
0001f0 f4 82 77 3a 77 f5 f8 3b ad be 01 bf 4a fc f6 3d
       0.0009441816 0.007597621 -0.50681573 0.12059839
000200 20 0e 30 3e 2d 8f 6b 3e 52 b3 eb 3e c1 c7 23 bd
       0.17192888 0.23003836 0.46035248 -0.039985422
000210 97 d6 8b 3e 6e 38 56 bd 54 a7 a0 be b8 95 ce 3d
       0.27312157 -0.05229991 -0.3137766 0.1008715
000220 48 be a6 3c ab 1b b3 be 24 79 64 3d 46 45 3a 3e
       0.020354405 -0.34982046 0.05577959 0.18190488
000230 c4 44 77 ba 96 96 21 3e e3 ed 87 3d 94 8d 4f 3e
       -0.0009432549 0.157801 0.0663717 0.20268852

0.0.bias f4 [16]
000000 58 f5 56 bb 33 c7 24 bb 1e 89 53 3d ab a8 e2 bb
       -0.0032800045 -0.0025143146 0.051644437 -0.0069170794
000010 63 48 0b ba d3 5f 5d bd 18 05 44 bb 8b 64 05 3d
       -0.00053132157 -0.054046463 -0.0029910263 0.03256659
000020 5b 8b 94 bb 20 a6 91 3e 55 62 e1 bb 64 86 24 3d
       -0.004533214 0.28447056 -0.006878177 0.040167227
000030 b8 bf c6 3c 69 e2 81 bd 05 83 6f be 6e df 28 be
       0.02426134 -0.063420124 -0.23389824 -0.16491482

0.2.weight f4 [32, 16, 3, 3]
000000 bd 61 18 3e cb ac 3e 3b 10 a4 45 be 22 00 28 3e
       0.14881034 0.0029094692 -0.19300866 0.164063
000010 ce 2c e5 bc e0 5a a0 bd 3b 8b d0 3d 41 a6 54 3a
       -0.027975466 -0.07829833 0.10182806 0.0008111932
000020 70 86 e6 bd 0d a4 08 3d e0 a2 81 be 25 65 aa be
       -0.11256111 0.033359576 -0.25319576 -0.33280292
000030 6f 31 aa be 8a 21 17 bf 2c ac e3 be 35 f6 91 bd
       -0.3324084 -0.5903555 -0.44467294 -0.071270384
000040 5a a9 33 bc 84 18 f8 3c 27 08 1d be 6b f6 75 3d
       -0.0109656695 0.030285127 -0.15335141 0.060049456
000050 4b a6 95 be 25 69 6b 3e 89 41 ee 3b 16 45 b0 be
       -0.29228434 0.22989328 0.007270996 -0.34427708
000060 25 6f 71 3d e4 d4 f6 bd 9e 33 0b be 4d 8d d6 be
       0.058943886 -0.120523244 -0.13593909 -0.4190468
000070 75 3f a1 bd 1d e5 42 bd a8 ae 81 be 06 0e 60 be
       -0.078734316 -0.04758178 -0.25328565 -0.2188035
000080 06 c5 70 be ee 3c 98 bd 7a 08 2b be 80 b8 08 be
       -0.23512658 -0.074334964 -0.16702452 -0.13351631
000090 2a e3 64 3d 84 cd 02 3e c7 5c 8b 3e 63 d9 48 bc
       0.055880703 0.1277371 0.2721922 -0.01225886
0000a0 60 5e 69 bc e6 55 e4 3c 82 95 45 3d 6e 38 f5 3d
       -0.014243692 0.02787299 0.048238285 0.11973654
0000b0 ba c3 ed 3d 7f a9 2d 3e 5f 41 e7 3d a3 19 00 3e
       0.116095975 0.16959189 0.112917654 0.1250978
0000c0 33 18 9d 3d 95 a3 a2 bc b4 c3 13 bc 99 9e 88 3d
       0.07670631 -0.019853393 -0.009018827 0.06670875
0000d0 f1 60 35 bd 48 8c 73 3d 44 97 00 be 72 71 a6 be
       -0.044281904 0.059459955 -0.12557703 -0.32508427
0000e0 78 3a 9a be ce 30 4d 3b 02 81 2d 3d f2 ad fa 3d
       -0.30122733 0.0031309607 0.04235936 0.12240209
0000f0 82 12 f3 3d e3 3b b1 3d 0a 01 fa 3d 76 f8 45 3e
       0.118687645 0.086540006 0.122072294 0.19333062
000100 e0 0f b2 be 3a 5b 23 bf f6 43 d6 bd 02 3c 16 be
       -0.34777737 -0.63811076 -0.10462181 -0.14671329
000110 61 bb 5d be 3e e6 0b bf 98 5e 5e be 18 fd 18 be
       -0.2165351 -0.54648197 -0.21715772 -0.14940298
000120 d7 36 c9 3d 06 e0 43 3e 16 be fd 3c 3b 92 81 bd
       0.09824913 0.19128427 0.03097443 -0.063267194
000130 f1 46 bc bd 40 6b b6 bd 87 c2 e5 bc 1d cd e6 3d
       -0.091932185 -0.08907175 -0.02804686 0.11269591
000140 36 60 c0 3d 16 29 ad 3d f3 c2 ae 3b 35 e6 8a be
       0.09393351 0.08455102 0.0053332984 -0.2712876
000150 c4 18 47 be 90 a0 ab be 2d e9 1c be f4 aa 2b 3e
       -0.19443041 -0.33520937 -0.15323325 0.16764432
000160 80 26 ca 3d 76 fb 68 bd 6e 7e 03 3d a0 02 22 bd
       0.098706245 -0.056880437 0.032102995 -0.039553285
000170 ab 68 b4 bd ac c8 9c 3e 28 ff 36 3d 37 54 05 be
       -0.08809026 0.3062185 0.04467693 -0.13020407
000180 61 c3 35 3e 7a b6 24 3e f5 8a 3d bd 56 15 8b 3e
       0.17750312 0.16085234 -0.046275098 0.27164716
000190 76 bd c4 3e bf e1 9c 3e fc 9a 18 3e 1d 9c 71 3e
       0.38425797 0.3064098 0.14902872 0.23594709
0001a0 69 5d 30 3e db 2d ef bc 23 73 01 be 8a 5e 0d bd
       0.17223133 -0.02919667 -0.12641577 -0.034513988
0001b0 14 a7 16 3e a3 15 0c 3d 23 19 81 bc 26 e8 e0 3d
       0.14712173 0.034200322 -0.015759056 0.10981779
0001c0 5c a3 bd 3d fd 1d 1d 3e 17 6e 20 3e fa 41 9e 3d
       0.09259674 0.15343471 0.15666996 0.07727428
0001d0 ad 58 73 bc 20 6c 3a 3c 4a 8c 7f 3b b1 2d 25 3a
       -0.014852685 0.011378318 0.003899353 0.0006301059
0001e0 29 fe e1 39 79 7b 5f 3c 3e ff 65 3c 4a fa ae 3a
       0.00043104708 0.013640278 0.014037905 0.0013349738
0001f0 ae a8 83 bc e9 ec 24 3b 38 d4 c8 3c 85 ab 77 bd
       -0.016071644 0.0025165624 0.024515256 -0.06046631
000200 ec 20 1b be d4 c0 2b be de 14 25 be f1 dd 59 bd
       -0.15149277 -0.16772777 -0.16121241 -0.053190175
000210 04 13 14 3d a5 70 0f be aa c7 b2 bb 77 46 62 be
       0.036150947 -0.14007814 -0.0054559307 -0.22097193
000220 d8 0d cc bd bb 0e 14 bd 62 05 f6 bd 48 8b 0d 3c
       -0.09963578 -0.03614686 -0.120127454 0.008639164
000230 f3 37 85 3d 06 35 f4 3d f7 fb 60 3e 50 44 8a 3e
       0.06504812 0.11924176 0.21971117 0.27005243
000240 51 4d c0 3e 80 62 84 3e 5b 73 41 3d 21 ff cb 3e
       0.37558988 0.258564 0.047229152 0.39843085
000250 82 1f da 3e af b5 0b 3e a1 f4 ec 3c a1 51 b6 bd
       0.42602164 0.13643526 0.028925242 -0.08902288
000260 ce 06 07 be 97 4c e9 bd 3f 13 b1 bd 90 34 60 3e
       -0.1318619 -0.113915615 -0.08646249 0.21895051
000270 1a 8b c9 be de f6 2a be 5b 01 f4 bb e7 55 e2 be
       -0.3936394 -0.16695735 -0.0074464506 -0.44206163
000280 21 d0 52 be 8f 51 a1 be a4 6b 94 3c e6 98 85 3d
       -0.20587207 -0.31507537 0.018117733 0.06523304
000290 7b 93 bd 3d 3c 98 5c 3d 70 c3 06 3e 0b b5 06 3e
       0.09256645 0.05385612 0.13160491 0.13155
0002a0 1c b6 7e bb a1 f1 09 3e 24 af a4 3e ac d1 9d bd
       -0.003886587 0.1347108 0.32164872 -0.07706007
0002b0 4c 5f 85 3d b3 b5 c9 3d 74 10 18 be 56 a0 8d bc
       0.06512317 0.098491095 -0.14850026 -0.017288368
0002c0 53 07 5e 3d 0b 18 95 be 7a b8 98 bd 19 43 ce 3d
       0.054206204 -0.29119906 -0.07457061 0.100713916
0002d0 cd 4e 35 bd f3 15 a1 bd 5a 6d 3d be 74 bc 44 3e
       -0.044264603 -0.078655146 -0.18498746 0.19212514
0002e0 a0 dc 4e 3b 5c 0f 74 bd a8 ca 88 3e c7 aa 14 3d
       0.0031564608 -0.05958496 0.26717114 0.03629568
0002f0 8c 9c 1c be f7 da b9 bd 4a 58 4c bd 34 4b 1d be
       -0.15294093 -0.09074967 -0.049888887 -0.15360719
000300 f7 6b c4 bd 93 58 8e be 68 c4 8a be a7 ec 8d 3d
       -0.09590905 -0.27801952 -0.2710297 0.069299035
000310 f4 5f 23 3c 36 eb cf 3b 49 b8 84 3d 28 35 5e 3d
       0.0099716075 0.006345178 0.06480462 0.054249913
000320 c3 61 89 3e 61 62 23 3e b2 1b b2 3d 42 a2 5c bd
       0.268324 0.15955497 0.08696689 -0.05386568
000330 2b a2 c9 3d cf 21 bc bc b2 75 2f be 1d 90 14 be
       0.09845384 -0.02296534 -0.17134741 -0.145081
000340 14 3d dd bd 72 6e 65 be d3 72 cb be 5c 58 ed bd
       -0.10802665 -0.22405413 -0.3973604 -0.11589119
000350 d9 6c 39 bd f2 a8 8c be 23 e1 49 be 7d be 00 be
       -0.04526982 -0.27472645 -0.19714789 -0.12572666
000360 35 61 19 be 7a 87 d2 bd 42 7a be bd e7 50 8f be
       -0.14978488 -0.10279746 -0.093006626 -0.2799141
000370 41 5c e2 3d 40 2d a4 3c 19 e0 9a 3d 91 d8 bf 3c
       0.11052752 0.020041108 0.075622745 0.023418697
000380 5a 29 8b 3d b3 f9 83 3e af 45 2c 3d 03 b5 99 be
       0.067949966 0.25776443 0.042058643 -0.30020913
000390 e1 d7 79 3e ba 14 64 be 95 b9 e0 be 9a 17 a0 3e
       0.24398758 -0.22273532 -0.43891588 0.31268007
0003a0 9c 7c 8c be a3 80 c4 be 12 1d 19 bd 52 6f 77 bd
       -0.2743882 -0.38379392 -0.03738124 -0.060408898
0003b0 3a 5c 11 3e 43 52 19 bd 6f 47 99 bc 66 45 91 bd
       0.14195338 -0.037431967 -0.01871082 -0.07093315
0003c0 b5 37 a4 be b2 0b 39 bc ee f3 b8 bd 72 1a b0 bd
       -0.3207375 -0.011294292 -0.09030901 -0.08598794
0003d0 b2 d5 aa bc 98 21 46 bd 1c 18 88 3e e1 9e e7 3d
       -0.020853851 -0.04837188 0.26580894 0.113096006
0003e0 9b 2c 44 3e 22 59 ae 3d b1 fd eb 3d 3a 95 66 3e
       0.1915764 0.085130945 0.11522997 0.22517863
0003f0 aa 67 cc bc fc a0 5d 3c 3f 4a 54 3e 1b 2a d6 3d
       -0.024951775 0.013527151 0.20731448 0.1045725

0.2.bias f4 [32]
000000 29 5f 6a 3e 0f 47 7a 3e 18 8f 5a bd c9 43 61 3e
       0.22887863 0.24441169 -0.05335912 0.21998514
000010 12 56 e6 3d ee 16 b4 3d 59 26 7b 3d dc 99 df 3e
       0.11246885 0.08793436 0.061315868 0.43672073
000020 74 e7 04 3e 08 2e a5 bd 25 62 48 3c 68 c4 e7 3d
       0.12978917 -0.080654204 0.012230431 0.113167584
000030 15 4b 09 bc 20 c1 87 3d 57 e7 82 3e f5 f3 16 3e
       -0.008379717 0.066286325 0.25567123 0.147415
000040 fb 79 ea bc 70 b6 ee ba 01 af e1 bc 09 42 0a 3d
       -0.028622618 -0.001821233 -0.027549269 0.033754382
000050 cd d1 25 3d f3 52 a0 bb 28 81 4e 3c 65 85 e4 3d
       0.040483285 -0.004892701 0.012604035 0.111582555
000060 27 e9 07 be 89 78 bd bb f7 8f 8b 3d b0 77 a1 3d
       -0.13272534 -0.005782191 0.068145685 0.07884157
000070 37 23 2e ba 00 de 37 bb 24 fc ba bd d6 02 ba 3d
       -0.00066428207 -0.0028055906 -0.09130123 0.09082572

0.4.weight f4 [16, 32, 7, 7]
000000 8c 97 b5 3e a3 5d 95 3e 5f ab 84 3e 90 2d 72 3e
       0.35467184 0.29173002 0.25911996 0.23650193
000010 8e 35 6d 3e 61 6c 83 3e 7f bd 58 3d 97 15 b7 3d
       0.2316496 0.25668624 0.052915093 0.08939665
000020 21 79 34 3e 38 aa 16 3e a1 31 18 3e 6f 89 12 3e
       0.17624332 0.14713371 0.14862682 0.1431024
000030 99 f7 5f 3e 44 03 7f bd bb 04 d3 bd 5e df 12 bd
       0.21871795 -0.062258974 -0.10303637 -0.03585755
000040 5f 40 c8 bd 49 b6 30 bc 2c 46 4f bd 7d bb 16 bc
       -0.09777903 -0.010785648 -0.05060403 -0.009199974
000050 d6 93 85 be 85 67 3f be e4 90 e0 bc 3f e2 57 bd
       -0.26089352 -0.18691833 -0.02741284 -0.052706
000060 4f 4b 72 bc cd 3f d1 bd 96 e2 2f bd 3c 13 20 be
       -0.014788463 -0.10217247 -0.0429407 -0.15632337
000070 e8 4a 1a be ac e6 b1 bd e7 20 d0 bd 58 ad b7 bd
       -0.15067637 -0.08686575 -0.101625256 -0.089686096
000080 25 6f d7 bd e7 61 c3 bd 32 21 72 be 2d 69 33 be
       -0.10519246 -0.09540158 -0.23645476 -0.1752059
000090 86 79 41 bd 6f 9b ca bd ce 0d 5d bd f3 09 35 bd
       -0.047235034 -0.09892928 -0.053968243 -0.04419894
0000a0 b9 e0 fe bd 19 f5 1e be 4d c5 8f bd 8a c4 00 be
       -0.12445206 -0.15523185 -0.07020054 -0.12574974
0000b0 4f fa 3e be c3 bf 77 bd fe 70 3f bc 21 79 b4 3d
       -0.18650173 -0.060485613 -0.011684654 0.08812166
0000c0 7f de 40 bd a0 29 c6 bd aa 42 c3 bc 9c f4 c9 3d
       -0.04708719 -0.09675908 -0.023835499 0.09861109
0000d0 f2 44 9d 3d f4 73 43 3d 4d 4e 40 3d b5 d9 bf 3e
       0.07679166 0.047718003 0.046949673 0.37470785
0000e0 4b 95 27 be 9f 0a 82 be dc 5a 45 be 83 8a 87 be
       -0.16365544 -0.25398728 -0.19272941 -0.26472864
0000f0 aa 34 55 be ec ea 13 be fa 82 83 3e 31 d8 33 be
       -0.20820871 -0.14445084 0.25685865 -0.17562939
000100 c6 d1 72 be 0e ed 49 be ba 2c 30 be ea 80 42 be
       -0.23712835 -0.19719335 -0.17204562 -0.1899449
000110 fb 52 9c be a9 7d 9c bc a3 3f 23 bd 9e 7e 29 be
       -0.3053206 -0.019102888 -0.03985561 -0.16552207
000120 5d f4 41 be 75 4f f2 bd 47 cd 23 be 37 2e 2f be
       -0.18940873 -0.118315615 -0.15996276 -0.17107473
000130 2b fe d3 bd 07 7d 3f bd e7 38 92 bd 4a dc 01 be
       -0.10351213 -0.046750095 -0.071397595 -0.1268169
000140 25 e3 3c bd f9 95 df bd ec 3f 2a bd 69 f8 a4 3c
       -0.04611506 -0.10917277 -0.041564867 0.020137982
000150 46 2c 27 bd 5a 8b de 3c 75 bb e5 bc ed 59 de bb
       -0.040813707 0.027166057 -0.028043488 -0.0067856223
000160 d8 07 01 bd dc ae aa 3d 15 4c 16 3e 84 9c 27 be
       -0.03150162 0.08334133 0.1467746 -0.163683
000170 fa 77 08 3d 40 ee 1b bd 44 d9 16 3c b8 d8 db bc
       0.033317544 -0.03806901 0.009207074 -0.026836738
000180 9b 4f 8d bd 03 a8 a5 be 28 e4 0b be 29 b0 82 3c
       -0.06899949 -0.32354745 -0.13661253 0.01595314
000190 83 aa 83 bd f0 ca 83 bd a2 66 20 be aa f0 5e be
       -0.06429007 -0.06435192 -0.15664151 -0.21771494
0001a0 5a 2c b4 be da 76 f2 3d 78 71 08 3e 80 9c 68 bd
       -0.35190088 0.118390754 0.13324535 -0.056789875
0001b0 b7 de 99 3a bd 05 c4 3c b9 5f 9c bd 6d 79 0c be
       0.0011739348 0.023928517 -0.07635445 -0.13718195
0001c0 b5 f4 13 3e 89 22 af 3d f0 64 9f 3c 70 2e 3a 3c
       0.14448817 0.08551509 0.01945731 0.011363611
0001d0 c9 53 cb bc f8 6c 79 bd 98 1b b7 bc f3 b9 43 3e
       -0.024820225 -0.060894936 -0.022352025 0.19113903
0001e0 bf 68 3c 3e 7a f3 78 3d 53 8f a2 bc 29 db 63 bc
       0.18399332 0.060779072 -0.019843733 -0.013907232
0001f0 fd 18 e5 3b 7c f6 98 3d 67 df 4c 3e 36 36 dc 3d
       0.006991504 0.07468888 0.20007096 0.107525274
000200 6a d7 44 3d e2 7c c1 bc ed 29 83 bc e7 f6 10 bd
       0.048056997 -0.02361912 -0.016011203 -0.035391714
000210 0e 19 80 3e 1a 82 ae 3d 27 ac 52 3d c0 3a 15 bd
       0.25019115 0.08520909 0.05143371 -0.03643298
000220 e2 36 ca bd 1a 83 ff bd 4a 90 57 bd 64 85 1d 3e
       -0.09873749 -0.124761775 -0.05262784 0.15382916
000230 0e a0 e7 3d 2e 3f 98 3e f2 74 a6 3e da df 88 3e
       0.11309825 0.29735702 0.32511097 0.26733285
000240 00 b7 a6 3e 49 01 11 3e 0d f6 30 3d 7f 0c 51 bc
       0.32561493 0.14160646 0.043203402 -0.012759327
000250 f1 fc 5c 3c 23 86 c8 bd c8 bf f6 bd 7e f8 c1 bd
       0.01348804 -0.097912095 -0.12048298 -0.09471224
000260 d9 90 df bd 47 a0 0c bf c7 b5 c0 bd a5 b4 bd be
       -0.109162994 -0.54932064 -0.09409671 -0.37051883
000270 41 b8 c1 be 58 32 3a be 48 95 2f be 85 6f 1c bd
       -0.37835887 -0.18183267 -0.1714679 -0.03819229
000280 bd bc 89 bd c6 7d d6 3c b3 ea 83 be ea 47 34 be
       -0.06725452 0.02618302 -0.25765 -0.17605558
000290 ca eb 3a bd ef eb 0e be f2 d1 54 bc 28 8c e2 bd
       -0.045635022 -0.13957189 -0.012989508 -0.11061889
0002a0 47 11 f7 3c 60 f9 4d be 1c 1f 2f be c1 78 41 bd
       0.030159606 -0.2011466 -0.17101711 -0.0472343
0002b0 02 bd b0 bd 5e 60 a6 3c 57 97 a4 bd 7e e5 0c 3e
       -0.086298004 0.020309623 -0.08036678 0.1375942
0002c0 c7 c0 f7 bd 08 4c a9 bd 50 8b 05 3c b7 87 67 bb
       -0.12097316 -0.08266455 0.0081508905 -0.0035328695
0002d0 d1 34 8e 3c 1a 27 f1 bc 67 f0 04 3e 3a 0c 09 be
       0.01735917 -0.02943759 0.12982331 -0.1338357
0002e0 c2 99 61 bd e1 df 3d 3b e1 80 f4 bc 35 b9 00 be
       -0.055078276 0.0028972554 -0.02984661 -0.12570651
0002f0 be 34 87 be 41 db be ba 0c 98 26 be 54 5c b0 bd
       -0.26407427 -0.0014561192 -0.16268939 -0.0861136
000300 3f b0 85 bd 61 bd 3e be 77 ff 32 be 99 91 86 be
       -0.06527757 -0.1862693 -0.17480265 -0.26282957
000310 43 ff 13 be 7c ea 37 bd 7b 58 2b 3d 7a 51 b9 3d
       -0.14452843 -0.044901356 0.04183243 0.090487435
000320 4b a0 ef 3d a1 c7 41 3e bc 56 de 3d a1 a0 9c 3e
       0.11700495 0.18923809 0.10856387 0.305913
000330 06 ee 46 3e 05 77 4a 3e 7e e5 3b 3e ee e7 1b 3e
       0.19426736 0.19771965 0.18349263 0.15225193
000340 35 7a cb 3d 4f 85 5b 3e 45 dc 1e 3e 42 b0 96 3d
       0.099354185 0.21437572 0.15513714 0.07357837
000350 f6 f0 7d 3d 0b f1 b0 3d 0d d8 80 3d f9 f4 d9 3d
       0.061997376 0.08639725 0.062912084 0.10642428
000360 1a 0a 5a 3e 49 84 fb bd 5d cd e6 bb 67 70 9e 3d
       0.21292916 -0.12281091 -0.007043524 0.07736283
000370 d6 94 b1 3d 5d 03 81 3d 49 23 b9 3d ef dc 5a 3e
       0.08670966 0.062994696 0.09039933 0.21373342
000380 75 9a 12 be 8b 2d 75 3d b8 8d 31 3d e8 08 c9 3c
       -0.14316733 0.059857886 0.043348044 0.02454038
000390 0a 3e 00 3d f7 a3 71 bd 01 4a 5e 3d 8c d8 29 be
       0.031309165 -0.05899426 0.054269794 -0.16586512
0003a0 ec 29 50 3c 44 e9 b5 3b 63 de 86 bc b8 6b ec 3c
       0.012705307 0.005551489 -0.016463464 0.028859958
0003b0 df a4 ee 3c 3b 68 db 3d 19 15 e5 bd fb 93 9c bd
       0.029131351 0.1071324 -0.11185665 -0.076454125
0003c0 75 11 00 3d 75 e5 a2 3d 06 f5 3c 3d 49 44 1b 3e
       0.03126665 0.07953922 0.04613211 0.15162767
0003d0 41 34 35 3e 31 78 db bb 9e 44 7c 3e 0d 01 42 3e
       0.17695715 -0.0066976775 0.2463555 0.18945713
0003e0 a1 1c 88 3e df 57 9f 3e bd 29 b6 3e 29 6e 61 3e
       0.26584342 0.31121728 0.3557872 0.22014679
0003f0 f7 da 6c 3d 45 6d 61 3e 41 92 1e 3e 8f ac da 3d
       0.05782601 0.2201434 0.15485479 0.10677444

0.4.bias f4 [16]
000000 da d1 ae bc 0c 34 92 bd ae e5 8c 3d 1e 4d 8e bc
       -0.0213403 -0.071388334 0.068797454 -0.017370757
000010 e6 cd 4e 3d 14 37 53 3b 10 6a e1 bd 51 12 01 be
       0.05048933 0.0032228874 -0.11006558 -0.12604643
000020 47 e9 8b 3b 9c e1 d0 bc de 97 89 3c 44 3e 5e 3d
       0.004269752 -0.025498204 0.016796049 0.0542586
000030 c0 56 d0 3c 11 15 9b be 06 34 bb 3d 5a e7 0f 3d
       0.02543199 -0.3028951 0.09140782 0.035132743

1.weight f4 [16, 16]
000000 ab 39 3d 3f 37 b1 63 3e 4a 47 05 bf 5a b4 00 3f
       0.7391612 0.22235571 -0.52061903 0.50275195
000010 10 0a 4a be 8c 3c ed 3c aa 98 35 bf 0a b6 be 3e
       -0.19730401 0.028959535 -0.7093607 0.3724826
000020 93 87 27 bf 1c 1d 8b 3e de 47 ed 3e f1 71 1f bf
       -0.65441245 0.27170646 0.46343893 -0.62283236
000030 37 62 87 bd b2 df 15 be 39 6d e3 be 22 24 95 be
       -0.0661053 -0.14636114 -0.44419268 -0.2912913
000040 ab 03 37 bf ea 49 fd bd 72 90 09 be ab fa 5f 3e
       -0.7148997 -0.123676136 -0.13434008 0.21872966
000050 e3 2c bb 3e 3b 3f 32 be 6e cf cb 3e de 0b e1 be
       0.36557683 -0.17406933 0.39806694 -0.43954366
000060 80 23 af bf 1e 51 6b 3e 20 98 92 3d 45 89 f9 3d
       -1.3682709 0.22980163 0.07157922 0.12184385
000070 3e 02 ff be 53 83 55 be f0 01 c7 3e 2b ee 03 bf
       -0.49806398 -0.20850877 0.38868666 -0.5153529
000080 a9 30 16 3f 97 6b 07 be 92 43 b3 3e 4a 70 d5 3e
       0.58668 -0.13224636 0.3501249 0.41687232
000090 58 87 45 3e 9d 43 6a be 19 02 0d 3f c4 9a 5e be
       0.19289911 -0.22877355 0.55081326 -0.21738726
0000a0 02 e4 c6 3e be e0 8e 3d fc 1b 16 3f 83 b0 ce be
       0.3884583 0.0697646 0.5863645 -0.40369043
0000b0 af c4 36 3f 1c ce 20 bf a7 c0 51 3f 3b 81 27 3f
       0.71393865 -0.628145 0.8193459 0.65431565
0000c0 c2 c4 15 3f 4f 11 68 bf 35 a9 9a be 53 16 60 bf
       0.58503354 -0.9065141 -0.3020722 -0.87534064
0000d0 34 c6 78 3f 9e d7 3c be 32 f0 c2 3e ab 96 42 3e
       0.97177434 -0.18441626 0.3807388 0.19002788
0000e0 9e 5f b1 3e 69 12 1f bf 7c 17 a3 3e 14 06 da bd
       0.34643263 -0.62137467 0.31853855 -0.106456906
0000f0 80 ef 42 be bd 02 31 bd 2d ef 31 be eb b3 7e bd
       -0.19036674 -0.043215502 -0.17376395 -0.062183302
000100 c9 ed f8 3d c6 7b 54 bf b7 3b a5 bd 66 db 1d 3e
       0.12154729 -0.83001363 -0.0806803 0.15415725
000110 44 76 54 be cd 37 20 3e 6c 2e 08 3f bb c8 de 3e
       -0.2074824 0.15646286 0.53195834 0.4351252
000120 28 72 22 3f 2f 72 a9 3f c0 b3 27 3f 85 4c 09 3f
       0.6345544 1.3237971 0.6550865 0.53632385
000130 de 15 e4 be 27 d3 c1 3e 71 50 98 be c9 2c c4 3e
       -0.44547933 0.3785641 -0.29748872 0.38315418
000140 9d 99 88 3f fd db 14 3d 19 e7 fa 3e c2 a6 93 be
       1.0671879 0.03634261 0.4900444 -0.28838164
000150 19 51 7f 3e 55 c6 0d bf 56 19 08 3d 2e f3 c4 3f
       0.2493328 -0.55380756 0.033227287 1.5386713
000160 48 3f b6 3d ef a8 c3 3e 4f fb 37 be d3 e0 0f 3f
       0.08898789 0.38214824 -0.1796696 0.5620243
000170 ff b4 dc 3b 46 74 a1 be d7 10 57 be 04 bc b3 be
       0.0067354436 -0.31534022 -0.21002518 -0.35104382
000180 ea e2 46 3f fe ba 74 3e c4 e5 1b be 5e 60 0a 3e
       0.77689993 0.23899457 -0.15224367 0.13513324
000190 da ba e7 be 48 07 3c bf 52 24 63 3f 80 68 8c 3e
       -0.45259744 -0.7344861 0.88727295 0.27423477
0001a0 7e ee 07 3f c5 77 4f 3e 28 78 09 bf ea 7c 0d 3e
       0.53098285 0.20260532 -0.5369897 0.13817182
0001b0 38 fd d9 3d 31 bb 1d 3d 46 d4 ab bf 6d c6 eb 3d
       0.10644001 0.038508598 -1.3424156 0.11512456
0001c0 b7 6e 87 bd eb f4 06 3d 6d f3 ea be 10 24 57 3d
       -0.06612914 0.032948416 -0.45888844 0.052524626
0001d0 c1 ec aa be 41 42 ca bd 0d ad b7 bd db c9 5e 3f
       -0.33383754 -0.09875918 -0.08968554 0.87026757
0001e0 29 5b 37 bf bd ab 3e bf 94 08 f0 bc cc 42 a2 bd
       -0.71623474 -0.744808 -0.029300965 -0.07922897
0001f0 da 7a 26 3f 4b 43 86 be 79 a7 9a 3e d9 10 98 3f
       0.65031207 -0.26223215 0.30205896 1.1880141
000200 5f 5e 48 3e 2a 5d 4a be 43 e9 47 be ce 42 c9 be
       0.1956725 -0.19762102 -0.19522576 -0.3930878
000210 ec a2 0f bf f4 d3 e9 3e bd e9 b8 be d0 1a 0e bf
       -0.56107974 0.4566952 -0.36115828 -0.5550966
000220 ea ba 5f be b5 af 89 bf e6 74 03 3d cb 4e 44 3f
       -0.21848646 -1.0756747 0.032093905 0.7668273
000230 e7 e8 b4 3d 35 d4 1c bf 48 bb c3 bd 17 0d 37 bf
       0.08833485 -0.612613 -0.095572054 -0.7150435
000240 1c 99 9a bd 68 dc 99 3f ac 5e 37 3c 20 66 35 3e
       -0.075487345 1.2020388 0.011192005 0.17714739
000250 a3 73 3f be a1 fb c5 be 56 90 d6 3e 71 2d 89 3e
       -0.18696456 -0.3866854 0.41906995 0.26792482
000260 72 b9 65 3f f8 58 d9 3d 2d 25 86 3f a7 d6 6b 3f
       0.8973609 0.106126726 1.0480095 0.9212441
000270 70 cb ae be 1f b1 03 bf 60 cf 87 3e 1f 72 b2 be
       -0.34139585 -0.5144214 0.26525402 -0.34852692
000280 74 9f 0f 3d d3 12 b5 3e e8 95 35 be 8a 4b 4a 3f
       0.035064176 0.35365924 -0.17732966 0.79021513
000290 6e 97 66 3d 31 8e ab 3f 2c 6e 15 bd 58 8e e5 3e
       0.05629676 1.3402768 -0.03648202 0.44835162
0002a0 ed 86 12 3e 8f e9 de bd 9d 17 4e bf 48 5e 29 bd
       0.14309283 -0.108843915 -0.8050478 -0.04134968
0002b0 46 44 35 bf 2d 84 41 bf dd 96 52 be 69 a0 db bd
       -0.708073 -0.7559231 -0.20565362 -0.10723955
0002c0 93 ac ae be 04 2b ca be 90 70 48 bf eb 2b 3b bf
       -0.3411604 -0.39485943 -0.78296757 -0.7311389
0002d0 6f 98 72 be 8c 0c ec bc 92 3a b3 be 74 1e 1b bf
       -0.23690961 -0.028814577 -0.35005623 -0.6059334
0002e0 ff a0 c3 3e 3e 96 8e be e3 40 57 bf 67 99 8d bf
       0.38208768 -0.27849 -0.84083384 -1.106244
0002f0 4d 24 37 be 45 cc 84 be 91 2d 24 3f 1e 07 82 3d
       -0.17884941 -0.25937095 0.6413203 0.06349014
000300 d9 c6 4a bf c4 fc 19 3b 4c 11 c1 be 52 e8 0b 3f
       -0.7920967 0.0023496607 -0.3770851 0.5465137
000310 5e 3b f4 3e 42 54 ec 3e fc be ab be 22 cf d2 3e
       0.47701544 0.46158034 -0.33544147 0.41173655
000320 cc 16 db bd 90 08 e8 be 57 b8 0c bf 51 80 ec be
       -0.106977075 -0.45319033 -0.5496878 -0.46191648
000330 a1 fa 89 3f ed 16 ec 3e 26 a3 1b 3e 41 3a 1f bf
       1.0779611 0.4611124 0.15198955 -0.62198263
000340 fd 88 66 bf 7a 53 65 3b cc 8b bc 3d 40 99 c8 be
       -0.9005278 0.0034992383 0.09206352 -0.3917942
000350 a3 98 e4 be 51 5f 98 3e d9 63 a0 3e cb b0 62 3e
       -0.44647703 0.2976022 0.31326178 0.22137754
000360 73 da a6 3d 7e ee 44 3f b5 6e 76 3d 57 7f b9 be
       0.08147135 0.7692641 0.060164172 -0.36229965
000370 7a d6 df 3e 01 a5 1a bd 71 d7 e7 be b7 d7 11 bf
       0.4371832 -0.037755016 -0.45281556 -0.5696978
000380 87 17 d0 be c1 4c fb be a4 c9 fc 3e 9a c8 42 3e
       -0.4064295 -0.49081996 0.4937259 0.19021836
000390 c0 45 b9 3e cb 99 4e bf 39 a0 12 bf 2a b3 42 3e
       0.36186028 -0.8070342 -0.5727573 0.19013658
0003a0 32 76 28 3e 55 c7 15 bf 71 88 59 bd 8f a3 81 bd
       0.16451338 -0.5850728 -0.053108636 -0.063300245
0003b0 23 42 3c 3e cf 7d 29 bf e9 cd 40 bf 63 46 6f 3e
       0.18384604 -0.66207594 -0.75314194 0.23366694
0003c0 15 8b 1d 3f 42 66 9b be 3a 1b d9 be 5f 9d 9e be
       0.6154035 -0.30351454 -0.42403585 -0.3097944
0003d0 9d 9e 0a 3f 1d 57 ba 3d fb 76 47 bf 37 79 1a bf
       0.54148275 0.09098647 -0.77915925 -0.6034121
0003e0 35 5e 81 bd 46 b5 5d 3f 54 80 0b 3e f6 06 3d 3f
       -0.06316797 0.86604726 0.13623172 0.73838747
0003f0 6a 7b ba 3e 45 62 32 bf 5a fd 9d 3e 95 1c 2f 3f
       0.36422282 -0.696812 0.30857354 0.6840299

1.bias f4 [16]
000000 64 f9 e4 3e 20 4c e1 3d ed 46 9d 3e e9 31 0b bf
       0.4472152 0.11000848 0.30718175 -0.5437303
000010 12 65 11 bf 45 d3 7d 3e fe f2 f3 3e 5a 3e a7 be
       -0.56794846 0.24787624 0.47646326 -0.32664758
000020 32 89 c1 3e f9 0a 74 be 4b 71 88 3e 43 58 16 3e
       0.37799984 -0.2383231 0.26648936 0.14682107
000030 7d e0 44 3f 44 cd 12 3f 7d 6b 94 be 37 db 4c 3f
       0.7690504 0.5734446 -0.28988257 0.80021995

3.weight f4 [10, 16]
000000 e6 9b c1 be 50 ab e1 3e 48 a1 8d 3e a7 cf 27 bf
       -0.37814254 0.44076014 0.2766211 -0.6555123
000010 e7 76 4e 3f 81 04 27 bf fc a5 a9 3e 65 30 95 be
       0.8065018 -0.6524125 0.3313445 -0.29138485
000020 d2 dc cc 3e cd 5f 86 be ef c1 53 3e 25 8f b5 be
       0.40012223 -0.26244965 0.20679449 -0.35460773
000030 c6 30 21 3d 0b 5f d1 be 16 ae 8c 3f 82 6d b4 bc
       0.039353155 -0.40892825 1.0990627 -0.022024874
000040 c8 01 52 bf ce 37 c9 3e ed 1f 30 3f ff 58 f3 bd
       -0.8203397 0.39300388 0.68798715 -0.11882209
000050 2e cd 41 bf d5 30 58 bc 00 9d 2e 3e 01 07 73 bf
       -0.75703704 -0.013195236 0.17052078 -0.9493256
000060 dc 5a d3 3e 76 1d 26 be 0b f7 84 be 97 f4 c6 3c
       0.41280258 -0.16222176 -0.2596973 0.024286551
000070 ab e1 20 be ce 4b ec be 9e ba e3 be 41 04 3b 3f
       -0.15711085 -0.46151584 -0.44478315 0.73053366
000080 ee e7 c6 3d bf 1f 22 3e 70 b0 2b bf 4c 0a 2f 3f
       0.09712206 0.15832423 -0.670661 0.68375087
000090 c1 09 25 bf b9 c9 50 bf 43 3b 87 3f 3d 48 a8 3e
       -0.6446801 -0.81557804 1.056496 0.32867613
0000a0 d5 5f 21 be 49 92 61 3e be af f6 3e 36 02 6b bf
       -0.15759213 0.2202846 0.48180956 -0.9180025
0000b0 d5 0e 4a 3e ef c6 ff 3e 18 3e 31 3d 4e 16 20 3f
       0.1973222 0.49956462 0.043272108 0.62534034
0000c0 b1 38 0b 3f 8b 21 cb be 7e 2a b9 be c1 81 d1 3e
       0.5438338 -0.3967403 -0.3616523 0.40919307
0000d0 1b e7 9c 3e e4 6a 99 3e 49 bb cc be c8 fa 3f bf
       0.3064507 0.29964364 -0.39986637 -0.74992037
0000e0 b8 0e 85 bd 4a 58 a5 be 80 6b 5e 3f 36 6b 8a be
       -0.06496948 -0.32293922 0.8688278 -0.2703492
0000f0 b5 a5 82 3e b5 c2 11 bf c4 20 3d be 2f d3 1a be
       0.2551705 -0.56937724 -0.1846953 -0.15119623
000100 a6 c1 06 be 7f b6 dd 3d eb e0 21 bf dc a8 b2 3e
       -0.13159809 0.10825824 -0.6323382 0.34894454
000110 fd 31 6a bf 16 8c 22 3f a6 42 99 be 09 99 52 3e
       -0.91482526 0.63495004 -0.2993366 0.20566191
000120 bf b3 11 bf 8c f1 44 3f 6a 52 ee be 8e 08 64 3f
       -0.56914896 0.7693107 -0.46547252 0.89075553
000130 e4 e4 19 be 39 35 93 be 6c 4c 4b 3e 70 c3 ee 3e
       -0.15028721 -0.28751543 0.19853371 0.46633482
000140 ec ac e0 3e 91 96 7d bf 6b f0 9a be c0 00 2f bf
       0.4388193 -0.9905787 -0.3026155 -0.6836052
000150 45 ea 06 3f c9 ba 1d 3f 55 5a ed be 57 18 90 bd
       0.52701217 0.61613137 -0.4635798 -0.070358925
000160 ef b0 49 3f 49 d9 1c bf 2f d6 96 3c 67 4d 14 3f
       0.78785604 -0.6126905 0.018412678 0.57930607
000170 0f 15 c4 be b4 ca bf 3e 94 28 6e 3b 4f a4 e6 bd
       -0.38297316 0.37459338 0.0036340104 -0.11261808
000180 d2 19 1f be d1 4a 48 3f a3 e5 c2 3e 35 82 6d bf
       -0.15537193 0.7823916 0.38065824 -0.92776805
000190 ac 2b e9 3e 42 5c 5a bd f2 63 80 3f 14 0b 57 3f
       0.45541131 -0.05331064 1.0030501 0.8400128
0001a0 9f 5d 00 3f db 3b 15 bf 2f 3a 6d be bc 36 fc 3e
       0.50142854 -0.5829446 -0.23166727 0.4926051
0001b0 2e 19 9b bf eb 8c 75 3f 7d fb 95 bd b0 e2 52 be
       -1.2117059 0.9591815 -0.07323358 -0.20594287
0001c0 b5 2e e7 3e 16 0c da be de ca 7b bd e2 65 ed 3e
       0.45152822 -0.42587346 -0.061472766 0.46366793
0001d0 d3 4e 6d bf 97 32 1f bf fb 22 76 be d7 8a 9c be
       -0.926984 -0.6218657 -0.24036781 -0.30574676
0001e0 46 65 b9 3e f4 e8 34 3f 8c b3 f6 be 9c 21 3b bf
       0.36210078 0.7066796 -0.48183858 -0.7309816
0001f0 aa c0 5c 3f c8 27 09 be f3 fd d5 3c 61 2a fc 3e
       0.8623148 -0.13394082 0.026122069 0.49251083
000200 ba 26 f0 be f1 f3 c8 be 72 a3 23 3f 68 a6 de 3e
       -0.46904546 -0.39248613 0.6392127 0.43486333
000210 d2 be 9b 3e 8f d7 ae 3e 3b f2 e6 bd 02 c0 01 3f
       0.30419022 0.34148833 -0.112766705 0.50683606
000220 c3 43 c0 3e 10 5c b6 be e0 82 28 3f a7 f4 18 3e
       0.37551698 -0.35617113 0.658247 0.14937077
000230 1e 5c c6 3e 2d ac 42 3e ac 71 94 be 14 5e 32 bf
       0.38742155 0.19010992 -0.28992975 -0.696748
000240 32 ec 14 3f e7 39 ca 3e 11 5c 3a 3f 8e 33 08 3e
       0.58172905 0.394973 0.7279673 0.13300917
000250 24 ad 81 bd df 45 8f 3e d3 cc 55 bf ec 61 e0 bd
       -0.06331852 0.27982995 -0.8351566 -0.10956177
000260 53 96 af be b3 0a f4 3e ed 4b ac be e9 04 e5 3e
       -0.34294376 0.47664413 -0.33651677 0.4473031
000270 dc d6 ef 3e 45 c8 66 3e 6c 3f 96 3e 05 2e 2e bf
       0.46843612 0.22537334 0.29345262 -0.6803897

3.bias f4 [10]
000000 dc 24 ff be a4 23 29 3f 0c ed ce bc ed e5 33 3a
       -0.4983281 0.6607001 -0.025259517 0.000686257
000010 4a 0b f2 3e 7c f1 cf be 03 69 21 bd 2a 93 7e 3e
       0.47274238 -0.40613925 -0.039406788 0.24860826
000020 96 1a bc 3e e1 d5 53 3f
       0.36739033 0.8274823
