02-Autoencoder/01-PT-MNIST-basic/cnn16-classifier.pth (torch, 124167 bytes, 10 tensors)

0.0.weight f4 [16, 1, 3, 3]
00000000: 8fe6 cc3e e304 bd3e a441 823e 2fd3 f23e
00000010: fd71 e63d 10ea 2b3d a52d 07be 8036 56be
00000020: 4de2 5e3d 23fb e0be bd6b 973e b938 ce3e
00000030: f7ff 2dbf ce2a 76bd 1afa 91bd c93d bdbf
00000040: a508 e3be db2b 19bf 0f78 d0be 2a12 013c
00000050: c721 6ebe 48a8 d0bd af18 1ebe 4fd5 3dbe
00000060: 496a 2ebd 5e2e 8dbd e565 dbbe 7d78 f9bd
00000070: bbf8 d2bd bd98 bdbe 5bf6 e2be 489f 0cbf
00000080: ab17 6abe 1c4a 67be 2f6a b53e 1faa 293f
00000090: f604 e3be 78e7 2f3d cea7 6c3e bfc7 013d
000000a0: 511e 163d fd87 d0bd 2d0f a73e b6a8 3f3e
000000b0: 93d9 763e 36ab da3d b4ad 873e 508e d03c
000000c0: dc04 bc3e bfb7 ac3e eb26 a4be 35fc ad3e
000000d0: 9478 8abe 4e87 05bf 40a9 5abe 976e 033e
000000e0: 55c7 09be 47a6 033d 36a1 0a3f ba91 623e
000000f0: 9447 f3bc 4a95 013f 2782 29bd 21f0 0e3e
00000100: f6a9 a63e c10d 573b a14f a5be 464c b7bd
00000110: 64af f4bd 5f86 123e 5c21 593e f383 30be
00000120: 55c9 46bb 1d28 c6be a679 863e acb3 573d
00000130: 364e 1abf 23e1 d03e bd5a ddbd d967 04bf
00000140: b024 d43e d340 4a3e 8758 b4be 166d 27be
00000150: 9e97 b43d 76c3 98be fb18 7f3e 110e a63d
00000160: 008b 233c bc06 1e3e 0a8e 21be 98cd 953d
00000170: e8f5 853e 171e d7be 0ba7 ae3e 5c03 7a3e
00000180: c74b e7be c7be 523e cd10 b33d c998 7cbc
00000190: f2b2 edbe 3931 46bf 8049 bd3e 72ea f73d
000001a0: 4b9c 9cbe d899 cb3e 1b97 003f e7a8 663e
000001b0: 8fff 0e3e 6c16 c4bd ecd4 12bd bd65 433e
000001c0: 640f b33e dcb8 b43e 3f8d 7b3e 3140 ff3d
000001d0: f508 103e 20f5 b73c 9b45 dabd 00c4 d2bd
000001e0: a65f 73be d4af 153d 9820 8abe 3d70 7cbe
000001f0: 676c 10be 5dbc 11be ba20 bf3c 76ed 5d3d
00000200: 6541 8e3e ad5f 51bd 5af4 2e3e 8b1f e03e
00000210: dd3f 48bd 2f17 783d 8c6a 093e 4715 9dbe
00000220: c14a f1be 1239 453d 9e6c babc 80d1 d3be
00000230: 870e 4fbf 6eb4 163f f57a ba3e c02c 36be
0.40019652 0.3691779 0.25440705 0.47426745 0.1125221 0.041971266 -0.13201006 -0.20919228
0.054415036 -0.43941602 0.29574385 0.4027765 -0.67968696 -0.060099415 -0.07127781 -1.478448
-0.44342533 -0.59832543 -0.40716597 0.007877866 -0.23255073 -0.10188347 -0.15439104 -0.18538402
-0.04258183 -0.068936095 -0.42851177 -0.121811844 -0.10301348 -0.37030593 -0.4432858 -0.54930544
-0.22860591 -0.22586864 0.35432574 0.6627521 -0.44339722 0.042945355 0.23110887 0.031684633
0.036650006 -0.10182188 0.32628766 0.18716702 0.24106435 0.10677187 0.26499712 0.025458485
0.36722457 0.33733937 -0.32060942 0.3398148 -0.2704512 -0.52159584 -0.21353626 0.12835155
-0.13454945 0.032140996 0.5415224 0.22125903 -0.029697217 0.5061842 -0.04138389 0.1395879
0.32551545 0.0032814594 -0.32287315 -0.08950095 -0.119475156 0.14309071 0.21204132 -0.17237835
-0.0030332406 -0.3870248 0.26264685 0.052661583 -0.6027559 0.40796766 -0.108083226 -0.5172096
0.4143424 0.19751291 -0.3522379 -0.16350207 0.08817981 -0.29836625 0.24911873 0.08108152
0.009981871 0.15432256 -0.1577684 0.073146045 0.26164174 -0.42015144 0.3411182 0.24415344
-0.45175 0.20580588 0.08743439 -0.015417286 -0.46425587 -0.7741886 0.3697014 0.12105264
-0.30587992 0.3976581 0.5023057 0.22525369 0.13964675 -0.09574589 -0.03584759 0.19081779
0.3497268 0.35297287 0.245656 0.124634154 0.14065917 0.022455752 -0.106578074 -0.1029129
-0.23766956 0.036544636 -0.26977992 -0.2465219 -0.14103852 -0.14232011 0.023331035 0.05418154
0.27784267 -0.051116634 0.170854 0.43774065 -0.04888903 0.060568985 0.1341955 -0.30680296
-0.47127345 0.04815013 -0.02275687 -0.41370773 -0.8088154 0.58869064 0.36421934 -0.17790508

0.0.bias f4 [16]
00000000: d827 693a 1afc 9b3e 9ff6 d03e 360b 1f3e
00000010: 8a52 09bb 9a36 a2ba 51ad 533d 1914 533d
00000020: 4976 183e 37aa a13e 5d57 96ba 7ce1 5dbb
00000030: c90a 34be 0cad e03e 1b73 823c 0ab7 3f3e
0.0008894182 0.30465776 0.40813157 0.1553162 -0.0020953738 -0.0012375892 0.05167896 0.05153284
0.14888872 0.31575176 -0.0011470128 -0.0033856323 -0.17582239 0.43882024 0.015924027 0.18722168

0.2.weight f4 [32, 16, 3, 3]
00000000: 4b61 093e 600f edbd add3 f7be daf0 8e3e
00000010: 699f 0dbe 4a88 adbe 0245 e03e 56c9 4b3c
00000020: 9446 263d 7f63 55be b23d 853d 405c b6bd
00000030: 0038 d0be 3e7a eabb 78f9 21be 25f4 863d
00000040: ba30 eb3c 8be6 4cbe 03c4 8ebd e64d 203d
00000050: ee57 1f3e b6b4 66bd 2642 603d e91e 0abe
00000060: b11d 55be caf6 603e 6fb2 28be a064 b2bd
00000070: 3c13 cfbd 8a14 07bd b2c3 0cbe 55f5 5b3d
00000080: 5d86 263e 62a3 f2be 9dec edbc b8c7 cd3c
00000090: f098 473d 7e66 f43d 0626 b03c fade 403e
000000a0: 0460 4bbb 6946 273e 0430 533e e40b 93bd
000000b0: 8e8f e5bb dbb9 303e 04ed a1bd 3cf6 ee3d
000000c0: bef5 983e 3f55 c4bc 6d6b 853d 5019 9d3d
000000d0: e505 d5be 3d6c 8e3d 1dfc 093e 7052 94be
000000e0: 5129 d7bb 6377 9e3d 0d8f e6be 843a ab3b
000000f0: 0146 cf3d 1242 73be d422 e13d ffb2 963c
00000100: 5728 dabc 8cb6 50be 7347 3cbc c9bb 143d
00000110: c083 da3d fba5 3a3e 9494 d8bd 6b03 ef3d
00000120: 56ba 373e a39c 0d3f e984 b93d 9a28 6e3e
00000130: 0faf 853e 0a74 d03d 5ab0 543e 5bf8 a5bc
00000140: b3c3 7a3d 6dbd 883e 8e1d 343e 116d 763c
00000150: b634 b23e ea77 a3b9 811c 763d 79b5 483e
00000160: b7a9 a63b 82f1 6ebd 319a bb3e 22f0 0d3f
00000170: 65b8 5a3e 4eb2 093f 31e3 0c3f ed28 ba3d
00000180: e8bc 713e 9604 683d 847f 9bbd 43d2 63bd
00000190: 1bf6 89be d4d7 8abe ac98 12bc 754d fabd
000001a0: a1f2 90be 9bfd 923c eb05 e6bc 8cd5 35bd
000001b0: e258 b03d d487 06bd a05b 93be 1540 763d
000001c0: d395 20be ecef 1bbe 1e73 4c3d a8cd 61bd
000001d0: ca92 08bd 6bd3 4cbe dac5 e83d 9052 9cbd
000001e0: 1221 6ebe 7f92 253d ac3b 063d 825d 44be
000001f0: 8da7 c03d 9b83 0fbe 3d09 d93d 8e07 92be
00000200: 3f07 a0bd 1734 99bc a8e0 ccbe 6b22 943d
00000210: 7933 6c3c d150 82bd 3eea 0f3e b2fe 80bc
00000220: f5e9 ebbd 9117 7fbd bf7d 243e 4186 afbc
00000230: 37b3 1cbe 33a3 2e3e dbe3 ad3e b800 a9bd
00000240: e367 81be f040 9ebe 5495 aabf f7d6 fe3c
00000250: 6d24 20be 3a35 d53d df47 203e 7032 2ebe
00000260: c696 733d 5c80 c0bd 31b6 19be 9135 18be
00000270: f259 a5bd c9e0 593a 7bed 103b c083 cdbe
00000280: 8e5d 01bf 6700 f1bd 3ee8 873e 30e7 b93d
00000290: cac1 193e d888 233e 680a 3b3d ea6a f13b
000002a0: 7423 6d3d aefd 4ebd 2f5c 06be 4b7d 0bbe
000002b0: b662 34be 76a3 a03e c7c0 0abc ac48 32be
000002c0: 8346 acbd 11f3 ca3e 0037 b53e dcd1 9d3e
000002d0: f560 76be f93c 5bbe 5631 0bbf 078a 4abe
000002e0: 6e92 0fbe 7d59 373e 8e46 df3c b2bf 9f3d
000002f0: f002 42bd 0f70 82bc e090 bc3e f1eb a33d
00000300: 7f9a 653c 4090 79be 70e9 00bf 74e5 0c3e
00000310: af03 753c b88d 053d 25f0 eabd 52a4 c9bd
00000320: c4f7 33be cf44 4bbe 7f95 86be 0b51 b6be
00000330: 29f3 d53d 2ca0 dd3d dc56 3e3e 0528 03be
00000340: 5831 2abe b5de 66bd 9a72 cebd 32d5 52bd
00000350: eee8 4bbe ce86 94bc 7d37 0b3e 1282 61be
00000360: 7c2f 693e e8c1 883e 80ba 683d ae72 933e
00000370: 4cab 16bd c315 90be 8864 f9bd 9f7c b8be
00000380: 7834 debe 2dbc bf3e aa76 2d3e 22ed 5d3e
00000390: 2d0b 923d 87f1 c53d 4f1e 94bd 0b30 fa3b
000003a0: deeb c73d 3da7 5c3d f828 ddbe f108 933f
000003b0: c42d a3bf 4450 f6be fb9d 0cbf a9bd d9be
000003c0: 4b1e 10be 3795 90be 3b70 25be 202a fe3d
000003d0: 5b9e 823e d10b 303f c045 9fbb 1d61 4bb9
000003e0: cd32 193e fefe 8abd 1b5d b13c 7ade 1d3e
000003f0: 9855 95bd e365 22bf 0f30 1dbf 6b84 6cbc
0.1341602 -0.11575198 -0.48403683 0.2791813 -0.13830341 -0.33893043 0.4380265 0.012438139
0.040594652 -0.20838736 0.06505908 -0.08904314 -0.40667725 -0.0071556857 -0.15817821 0.065895356
0.028709758 -0.2000982 -0.0697098 0.03913679 0.15560886 -0.056324683 0.054750584 -0.13488354
-0.20812108 0.21969143 -0.16474317 -0.08710599 -0.101110905 -0.032978572 -0.13746527 0.053700764
0.16262193 -0.47390276 -0.02904349 0.025119647 0.048729837 0.11933611 0.021502506 0.18835059
-0.0031032572 0.16335453 0.20623785 -0.07180002 -0.0070056384 0.17258398 -0.07906535 0.11668059
0.29874986 -0.02396643 0.065146305 0.076708436 -0.4160606 0.069542386 0.1347508 -0.28969145
-0.0065662046 0.07737615 -0.45031014 0.0052254815 0.10120774 -0.23755673 0.10992971 0.018395899
-0.026630564 -0.20382136 -0.011491644 0.0363119 0.106696606 0.18227379 -0.10575214 0.11670574
0.17942175 0.55317134 0.09058554 0.23257676 0.26110122 0.10178383 0.20770398 -0.020260027
0.06122179 0.2670702 0.17589399 0.015040652 0.3480584 -0.00031179126 0.060085777 0.19600476
0.0050861496 -0.05833579 0.36641076 0.5544454 0.21359403 0.53787696 0.55034167 0.09089837
0.23607218 0.056645 -0.07592681 -0.055620443 -0.26945576 -0.2711779 -0.008947533 -0.12221805
-0.2831011 0.017943194 -0.028078994 -0.044393107 0.08610703 -0.03284438 -0.28780842 0.060119707
-0.15682153 -0.15228242 0.04991447 -0.05512777 -0.033343114 -0.20002525 0.11365862 -0.07632935
-0.23254803 0.040422913 0.03277175 -0.19176295 0.09406958 -0.14015047 0.10597465 -0.2852139
-0.07813882 -0.018701596 -0.4001515 0.07233127 0.014416569 -0.06363071 0.140542 -0.015746448
-0.11519233 -0.062278334 0.16063593 -0.021426322 -0.1530274 0.17054443 0.33962902 -0.0825209
-0.25274572 -0.30908918 -1.3326821 0.031108363 -0.15638895 0.10410543 0.15652417 -0.17011428
0.05946996 -0.093994826 -0.15010907 -0.14864184 -0.08073796 0.00083113887 0.0022114206 -0.4013958
-0.5053338 -0.11767655 0.26544374 0.09077299 0.15015331 0.1597017 0.04566422 0.0073674815
0.05789514 -0.050534897 -0.13121103 -0.13622014 -0.1761578 0.3137471 -0.008468813 -0.17410535
-0.084118865 0.3963857 0.35393524 0.30824172 -0.24060424 -0.21409978 -0.54372156 -0.19779216
-0.14020702 0.17905231 0.027255323 0.07800235 -0.047366083 -0.015922574 0.3682928 0.080039866
0.0140138855 -0.24371433 -0.503562 0.13759404 0.0149544915 0.032605857 -0.11471585 -0.09845795
-0.17574984 -0.19850467 -0.2628593 -0.35608706 0.1044677 0.10821566 0.18587822 -0.12808235
-0.16620386 -0.056364734 -0.10080452 -0.05147285 -0.19913074 -0.018130686 0.13595386 -0.22022274
0.2277202 0.2671044 0.056818485 0.2879843 -0.036784455 -0.28141603 -0.12177378 -0.36032578
-0.43399405 0.37448254 0.16939798 0.2167249 0.07131038 0.09665208 -0.072323434 0.0076351217
0.09761785 0.05387043 -0.4319532 1.1487104 -1.2748342 -0.48108113 -0.5492856 -0.42527512
-0.14074056 -0.28238842 -0.16156094 0.124103785 0.2551144 0.6876803 -0.00486061 -0.00019395766
0.14960785 -0.06786917 0.021650841 0.154169 -0.07291716 -0.63436717 -0.61401457 -0.014435868

0.2.bias f4 [32]
00000000: baeb 3e3b 5c90 0c3d 1163 17bc 8c2f 00bc
00000010: b216 203d 3ce8 be3d 5888 b4bd fd6e 55bb
00000020: d272 7d3e 34fa d53d 3ad4 6abd 4607 24ba
00000030: 019d 683d 2fd8 c63c e720 1c3c a53d 9fbc
00000040: 9c8c 533d 065c 2b3d dc3a 04be 258a 34bd
00000050: 7d3e c33c 7c96 123e bbbd aabd b826 0bbc
00000060: c473 e2bb a16a babc 891f eb3d d43d d83d
00000070: bb01 9fbc b580 53bc b67e 3e3d e5d9 c2bd
0.0029132203 0.03431736 -0.009239928 -0.007823836 0.039084144 0.09321639 -0.08815068 -0.0032567375
0.24750832 0.10448113 -0.0573313 -0.00062571873 0.056790356 0.024273006 0.009529329 -0.019438574
0.051647767 0.041835807 -0.12913078 -0.044077057 0.023833508 0.14315218 -0.083369695 -0.008493118
-0.006910773 -0.022755923 0.11480624 0.10558668 -0.019410005 -0.012909104 0.04650756 -0.09514216

0.4.weight f4 [16, 32, 7, 7]
00000000: 2c2d 0f3a 2678 fd3d 2e87 163e 40d9 be3d
00000010: 8eb6 84bd 8d15 b8bd 0ec4 0bbe bd4a fa3c
00000020: f97f a83c 58d9 4d3e febe 3f3d 82a1 9b3d
00000030: acee 813d d99a c63b 348d 703c 7887 08be
00000040: 521c 4d3b e135 15be 25da de3c 4319 a6bd
00000050: 2117 dfbc 52a4 593c 487b b63c 5e01 9cbd
00000060: 1d40 7c3d 2f8d 62bd 2c86 1ebd 39c7 acbd
00000070: 5eb3 c03c 92e3 a53d f743 513d 0789 a13d
00000080: 7337 12be 9a7e 6ebd 31f3 bf3d 6b11 db3b
00000090: 24ca c4bc dcd0 18bd 9841 8bbc 7320 26be
000000a0: b0c0 53bd e793 d23c dd19 0f3d 9578 8ebe
000000b0: 1bf0 a63c f837 3bbf 4907 5cbe b081 373d
000000c0: 15fd 5a3e 6624 763e db8e 0dbd 358d f53d
000000d0: e2e3 a4bd 4d5e 00bc c231 ef3b 1e25 9f3d
000000e0: 1d67 28bd 08b7 14bc 7eca 9dbc e84e 82bc
000000f0: 047b 3ebd 27fd 633d b0f6 c23c 4a9a 5f3d
00000100: 2b3c fe3d e3d5 c93e 00fe 6e3e 17f3 88bc
00000110: c602 d4bc eb4d 033c bb8b 283c 34ff 1b3d
00000120: 24cc 383d baf9 9cbc ebe0 6dbd aef9 0ebc
00000130: ebbf 98bc b2d7 1fbd 733e 353d 7bca ad3c
00000140: b591 05bf 4eb2 03bd 3af6 9dbe 7325 9fbd
00000150: ab5b ae3c 510c c2bc 6a7f 2cbd 14ef b1bd
00000160: cd26 6c3e 23a9 acbe cf76 afbd a8bc 5e3d
00000170: 18c0 b93d 9bd2 af3d b753 fcbc 155a 08be
00000180: 3157 ce3b 52d7 f33b 45f7 87bc 3b11 23bc
00000190: 4da7 03bc 3fa0 dc3b de04 8ebc 6038 ab3a
000001a0: 4318 1d3c a4e0 ea3b e9c0 5d3b 3558 57bc
000001b0: de35 f5bb 4f1e 65bb e2fd 123c 9814 09bb
000001c0: 510a 85bb 3f05 7139 f48a 4e3c 4a8a 6ebc
000001d0: 5d13 523c 2a67 5abb e29e 89bc b930 f0bb
000001e0: 37fb eebb 10f4 233b 4d03 14ba 735f c43a
000001f0: 2837 eeb9 72b4 a23b ab57 dfba 2b15 833c
00000200: 7ffa 0f3c 97a6 f23b 8b47 2d3c 6892 58bc
00000210: a93a 1d3a 424b 60bc e410 43bc 9b59 2b3a
00000220: c5bc 4b3c 78f3 3dbc 94f7 0abc 2af7 42bc
00000230: 022d 4bbc eccb f63b 1f6d 7b3c 65ca 86bb
00000240: 488d ce3b f670 83bc 423d 3ebc e14f 113e
00000250: 47b8 32be c5ea 3dbd 4075 97bd d307 0b3d
00000260: d238 46be f465 ab3c 2187 193c a70b debd
00000270: c4cb c6bc f6c3 5c3c 0667 86bc 9198 1abd
00000280: 5fea 6a3c bc51 31be 3d08 903d 0abc 2d3e
00000290: 197d ad3c 0e3d 79bd 0cf9 8f3d 39b5 5e3d
000002a0: 3df6 9a3e 62c8 f73d 588b 8abd d8de 06be
000002b0: ac68 a1bd 5cbc 133e 3fb7 003e 19a9 8c3d
000002c0: 0f8e cabd a117 99bd e5ab 34be b27c 5e3e
000002d0: d135 3d3c 341c c7bd 3f03 273d b1f2 29bc
000002e0: 093b cfbd c7f3 86bd 378e 063e 44b5 fc3c
000002f0: 40c4 7bbd 35be 93bd aae9 403a d612 543f
00000300: 56e1 923e f201 44bc b7ff 22be 0095 7abd
00000310: dca2 fb3c 5a70 a33c c68e f2bb 5053 99bc
00000320: 7891 e8bc e708 fbbb 9989 f33c 2dbe 87bd
00000330: d716 58bd 9ee1 673c 919e 05be 1055 c8bd
00000340: 2373 a93d 2420 3f3d 1776 2ebd fa95 2e3d
00000350: ebe8 21be 2430 6ebd 6f57 073d 0b08 52bb
00000360: fbcd 283d a37d dcbd 6cbc 3a3c 6817 1abd
00000370: 3786 b23d ff48 d23e 0724 4f3c 52b0 afbc
00000380: 0120 ebbd 3bb2 4fbd a492 fdbd c219 5f3d
00000390: 40b4 173e 3c22 86be 6177 59bd 8348 41bd
000003a0: 26a5 9ebd 2568 8a3e ccca d8be 9655 04bf
000003b0: ad54 433d 92eb 363e 1ef9 78bd 7dbe 8bbd
000003c0: 7600 b2bd 4f2f 9c3d 2c0e 053e 4d9c 233e
000003d0: 00a7 4a3e 0b68 933d 8aed 1b3d 69ac 013c
000003e0: c1c4 463d 52c3 14bc 11f9 933c 2eb5 723d
000003f0: 6c2b 8f3d 43fa 1f3d ef03 ce3d 39c7 46be
0.0005461748 0.12376432 0.14700004 0.09318781 -0.06480132 -0.089884855 -0.13649008 0.030553216
0.020568835 0.20102441 0.046813004 0.075991645 0.06344351 0.0060609397 0.014682103 -0.13332927
0.0031297398 -0.14571334 0.027203629 -0.08110287 -0.027232708 0.013283806 0.022275582 -0.07617448
0.06158458 -0.055310424 -0.038702175 -0.08436436 0.023523029 0.08100046 0.051090207 0.07887464
-0.14278965 -0.058226205 0.09372557 0.006685426 -0.02402217 -0.03730856 -0.016999051 -0.16223316
-0.051697433 0.025705291 0.034936775 -0.27826372 0.020378163 -0.73132277 -0.21487154 0.044801414
0.21385606 0.24037322 -0.034560066 0.11989824 -0.08051278 -0.007834983 0.0072996328 0.077707514
-0.04111396 -0.009076841 -0.019261595 -0.015906766 -0.046504036 0.055661347 0.02379927 0.0545905
0.1241382 0.39420995 0.23339081 -0.016717477 -0.025880229 0.008014183 0.010287221 0.038085178
0.04511656 -0.019162048 -0.058075827 -0.00872652 -0.018646201 -0.039024062 0.04424901 0.021214714
-0.52175456 -0.032152466 -0.30851918 -0.07770815 0.021283945 -0.023687514 -0.0421137 -0.08688179
0.23061676 -0.3372279 -0.08567583 0.054379135 0.09069842 0.08585092 -0.030801637 -0.13315614
0.006297015 0.0074414397 -0.0165974 -0.0099528385 -0.008035493 0.00673297 -0.017336305 0.0013063066
0.009588304 0.0071678925 0.0033836907 -0.013143589 -0.007483228 -0.0034960692 0.008971663 -0.0020916816
-0.0040600677 0.00022985505 0.012606371 -0.014559338 0.012821999 -0.003332565 -0.016799394 -0.007330027
-0.0072931307 0.0025017299 -0.0005646244 0.0014982059 -0.00045435992 0.0049653584 -0.0017039677 0.016001305
0.00878775 0.007405113 0.010576139 -0.0132185 0.0005997816 -0.013689818 -0.0119058825 0.00065364846
0.012435143 -0.011593692 -0.008481879 -0.011899749 -0.012400867 0.0075316336 0.015345841 -0.004113483
0.006303463 -0.016045075 -0.011611285 0.14190628 -0.17453109 -0.04636647 -0.073954105 0.03394301
-0.19357613 0.020922638 0.009370596 -0.10842066 -0.024267085 0.013474455 -0.016406547 -0.037743155
0.014338105 -0.17316335 0.07032821 0.16966262 0.021177815 -0.060849242 0.07029924 0.054372046
0.3026599 0.12098767 -0.06764859 -0.13170946 -0.07881293 0.14427322 0.12569903 0.0686819
-0.09890377 -0.0747521 -0.17643698 0.21727255 0.011548475 -0.09722176 0.04077458 -0.010372804
-0.10118682 -0.065894656 0.13140188 0.030848153 -0.061466455 -0.072140135 0.00073590374 0.8284124
0.28687543 -0.011963354 -0.1591786 -0.061177254 0.030717306 0.019951034 -0.007402274 -0.018716484
-0.028389677 -0.0076609734 0.029728698 -0.0662807 -0.052756157 0.014152912 -0.1304877 -0.097818494
0.08273914 0.04666151 -0.042593088 0.042623498 -0.15811507 -0.05815138 0.033042368 -0.003204825
0.041212063 -0.10766151 0.011397462 -0.03761998 0.08717006 0.41071317 0.012642867 -0.02144638
-0.11480714 -0.050707083 -0.12381485 0.054467924 0.14814854 -0.26197994 -0.053092364 -0.047188293
-0.07746343 0.2703258 -0.42342222 -0.51693094 0.047688175 0.178633 -0.06078445 -0.06823442
-0.08691494 0.07626211 0.12993687 0.15977593 0.19790268 0.07197579 0.03806833 0.007914641
0.048527483 -0.009079771 0.0180631 0.059254818 0.06990704 0.039057028 0.10059344 -0.19411935

0.4.bias f4 [16]
00000000: 83ac b33c 67cd 7ebd 95a5 f53c 2407 5b3d
00000010: 6384 eb3c 9523 2f3d 81a9 bfbc 3bb8 27bd
00000020: f83e 25bc 54ca e3bd bfcf b53c c1ce 5ebd
00000030: b4f7 833d 387f 6a3d 71f6 613b f3ef cb3c
0.021932846 -0.062207606 0.029986182 0.053473607 0.02874965 0.042758543 -0.023396255 -0.04094718
-0.010085814 -0.111225754 0.022193788 -0.054396395 0.0644373 0.05725023 0.0034479166 0.02489469

1.weight f4 [16, 16]
00000000: 8b2a c23d 575c 2d3d 8de6 3b3e 3095 a43c
00000010: 38cd 0dbd da32 4ebe 2219 023e 1c3b f6be
00000020: 0452 ab3c 1bac 25be 94b2 9d3d b4f9 463f
00000030: 75d2 9bbe bb38 853e 8654 f3be d5f8 0ebe
00000040: 6d5d 8cbc 31f7 71bc b7f8 2e3e 9b15 0d3c
00000050: 6022 66bd 78e3 81be 380c 05bf 4099 953b
00000060: 35f2 d0bd df83 bcbe 8f4a 85be abc0 27be
00000070: 68db babd 7365 ed3d 9fc4 95be a5dd e2be
00000080: dcdd b8be 1e67 563d 3778 e83c dc80 80be
00000090: 8ab4 0dbe f428 af3e 7063 7e3e 2c55 9dbe
000000a0: 5921 4f3e efbb 933e 811a 08bc b862 6dbd
000000b0: bd10 613e f414 eb3d 24d2 9f3e adc5 f03e
000000c0: 0b62 b0be a528 ee3c 0208 f53c cc21 7bbe
000000d0: 017b 62be 5cf5 26be 8baa 01bf 7494 1cbd
000000e0: deb9 e3bc f6ec 533d 8050 803d 9c4e b63e
000000f0: e2d0 e13e 22eb f2bd af37 303e 4b4e f33c
00000100: c253 1a3e cc1c 623e 48ed ae3e 4753 6cbd
00000110: 480d 883e 47d8 16bd 08a8 b33c c756 1a3e
00000120: f6a8 f53e 96cc 323e 41a8 753e a224 77be
00000130: 95dd d63d 5c9f 1d3d eb4d f33d d71d debd
00000140: ee5c 013d ede8 c13e 9ca1 fd3d 5f18 c3be
00000150: d652 193f b119 0abe f360 85be d157 543d
00000160: f289 96bc 2084 89be 6112 0fbd e455 17bc
00000170: 6cde ff3e e4d6 13bf 2bca ab3e 5c55 053e
00000180: 7d84 ae3e 82e1 5a3a 7fc4 03bf 05c3 a23c
00000190: 7c43 2d3e 2746 fcbd 9c88 6ebe 7d53 643e
000001a0: 1eca dc3e c4a3 afbe 8bc4 023e 4466 86bd
000001b0: e2c2 9e3e 33f5 ab3d be9f 71bd f3e1 12be
000001c0: a557 963e 6bc0 c0bc 173c 403e c64c 2ebe
000001d0: 2fca b13e 1e81 abbe bdda e63d 2817 fdbc
000001e0: 31f6 09be f423 d93e 7c5d cabc 98c8 bbbe
000001f0: 52c4 f7bd 3cd8 0c3e 9246 ca3b 2337 323d
00000200: dd04 d73d 7c92 1bbc 250f 133e 269a 473c
00000210: ff82 2abe 9b4f b63e 1744 01bf 0d83 123e
00000220: 9d4d abbd a0d0 3c3e 2835 793e 5b42 c13e
00000230: df7e 8ebe 79b6 fa3e 9139 80be 083a c63b
00000240: b70a 02bf 451c 333e b8b0 333e f617 84be
00000250: ff59 2ebe edcb 98be c7ab 0abe 51e2 40be
00000260: 4fbc 633d 42de f83d 1ea3 8ebe 95ae a7be
00000270: 6dc2 203c 63a8 c7bd 8dd0 38bd ef47 1ebd
00000280: f83f 193e c3fb d6bd 3fd0 ffbe f204 0e3d
00000290: d62c ffbe 15e4 323d 22ed 29bf c0ce 79bd
000002a0: 5e9f 1e3e 7266 d8bd e208 783d f868 91be
000002b0: fb18 1b3f bcf7 f1bd b580 2c3d 10d9 4a3e
000002c0: be5f febc 603d 753e 260c 42bd db41 38be
000002d0: fdcf de3e 137f 623e e533 87bd 23f5 883e
000002e0: 7c5c 033e 192d 92bd af86 883d 2dff 84be
000002f0: 7acc cbbe 4d0d b63e 5718 d9bc 7353 88be
00000300: cd34 593e 4c6e c1bc 7288 5ebe f1a0 a5bd
00000310: 11d3 f6bd 92a8 aebe 1258 83bc b026 f63c
00000320: b8ce e3bb 37c3 ebbd 80b5 e73d 9cee 1bbd
00000330: d0ef b9be b7b1 cb3e 0401 323d d6f1 e0bc
00000340: 2280 7c3d d852 abbc a3ff 343a 8a5f e53e
00000350: 0bb0 0d3d b595 c9be b339 0d3e 4a6a 25be
00000360: d6f4 403e d2cd 58bd ca9b ce3d e308 b2be
00000370: 2ac2 233e aef9 b6bd fa0c 08bf 32fe d93c
00000380: 8fd6 9c3e 4f17 ae3b 4165 dabe 2853 8c3e
00000390: 8e3b 90be 4bef 8a3c bda6 813e 6af4 453f
000003a0: 8233 783e 3fd0 25bf 2f00 b83d 28c9 bbbd
000003b0: 42e8 1abc 5e37 f0bd de0d 093e f03c f1bd
000003c0: b188 f53e bedb 88be b434 d8bd df0b bdbe
000003d0: 918e d4be 5a58 34bd 86fb ab3e 9c20 cabe
000003e0: 3c61 d13d c896 d33c 90d6 b93e c185 dfbe
000003f0: a90e 4cbe 8fb4 813d 547e 76be d29b 7ebd
0.09480771 0.04232439 0.18349667 0.02009067 -0.03461954 -0.20136586 0.127049 -0.48091972
0.020913132 -0.16178934 0.07700077 0.77724767 -0.30434003 0.26019844 -0.47525424 -0.1396211
-0.017134393 -0.014768408 0.17087065 0.008611108 -0.056185126 -0.25368857 -0.5197177 0.004565388
-0.10202447 -0.3681936 -0.26033446 -0.16382091 -0.0912388 0.115916155 -0.29251572 -0.44309726
-0.36106765 0.052344434 0.028377635 -0.25098312 -0.13838401 0.34210932 0.2484262 -0.30729043
0.20227565 0.2885432 -0.0083071 -0.057955474 0.21979041 0.11478606 0.31215012 0.47025815
-0.344498 0.029072115 0.029911045 -0.24524611 -0.22117235 -0.16304535 -0.5065085 -0.038227513
-0.02779859 0.051739655 0.06265354 0.3560685 0.44104677 -0.11861254 0.17208742 0.029700419
0.15071014 0.22081298 0.34165406 -0.057696607 0.26572633 -0.036827352 0.02193071 0.15072165
0.4798047 0.17460856 0.23989965 -0.24135068 0.10491482 0.038482055 0.11880096 -0.10845535
0.031582765 0.3787302 0.1238434 -0.3810453 0.5989202 -0.13486363 -0.2605053 0.05184156
-0.018376324 -0.26858616 -0.034929637 -0.0092367865 0.49974382 -0.5774977 0.3355268 0.13020843
0.34085456 0.00083496433 -0.51471704 0.019868383 0.16920274 -0.12318068 -0.232943 0.22297473
0.43122953 -0.3430463 0.12770288 -0.06562474 0.3100806 0.083963774 -0.058990233 -0.14344005
0.29363742 -0.023529252 0.18772922 -0.17021474 0.34724566 -0.33496946 0.1127219 -0.03089483
-0.13472821 0.42410243 -0.02470278 -0.36676478 -0.12097992 0.13754362 0.0061729634 0.043509614
0.104989745 -0.009495374 0.14361246 0.012182748 -0.16651534 0.3560761 -0.5049452 0.14307804
-0.08364413 0.18438959 0.24336684 0.37745938 -0.2783117 0.4896734 -0.2504392 0.0060493983
-0.507976 0.17491253 0.17547882 -0.2579953 -0.17026518 -0.29843083 -0.1354209 -0.18836333
0.055599507 0.12151767 -0.27858824 -0.32750383 0.00981198 -0.09748914 -0.045120765 -0.03864282
0.14965808 -0.104972385 -0.49963567 0.034672685 -0.49838895 0.043674547 -0.6637746 -0.060988188
0.15490481 -0.10566415 0.060555346 -0.28400397 0.6058499 -0.1181483 0.042114932 0.19809365
-0.031051513 0.23949194 -0.047374867 -0.17993872 0.43518057 0.22118787 -0.06601695 0.26749524
0.12828249 -0.07137508 0.06666314 -0.25975934 -0.3980444 0.35557023 -0.026500864 -0.26626167
0.21211548 -0.023612164 -0.21731737 -0.08087338 -0.120519765 -0.34112984 -0.016033206 0.030047745
-0.006952133 -0.11511844 0.11313915 -0.038069353 -0.36315775 0.39784023 0.043458 -0.027459066
0.061645634 -0.020913526 0.0006904548 0.44799453 0.034591716 -0.3937203 0.13791542 -0.16153827
0.18843397 -0.05293066 0.10088308 -0.34772405 0.15992036 -0.08934341 -0.531448 0.026610468
0.30632445 0.005312837 -0.42655376 0.27407193 -0.28170437 0.016959807 0.25322524 0.7732607
0.24238399 -0.64770883 0.0898441 -0.09169227 -0.009454789 -0.117293105 0.13384196 -0.11779201
0.4795585 -0.2673015 -0.10556927 -0.3692312 -0.4151502 -0.04402957 0.33590335 -0.39478004
0.10223624 0.025828734 0.3629651 -0.43656734 -0.19927467 0.06333267 -0.24071628 -0.06216032

1.bias f4 [16]
00000000: e589 b83e 050e 973e 0fbd 6d3e ec5d 213d
00000010: 1f8e 863e 940d 07bc e03a 07be 1930 9fbe
00000020: cab9 393e 9dd3 0c3e 580b 3f3d f1f5 873e
00000030: acce 213e ee81 223d 20cd 0a3e 159b d53e
0.36042705 0.29502884 0.23216651 0.03939621 0.26280305 -0.008242983 -0.13206053 -0.31091383
0.18137279 0.13752599 0.046641678 0.26554826 0.15801495 0.03967469 0.13554811 0.4171988

3.weight f4 [10, 16]
00000000: fd08 d2be 5d5f 8abe eef7 1abe f7c0 8a3e
00000010: e0fd 973e db57 dcbe 3bf0 07bd e99a f43d
00000020: 178d a9be 26e0 19be ed66 16bf b788 cebe
00000030: 74c8 ccbd 5d36 6e3e 0794 01bf 9446 043e
00000040: 0dfc 34bd 7cd8 5bbe 0ed8 0bbe 4e4b ad3e
00000050: 4e37 9ebe 2bcf 7dbd 79ca c7bd d218 833e
00000060: 3d39 29bd 2588 243e 936a f3be a3bb f9bd
00000070: dbb2 803e d7d6 4fbe 2c7c db3e 00f6 0ebf
00000080: d0ce 04be de59 edbe 46b5 dcbd 8d08 f7be
00000090: f63f 83bd 3eaa 8abc fa7c 3f3d fe3a b5be
000000a0: 2df6 e93e 249d 4d3e 027d 1abd 3dc8 833e
000000b0: ce88 a9be ec95 af3d 2c4d 963e bd3f a4bd
000000c0: 7819 bd3e b739 c23d b7a8 bdbe 6192 9ebd
000000d0: 8174 a4bd 71ca 07be b168 343e b7e8 c5bd
000000e0: aab4 e1bd 93e4 e7be 80ff 923e 0ef1 0e3e
000000f0: 3b6e 73be 7421 033e 5b15 2ebe f20d f1be
00000100: 6f5f b3be d754 493e 28bb 453e a17f 433e
00000110: 6228 75be 9aa3 66be e0d3 efbe d939 263d
00000120: eccd 25be a2fe 0e3e 0773 ed3d 409a 593d
00000130: 435b 5f3e 7ea8 4cbf 97a7 d7be 6e66 a33e
00000140: fe2a 023e 6d99 e83e a469 2cbe c56a 8f3c
00000150: d559 79be 4ff8 103f a71f 8cbd ee7a 94bd
00000160: 3f78 02bf fbd7 e9be 8656 82bd c944 b83d
00000170: f7d7 b6be cfd0 803e 9519 9fbe 5ae0 2e3e
00000180: 4f6a aabe 5f10 da3e 46b0 1e3f a822 4dbd
00000190: 1502 77be 4f38 b83e cffe 8dbe 5d56 983d
000001a0: 7a49 3c3d 94a0 0abf 789b 48bf e45a 0ebf
000001b0: 5332 fa3d 0aa6 cdbc 7be9 10bd 38b8 c53e
000001c0: 49da 07bf 8273 3f3d fcc7 43bd 5087 91bc
000001d0: 5bad 2dbe 2b48 23bd e9bb 77be 1f71 aa3e
000001e0: 6bc6 213e 0e34 c13e c964 3a3e 31a5 3a3d
000001f0: 0555 42be e603 b53d aa6c 233e 1ef7 eebe
00000200: f26f 9e3c fca0 5cbe 60d7 a43d 20e4 31be
00000210: 064e 793e 894f 49bd 7b85 b53e 1f6c ddbe
00000220: 4b4c 77be 0032 5bbe 363a 1abd 85aa c4be
00000230: 7d59 6e3e 6021 9fbd 80df 76be 4e61 9d3d
00000240: a85d d8bd dfe0 1cbf d4dc bfbe 8200 b93e
00000250: c545 59be 394c f2be ce5f 9d3e b977 203e
00000260: b284 4bbf 5178 56be a407 813e e89f a13e
00000270: f1e2 2ebc b053 523d da5e 3fbf 8bf0 d73b
-0.41022483 -0.2702588 -0.1513364 0.27100345 0.2968588 -0.43035778 -0.033188086 0.11943609
-0.33115456 -0.15026912 -0.587508 -0.4033868 -0.09999171 0.23262925 -0.50616497 0.12917548
-0.044185687 -0.21469301 -0.13656637 0.33846515 -0.3090157 -0.06196515 -0.097554155 0.25604874
-0.041314352 0.1606756 -0.47542247 -0.12193992 0.25136456 -0.20296799 0.42868173 -0.55844116
-0.12969518 -0.46357626 -0.10776763 -0.4824871 -0.06408684 -0.01692688 0.046750046 -0.3539657
0.4569563 0.20079476 -0.037716873 0.25738707 -0.33112186 0.08573517 0.29355752 -0.080199696
0.36933494 0.094836645 -0.37042782 -0.07742763 -0.08030034 -0.13260819 0.17618062 -0.096635275
-0.11020787 -0.45291576 0.28710556 0.13959143 -0.23772518 0.1280573 -0.17000334 -0.47080952
-0.35033748 0.1966127 0.19309676 0.19091655 -0.23941186 -0.22523347 -0.46841335 0.04058251
-0.16191834 0.13964322 0.11594205 0.05312562 0.21812157 -0.799446 -0.42120048 0.31914085
0.12711713 0.45429555 -0.16837174 0.017506966 -0.24350674 0.5662889 -0.06841975 -0.072500095
-0.5096473 -0.45672593 -0.06364159 0.08997495 -0.35711643 0.25159308 -0.31074205 0.17077771
-0.33284232 0.42590615 0.6198772 -0.05008188 -0.24121888 0.3598046 -0.27733466 0.074383475
0.04596851 -0.5415127 -0.78362226 -0.5560744 0.1221663 -0.025103588 -0.035378914 0.3861711
-0.5306745 0.046741016 -0.04779814 -0.017764717 -0.16960661 -0.039863747 -0.24192776 0.3328943
0.15798347 0.37735027 0.18202509 0.045567695 -0.18977745 0.08838634 0.15959421 -0.4667291
0.019340489 -0.21545786 0.08048892 -0.17372179 0.2434617 -0.049148116 0.354534 -0.43246552
-0.24150197 -0.21405792 -0.03765317 -0.38411346 0.23276325 -0.07770038 -0.24108696 0.07684575
-0.105647385 -0.61280626 -0.37473166 0.361332 -0.21218021 -0.47323778 0.30737156 0.1567067
-0.7949935 -0.20944335 0.25201142 0.3156731 -0.010674224 0.051349342 -0.74754107 0.0065899543

3.bias f4 [10]
00000000: 23c6 ce3d b20e 8abd 079d 853d ebf8 7b3d
00000010: 8f0d 133e 9da2 90be 5d1e 5ebd ad16 44be
00000020: e5ad bc3d e8bb a13e
0.10096385 -0.06741084 0.06524091 0.061516684 0.14360641 -0.28249064 -0.054228175 -0.19149275
0.09212855 0.31588674
