02-Autoencoder/01-PT-MNIST-basic/cnn16-autoencoder.pth (torch, 242881 bytes, 11 tensors)

encoder.0.weight f4 [16, 1, 3, 3]
000000 ae 84 e6 3e 4c 00 d7 3e 76 7a 90 3e 30 2d 03 3f
       0.45023102 0.41992414 0.2821843 0.51240826
000010 92 bb db 3d 7f 6f f7 3c 7e 13 10 be 7f d5 5b be
       0.107291356 0.030204533 -0.14069936 -0.21468161
000020 f4 e7 82 3d ed 7a 02 bf cd 82 c0 3e 51 14 ab 3e
       0.06391898 -0.5096882 0.37599793 0.33413938
000030 99 4d 2d bf c3 5a bf bd cb 3b 27 bd 06 51 33 bf
       -0.6769653 -0.09343483 -0.040828507 -0.70045507
000040 4c d7 ef be de ea 1b bf 8b 21 bb be 52 27 a5 3b
       -0.46843946 -0.60905254 -0.3654903 0.0050400877
000050 60 04 58 be cf 87 a3 bd 88 bd 06 be 02 e6 4d be
       -0.21095419 -0.07984888 -0.13158238 -0.20107272
000060 ec 37 61 bd 2d 7d 56 bd 5d 18 d0 be 5d 0d 2c be
       -0.054984972 -0.05236547 -0.40643588 -0.16801973
000070 77 72 b2 bd 12 92 b2 be 80 21 cc be 51 91 17 bf
       -0.08713239 -0.34877068 -0.39869308 -0.5920611
000080 d6 26 52 be 44 5d 80 be 5c ae a6 3e 86 98 32 3f
       -0.20522627 -0.25071156 0.325549 0.6976398
000090 4d 6a e3 be fe 57 85 3d b8 f4 52 3e 38 c2 16 3d
       -0.4441704 0.06510924 0.20601165 0.036806315
0000a0 65 31 a6 3d 96 05 38 be 07 1b a3 3e 5a 24 58 3e
       0.0811489 -0.17970881 0.31856558 0.21107617
0000b0 1e ae 8f 3e 2f a8 cb 3d 41 f5 8f 3e 97 94 1a 3d
       0.28062528 0.09944188 0.281168 0.037739363
0000c0 63 bd be 3e f6 68 db 3e 0a ec 99 be 3d 1c bb 3e
       0.37253866 0.42853516 -0.30062896 0.36544982
0000d0 4b 60 8e be a4 6c 20 bf 45 c7 70 be f9 dd 3b 3e
       -0.2780784 -0.6266577 -0.23513515 0.18346395
0000e0 3d ad ee bd 80 3c 04 3d 1e 61 1a 3f 33 be 90 3e
       -0.11654136 0.03228426 0.6030444 0.2827011
0000f0 24 66 95 bc 6f 6f 1b 3f d2 28 63 3b 85 16 f1 3d
       -0.018237181 0.6071691 0.0034661782 0.117718734
000100 c6 33 a0 3e 75 22 67 3c de 1c 81 be 11 80 b5 bd
       0.312895 0.014107336 -0.25217336 -0.08862317
000110 52 0e 30 bd 5d 73 d6 3d a1 2e 24 3e 91 fb 5f be
       -0.042982407 0.104712225 0.16033413 -0.21873309
000120 ac bb 01 3d ee a5 e4 be 84 46 90 3e c5 ca 01 3d
       0.03167312 -0.44657844 0.281788 0.031687517
000130 31 02 12 bf 16 81 c4 3e f6 d9 f6 bd d3 c0 05 bf
       -0.57034594 0.38379735 -0.120532915 -0.5224735
000140 70 cf de 3e ed 2e 6f 3e f2 9b c9 be 3f c1 36 be
       0.43517637 0.23357745 -0.3937679 -0.17847155
000150 bd a9 a6 3d 82 1a 97 be d1 49 8a 3e bd 83 ae 3d
       0.08137844 -0.2951241 0.27009442 0.08521221
000160 54 0f 98 38 64 e8 42 3e 00 f7 f0 bd 44 b0 a4 3b
       7.25078e-05 0.19033962 -0.117658615 0.0050258953
000170 e4 61 9b 3e e3 c7 bb be 72 1d aa 3e 41 63 94 3e
       0.30348122 -0.3667594 0.3322559 0.28981975
000180 22 18 e7 be 0e cf 25 3e d1 6e 06 3e c7 0b 34 b9
       -0.451356 0.16192266 0.1312821 -0.00017170525
000190 bf 89 ec be b2 e9 4e bf 29 2a d2 3e b2 03 18 3d
       -0.46198842 -0.8082534 0.4104779 0.0371129
0001a0 9a 10 c3 be 53 b2 f2 3e b0 74 12 3f 1c 7a 99 3e
       -0.38098603 0.47401676 0.572093 0.29975975
0001b0 b3 b3 10 3e eb 8c d5 bd 45 a9 90 bd 32 0f 2e 3e
       0.1413105 -0.104272686 -0.070635356 0.16997984
0001c0 60 21 c1 3e 07 39 d2 3e ff 71 82 3e b0 bc ef 3d
       0.37720776 0.41059133 0.25477597 0.11705911
0001d0 21 51 1c 3e a5 07 99 3c 63 83 03 be 00 16 f1 bd
       0.15265323 0.018680403 -0.12843089 -0.11771774
0001e0 fa 89 8d be 56 a5 07 3d 83 56 82 be d5 61 69 be
       -0.2764433 0.03311666 -0.25456628 -0.22791226
0001f0 ac 59 05 be 18 ce 11 be 53 18 ec 3c 54 d0 82 3d
       -0.13022488 -0.14238775 0.028820192 0.06387392
000200 13 bb 9a 3e b0 b5 8d bd 68 53 45 3e cc 10 f9 3e
       0.3022085 -0.0691942 0.19270098 0.48645627
000210 7e fc 2c bd b8 89 b1 3d 4e 25 21 3e 0b 17 ac be
       -0.042232983 0.08668846 0.15736887 -0.3361133
000220 18 17 c9 be a3 80 a5 3d f6 fc 02 bd e8 fe e6 be
       -0.39275432 0.08081176 -0.031979524 -0.45116353
000230 46 44 51 bf 23 ef fa 3e 3d 1a be 3e 9b 98 37 be
       -0.817448 0.49010572 0.37129393 -0.17929308

encoder.0.bias f4 [16]
000000 57 57 72 3a 92 ca a9 3e a5 cf c7 3e 7b 32 22 3e
       0.0009244582 0.3316236 0.39025608 0.1583957
000010 50 18 8c bb 09 48 4e bb a3 e0 09 3d ec ea a0 3d
       -0.004275359 -0.0031476042 0.033661496 0.07857308
000020 ab b1 34 3e 7d 4f ab 3e d2 a6 2d 3c 18 5a 21 ba
       0.176459 0.33459082 0.010598855 -0.00061550876
000030 72 f3 32 be 83 66 e4 3e c2 8e 6b 3c 11 f8 81 3e
       -0.1747568 0.4460946 0.014377298 0.25384572

encoder.2.weight f4 [32, 16, 3, 3]
000000 ae 4d cb 3d 46 60 b3 bd c1 77 dc be 34 46 96 3e
       0.099269256 -0.08758597 -0.43060115 0.29350436
000010 43 5c 03 be a5 bf 81 be 7e 54 e6 3e 3e 5f bb bb
       -0.12828164 -0.25341526 0.44986337 -0.005718141
000020 1f 0f c4 3c 56 9e 88 be 55 9e a6 3d 2a 8f 32 bd
       0.023932992 -0.266833 0.08135668 -0.043593563
000030 10 94 e7 be e7 f8 69 3d 7a d1 1b be 82 d2 e1 bc
       -0.4523015 0.057122137 -0.15216628 -0.027566198
000040 11 30 4b 3d c5 5a d4 bd 3f f7 b3 bd 61 bb 62 3d
       0.049606387 -0.103688754 -0.08787393 0.05535448
000050 18 ec ee 3d c6 b2 46 bd b2 fb 35 3d 8e a3 18 be
       0.11666125 -0.048510335 0.04442949 -0.14906141
000060 9c c6 94 be e4 5f 5b 3e 20 78 d0 bd 51 1d fc bd
       -0.29057777 0.21423298 -0.10179162 -0.12310279
000070 e8 e1 9a bd ab 45 0b 3d 86 ce e8 bd 80 88 11 3e
       -0.075626194 0.034001987 -0.11367516 0.14212227
000080 18 82 47 3e 1c e8 1b bf 2f 5e 8a 3c 52 84 99 3d
       0.1948322 -0.60901046 0.016890613 0.07495941
000090 29 b4 72 3d 07 01 a9 3d 07 d9 00 3d 42 55 2a 3e
       0.059253845 0.08252149 0.031456973 0.16634086
0000a0 ac 24 83 bd 8b 42 f9 3d d1 8b 33 3e 60 3e e6 bd
       -0.06403479 0.12170895 0.17533804 -0.11242366
0000b0 01 ef 9a bb 60 a2 49 3e d7 48 f8 bd 67 ba 2c 3b
       -0.0047281985 0.19690847 -0.12123268 0.0026356222
0000c0 3a c8 ac 3e 4f 25 b3 bd 7e ef 2c 3e 1d 6d 1d 3e
       0.3374651 -0.087473504 0.16888234 0.15373655
0000d0 fa 30 c7 be 43 53 c9 3d 3c 7a fe 3d 35 5d 89 be
       -0.38904554 0.09830334 0.12425658 -0.26828924
0000e0 c5 14 dd 3c 4e aa a4 3d ab 32 16 bf a4 dc 07 bd
       0.026987443 0.080402955 -0.58671063 -0.033169404
0000f0 59 b1 a7 3d 6a e6 84 be e1 46 eb 3d df 4f 17 bc
       0.08188123 -0.25957042 0.114881285 -0.009235351
000100 08 31 6c bc bb d0 07 be 55 35 f9 3c d4 8a e1 3c
       -0.014415987 -0.13263218 0.030420939 0.027532019
000110 cb ab f8 3c b6 41 33 3e 29 40 06 bd 30 1a 5e 3d
       0.030355355 0.17505535 -0.03277603 0.054224193
000120 04 3e 87 3e fd 98 f0 3e cc b0 9b 3d 8c f0 5f 3e
       0.26414502 0.4699172 0.07602081 0.21869105
000130 64 18 88 3e f4 45 b5 3d d3 cb 55 3e 12 68 9a 3c
       0.2658111 0.08851233 0.20878534 0.018848453
000140 4d e2 98 3d 6a 19 80 3e ac 2e 18 3e 4f 64 86 3b
       0.074650384 0.2501939 0.14861554 0.004101313
000150 11 06 83 3e c7 fa ee bc 52 4f bb 3d 12 83 30 3e
       0.25590566 -0.029172314 0.091459885 0.172375
000160 3b 80 3b 3d 39 5b 94 bc af f4 df 3e 8d 67 93 3e
       0.045776587 -0.018109905 0.43741366 0.2878994
000170 58 5a fb 3d f7 b3 0a 3f ce cd e7 3d 0e 9e 98 3d
       0.12273091 0.54180855 0.11318551 0.074520215
000180 83 e2 ab 3e bb 79 8b 3d 7c 48 97 bd 08 60 40 bd
       0.33571252 0.068103276 -0.07386872 -0.046966583
000190 44 13 62 be cc 98 98 be d1 b5 b5 3d 05 85 4e bd
       -0.22077662 -0.29804075 0.08872569 -0.050419826
0001a0 b9 91 7e be e8 92 cf 3d f2 85 9a bd 22 22 54 bd
       -0.24860276 0.10135442 -0.07545079 -0.051790364
0001b0 58 85 89 3d f9 5e 36 bc c9 53 5d be d5 7f 80 3d
       0.067148864 -0.011131042 -0.21613993 0.06274382
0001c0 00 02 50 be c1 ce 06 be 95 ae e1 3c 1d ba 30 bd
       -0.20313263 -0.13164808 0.027549068 -0.04314624
0001d0 3f a3 1e bb fd 79 72 be 24 73 fe 3d eb 20 4f bd
       -0.002420619 -0.23679347 0.12424305 -0.050568502
0001e0 89 60 83 be 25 91 4e 3d 70 d2 4d 3c 0e 74 87 be
       -0.25659588 0.05043139 0.012562379 -0.2645573
0001f0 d4 3f a4 3d 8c 22 c1 bd 92 83 c4 3d 1a a2 96 be
       0.08019987 -0.094304174 0.095954075 -0.2942055
000200 3a 6a 8f 3c 78 d4 02 bd 93 4b ea be 21 ab 13 3e
       0.017506707 -0.031940907 -0.45760784 0.14420749
000210 97 08 e8 3a 4a 82 89 bd 6a ba 1e 3e 51 39 de bc
       0.0017702755 -0.06714304 0.15500799 -0.02712694
000220 dc d7 a0 bd 7a 4b cd bb 75 e2 23 3e 53 26 e6 3b
       -0.07853672 -0.006265101 0.16004355 0.0070236116
000230 fc d9 16 be d2 84 8f 3d 8a a1 bc 3e 45 6a f4 bc
       -0.14731592 0.07007755 0.36841995 -0.02983583
000240 38 94 67 be f2 60 98 be 92 0a da bf 01 28 90 3d
       -0.22615135 -0.29761463 -1.7034476 0.0703888
000250 91 36 c4 bd 04 d4 99 3e 8e 04 1c 3e 53 5e 5f be
       -0.0958072 0.30044568 0.15236112 -0.21813326
000260 69 bc 4e bc 5f 81 40 bd e6 5e 08 be d6 ee a4 bd
       -0.012618163 -0.046998378 -0.13317451 -0.08053367
000270 f9 9c c5 bd 27 21 f7 bc cf b3 20 3d 29 4f c1 be
       -0.09649081 -0.030167175 0.03923398 -0.37755707
000280 90 87 e2 be 7d 2d 2d be c5 eb 89 3e f2 b9 c0 3d
       -0.4424405 -0.16911884 0.2693769 0.09410466
000290 18 36 24 3e 02 70 1e 3e 93 1d 1d 3d 20 f9 21 3b
       0.1603626 0.15472415 0.038358282 0.002471514
0002a0 81 2a 01 3d 81 03 72 bd a5 fe f6 bd 31 06 91 bd
       0.031534676 -0.059085373 -0.12060288 -0.07081259
0002b0 b1 7e fc bd a1 ca 90 3e 2f 8c 05 bd 87 7d 01 be
       -0.12328852 0.28279594 -0.032604393 -0.12645541
0002c0 a2 b9 d9 bd fe b8 d7 3e e0 f0 93 3e da 8c 9e 3e
       -0.1063111 0.42133325 0.2889471 0.30966836
0002d0 df 83 61 be 05 cf 79 be 80 e6 ec be f3 5f 26 be
       -0.22022961 -0.24395378 -0.46269608 -0.16247539
0002e0 40 82 0f be 07 3a 2a 3e c9 a0 8f 3d 44 58 ee 3d
       -0.1401453 0.16623698 0.07013089 0.11637929
0002f0 5e 08 2e 3d eb 06 38 bd 63 15 c0 3e fc c6 f8 be
       0.04248845 -0.044928472 0.37516317 -0.48589313
000300 c4 ff db 3c 29 34 52 be 5c 19 ef be 44 87 22 3e
       0.026855357 -0.2052771 -0.46699035 0.15871912
000310 8d a7 39 3d 3a 5a c1 3d ee 29 57 be 8c 8f 55 bc
       0.045325805 0.094410375 -0.21012089 -0.0130347125
000320 29 08 da be dd 97 48 be 42 ce 55 be 3b a8 ad be
       -0.4258435 -0.19589181 -0.20879462 -0.33917412
000330 7f 26 72 3d 60 70 2d 3d 49 c9 63 3e 4d 52 9f bc
       0.059118744 0.042343497 0.22244753 -0.019448424
000340 06 dc dc bc 9f a2 cd bd 9a 1f 76 bd df b1 9a 3a
       -0.026960384 -0.10040783 -0.06008873 0.0011802277
000350 df fc 88 bd 5a 2f 05 bd d5 85 d2 3d 2a de b8 bd
       -0.06688856 -0.03251586 0.10279433 -0.090267494
000360 1a f7 82 3e a1 d2 35 3e b4 ad 99 3d 70 cc 8b 3e
       0.2557915 0.1775613 0.07503834 0.2730441
000370 ae 93 98 3c 1f 74 76 be 8c 76 b6 bd 27 3c 9f be
       0.018625107 -0.24067734 -0.0890933 -0.3110058
000380 8f 97 a9 be cc f3 ca 3e 33 52 0f 3e 12 9d 45 3e
       -0.33123443 0.39639127 0.139962 0.19298199
000390 e1 4b 8d 3d 45 80 87 3d ef 4a 8c bd 96 de d2 3b
       0.068992384 0.06616262 -0.0685023 0.0064352257
0003a0 40 41 5c 3d 92 a0 2d 3c 82 28 4b be 1a 90 5d 3f
       0.053773165 0.010597365 -0.19839671 0.86548007
0003b0 9d 45 b4 bf b3 0a e9 be 93 33 ec be 92 ed b1 be
       -1.4083744 -0.45515975 -0.46133098 -0.34751564
0003c0 dd 9e ec bd 14 89 2b be fb 68 99 bd d2 c2 20 3e
       -0.11553738 -0.1675151 -0.074907266 0.15699318
0003d0 69 c6 8f 3e 2c 40 13 3f 14 70 fb 3c 10 b5 46 bd
       0.28081062 0.57519794 0.030693091 -0.04851252
0003e0 f1 e5 31 3e 3a 9f 6e bd b0 1f bc 3d 3b 04 4d 3e
       0.17372872 -0.05825732 0.091857314 0.20021145
0003f0 c5 3a 8a bd 28 aa 00 bf 03 98 e0 be 6e c1 2c bb
       -0.06749491 -0.5025964 -0.43865976 -0.002636041

encoder.2.bias f4 [32]
000000 1f 62 99 3c 9b 81 ee 3c d9 4b 26 bc 16 1b 98 bc
       0.018723546 0.029114535 -0.010149919 -0.018567603
000010 cb 20 44 3d ae 6f e9 3d 70 16 c8 bd 9d 52 90 3c
       0.047882836 0.11398254 -0.097699046 0.017617518
000020 dc 84 49 3e 18 2a b4 3d e8 80 74 bd f8 5e 25 bc
       0.19679588 0.08797091 -0.059693247 -0.010093443
000030 e6 c1 3a 3d 7f 98 37 3d d9 03 15 3c 81 4e dc bb
       0.045595072 0.044823166 0.009095156 -0.0067232256
000040 99 52 99 3d db ba f1 3c 81 bc 08 be 1e 92 1d bd
       0.074864574 0.029508045 -0.13353159 -0.038469426
000050 9a 93 0a 3d 14 bd c7 3d 89 bd ac bd 66 86 b4 3b
       0.03383217 0.09752861 -0.084345885 0.0055091856
000060 2a be c6 bc 1a 4f 27 bd 7d 02 b4 3d 89 77 ad 3d
       -0.0242606 -0.04084692 0.08789537 0.08470065
000070 45 c2 b9 bc 05 35 1b bd 73 5e 50 3d 5a 81 d4 bd
       -0.022675643 -0.03789236 0.050871324 -0.10376234

encoder.4.weight f4 [16, 32, 7, 7]
000000 b7 cd 41 bb 5f 9a b6 3d 2a 0e 98 3d 3f 72 83 3c
       -0.0029572078 0.08916163 0.074245766 0.016045688
000010 94 dd dc bc 33 09 96 bc 39 bc 5f bd 4c cc ce 3c
       -0.026961125 -0.018314933 -0.054622862 0.0252439
000020 f4 bc 4a 3d 4d 08 3f 3e 7f 82 97 3d 9f 6b af 3d
       0.049496606 0.1865551 0.07397937 0.08565449
000030 f2 9f 87 3d 0a 2f dd 3b be d9 3c 3c a1 09 d4 bd
       0.06622304 0.0067499923 0.011526523 -0.10353399
000040 8b 7b c8 bc 9c 1b fe bd d3 53 af 3c 0b a0 89 bd
       -0.024472972 -0.1240761 0.021402275 -0.06719979
000050 71 b6 28 bd 7b cd fa 3a be 63 7a bd f1 c7 95 bd
       -0.041189615 0.0019134724 -0.061130278 -0.073135264
000060 df b5 a8 3d e3 39 20 bd ea e0 ff bc 00 2c aa bd
       0.08237814 -0.039117705 -0.031235177 -0.083091736
000070 74 f0 1d 3c 92 d2 97 3d 1f a5 33 3d 03 de 96 3d
       0.009639848 0.0741321 0.043858644 0.07366564
000080 48 67 21 be f8 58 51 bd 4f e0 cb 3d e8 8a 78 3a
       -0.15762055 -0.051110238 0.09954893 0.0009481148
000090 3d 3a a7 3b 59 6c bb bb 70 d2 5d 3b 40 72 4a be
       0.005103378 -0.005719703 0.0033847354 -0.19770145
0000a0 cf ab 07 bd 81 a6 6f 3c 0d 05 fc 3c d9 38 e9 bd
       -0.033122834 0.0146271 0.030764127 -0.11387796
0000b0 14 ce 72 bd cc 88 1b bf ee 76 4d be 63 2c a2 3c
       -0.059278563 -0.6075561 -0.200649 0.019796556
0000c0 55 66 43 3e 73 73 3f 3e 4b c4 bf 3b 73 80 cd 3d
       0.19082005 0.18696384 0.0058522574 0.10034265
0000d0 6c 00 92 bd d4 f9 33 3b 89 ee e6 3c 60 d6 28 3d
       -0.07128987 0.0027462142 0.028189914 0.04122007
0000e0 4d f2 1d bd 9f 7a bf bc 23 b1 9e bc 30 8f ba bc
       -0.038561154 -0.0233739 -0.019371575 -0.022773355
0000f0 86 ab 29 bd d4 68 2c 3d 42 67 8e 3c 27 e3 83 3d
       -0.041423343 0.04209216 0.017383222 0.0643981
000100 25 f1 d7 3d 83 df c2 3e 5a fa 3a 3e 01 d0 6b bd
       0.105440415 0.3806115 0.18259564 -0.057571415
000110 4b aa ff bc 3e 35 99 bc 77 37 4a 3d 4e b2 d7 3c
       -0.031209132 -0.018702146 0.0493693 0.02633014
000120 8d 0a 29 3d f8 2a 65 3c 00 da 94 bc 56 65 c3 3c
       0.041269828 0.013987295 -0.018170357 0.023852032
000130 d8 ab 82 3b ad ea c8 bc b8 a6 0e 3d cf 9f 6d 3c
       0.0039877705 -0.024525965 0.034826964 0.014503433
000140 95 26 0c bf 09 35 73 bd ba 35 8b be cb 51 6b bd
       -0.5474637 -0.05937675 -0.27189428 -0.05745105
000150 aa 30 8d 3c 36 07 a8 bb 7a 12 fe bc b2 79 b7 bd
       0.017235119 -0.0051278127 -0.03101467 -0.089587584
000160 2c f0 77 3e ee 04 a1 be 9c a5 88 bd 3f c1 50 3d
       0.24212712 -0.31449074 -0.066722125 0.050965544
000170 0c 7b c1 3d 7e fd 48 3d e8 64 f2 bd d6 49 17 be
       0.094472975 0.049069874 -0.118356526 -0.1477426
000180 23 94 18 bb 5e be b8 3a 29 5b 95 bc ee 1f 33 bc
       -0.0023281656 0.001409482 -0.018231945 -0.010932906
000190 b9 9e 10 bc 7a 5a f2 3b 11 01 9c bc eb 14 bc 3a
       -0.008826905 0.0073960396 -0.019043477 0.0014349496
0001a0 a3 90 2c 3c c9 00 01 3c cf 97 73 3b 4e 8d 6c bc
       0.010532531 0.007873722 0.0037169342 -0.014437987
0001b0 91 ad 06 bc bb ae 7b bb 1b 78 21 3c 66 94 16 bb
       -0.008220092 -0.0038403708 0.0098552955 -0.0022976636
0001c0 8a 24 92 bb c1 60 84 39 60 e2 62 3c 2c 04 83 bc
       -0.004459922 0.0002524909 0.013847917 -0.0159932
0001d0 52 c3 66 3c 31 e9 6f bb 86 2c 97 bc ba eb 03 bc
       0.014084654 -0.0036607499 -0.018453848 -0.008051807
0001e0 07 42 03 bc b4 19 34 3b a9 96 22 ba eb b5 d7 3a
       -0.008011348 0.002748114 -0.00062022597 0.0016457414
0001f0 67 d6 02 ba 4e ba b2 3b 98 56 f5 ba 53 fd 8f 3c
       -0.0004991055 0.005454338 -0.0018717824 0.01757685
000200 bb 28 1e 3c 8e 45 05 3c 2e 58 3e 3c 5c e6 6d bc
       0.009653266 0.008134259 0.011617703 -0.014520254
000210 5f b6 2c 3a d5 61 76 bc 74 46 56 bc 7b 39 3c 3a
       0.00065884547 -0.015037973 -0.013078321 0.0007180196
000220 45 cd 5f 3c 79 a8 50 bc 0b a7 18 bc 1b 2a 56 bc
       0.01365978 -0.0127354795 -0.00931717 -0.013071562
000230 1f 2f 5f bc e7 8c 07 3c 8c 17 8a 3c fb 10 94 bb
       -0.013622074 0.00827334 0.016856931 -0.004518626
000240 ec e4 e2 3b b2 62 90 bc 59 f9 50 bc 75 9f 1f 3e
       0.0069242623 -0.017625187 -0.012754762 0.15588172
000250 35 71 f1 bd b4 e7 1b 3c a2 ff ab bd e2 94 0b bb
       -0.11789171 0.009515692 -0.083983675 -0.0021298458
000260 4d 6b 26 be 27 aa 98 3d 7b 6c 99 bd 2f 19 ca bd
       -0.1625187 0.07454329 -0.07491394 -0.09868085
000270 a6 32 25 bd b3 10 71 3b 81 06 93 bc 53 ad e1 bc
       -0.040331505 0.0036783635 -0.017947437 -0.027548468
000280 a4 30 9a 3a 7a fb 04 be d1 17 7e 3d 8f 36 51 3e
       0.0011763764 -0.12986556 0.06203443 0.20430969
000290 99 bd 3b 3c fe 21 4a bd 55 75 88 3d cc 27 b2 3d
       0.011458778 -0.049348824 0.06663004 0.08698997
0002a0 a9 e7 22 3e aa be 04 3e 25 b3 70 bd c4 01 09 be
       0.15908684 0.12963358 -0.058764596 -0.1337958
0002b0 ce e3 91 bd 33 1b 13 3e 16 6f 01 3e 1c 94 ea 3c
       -0.071235284 0.14365844 0.12640032 0.028635077
0002c0 a1 7b c5 bd 4f a6 a4 bd e9 1b 56 be 82 53 4e 3e
       -0.09642721 -0.08039533 -0.20909084 0.20149043
0002d0 a9 13 04 bd 2f 24 a5 bd 8e 98 05 3d 42 e5 40 3c
       -0.032245312 -0.08063542 0.03261619 0.011773409
0002e0 b1 de e7 bd f7 18 a5 bd ad 5c 23 3e 76 2d c3 3c
       -0.11321772 -0.08061402 0.15953322 0.023825388
0002f0 db d4 63 bd fb 3d 48 bd 1b 55 35 be 9d c3 26 3f
       -0.055622917 -0.048887234 -0.17708246 0.6514223
000300 f8 de 99 3e e7 8d 36 be df 96 10 be e2 d3 cd 3d
       0.30052924 -0.17827569 -0.14120053 0.10050179
000310 a0 fe 01 3d e8 f4 93 3c 8b ea c0 ba 82 26 aa bb
       0.03173697 0.018061116 -0.0014718337 -0.005192579
000320 1b 52 29 bd 44 4e 75 3b a3 f8 f0 3c 4d 73 88 bd
       -0.041338068 0.0037430683 0.029415434 -0.06662617
000330 3c 41 91 39 bf 7b 10 bd a3 c5 08 be a0 f9 90 bd
       0.0002770516 -0.035274263 -0.13356642 -0.07078862
000340 9b 5e c2 3d 90 69 69 3d 08 58 27 bd 4c 75 8a 3c
       0.09490701 0.056985438 -0.040855438 0.016901635
000350 0b 76 81 bd a3 b9 d3 bc 01 57 84 3d 5e 1d ba bb
       -0.06321343 -0.025845354 0.06461907 -0.0056797704
000360 52 bd 3a 3d a2 df c2 bd d1 1a 9e 3c e1 26 65 3b
       0.045590706 -0.09515311 0.019299896 0.00349658
000370 27 35 02 3e d5 a6 ba 3e 74 5c a9 3c 64 69 bc 3b
       0.12715589 0.36455408 0.020673968 0.005749868
000380 b4 bc c7 bd b6 78 cf 3b f6 a2 12 be 04 e8 5a 3c
       -0.09752789 0.0063315285 -0.14319977 0.013360981
000390 7b c2 30 3e f1 ff 80 be fd 7e c4 bd d3 7a 4e bd
       0.17261688 -0.25195268 -0.095945336 -0.050410103
0003a0 b6 8f 34 bd 25 fc b0 3e 8f 08 c6 be 0b 5f 05 bf
       -0.044082366 0.3456737 -0.38678405 -0.5209815
0003b0 b2 e6 5a 3d 7e aa 01 3e 79 ce 89 bd d4 9f 3a bd
       0.053442664 0.12662694 -0.06728835 -0.04556258
0003c0 1d e0 58 bd e3 96 a9 3d 95 2a e2 3d 9e a5 01 3e
       -0.052948106 0.082807325 0.11043278 0.12660834
0003d0 5e 40 1c 3e 28 79 91 3d 45 ae 09 3d e1 04 14 3c
       0.15258929 0.07103187 0.033613462 0.009034366
0003e0 e3 e3 4d 3d 21 09 da bb 83 1c b0 3c a7 7f 5e 3d
       0.050266158 -0.0066539203 0.02149797 0.054320958
0003f0 43 8d 8d 3d 1f 32 02 3d ae 55 ba 3d a1 de 51 be
       0.06911709 0.03178608 0.09098373 -0.20495082

encoder.4.bias f4 [16]
000000 a1 fe 72 3c 93 94 26 bd c1 ba 98 3c ea 63 2c 3d
       0.014831216 -0.040669035 0.018643739 0.042087473
000010 c8 e2 90 3c e1 13 12 3d 6d e0 b3 bc ae 7f f9 bc
       0.017686263 0.03566349 -0.0219576 -0.03045639
000020 85 80 c9 bc 85 c4 db bd 17 3f a9 3c a5 5e 5a bd
       -0.024597416 -0.107308425 0.020659966 -0.053312916
000030 dc a8 81 3d be 9a 63 3d c5 8a 39 ba 1e dc d9 3c
       0.063310355 0.055567496 -0.0007077868 0.026594218

decoder.1.weight f4 [16, 32, 7, 7]
000000 27 62 2f bd 0a 30 45 3d 68 4e 08 bd 75 f8 05 be
       -0.042818215 0.048141517 -0.0332779 -0.1308306
000010 59 e5 fb be a5 55 aa bd b0 2c 33 be d3 49 de 3c
       -0.49198416 -0.08317117 -0.17497516 0.027134812
000020 86 a4 9f 3d 23 94 cc 3d 5b 68 0f be ad c0 a7 3d
       0.07795052 0.09989192 -0.14004652 0.08191047
000030 44 1b 27 bd 7a 41 18 3e cc 47 66 bd f6 85 6b 3d
       -0.040797487 0.14868727 -0.056220815 0.057500802
000040 48 7e 22 be 0e c3 99 bc 74 36 91 3c 29 07 96 3c
       -0.15868485 -0.018769767 0.01772616 0.018313961
000050 e1 c1 a2 3d 98 e5 97 be 4b c4 0e 3e 59 f5 0e bc
       0.07947136 -0.29667354 0.13942067 -0.008725488
000060 f2 b1 32 be 90 a1 87 bb 11 97 24 be fa 78 0a be
       -0.17450693 -0.004139133 -0.16073252 -0.13522711
000070 3a 1d c7 bd 9b f2 05 be 71 a1 f4 bc 56 14 07 3e
       -0.097223714 -0.13080828 -0.029862138 0.13191351
000080 66 94 05 be 7c 81 47 3e ec 64 87 be af d4 84 bd
       -0.13044891 0.19482988 -0.26444185 -0.06485879
000090 c7 6d 3e be 97 32 85 be 76 3c 4c be 15 c5 e8 bc
       -0.18596564 -0.2601516 -0.19944939 -0.028414289
0000a0 ae aa 0f be fd f4 84 bc 64 09 6d bb b4 0b e1 bc
       -0.14029953 -0.0162301 -0.0036168927 -0.0274714
0000b0 45 57 47 bc d2 f5 54 be 2b ff 54 be e4 02 c5 bc
       -0.012166803 -0.20796898 -0.20800464 -0.02404923
0000c0 ae c8 b6 3d 27 b2 70 bc 18 ef db bd 8c 26 f7 be
       0.08924995 -0.014690912 -0.10738963 -0.48271596
0000d0 db c6 cf be 37 f8 33 bc a4 bc 6c 3e 7c 5a 96 bd
       -0.40581402 -0.010984472 0.23118836 -0.07341477
0000e0 e0 5d e3 3d 9e a6 25 bd ea 96 1d be 64 3e d1 3d
       0.111018896 -0.0404421 -0.153896 0.10216978
0000f0 b4 78 bc 3d 53 89 9e bd 31 8b 0c be bf 0d 56 bb
       0.0920271 -0.07741036 -0.13724972 -0.0032662002
000100 ae 35 04 3e 15 65 24 be d1 76 10 bd 6f 59 16 be
       0.12911102 -0.16054185 -0.035269562 -0.14682554
000110 f6 44 97 bd 8d 61 ff bd e5 52 01 be 96 af cc bd
       -0.073862 -0.12469778 -0.12629278 -0.09994428
000120 43 74 23 bd 44 bd 66 bd ad 14 15 bd 30 36 54 bd
       -0.039905798 -0.05633284 -0.03639667 -0.05180949
000130 81 99 17 3d 6c f6 0e 3d 1e 5c 56 3c d9 36 49 bd
       0.037011627 0.034902975 0.013083486 -0.049124572
000140 d5 1f 4a 3d e3 5a 45 3e dc 66 82 3e c9 17 bb be
       0.049346764 0.19272952 0.254691 -0.36541584
000150 09 1d 56 3e 18 c8 ea 3d b5 61 f2 bc 1b 38 34 3c
       0.20909514 0.11463946 -0.029587606 0.010999705
000160 cf cd 05 bf 94 c2 81 be f9 e8 d1 bd 7f af 6b 3d
       -0.52267164 -0.25343764 -0.10249514 0.057540413
000170 f3 fb 1b bd 73 a4 96 bd 57 21 6c bd a1 c6 41 3c
       -0.038082074 -0.07355585 -0.057648983 0.011827142
000180 0a 31 50 be 34 08 f5 3d c6 a9 06 3d 85 e3 b2 bd
       -0.20331207 0.11964455 0.032876752 -0.08734802
000190 73 db 1a bd c1 4e 06 be 84 89 5d be b4 f3 4d 3e
       -0.03780694 -0.1311598 -0.2163449 0.20112497
0001a0 30 64 24 bf ed 61 a0 bd 9e bd 1b 3e 8d 21 39 3d
       -0.64215374 -0.07831178 0.15209052 0.045198012
0001b0 dd c4 e7 3d 6c c9 8a bd 2d 0e 54 bd ed 77 6a 3d
       0.113168456 -0.067766994 -0.05177133 0.057243276
0001c0 6c 7f 37 3c 62 fb ba 3d 8d 36 8b 3d 13 bf a7 bc
       0.011199813 0.09129979 0.06797514 -0.020476853
0001d0 a2 0e ca 3c 37 ae 52 bc d3 52 94 bd fb fb a9 bd
       0.02466518 -0.012858919 -0.0724236 -0.083000146
0001e0 4b 7b 52 bd 9a 32 64 be 01 05 0b be 5a 00 54 3d
       -0.051387113 -0.22284928 -0.13576128 0.051758148
0001f0 6c a0 e3 bd 15 d5 a3 bd 79 5b fb 3b dd 5a d4 bd
       -0.111145824 -0.079996265 0.0076708165 -0.10368893
000200 0d 43 8e bd 6c eb 62 3c a8 43 06 3d 4f 8c b0 be
       -0.06946383 0.013850074 0.032779366 -0.34482047
000210 02 97 c4 bd e4 6b b7 3d d4 cb 2d bc cc a6 47 3e
       -0.09599115 0.089561254 -0.010607678 0.19497222
000220 ea 4d db bd 9b f9 b7 be 5c c6 c0 be 1c 55 a5 3d
       -0.1070822 -0.3593262 -0.37651336 0.08072874
000230 59 d1 ed bd 6c 6e 4d 3e f5 e2 6b 3d fe 7e 50 3c
       -0.116121955 0.20061654 0.05758949 0.01272559
000240 b7 ff cb be 36 78 2f 3d 31 ca 20 3e 8a 51 13 3d
       -0.39843532 0.04283925 0.1570213 0.035966434
000250 6d d1 b6 3d 48 87 00 bd 5c b7 fc bd a5 00 47 ba
       0.089266635 -0.031379014 -0.123396605 -0.00075913436
000260 e5 f1 00 be b8 fd b9 bd aa 71 46 3e 21 22 98 3d
       -0.12592275 -0.09081596 0.19379297 0.074283846
000270 9c dd 69 bc 25 93 91 3a 92 b0 cb bd ce b3 7f 3d
       -0.014274027 0.0011106475 -0.099457875 0.062427334
000280 d9 e3 fd 3c 15 96 38 3b 12 ca 39 be b8 8e 44 bd
       0.030992435 0.0028165628 -0.1814349 -0.04798767
000290 e1 af 1a be a7 44 a0 bc e7 af bb b9 d4 23 8d bd
       -0.15106155 -0.019563986 -0.00035798477 -0.06891599
0002a0 a4 c3 a0 bd 75 d0 2c bd 57 0d c7 bc bb bb c1 ba
       -0.078498155 -0.042190988 -0.024298353 -0.001478068
0002b0 4e e9 96 3d bf 36 19 3e 05 08 af bc b1 df 87 3c
       0.07368718 0.1496229 -0.021366129 0.016586157
0002c0 67 43 09 3e 11 9e 2c bd 29 43 40 bd de fb 5e 3e
       0.13404618 -0.04214293 -0.04693905 0.21775767
0002d0 d5 56 d7 bd 9b 8a 75 be e3 bd 2e 3e 9e 13 ac 3d
       -0.10514609 -0.23978655 0.17064624 0.08402179
0002e0 e4 89 90 3d 32 29 f2 bb 1b 17 de be e3 9e 7a bd
       0.070575505 -0.007390165 -0.43377003 -0.061186682
0002f0 92 73 b6 3d 9e ac 95 bd ba 8b e0 bd e2 04 a2 3c
       0.08908762 -0.07308315 -0.10964151 0.019777719
000300 1f 60 6f 3d 6f fe 1f 3e 61 5c 75 bd e0 a3 c4 3d
       0.058441278 0.15624402 -0.059902553 0.09601569
000310 0f e6 92 3c 23 96 b1 3d 7b 6c c1 3c fa 43 34 3e
       0.017931966 0.086712144 0.023611298 0.17604056
000320 85 7d 92 3e ae 98 0e 3e af 05 90 be 93 ab c7 bd
       0.2861139 0.1392543 -0.28129336 -0.09749522
000330 3f 63 4b 3d 17 20 6e 3d b4 90 bc 3d e6 3f 91 be
       0.049655195 0.058136072 0.092072874 -0.28369063
000340 de 6e b2 bd 91 6c 2d be 48 60 3d 3e 5e b8 37 3d
       -0.087125525 -0.16935946 0.1849376 0.04485356
000350 fb c6 45 3e a1 5e c2 3d e5 9a d2 3c fe 47 4e bd
       0.19314186 0.09490705 0.025708625 -0.050361626
000360 03 c6 4a 3d 17 b9 d5 bd 91 d5 b8 3c ed b9 0f be
       0.049505245 -0.10435694 0.022562774 -0.14035769
000370 8f a3 4d 3c 9d d6 9b bd 7b 0e 86 bc c3 4a a9 3d
       0.012551202 -0.076092936 -0.016364327 0.08266213
000380 af 9c 05 3e 81 ba 91 bc 30 7f 57 be 80 59 f4 bc
       0.13048051 -0.017789127 -0.21044612 -0.029827833
000390 aa db ea bd ed c7 26 bd 48 26 83 bd fc 03 85 3c
       -0.11467679 -0.040718008 -0.06403786 0.016237251
0003a0 00 d5 c5 3d 0d bb 8a 3d 3e d8 50 3e e4 9a da be
       0.09659767 0.06773958 0.2039499 -0.42696297
0003b0 ad ee 03 3f dc 36 14 3c 0b c2 f6 3c 39 5e 2d 3e
       0.51536065 0.009046283 0.030121824 0.16930474
0003c0 81 97 20 bd 39 d5 bc 3d 8a 9b 24 be 40 ee bd bd
       -0.039206985 0.092203565 -0.16074958 -0.09273958
0003d0 41 64 a1 bc 8b ec 4a bc ed ef 56 bb a2 d4 26 3c
       -0.019701125 -0.012385498 -0.0032796816 0.010182532
0003e0 c4 0f 98 bd e5 9f 5b bd 58 2c dc 3c 91 f8 ad be
       -0.07424882 -0.053619284 0.026876613 -0.33978704
0003f0 a8 ac 8b bc a0 eb 34 bc 3b 37 a4 3d f9 ea 00 be
       -0.017050102 -0.0110425055 0.08018347 -0.12589635

decoder.1.bias f4 [32]
000000 12 5a 65 3e 89 f7 0b 3f da 71 7d 3e 33 c0 4e 3e
       0.2239764 0.54674584 0.24750462 0.20190506
000010 95 47 89 3e 6b 25 5b bf f3 4c 8b 3e b2 2b 58 3d
       0.26812425 -0.8560397 0.27207145 0.052776046
000020 aa 03 41 3e cb a1 fc 3c 06 9a ca 3d 30 f4 c2 3e
       0.18849054 0.030838868 0.09892659 0.38076925
000030 48 73 18 3d 38 3d 81 3d f5 f7 16 bf 7c f0 58 bf
       0.037219316 0.06310505 -0.589721 -0.8474195
000040 29 ce da be ce 98 04 bf 77 98 82 bf 5b 66 df bd
       -0.42735413 -0.5179566 -1.0202779 -0.10908195
000050 ce e8 28 bf 76 e2 a6 3e 0b ed 00 3f b6 8e 19 3f
       -0.6598023 0.3259465 0.503617 0.59983385
000060 f6 67 d9 3e 95 62 4b 3e 14 13 e6 3c 0e 29 e3 bc
       0.42462128 0.19861825 0.028085269 -0.027729537
000070 bd 44 e0 3d a2 6f d6 3d 38 1d 1c bf 30 bd ca bc
       0.10950611 0.10470511 -0.60982084 -0.024748415

decoder.3.weight f4 [32, 16, 3, 3]
000000 9f f9 c1 3a 57 d4 ad 3e d1 ae 84 3e 85 b6 0a 3d
       0.0014799124 0.33951065 0.25914624 0.03386547
000010 7b c2 26 3e 2d 90 50 bd 32 3c 2e be f3 43 e2 bd
       0.16285126 -0.050918747 -0.1701515 -0.110481165
000020 8c 17 43 be 7a d1 40 bd 65 44 31 bd 3c 0b d2 bd
       -0.19051951 -0.047074772 -0.043278117 -0.10256049
000030 dc 6b 88 3c d1 db b1 3e d7 eb 2f be 36 6b 40 3d
       0.016652994 0.3473802 -0.1717981 0.046977244
000040 e7 fa 64 3e 1c 7d 57 bc 54 b3 20 3e d6 9c a9 bc
       0.22361337 -0.013152387 0.15693408 -0.020704668
000050 98 b5 db bd 3b fa 42 bd 7b 9d a0 be 0d fe 5c 3d
       -0.10727996 -0.04760192 -0.31370148 0.05395322
000060 d9 63 3a 3e a9 9f de bd 59 9d b2 3d f4 80 bb bd
       0.18202151 -0.108702965 0.08721418 -0.09155455
000070 b2 b1 82 bd b4 03 d5 bc 33 19 96 3e 03 88 0d 3c
       -0.06381549 -0.026002742 0.293161 0.008638385
000080 7e c5 71 be de 4e 17 3e a8 54 80 3c 61 54 b1 bd
       -0.23610494 0.14776179 0.015665367 -0.08658672
000090 9f 88 19 be b2 82 10 be d6 f5 05 3c 96 6b 21 3d
       -0.14993523 -0.14112356 0.008176288 0.039409243
0000a0 97 e0 fe bd a4 62 0e be 64 52 01 3e da 1f e9 bd
       -0.12445181 -0.13904816 0.12629086 -0.11383028
0000b0 5f 0a c4 3c 59 43 79 bd 45 5a 13 3e e0 6b 1b 3d
       0.023930727 -0.060855243 0.14389904 0.037944674
0000c0 e6 21 7f be c5 c0 42 3e 46 5e 2c bd 41 9d 1e be
       -0.24915275 0.19018848 -0.042082094 -0.15489675
0000d0 2c ca 13 bd c5 08 e8 3d c9 02 60 3d 0f e3 26 be
       -0.036081478 0.11329798 0.054690156 -0.16297553
0000e0 2b c4 b9 bd 63 58 c6 be d4 e9 41 be 1f cd 23 be
       -0.09070619 -0.3873931 -0.18936855 -0.15996216
0000f0 85 eb 68 3e 3c ea 55 be 60 92 99 bc a9 1f 85 bc
       0.22746094 -0.20890135 -0.018746555 -0.016250448
000100 fb 1e 23 bd f6 10 9e bd 72 c6 ea 3d 4d 09 3a be
       -0.039824467 -0.07718079 0.11463632 -0.1816761
000110 77 93 e2 bd de 96 e8 bd f6 69 11 bd d9 09 2b bd
       -0.11063283 -0.11356901 -0.035501443 -0.04175744
000120 28 61 6f be 2f 20 5d bd a3 8a 4f be 35 8d fd bc
       -0.23376906 -0.05398577 -0.2026773 -0.030951122
000130 fb a1 8a 3e 25 be 5a bd 5d 29 a2 3d ee 61 2a 3e
       0.27076706 -0.053403992 0.07918046 0.1663892
000140 b5 3c 88 bd 8f 34 b2 3d 80 36 7e bc fd c9 df bd
       -0.06652204 0.08701431 -0.0155159235 -0.10927198
000150 69 8e ac bd 89 5c b5 3d f5 d6 81 bd 54 c9 15 be
       -0.084256 0.0885554 -0.06339828 -0.14627582
000160 bc 73 c4 3d 85 75 af 3d ff 20 0c be 34 3e a7 be
       0.09592387 0.08567337 -0.13684462 -0.32664645
000170 75 a2 0a be 48 83 84 3e 16 4a 34 bc be d8 e8 be
       -0.13538535 0.2588141 -0.011003992 -0.4547786
000180 77 d0 41 3c 29 4c f7 bc 08 7b 3c be ad b8 18 3e
       0.011829487 -0.030187683 -0.18406308 0.14914198
000190 b5 b5 22 be 81 39 53 bd e2 3c 10 3e af bf 87 3e
       -0.15889628 -0.051568512 0.14085725 0.2651343
0001a0 f0 2e 87 3e 59 20 85 3c d5 82 a2 3e a7 9c c5 3d
       0.26402998 0.016250776 0.31740442 0.0964902
0001b0 2d 03 bd 3d 9b a9 93 be cf 15 81 bd bd ad 4a bd
       0.09229121 -0.28840336 -0.06302988 -0.049482096
0001c0 a5 68 4b bd e2 13 bb bd e6 fd 57 be ec d6 f0 bb
       -0.049660344 -0.09134652 -0.21092948 -0.0073498394
0001d0 95 b6 48 3e c2 e7 1d 3d 00 c5 2a bd 79 8b 65 3d
       0.196009 0.0385511 -0.04169178 0.056041215
0001e0 71 17 72 3d af 49 55 be f8 70 99 be f4 f2 2a 3e
       0.059104387 -0.2082889 -0.29969 0.16694242
0001f0 9f 85 38 3d c5 57 69 be 9b 7e 03 3e 1c 6f c0 3d
       0.045049306 -0.22787388 0.12841265 0.093961924
000200 2b 5f 2c be e8 32 17 3e 5f 8e 0f be 0f e8 08 be
       -0.16833179 0.14765513 -0.14019154 -0.13369773
000210 39 23 58 bd fd a3 62 bd d8 d8 b7 3d 6f ff cb bd
       -0.052767966 -0.055332173 0.089769065 -0.099608295
000220 57 26 3c 3e 02 e2 a2 3e 25 54 00 3e 9f 49 14 3e
       0.18374 0.31813055 0.12532099 0.14481209
000230 c5 b6 d5 3d ac 3a 8a bd 3e 2a dc 3c ff 4c ea bd
       0.10435251 -0.06749472 0.026875611 -0.11440467
000240 a4 50 88 3d 69 9b 71 3e 13 b0 10 3e 79 70 58 3e
       0.06656006 0.2359444 0.14129667 0.21136655
000250 8a 07 79 3d 02 a4 35 3e 4d ab 1c be 88 95 33 be
       0.060798205 0.17738345 -0.15299721 -0.1753751
000260 d6 f0 a1 bd eb 48 2f bd b9 95 1d bd 44 07 b4 bd
       -0.07907264 -0.04279415 -0.038472865 -0.08790448
000270 72 85 6e be df fc 79 3e 81 83 03 be f9 14 c3 3d
       -0.23293093 0.24412869 -0.12843134 0.095254846
000280 bc 6d 7c 3e 86 13 d7 3d 87 9b 93 3d 36 94 e3 bd
       0.24651235 0.10501771 0.07207399 -0.11112253
000290 7d 26 15 be ed d3 2f 3e bf da 71 be 38 66 b2 be
       -0.14565463 0.17170687 -0.23618601 -0.34843612
0002a0 48 23 01 bd 66 0c b3 3d c3 3a 44 be 09 cb 13 bd
       -0.031527787 0.08742599 -0.19163041 -0.0360823
0002b0 07 58 21 3d fb 1c 5a be cb 82 ad 3e cd 20 81 be
       0.03939059 -0.21300118 0.3388885 -0.25220338
0002c0 c9 44 93 be 95 19 08 bb ee 95 33 bd b9 99 02 bd
       -0.28763416 -0.0020767201 -0.043844156 -0.031884883
0002d0 f1 86 8b be 8a b8 19 bf 2c 0e fc bd 9b 95 92 bd
       -0.2725139 -0.6004721 -0.123073906 -0.07157441
0002e0 8f 0c 16 be c9 9b 62 be 1a d3 76 be fb ea 9d be
       -0.14653228 -0.2212974 -0.24103966 -0.30843338
0002f0 93 4d 50 bd eb 4d 11 bd aa d9 c3 bd cb 75 3e bd
       -0.05085523 -0.0354747 -0.095630005 -0.046499055
000300 2d 8f 0a 3e 4d 78 dd 3e 23 54 1a 3e 8f e9 f5 bc
       0.1353118 0.43255845 0.15071158 -0.030018596
000310 92 c6 42 3d 01 87 27 3e da bf 2b be a1 6e 48 bd
       0.047552653 0.16360094 -0.16772404 -0.04893363
000320 5d b1 1c be 27 fb 99 3d 93 98 20 3e d1 0c 15 3d
       -0.15302034 0.07518607 0.15683202 0.036389176
000330 a3 3d e2 bd d1 cc 99 be 76 e4 1d 3e b4 d2 f5 bc
       -0.110469125 -0.30039075 0.15419182 -0.030007698
000340 da 39 f0 bc db 44 e3 bd 84 21 95 3d ec 68 c8 bb
       -0.02932446 -0.110971175 0.07281783 -0.0061160233
000350 d9 be 45 be 70 da eb 3d e8 d0 02 3d 2f 27 4a bd
       -0.19311084 0.11516273 0.03193751 -0.049353775
000360 65 e6 4b be a2 8e 68 be 68 55 07 be cc 2a 1f be
       -0.19912107 -0.2271066 -0.13216174 -0.1554367
000370 4d 84 8f 3e d5 65 59 3d 01 ca e5 3d 8f b7 28 3e
       0.28030625 0.05307563 0.1122017 0.16476272
000380 c1 02 a1 3d 8e db f2 bb 99 dd b7 bc d6 40 33 3d
       0.078618534 -0.007411427 -0.022444533 0.043763004
000390 ad 2c cd bd d4 d6 d4 bc 96 7c 88 3e 6b ee 86 be
       -0.10018287 -0.025981344 0.26657552 -0.26353773
0003a0 b3 8f 23 be 6c 29 3a 3d 14 cc d9 3d dc f6 8e bd
       -0.15972786 0.04544966 0.10634628 -0.069806784
0003b0 99 5b 53 be d1 6c 4b bd 48 75 25 3e 2b cd ac bd
       -0.2064041 -0.049664322 0.1615802 -0.0843757
0003c0 d6 e6 05 3c 2e a3 60 3c dc 95 a3 be b9 5f 00 3d
       0.008172711 0.01371078 -0.3195027 0.03134129
0003d0 a3 89 b9 be bc a1 06 3e 7e 5b 1c 3d d0 ae 54 be
       -0.3623782 0.13147634 0.03817319 -0.2076981
0003e0 3f 53 3b 3d 31 65 3f 3e a5 87 8f 3d 0d a6 b5 3d
       0.045733687 0.18690945 0.07008294 0.08869562
0003f0 70 67 46 3e 35 af 35 be 9f 76 53 be c2 c0 d7 3d
       0.19375396 -0.17742617 -0.20650719 0.105348125

decoder.3.bias f4 [16]
000000 03 49 f9 3e 6e f4 0f 3e 02 fe 61 bd ac a7 13 3f
       0.48688516 0.14058086 -0.05517388 0.5767772
000010 f5 eb f8 3e 01 46 a3 3e d7 61 36 3d 4d cf 65 be
       0.4861752 0.31889346 0.0445269 -0.2244236
000020 6b 3e 4d 3e b0 a1 b1 be 81 69 22 3f bc 5f 91 3e
       0.20043342 -0.3469367 0.63442236 0.28393352
000030 4c 66 14 be e6 71 81 bd 64 ba 3a 3f 15 30 19 be
       -0.14492148 -0.063205525 0.7294066 -0.14959748

decoder.5.weight f4 [16, 1, 3, 3]
000000 f4 e3 b8 3d 73 c1 14 3e 6b 23 a2 3d 94 b3 4d be
       0.090278536 0.1452692 0.07916912 -0.20088035
000010 a6 0a e3 be f1 b3 84 be 91 75 94 be 13 82 f9 be
       -0.44344062 -0.25918534 -0.28995946 -0.4873205
000020 44 22 6f be 6a b6 c9 bd 73 05 7f be a1 95 3b be
       -0.23352915 -0.09849246 -0.24904422 -0.18318798
000030 ff c5 31 be 54 f4 b2 be 21 20 61 be a4 ce 5d 3d
       -0.17360686 -0.34952033 -0.21984912 0.054152146
000040 6f 1a dd 3d 1a 6a 7e 3d c1 28 83 be b9 74 75 be
       0.107960574 0.062112905 -0.2561703 -0.23970307
000050 18 fd 77 bd 7e 4f f7 be e2 0e ce be 3e 8c 5b bd
       -0.060544103 -0.48302835 -0.4024573 -0.053600542
000060 93 1f 99 be 3d 13 45 be 1c 44 07 3c b1 e8 98 be
       -0.29906902 -0.1924562 0.008255985 -0.2986503
000070 0a 76 ab be 8d 9b 7b bd 41 ca 11 bf c3 c4 07 bf
       -0.33488494 -0.06142764 -0.5694924 -0.5303461
000080 61 6d 36 bd d9 43 a4 be 2f f5 78 be 5b 7c 80 3c
       -0.044537906 -0.32083014 -0.2431228 0.015684297
000090 e3 62 38 3e 93 91 70 3e 15 fc d1 3d a8 84 0f 3e
       0.18006472 0.23493032 0.10253159 0.14015448
0000a0 66 42 48 3c 12 f3 e2 bd d6 15 3f be 9e 82 de be
       0.012222862 -0.11081518 -0.18660673 -0.43459028
0000b0 cc 0c 93 be 81 b1 11 be d9 f6 66 be e3 32 1f bc
       -0.287207 -0.14227869 -0.22555102 -0.009716722
0000c0 65 24 a9 be 6f c6 d8 be 70 83 e7 bc d1 23 63 be
       -0.3303558 -0.42338893 -0.028260916 -0.22181632
0000d0 ca 43 6d be 1d a6 6c bc 49 fb 0c be 56 1c c3 be
       -0.2317039 -0.014443901 -0.13767733 -0.38107556
0000e0 6f b7 b9 be 1c 12 34 bd 15 0f 86 be 68 49 93 be
       -0.3627276 -0.043962583 -0.26183382 -0.28766942
0000f0 29 49 bd 3d 90 66 55 3d 15 c2 15 bd 4d 1e 0c 3e
       0.0924247 0.052099764 -0.036562044 0.13683434
000100 b0 c5 a8 3e 38 70 66 3e e6 01 96 3e 15 e0 1e 3f
       0.32963324 0.22503746 0.29298323 0.6206067
000110 1e 43 ba 3e 13 69 0e 3e 88 65 8a 3e d6 d3 ed 3d
       0.3637933 0.1390727 0.27030587 0.1161267
000120 66 83 15 3d 4f 91 1d bd bf 2c ea bd c7 be af bd
       0.036502264 -0.038468655 -0.11434316 -0.0858131
000130 12 5c 9c be a9 07 b0 be ec 8e 5a be 1f f5 ee be
       -0.30538994 -0.34380844 -0.21343583 -0.46671388
000140 d6 bb b1 be 02 a8 be 3d b8 ce 96 3e 54 60 56 3e
       -0.3471362 0.09309389 0.2945459 0.20935184
000150 40 fc 4f 3e fb b8 09 3f b7 b4 a8 3e 4b 0f c7 3d
       0.2031107 0.5379788 0.32950374 0.09719714
000160 59 64 81 3e 30 44 01 3e 11 63 8c bd 52 26 19 be
       0.25271872 0.12623668 -0.06854833 -0.14956024
000170 0d 50 c8 bd 89 af 7e be e9 9a ef be a2 57 8a be
       -0.097808935 -0.24871649 -0.46797875 -0.27019984
000180 b0 1a 83 be b6 b6 da be 65 f0 48 be 2e 2a bf bd
       -0.25606298 -0.42717522 -0.19622953 -0.09334217
000190 57 5d 8c be e1 52 c3 bd 5f 3c 2f be 88 e1 e1 be
       -0.27414963 -0.09537292 -0.17112873 -0.4411738
0001a0 de f5 b1 bd f7 ee 6a bd c4 1b 17 be 05 c6 ca 3c
       -0.086894736 -0.0573568 -0.14756685 0.024752626
0001b0 7b f3 06 3e 52 09 87 3e 29 c5 3b 3e 62 9f 8d 3e
       0.13178818 0.26374298 0.1833693 0.27660662
0001c0 50 15 f6 3e cb b3 97 3e c1 7e 5d 3e 9b 1f a5 3e
       0.48063135 0.2962936 0.21630384 0.32250676
0001d0 2c 75 29 3e 31 18 18 3e bf 4b 86 3e 0a ef 0c 3e
       0.16548604 0.14852978 0.26229665 0.13763061
0001e0 06 12 ac 3e 15 1f 00 3f 3e 70 49 3e 12 9f 5e 3e
       0.336075 0.5004743 0.19671723 0.21740368
0001f0 65 51 80 3e 7e 11 70 3d b3 a1 e4 3d 7d 21 ec bd
       0.250621 0.05861043 0.11163654 -0.11529825
000200 c2 5b 9d be f9 f1 15 3e a0 4b bf be 80 9c 10 bf
       -0.30734068 0.14643086 -0.37362385 -0.564888
000210 3c 28 b4 3d 7a 7e 78 be 10 d0 93 be dc 8a 72 be
       0.087967366 -0.24266997 -0.28869677 -0.23685783
000220 67 6c 02 bf 0d 7e bb be f9 34 59 be 9a 36 bd be
       -0.5094666 -0.36619607 -0.21211614 -0.3695572
000230 6f cb 91 be f1 33 08 3d 38 7a 1c 3d b7 59 0b bd
       -0.2847552 0.03325266 0.038202494 -0.034021106
