02-Autoencoder/01-PT-MNIST-basic/cnn16-cropped-autoencoder.pth (torch, 242881 bytes, 11 tensors)

encoder.0.weight f4 [16, 1, 3, 3]
-0.13907321 0.19296353 -0.18989824 0.19627804 -0.035534922 0.054043874 0.23300618 -0.08642416
0.21015245 0.23199372 -0.064547844 -0.17822434 -0.42248696 -0.48059142 -0.03531674 0.18850666
0.16835675 0.59136486 0.17074206 0.19659346 0.17809868 0.07999141 0.24197614 -0.18170027
-0.12759398 -0.15942308 -0.12737651 0.40180427 0.18675219 0.2922178 -0.12601341 -0.1968276
-0.38918445 0.25919902 0.14049959 -0.3341799 0.011005775 -0.04080247 0.41510886 -0.06419283
-0.19207287 0.16002433 -0.24039002 -0.27418885 0.21918698 0.1614722 0.21576385 0.090684794
0.078245394 0.08198763 0.2965916 -0.19222704 0.036495507 -0.14384256 0.09798145 -0.15898263
-0.100108206 -0.041492965 0.034278437 -0.0031654187 -0.13725246 -0.18014419 0.35265398 -0.18477105
-0.06254269 -0.17852846 0.13877141 -0.07295429 -0.10942064 0.37552586 -0.012510421 -0.026930194
0.41010147 -0.08579756 -0.24419677 0.011722837 -0.13288833 -0.30805162 0.36622208 0.22749601
-0.0145109445 -0.22478577 -0.48324037 -0.75974804 -0.41735175 0.32066745 -0.4162638 -0.44816163
-0.6600399 -1.1149554 0.176396 0.15295863 -0.048166726 0.16277234 -0.29297066 0.124895915
-0.19035627 0.0028343871 0.20718564 -0.1946311 0.31051084 -0.20412105 0.010565491 0.2899788
-0.1654694 -0.3689889 0.2556341 -0.50918895 -0.46312308 -0.32710525 0.15723343 -0.88845307
-0.110484056 0.15148024 -0.57226974 0.1818547 0.40778625 -0.16080989 0.015319451 -0.2463226
-0.17330857 -0.14342363 -0.20827879 -0.09303109 0.003516753 0.028298538 -0.2810311 0.29958966
0.17936881 0.26914483 0.077891275 0.003710323 0.2248911 -0.039766647 -0.060406778 0.04742276
0.0033289026 -0.11598462 0.31840813 0.18478726 0.05223528 0.07418256 0.22754942 0.34514686
00000000: 3569 0ebe 3b98 453e af74 42be 1cfd 483e
00000010: 118d 11bd 1c5d 5d3d 2c99 6e3e 26ff b0bd
00000020: 3432 573e c38f 6d3e a931 84bd 7180 36be
00000030: 3650 d8be 1410 f6be 49a8 10bd e407 413e
00000040: b665 2c3e b063 173f 02d7 2e3e cc4f 493e
00000050: 805f 363e 89d2 a33d 98c8 773e a30f 3abe
00000060: ffa7 02be ce3f 23be fd6e 02be 4ab9 cd3e
00000070: f73b 3f3e 929d 953e a909 01be 2d8d 49be
00000080: 2f43 c7be bcb5 843e 20df 0f3e a119 abbe
00000090: 9151 343c 7e20 27bd 2689 d43e 8877 83bd
000000a0: c0ae 44be 6bdd 233e cd28 76be 7b62 8cbe
000000b0: 8d72 603e f858 253e 33f1 5c3e f3b8 b93d
000000c0: 1f3f a03d 21e9 a73d dbda 973e 2ad7 44be
000000d0: 507c 153d 774b 13be 80aa c83d 58cc 22be
000000e0: 8805 cdbd 87f4 29bd 8c67 0c3d ea72 4fbb
000000f0: e98b 0cbe b877 38be 108f b43e 9f34 3dbe
00000100: 6216 80bd 2ad0 36be 181a 0e3e 0f69 95bd
00000110: ee17 e0bd ed44 c03e 82f8 4cbc b69c dcbc
00000120: d2f8 d13e a2b6 afbd b80e 7abe 2411 403c
00000130: e113 08be f1b8 9dbe 7681 bb3e b7f4 683e
00000140: 50bf 6dbc 3e2e 66be 486b f7be d97e 42bf
00000150: 21af d5be 862e a43e 8720 d5be 7175 e5be
00000160: 60f8 28bf dcb6 8ebf 27a1 343e 30a1 1c3e
00000170: 794a 45bd cbad 263e 4000 96be 6ec9 ff3d
00000180: c1ec 42be 20c1 393b 7928 543e 604d 47be
00000190: 47fb 9e3e 1c05 51be e21a 2d3c 1a78 943e
000001a0: cf70 29be 1dec bcbe 79e2 823e 355a 02bf
000001b0: 781e edbe 577a a7be cd01 213e a971 63bf
000001c0: 7745 e2bd a31d 1b3e 4580 12bf 1e38 3a3e
000001d0: 5cc9 d03e 59ab 24be 6ffe 7a3c fe3b 7cbe
000001e0: cd77 31be a5dd 12be 0947 55be 1687 bebd
000001f0: 5379 663b 56d2 e73c 4fe3 8fbe d163 993e
00000200: 75ac 373e 5acd 893e 7685 9f3d e428 733b
00000210: da49 663e 5ae2 22bd 196d 77bd 5e3e 423d
00000220: b829 5a3b 5889 edbd 6406 a33e df38 3d3e
00000230: a9f4 553d 07ed 973d b702 693e 17b7 b03e

encoder.0.bias f4 [16]
0.12093401 -0.00046361572 0.060558505 -0.0012021748 -0.002976527 -0.09492375 0.14916532 0.087987356
0.005372283 0.2566993 -0.001976412 0.045644075 0.042895183 -0.23621835 -0.22119214 -0.13751775
00000000: 40ac f73d 7311 f3b9 320c 783d 4b92 9dba
00000010: d611 43bb 6267 c2bd cbbe 183e b732 b43d
00000020: fa09 b03b 176e 833e b186 01bb 48f5 3a3d
00000030: dcb2 2f3d 39e3 71be 3180 62be 74d1 0cbe

encoder.2.weight f4 [32, 16, 3, 3]
-0.119736 -0.16276611 0.019773934 -0.032713648 0.05237947 0.07980192 -0.044615373 -0.06091757
0.017102882 -0.28719878 -0.45540592 -0.27653536 -0.44723505 -0.48015794 -0.268991 -0.38023865
-0.16549866 0.23330276 -0.058345262 0.049492378 0.060733225 0.010645587 0.09451093 0.1686399
-0.056070708 0.09777845 0.12725894 -0.14681709 0.01780622 0.21059877 -0.036352362 -0.042360548
0.10713645 -0.01672716 0.06856353 0.18386821 -0.3139078 -0.25098303 -0.034290988 -0.29084915
0.0071531506 0.014112837 -0.081619985 0.05295054 -0.008828876 -0.1521916 0.03853402 0.16754462
-0.18822227 0.05440663 0.18591477 0.072445154 0.09115603 0.20023863 -0.11970558 -0.17772268
0.053457987 -0.22982076 -0.23613808 0.070097744 -0.01751371 -0.14158972 0.11448574 0.2786523
-0.21779156 -0.29872978 -0.11465283 -0.036097106 -0.2148788 -0.1907411 -0.098730214 -0.09780015
-0.09153367 -0.13901798 -0.03727727 0.086291835 -0.12123886 0.0562285 -0.0029871142 -0.030375823
0.022830699 0.38784933 -0.4188919 -0.52149105 -0.023226788 -0.16849352 -0.074555434 0.4197691
0.39464882 0.28020796 -0.15720879 0.04610111 0.0685125 0.07365807 0.11339533 0.07467639
0.020918377 0.12903221 0.006550552 0.2864569 0.047204845 0.39307892 -0.043097112 0.2203501
0.3610127 -0.028442321 0.16441317 0.07482046 0.06432699 0.30998293 0.20697851 -0.04645508
0.038848806 0.1399134 0.18180777 0.016287185 -0.003301174 0.042380404 0.014523741 0.0023469403
0.0016055029 0.05080514 0.05228602 0.0049723163 -0.059861895 0.009373318 -0.06590875 -0.06934793
0.15318678 -0.035235856 0.04252364 0.2848799 -0.0053438977 0.14573826 0.3126968 -0.14081906
-0.1441515 0.14199342 0.1457203 0.1234117 0.2628827 0.05998962 0.04618508 0.15522617
0.033218212 0.10576119 0.061782062 0.12288078 0.07877722 0.13592803 -0.00012366075 0.11027266
0.08132612 -0.071278736 -0.03264674 0.15227331 -0.23715544 -0.13862397 0.10758516 -0.18461093
-0.11583257 -0.24272385 -0.017013436 0.092839845 0.039007545 -0.0057427855 0.07658574 0.0966369
0.015204895 -0.0314285 0.021639846 -0.08315424 0.10751526 0.06884649 -0.028475415 0.085709326
0.088796474 -0.059001327 0.03265038 0.1118653 -0.088475406 -0.019368103 -0.05855902 -0.19950226
-0.117112145 -0.14918838 0.08969089 -0.0018118699 0.007241706 -0.06070888 -0.09171814 -0.07686836
-0.052607045 0.0046047745 -0.03053569 0.019238964 -0.0026211978 -0.036829673 0.16129945 0.10324787
0.10368879 0.11333331 0.05116712 0.070762694 0.13566132 0.10491402 -0.005676382 -0.08335649
0.0016972314 0.006266726 -0.042978935 -0.16991164 0.07768405 0.11205524 -0.002310415 0.09340524
-0.025837988 0.11320456 0.06364266 0.123286106 0.08167148 0.038663786 0.15548418 -0.083536975
0.061020326 -0.0768688 -0.12003021 -0.16869822 -0.11014726 0.073749766 -0.048266467 -0.047785543
-0.11930947 -0.07642181 -0.007324462 0.0052149263 -0.015514297 0.033126943 0.009620451 0.07983759
0.05870954 -0.0055617345 0.07612051 -0.18569458 -0.07129464 0.03913567 -0.004309605 0.047706094
-0.13113979 0.045413163 0.050327037 -0.21124038 0.09380289 0.082664624 -0.08536208 0.04125178
00000000: 2638 f5bd 29ac 26be f2fc a13c bffe 05bd
00000010: db8b 563d 306f a33d 9cbe 36bd b484 79bd
00000020: 581b 8c3c b80b 93be f72a e9be 0b96 8dbe
00000030: fefb e4be 43d7 f5be 30b9 89be a4ae c2be
00000040: 7b78 29be ebe6 6e3e 71fb 6ebd 85b8 4a3d
00000050: 67c3 783d d46a 2e3c f28e c13d f0af 2c3e
00000060: 66aa 65bd 1140 c83d 2b50 023e 3857 16be
00000070: 5ade 913c 34a7 573e 37e6 14bd 4182 2dbd
00000080: 5b6a db3d 6607 89bc 096b 8c3d f347 3c3e
00000090: 86b8 a0be d980 80be b574 0cbd 2eea 94be
000000a0: fa64 ea3b 8739 673c 6128 a7bd aae2 583d
000000b0: fda6 10bc 1dd8 1bbe d9d5 1d3d d190 2b3e
000000c0: 57bd 40be 7dd9 5e3d 7160 3e3e 205e 943d
000000d0: 03b0 ba3d 5b0b 4d3e 3328 f5bd effc 35be
000000e0: c3f6 5a3d 2256 6bbe 2ece 71be 688f 8f3d
000000f0: e978 8fbc e5fc 10be 8077 ea3d 84ab 8e3e
00000100: c004 5fbe 1cf3 98be 1acf eabd 8fda 13bd
00000110: 3009 5cbe a351 43be 1133 cabd 724b c8bd
00000120: 0176 bbbd bb5a 0ebe 0db0 18bd c6b9 b03d
00000130: 144c f8bd db4f 663d 76c3 43bb b8d6 f8bc
00000140: 7207 bb3c 3094 c63e 0079 d6be 7080 05bf
00000150: 1b46 bebc 9189 2cbe 85b0 98bd faeb d63e
00000160: 690f ca3e 6b77 8f3e 57fb 20be 84d4 3c3d
00000170: 4850 8c3d 0bda 963d d03b e83d efef 983d
00000180: 045d ab3c 0521 043e 03a6 d63b 7baa 923e
00000190: de59 413d a441 c93e 9986 30bd 75a3 613e
000001a0: a8d6 b83e dfff e8bc ed5b 283e 783b 993d
000001b0: debd 833d 15b6 9e3e 2df2 533e af47 3ebd
000001c0: ed1f 1f3d 7545 0f3e d12b 3a3e b46c 853c
000001d0: 8258 58bb 1397 2d3d fcf4 6d3c 20cf 193b
000001e0: bd6f d23a 0d19 503d de29 563d d0ee a23b
000001f0: bf31 75bd 8c92 193c 2bfb 86bd 4a06 8ebd
00000200: ffdc 1c3e 7953 10bd 452d 2e3d c7db 913e
00000210: dd1b afbb 693c 153e cc19 a03e df32 10be
00000220: 739c 13be b966 113e b437 153e 46bf fc3d
00000230: 9098 863e adb7 753d 912c 3d3d 9cf3 1e3e
00000240: d20f 083d 5399 d83d 300f 7d3d eba8 fb3d
00000250: f355 a13d b830 0b3e eeaa 01b9 a2d6 e13d
00000260: 4f8e a63d 96fa 91bd 97b8 05bd 89ed 1b3e
00000270: e0d8 72be 71f3 0dbe 9c55 dc3d a60a 3dbe
00000280: a039 edbd 9a8c 78be c35f 8bbc d122 be3d
00000290: 60c6 1f3d fa2d bcbb fcd8 9c3d 91e9 c53d
000002a0: f41d 793c 2cbb 00bd 0c46 b13c c54c aabd
000002b0: f630 dc3d 63ff 8c3d 4645 e9bc 5f88 af3d
000002c0: edda b53d 60ab 71bd 68bc 053d a219 e53d
000002d0: 9832 b5bd dba9 9ebc 95db 6fbd 524a 4cbe
000002e0: 7ed8 efbd d7c4 18be dbaf b73d 447c edba
000002f0: d54b ed3b e0a9 78bd b8d6 bbbd 296d 9dbd
00000300: 7c7a 57bd a6e3 963b fc25 fabc 089b 9d3c
00000310: 67c8 2bbb b6da 16bd af2b 253e 9f73 d33d
00000320: ca5a d43d 4b1b e83d 9d94 513d 08ec 903d
00000330: cdea 0a3e 29dd d63d f200 babb cfb6 aabd
00000340: a375 de3a 1c59 cd3b ae0a 30bd 51fd 2dbe
00000350: d118 9f3d 387d e53d 556a 17bb 3f4b bf3d
00000360: 30aa d3bc cbd7 e73d 1557 823d 6d7d fc3d
00000370: 6043 a73d eb5d 1e3d 3f37 1f3e 6f15 abbd
00000380: 73f0 793d 646d 9dbd 66d2 f5bd 3abf 2cbe
00000390: e394 e1bd 1e0a 973d 0fb3 45bd c6ba 43bd
000003a0: 8658 f4bd 0a83 9cbd 0a02 f0bb f9e1 aa3b
000003b0: ae2f 7ebc 1eb0 073d 199f 1d3c e481 a33d
000003c0: 6a79 703d 363f b6bb 12e5 9b3d b826 3ebe
000003d0: ed02 92bd b94c 203d 9637 8dbb 7767 433d
000003e0: 8249 06be 2703 3a3d b923 4e3d 664f 58be
000003f0: bb1b c03d 124c a93d 50d2 aebd a0f7 283d

encoder.2.bias f4 [32]
0.005529258 0.072585106 0.102781676 0.08609743 0.019611435 0.081705965 -0.108770244 0.067761116
-0.018119534 -0.098848104 0.031756796 0.12003291 0.039060794 -0.026110223 0.13488209 0.06595661
-0.003970752 0.081139304 -0.077300675 -0.012186439 0.027418751 0.08068775 -0.011710644 -0.0060301
0.031050699 -0.021536687 0.08106101 -0.024734177 0.10624795 -0.12208149 -0.08717161 0.11318279
00000000: c72e b53b 80a7 943d 337f d23d d953 b03d
00000010: 29a8 a03c 7555 a73d efc2 debd 57c6 8a3d
00000020: 6b6f 94bc e070 cabd 6a13 023d d0d3 f53d
00000030: 36fe 1f3d 1be5 d5bc 881e 0a3e 4214 873d
00000040: 151d 82bb 5d2c a63d d14f 9ebd a1a9 47bc
00000050: 4a9d e03c 9e3f a53d 00de 3fbc 2598 c5bb
00000060: 095e fe3c b56d b0bc 5103 a63d 549f cabc
00000070: 8698 d93d dc05 fabd 0787 b2bd 61cc e73d

encoder.4.weight f4 [16, 32, 7, 7]
0.0235571 0.11207187 0.105815746 0.14491396 0.13524176 0.09142147 0.13188644 0.14667982
0.0397539 0.03306971 0.021014433 0.010298217 -0.064225145 -0.049562838 -0.007784698 -0.102302596
-0.10979433 -0.11355717 -0.20683485 -0.23631227 -0.16125476 -0.07709969 -0.09275969 -0.03379892
-0.0449296 -0.17022644 -0.18749264 -0.079395324 -0.035267945 0.09945903 0.15297446 0.12968491
-0.029936807 -0.030429037 0.100221545 0.016485369 0.060172856 0.10028 0.012880372 -0.054834336
0.035504736 0.21833529 -0.016075522 -0.018468514 -0.048190128 -0.091997966 -0.078215726 0.040659152
0.14759658 -0.048276216 -0.012880939 -0.03226618 -0.08100704 -0.071144484 -0.035748042 -0.044185422
-0.04196106 0.004529963 -0.006918427 -0.038331237 -0.031893026 0.037233446 0.012616967 0.08132044
0.037192624 0.053241726 0.071230076 0.16382283 0.11815433 -0.049237568 -0.00250409 -0.025020234
-0.053013455 0.03585424 0.14442341 0.12885666 -0.09133518 -0.1461509 -0.16014877 -0.10986671
0.015014226 0.036903437 -0.023417052 -0.0963167 -0.037963282 -0.029366938 0.010577588 0.033801284
-0.040636044 -0.1440289 -0.08507322 0.025866292 0.026490832 0.092540964 0.09086054 0.01925009
-0.106926925 0.06882171 0.006875315 0.010178622 -0.05662144 -0.043662544 -0.06875136 -0.047116607
-0.020882169 -0.021652319 -0.057370026 -0.07882147 -0.23439583 -0.13100179 -0.1407403 -0.056882687
0.021081911 0.02799851 -0.008194551 -0.014817835 -0.015232462 0.089802004 0.12123544 0.09536457
0.061198898 -0.021839546 -0.003957936 0.1126153 0.22893353 0.09230274 0.06561763 -0.13298634
-0.12446349 -0.05624503 -0.054232735 -0.000824124 -0.058715314 -0.09837967 -0.09075406 -0.06143249
-0.07924152 0.041496515 0.04635043 -0.2014031 -0.014313747 0.14193709 0.2275162 0.10506398
0.110029034 0.051417988 0.11133814 -0.031605363 -0.0071696388 0.052664243 -0.03345172 -0.04021402
0.045095466 0.027624384 -0.13245475 0.07268469 0.07080884 -0.012652955 -0.0019514133 0.100323565
0.08533186 0.022963304 0.05138745 -0.016668502 -0.13342072 -0.08310006 -0.06506842 0.09452245
0.09575236 0.024358202 -0.1070766 -0.0761128 0.03331945 -0.09470529 -0.033650357 0.02480194
-0.027374078 -0.16463278 -0.108529344 0.025716798 -0.057195406 -0.07815711 0.00670871 -0.0016475088
-0.086693086 0.14258729 0.11955376 -0.08793743 -0.08297737 -0.04675906 -0.041676313 0.12004112
0.15327507 -0.10220743 -0.17213538 0.027723521 -0.07123492 -0.040539064 0.013269071 -0.09625475
-0.13063219 -0.1978267 -0.10456743 -0.07790549 -0.015952261 0.017677452 -0.10427978 -0.051755656
-0.0330453 0.06830646 -0.021030745 0.27071565 0.12060336 0.051599618 0.090482354 0.09212203
-0.003795736 0.04433575 0.14566344 0.024314882 0.014607353 0.13355112 0.1098137 -0.06771699
0.06870123 -0.09827285 -0.13852343 -0.088605456 -0.033278245 -0.034007087 -0.085560165 0.11637318
-0.1368117 -0.15544286 -0.06844931 0.03643051 0.05246963 -0.059755042 0.12382584 0.1204312
0.13722299 0.23865023 0.19228497 -0.027594775 -0.16659477 -0.1049569 -0.13670859 -0.073763005
-0.068570666 -0.10430611 -0.091652565 0.0030809424 -0.1184646 -0.105891876 -0.01579775 -0.027472958
00000000: d2fa c03c f085 e53d edb5 d83d 5364 143e
00000010: d17c 0a3e 2e3b bb3d 3d0d 073e 3c33 163e
00000020: fcd4 223d 1b74 073d 7626 ac3c dab9 283c
00000030: 7988 83bd 6702 4bbd c816 ffbb 0684 d1bd
00000040: dadb e0bd a990 e8bd 84cc 53be d8fb 71be
00000050: f81f 25be 71e6 9dbd cbf8 bdbd bd70 0abd
00000060: 1a08 38bd d74f 2ebe 12fe 3fbe 049a a2bd
00000070: 1f75 10bd 2db1 cb3d 56a5 1c3e 1fcc 043e
00000080: 093e f5bc 5146 f9bc f440 cd3d 530c 873c
00000090: d077 763d 9a5f cd3d 3208 533c f899 60bd
000000a0: 6a6d 113d 4993 5f3e d0b0 83bc 484b 97bc
000000b0: 0363 45bd 6e69 bcbd 912f a0bd 368a 263d
000000c0: 8f23 173e 48bd 45bd 930a 53bc 8b29 04bd
000000d0: 05e7 a5bd 33b4 91bd 8a6c 12bd c6fb 34bd
000000e0: 5cdf 2bbd 1570 943b f9b3 e2bb 3701 1dbd
000000f0: 43a2 02bd 1982 183d 65b7 4e3c 558b a63d
00000100: 4b57 183d ff13 5a3d 13e1 913d 2cc1 273e
00000110: e6fa f13d 55ad 49bd a91b 24bb 3cf7 ccbc
00000120: a324 59bd e5db 123d bbe3 133e 00f3 033e
00000130: f00d bbbd 95a8 15be 0afe 23be cc01 e1bd
00000140: 3afe 753c 0f28 173d 1ed5 bfbc b141 c5bd
00000150: 637f 1bbd ef92 f0bc 9f4d 2d3c 3773 0a3d
00000160: fb71 26bd 507c 13be de3a aebd 8ce5 d33c
00000170: 4d03 d93c 1e86 bd3d 1715 ba3d 5db2 9d3c
00000180: 81fc dabd 66f2 8c3d 534a e13b 3cc4 263c
00000190: e2eb 67bd 7fd7 32bd 83cd 8cbd 58fd 40bd
000001a0: 1511 abbc 3460 b1bc d5fc 6abd 276d a1bd
000001b0: 7605 70be 5525 06be 3a1e 10be d2fd 68bd
000001c0: f9b3 ac3c 225d e53c 7042 06bc 81c6 72bc
000001d0: 9491 79bc 1dea b73d 494a f83d 804e c33d
000001e0: b2ab 7a3d d9e8 b2bc 93b1 81bb daa2 e63d
000001f0: 8d6d 6a3e 3809 bd3d 8962 863d 922d 08be
00000200: b7e6 febd 3061 66bd 2523 5ebd 070a 58ba
00000210: 787f 70bd 487b c9bd 44dd b9bd a2a0 7bbd
00000220: 6149 a2bd 40f8 293d f3d9 3d3d 9d3c 4ebe
00000230: 3584 6abc f557 113e 02fa 683e c92b d73d
00000240: e756 e13d ab9b 523d 4005 e43d a074 01bd
00000250: 4aef eabb 76b6 573d ac04 09bd 75b7 24bd
00000260: 06b6 383d 884c e23c 38a2 07be b6db 943d
00000270: 3a04 913d 574e 4fbc 91c6 ffba 7176 cd3d
00000280: 78c2 ae3d 8a1d bc3c a67b 523d 628c 88bc
00000290: 719f 08be 5d30 aabd 9742 85bd fc94 c13d
000002a0: d019 c43d da8a c73c fa4a dbbd 07e1 9bbd
000002b0: fa79 083d d9f4 c1bd f5d4 09bd 702d cb3c
000002c0: 9a3f e0bc 7f95 28be a244 debd 09ac d23c
000002d0: bb45 6abd d610 a0bd bdd4 db3b 39f1 d7ba
000002e0: 258c b1bd 6702 123e 9ad8 f43d 8a18 b4bd
000002f0: 0af0 a9bd 6e86 3fbd c8b4 2abd 1ed8 f53d
00000300: 24f4 1c3e 2152 d1bd 4244 30be 701c e33c
00000310: 9de3 91bd 4a0c 26bd 8466 593c 3621 c5bd
00000320: 72c4 05be 1593 4abe 7327 d6bd ea8c 9fbd
00000330: 51ae 82bc 4ed0 903c a390 d5bd bdfd 53bd
00000340: 825a 07bd 42e4 8b3d ab48 acbc 3e9b 8a3e
00000350: e5fe f63d 1f5a 533d d04e b93d 7aaa bc3d
00000360: e2c1 78bb 6799 353d cc28 153e 0130 c73c
00000370: ae53 6f3c a0c1 083e 01e6 e03d 35af 8abd
00000380: 3bb3 8c3d 4743 c9bd 16d9 0dbe c776 b5bd
00000390: c54e 08bd 044b 0bbd 2b3a afbd 1055 ee3d
000003a0: 5e18 0cbe 6a2c 1fbe 272f 8cbd 2938 153d
000003b0: 65ea 563d b4c1 74bd 6798 fd3d a2a4 f63d
000003c0: 2f84 0c3e ba60 743e 5ae6 443e 700e e2bc
000003d0: d297 2abe a5f3 d6bd 56fd 0bbe 0f11 97bd
000003e0: c76e 8cbd 719e d5bd 57b4 bbbd a3e9 493b
000003f0: 919d f2bd d7dd d8bd 486a 81bc f80e e1bc

encoder.4.bias f4 [16]
-0.07907999 0.05959642 0.033527702 0.055782106 0.061649222 -0.029754099 0.063496456 0.09763474
-0.06955481 -0.027151382 -0.030394835 -0.11086808 -0.032886695 0.057565343 -0.045930028 -0.0035116742
00000000: b1f4 a1bd 601b 743d 5854 093d c77b 643d
00000010: e583 7c3d debe f3bc 6e0a 823d b9f4 c73d
00000020: c172 8ebd 936c debc 97fe f8bc ce0e e3bd
00000030: 33b4 06bd a3c9 6b3d 2021 3cbd 1e24 66bb

decoder.1.weight f4 [16, 32, 7, 7]
-0.103505775 -0.08451954 -0.013381734 -0.060578376 -0.053974863 0.13281542 -0.0039617205 -0.021759445
-0.15922046 -0.05488686 -0.03249679 0.17253795 0.0708553 -0.013988611 0.190091 0.0011929837
-0.0031591256 0.1707518 0.1526891 0.08097441 0.18490541 -0.027989509 0.37836605 0.64232373
0.39473623 0.14789902 -0.00830635 -0.02811767 -0.11730605 -0.13237196 -0.051698413 0.0033758667
0.07234851 0.02739827 -0.000805701 0.020355629 0.013882188 0.021593565 0.29448283 0.14205118
-0.10146862 0.040149704 0.07655078 0.1904663 0.13534817 0.10085108 -0.09806005 0.3015398
-0.052297782 0.014731925 -0.0010653612 -0.023658996 -0.01731015 0.30539802 -0.07692513 -0.1429518
0.28757167 0.10063861 -0.057047524 0.2084768 0.38200897 0.14481504 0.29334304 0.11644392
0.18644866 -0.042233728 0.01926185 -0.040664732 0.23928002 0.2117417 -0.15015675 -0.19405794
-0.28249097 0.16939448 -0.08710164 -0.03724825 -0.07275233 0.25059828 -0.09332967 -0.23028444
0.0778754 0.11035006 0.053186476 -0.10373021 -0.053857096 0.16791941 0.11288007 0.34917387
0.11966505 0.089558214 -0.0975376 0.16035537 -0.03328518 0.39597702 0.232381 0.20648293
-0.061369736 0.052818388 0.22476976 0.03825642 -0.07740877 0.13386926 -0.056301426 -0.0006809591
0.28975487 -0.08261559 0.14742765 -0.15309285 -0.1347259 -0.052348822 0.23291366 0.1477262
0.012701991 0.014676423 -0.04907371 0.0005657593 0.37638924 0.23358703 0.016543487 0.23536363
0.079385355 -0.09440789 0.12048338 -0.032058727 0.04167406 0.12318756 0.21356763 0.043316428
0.025614573 0.26960966 -0.016425276 -0.034432974 -0.1837955 -0.020735761 0.066671945 0.34747288
0.30018848 -0.023283998 0.12363117 -0.020238476 0.20629407 0.044001997 0.01404079 0.1377684
-0.0024290392 0.013573709 0.03013383 0.038080018 0.03365517 0.0031181397 0.0077406853 0.06240199
-0.10461533 0.51393515 0.102767214 -0.036635805 -0.04694765 0.009245279 -0.073619954 -0.27894723
-0.045618944 -0.059010055 -0.078651525 -0.14762416 -0.09748785 -0.25241113 -0.37022543 -0.27705204
-0.208025 -0.07700149 0.01698452 -0.095443025 -0.27181238 -0.25539002 0.14888623 -0.17246866
0.1814014 0.063413724 -0.030336453 -0.15911572 -0.14075118 0.29654595 0.040199433 -0.009765454
0.029405551 -0.22740455 -0.20691955 -0.13031547 0.008960104 -0.11870551 -0.21593454 -0.009606984
-0.17985582 -0.10369387 -0.08399527 0.0064853127 0.030203888 -0.047943838 0.048622772 0.022467302
-0.11542413 -0.1251034 -0.20952168 -0.059627872 -0.078898996 -0.12275472 0.014851182 -0.15029736
-0.0053011593 0.15308252 -0.046757318 0.14819463 0.34462175 -0.002594132 -0.0053749164 0.1603612
-0.03321016 -0.06418772 0.24201703 0.14476933 0.041027263 -0.059336565 -0.027009739 0.10704195
0.010280445 0.07768699 0.1653878 -0.117390804 -0.1161587 -0.12620947 0.03670627 0.0338898
-0.1722252 0.09129072 -0.20598413 0.11666384 0.21977328 -0.20505154 -0.10275745 0.4533126
-0.09733545 -0.062148638 0.13919915 0.08493067 -0.05735133 0.2340136 -0.21265872 0.009442678
0.17210813 -0.16186458 0.30117854 -0.15549721 0.015761508 -0.17894746 -0.083454 0.025957394
00000000: d6fa d3bd 9518 adbd 0f3f 5bbc 0821 78bd
00000010: bf14 5dbd c400 083e 52d1 81bb dd40 b2bc
00000020: b00a 23be 0bd1 60bd 5b1b 05bd caad 303e
00000030: 951c 913d 7d30 65bc 37a7 423e e45d 9c3a
00000040: 5509 4fbb 8fd9 2e3e 885a 1c3e e9d5 a53d
00000050: d857 3d3e 414a e5bc 32b9 c13e 546f 243f
00000060: de1a ca3e d772 173e 5b17 08bc 0757 e6bc
00000070: 283e f0bd 848c 07be b7c1 53bd a53d 5d3b
00000080: 752b 943d 5672 e03c ae35 53ba d9c0 a63c
00000090: 1e72 633c fde4 b03c 74c6 963e dd75 113e
000000a0: c8ce cfbd 0474 243d a8c6 9c3d 9909 433e
000000b0: b698 0a3e 038b ce3d b5d3 c8bd 6d63 9a3e
000000c0: 3336 56bd 2c5e 713c 97a3 8bba 83d0 c1bc
000000d0: 04ce 8dbc 215d 9c3e ec8a 9dbd f561 12be
000000e0: 983c 933e 9e1b ce3d aaaa 69bd f17a 553e
000000f0: ae96 c33e 654a 143e 0f31 963e 267a ee3d
00000100: 66ec 3e3e 46fd 2cbd 07cb 9d3c 1090 26bd
00000110: d205 753e d1d2 583e b1c2 19be 20b7 46be
00000120: a8a2 90be bf75 2d3e 5862 b2bd 9f91 18bd
00000130: 2cff 94bd 6b4e 803e a023 bfbd afcf 6bbe
00000140: 237d 9f3d 36ff e13d 10da 593d 8170 d4bd
00000150: 4299 5cbd 11f3 2b3e ab2d e73d ebc6 b23e
00000160: f312 f53d 4c6a b73d cbc1 c7bd 3334 243e
00000170: 0a56 08bd 80bd ca3e 49f5 6d3e 4370 533e
00000180: d55e 7bbd 1858 583d 0b2a 663e c4b2 1c3d
00000190: 7d88 9ebd 0615 093e 539c 66bd 6482 32ba
000001a0: c05a 943e 5d32 a9bd 46f7 163e 5fc4 1cbe
000001b0: 96f5 09be b86b 56bd eb80 6e3e 8945 173e
000001c0: 031c 503c 6175 703c 8401 49bd 774f 143a
000001d0: 17b6 c03e 7031 6f3e 3586 873c 2a03 713e
000001e0: ca94 a23d ed58 c1bd febf f63d 0350 03bd
000001f0: 6bb2 2a3d c249 fc3d 79b1 5a3e 916c 313d
00000200: a7d5 d13c 470a 8a3e 4d8e 86bc 9709 0dbd
00000210: e334 3cbe 0bde a9bc 4d8b 883d f7e7 b13e
00000220: 4eb2 993e 15be bebc 5732 fd3d 29cb a5bc
00000230: c13e 533e 703b 343d 570b 663c 2913 0d3e
00000240: 8430 1fbb 4364 5e3c 39db f63c cbf9 1b3d
00000250: 01da 093d b459 4c3b 93a5 fd3b 3b99 7f3d
00000260: 9040 d6bd 4191 033f 9e77 d23d 6d0f 16bd
00000270: 2e4c 40bd 8379 173c 0fc6 96bd 2cd2 8ebe
00000280: eeda 3abd 87b4 71bd 0d14 a1bd ca2a 17be
00000290: b6a7 c7bd 083c 81be 308e bdbe c4d9 8dbe
000002a0: 8104 55be f5b2 9dbd 1f23 8b3c a277 c3bd
000002b0: fe2a 8bbe 7bc2 82be a275 183e a09b 30be
000002c0: 4ac1 393e 0edf 813d 2784 f8bc 3bef 22be
000002d0: 1421 10be dfd4 973e 29a8 243d 48ff 1fbc
000002e0: e9e3 f03c bddc 68be b8e2 53be 6b71 05be
000002f0: 66cd 123c e01b f3bd f21d 5dbe 9d66 1dbc
00000300: 202c 38be 745d d4bd b605 acbd bf82 d43b
00000310: 256e f73c c260 44bd ac28 473d 590d b83c
00000320: 7c63 ecbd 1b1b 00be da8c 56be 5b3c 74bd
00000330: cc95 a1bd d466 fbbd 5f52 733c 8de7 19be
00000340: 59b5 adbb aac1 1c3e 9a84 3fbd 55c0 173e
00000350: 4372 b03e 5002 2abb 1120 b0bb ba35 243e
00000360: 6007 08bd da74 83bd 50d3 773e 693e 143e
00000370: 340c 283d e60a 73bd 8743 ddbc cf38 db3d
00000380: 506f 283c 5b1a 9f3d 6b5b 293e 976a f0bd
00000390: 9de4 edbd 0e3d 01be 5059 163d 08d0 0a3d
000003a0: ce5b 30be a1f6 ba3d 81ed 52be 74ed ee3d
000003b0: 3f0c 613e 08f9 51be 7f72 d2bd 9718 e83e
000003c0: cf57 c7bd 928f 7ebd 398a 0e3e 22f0 ad3d
000003d0: 3ae9 6abd 43a1 6f3e 35c3 59be 76b5 1a3c
000003e0: 1d3d 303e d4bf 25be 1334 9a3e a93a 1fbe
000003f0: 471e 813c 013e 37be eee9 aabd 9aa4 d43c

decoder.1.bias f4 [32]
-0.20451482 0.15652038 -0.070623145 -0.3252887 -0.90433466 0.021364633 -0.48876855 -0.25680095
-0.30807132 -0.25006756 -0.44796345 0.09625951 0.39318195 -0.39442122 -0.109514184 -0.7329664
-0.21392186 -0.20883876 -0.15686743 0.043566372 -0.63459647 -0.25396526 -0.6498269 0.2949876
-0.5216405 -0.3762239 -0.33649224 -0.40591064 -0.042549215 -0.21178634 -0.5695234 -0.27942
00000000: 556c 51be e146 203e dea2 90bd 3e8c a6be
00000010: 7a82 67bf e204 af3c df3f fabe 6a7b 83be
00000020: 86bb 9dbe db08 80be 775b e5be b523 c53d
00000030: 254f c93e 94f1 c9be f948 e0bd b0a3 3bbf
00000040: 550e 5bbe d4d9 55be dba1 20be a772 323d
00000050: ea74 22bf bc07 82be 0e5b 26bf 9d08 973e
00000060: 3b8a 05bf 6ba0 c0be b648 acbe 85d3 cfbe
00000070: 1648 2ebd 85de 58be 49cc 11bf 2310 8fbe

decoder.3.weight f4 [32, 16, 3, 3]
-0.06032955 -0.02244324 -0.42827958 -0.19706587 -0.06557324 -0.71349984 0.006280544 -0.029860813
-0.29991096 -0.035593085 -0.094075955 -0.07323417 0.024786219 0.015485306 -0.31844366 0.020239668
0.06222799 -0.24109307 0.26490995 0.22069235 -0.056851845 -0.6518173 0.2214343 -0.08718919
0.15461217 -0.2468634 0.05043261 -0.19792548 -0.27256036 -0.02693249 0.071895115 -0.01953961
0.0087266015 0.2912438 -0.15412705 0.06072753 -0.14661631 -0.1384881 0.185053 -0.32661468
-0.16908619 0.06880734 -0.21404752 -0.23146561 -0.062396146 -0.073674634 -0.20883083 0.11271725
-0.17967746 -0.03816118 -0.13657846 -0.02235833 -0.19421731 -0.06130214 -0.17516287 -0.25378895
-0.21228805 -0.18699332 -0.38556132 -0.091461405 -0.18104544 -0.19323823 -0.073789954 -0.4892377
-0.2117636 -0.12687542 -0.36536205 0.11115327 0.12816402 -0.25914258 0.06150236 0.27343673
0.07729593 0.16233936 0.18566369 0.14846908 0.2511795 0.3457852 0.037512157 0.1574484
0.28627273 0.060303755 0.18989594 0.16390589 0.13119242 0.3255026 0.19570155 0.14731741
0.46120176 0.27023196 -0.044283964 0.04862413 -0.38849837 -0.037690263 -0.08919799 -0.13342695
0.16153857 -0.1329671 0.14596693 -0.38113645 -0.0848886 0.6536644 0.02376149 0.21517344
-0.09618691 -0.1330574 0.05003977 0.38290328 -0.16234821 -0.35246333 -0.13748488 -0.1355921
-0.37154022 -0.028411139 -0.23137951 -0.17651814 -0.016489798 0.07024395 0.09506614 -0.114688806
-0.10522286 0.013136155 -0.13612343 0.13252401 0.13317737 -0.15310279 0.1252122 0.1886719
0.19172978 0.13125655 0.20309633 0.39064115 0.16876008 0.36986917 0.3288422 0.0072995336
-0.105490156 -0.16084391 -0.07677413 0.08833848 -0.030427678 0.14830776 0.18090554 -0.33638614
-0.2906457 0.04979305 -0.038499307 -0.16240634 0.036688574 -0.14531365 0.045521002 -0.18928416
-0.1044619 -0.13951744 -0.08893404 0.0044393465 0.071057305 -0.02083934 -0.07439013 0.07468992
-0.005685431 0.04328518 0.21068764 0.045227226 0.08955183 0.09935575 -0.050044883 0.13844462
-0.018818036 0.15593858 0.1822562 -0.02352769 0.094046414 0.025703918 0.15112755 -0.2631068
0.09697899 -0.10821747 0.017192604 0.006454313 -0.026103003 0.09098655 0.09121919 -0.046814702
0.1383376 0.24357836 -0.0072396193 0.15731038 0.17465794 -0.058990452 0.026534693 0.026621379
0.19975717 0.11997948 0.2639147 0.015482343 0.22316128 0.26766863 -0.0040818267 -0.10082222
-0.1920274 -0.13359363 -0.13826782 -0.024036711 -0.08052449 -0.0076261763 0.11276621 -0.20574854
-0.055089504 -0.13698025 -0.2701717 0.002259387 0.0032975096 0.061616234 0.029502073 0.19536093
0.09442685 0.030074982 -0.019123277 0.10623023 0.17173763 0.050709423 0.19949408 0.12231708
0.12704103 -0.21897317 -0.31524253 -0.20729217 -0.1643461 -0.24746014 -0.16285166 0.006154742
-0.106195815 -0.12120571 -0.098439164 0.16274105 -0.43480337 -0.13057351 -0.06454123 0.013956118
-0.021021899 -0.097955674 -0.5296986 0.10366959 -0.011876119 -0.08094746 -0.09424277 -0.19587766
0.0029632438 -0.57520324 0.15837568 -0.08714994 0.11551203 -0.1508237 0.22407028 0.071510725
00000000: 1e1c 77bd e3da b7bc 7647 dbbe a3cb 49be
00000010: 434b 86bd eda7 36bf 06cd cd3b aa9e f4bc
00000020: ee8d 99be 0eca 11bd e5aa c0bd ccfb 95bd
00000030: 780c cb3c 15b6 7d3c 0c0b a3be a9cd a53c
00000040: c7e2 7e3d 1ae1 76be 47a2 873e 2dfd 613e
00000050: 7bdd 68bd 80dd 26bf acbf 623e 3f90 b2bd
00000060: a752 1e3e c2c9 7cbe 6d92 4e3d faac 4abe
00000070: 088d 8bbe 86a1 dcbc bf3d 933d 8811 a0bc
00000080: 05fa 0e3c e81d 953e 7bd3 1dbe 6ebd 783d
00000090: 9622 16be d3cf 0dbe 897e 3d3e 0a3a a7be
000000a0: ee24 2dbe ddea 8c3d 462f 5bbe 5205 6dbe
000000b0: 1a93 7fbd bae2 96bd c0d7 55be 4dd8 e63d
000000c0: 5efd 37be e64e 1cbd 39db 0bbe d128 b7bc
000000d0: e7e0 46be f417 7bbd e55d 33be a0f0 81be
000000e0: 0a62 59be 2d7b 3fbe 4b68 c5be 1e50 bbbd
000000f0: fa63 39be 3ee0 45be 301f 97bd 5d7d fabe
00000100: 8fd8 58be a1eb 01be bc10 bbbe 53a4 e33d
00000110: 6e3d 033e 56ae 84be e6e9 7b3d e6ff 8b3e
00000120: 544d 9e3d 4a3c 263e 9f1e 3e3e 4708 183e
00000130: 999a 803e c20a b13e 59a6 193d 273a 213e
00000140: 5792 923e 1201 773d 1574 423e f2d6 273e
00000150: 4e57 063e 47a8 a63e fd65 483e 60da 163e
00000160: a322 ec3e d85b 8a3e 1a63 35bd 192a 473d
00000170: 42e9 c6be 1b61 1abd 70ad b6bd 13a1 08be
00000180: 5e6a 253e 8728 08be 5b78 153e 5124 c3be
00000190: 13da adbd 8d56 273f 75a7 c23c 6d56 5c3e
000001a0: a5fd c4bd 3340 08be 80f6 4c3d e60b c43e
000001b0: 9c3e 26be 1376 b4be d6c8 0cbe a8d8 0abe
000001c0: 853a bebe 7abe e8bc c0ee 6cbe 2cc1 34be
000001d0: 9d15 87bc 0fdc 8f3d 09b2 c23d f7e1 eabd
000001e0: 157f d7bd 0739 573c f163 0bbe 60b4 073e
000001f0: a65f 083e fac6 1cbe a137 003e 3533 413e
00000200: d054 443e 1e68 063e 7cf8 4f3e 1e02 c83e
00000210: 71cf 2c3e 7e5f bd3e 015e a83e ed30 ef3b
00000220: 390b d8bd 44b4 24be c13b 9dbd ceea b43d
00000230: 7743 f9bc fddd 173e 4d3f 393e ce3a acbe
00000240: 83cf 94be ccf3 4b3d 73b1 1dbd d94d 26be
00000250: c246 163d 1acd 14be 3b74 3a3d b5d3 41be
00000260: 1ff0 d5bd a9dd 0ebe 0d23 b6bd f077 913b
00000270: 7e86 913d 43b7 aabc da59 98bd 07f7 983d
00000280: da4c babb cd4b 313d 80be 573e 2f40 393d
00000290: f366 b73d 077b cb3d ddfb 4cbd 6dc4 0d3e
000002a0: 4828 9abc 5dae 1f3e 5fa1 3a3e 24bd c0bc
000002b0: 689b c03d 0691 d23c 2ec1 1a3e efb5 86be
000002c0: ec9c c63d 1fa1 ddbd 81d7 8c3c b47e d33b
000002d0: f7d5 d5bc 2857 ba3d 20d1 ba3d c6c0 3fbd
000002e0: 5fa8 0d3e 9b6c 793e 543a edbb f915 213e
000002f0: 88d9 323e f99f 71bd 495f d93c 1415 da3c
00000300: 258d 4c3e cdb7 f53d d41f 873e a7a9 7d3c
00000310: 6484 643e dd0b 893e d8c0 85bb e17b cebd
00000320: d5a2 44be c5cc 08be 1496 0dbe a3e8 c4bc
00000330: 06ea a4bd 01e5 f9bb f9f1 e63d bfaf 52be
00000340: 88a5 61bd 8d44 0cbe f253 8abe 3912 143b
00000350: 081b 583b 4e61 7c3d 55ae f13c b20c 483e
00000360: dd62 c13d cf5f f63c 6ba8 9cbc 3c8f d93d
00000370: fddb 2f3e afb4 4f3d 2d48 4c3e 6181 fa3d
00000380: 0b17 023e 813a 60be 7867 a1be 6644 54be
00000390: 584a 28be 3166 7dbe 96c2 26be b8ad c93b
000003a0: 317d d9bd b33a f8bd 799a c9bd 97a5 263e
000003b0: 8c9e debe 10b5 05be 312e 84bd 34a8 643c
000003c0: 1e36 acbc fc9c c8bd 549a 07bf b950 d43d
000003d0: 0e94 42bc c8c7 a5bd 5a02 c1bd 2794 48be
000003e0: fb32 423b 8540 13bf 3c2d 223e ab7b b2bd
000003f0: 9291 ec3d 8771 1abe ae72 653e 3774 923d

decoder.3.bias f4 [16]
-0.21481661 -0.0075361584 0.066754095 -0.6637624 -0.23594368 0.7073192 0.3600191 0.36883742
0.2467098 -0.08771922 0.22384363 0.42498806 0.45659775 -0.14124416 0.90534216 -0.3812723
00000000: e3f8 5bbe e1f1 f6bb 5fb6 883d 55ec 29bf
00000010: 389b 71be df12 353f 6c54 b83e 42d8 bc3e
00000020: 7ea1 7c3e 22a6 b3bd 4437 653e 0998 d93e
00000030: 2ec7 e93e 4fa2 10be 81c4 673f 1f36 c3be

decoder.5.weight f4 [16, 1, 3, 3]
-0.12754767 0.20075558 0.24958406 -0.04506586 0.3408439 0.17370167 0.29029658 0.4459581
0.15771481 0.2067446 0.01807444 0.19086021 0.043280393 -0.041799795 0.38612032 -0.10569606
0.18465513 0.3240091 0.10408195 0.2675196 -0.046427295 0.15537372 0.117414065 -0.41200235
0.041827563 -0.21553566 -0.45316952 0.37513644 0.31088153 0.08120986 0.656087 0.5101378
-0.08483714 0.4270635 0.18884712 -0.14971195 -0.38670757 -0.7008267 -0.65734816 0.29543123
0.099952824 -0.4012695 0.03982373 0.45249665 -0.22079578 -0.030632228 0.18539116 0.27193576
-0.49932522 -0.11066758 0.3377292 -0.3926158 -0.063005924 0.23389938 -0.30029923 -0.4314699
-0.23642963 -0.40999398 -0.13662842 0.012667098 -0.20400113 -0.06853345 -0.08297908 0.03239336
-0.28928128 -0.20736729 -0.2331517 -0.70417607 -0.29019576 -0.101163566 -0.14453535 0.18617328
-0.49144563 -0.19841735 -0.028067315 -0.31071374 -0.36538196 -0.23672792 -0.14835584 -0.1631208
-0.3173911 -0.48497644 0.37757224 0.19500938 -0.710223 -0.0021772983 0.21286607 -0.4810474
-0.4722423 -0.41151005 0.2285599 0.41055784 0.24872117 0.041852616 0.01421448 -0.04904686
-0.1656503 -0.29651195 -0.2179358 0.07573536 -0.1799476 -0.18888569 0.096604615 -0.34200552
-0.35483593 0.103752725 -0.19991246 -0.61785734 0.23552732 0.25102302 0.24375732 -0.28836578
-0.50671625 -0.04987403 -0.2831981 -0.3619759 -0.00010500885 0.27954376 0.15927866 -0.077741645
0.37533608 0.18777415 0.26033583 0.14407237 0.2573676 -0.28146222 0.25059602 -0.44293007
-0.3060443 0.34593543 -0.27133524 -0.20859815 0.4014435 0.31503537 0.32285482 -0.086220935
0.31016836 0.42335123 0.114144444 0.4340543 0.3174407 0.25560188 0.29558942 0.02823027
00000000: db9b 02be df92 4d3e f792 7f3e fb96 38bd
00000010: 1783 ae3e dade 313e c1a1 943e 9f54 e43e
00000020: fe7f 213e dbb4 533e d910 943c dc70 433e
00000030: c846 313d 4336 2bbd 90b1 c53e 2d77 d8bd
00000040: 3c16 3d3e 85e4 a53e eb28 d53d 54f8 883e
00000050: 8c2a 3ebd 4a1a 1f3e c976 f03d f9f1 d2be
00000060: 6153 2b3d 61b5 5cbe d605 e8be e211 c03e
00000070: dd2b 9f3e 5b51 a63d 51f5 273f 6498 023f
00000080: 18bf adbd 11a8 da3e 2461 413e 174e 19be
00000090: 89fe c5be 6169 33bf f847 28bf c342 973e
000000a0: 11b4 cc3d 3273 cdbe 351e 233d a4ad e73e
000000b0: 4a18 62be 70f0 fabc 2ed7 3d3e 2a3b 8b3e
000000c0: 8ea7 ffbe afa5 e2bd d7ea ac3e f004 c9be
000000d0: 4009 81bd 5283 6f3e d2c0 99be 9fe9 dcbe
000000e0: 9c1a 72be bbea d1be 52e8 0bbe a989 4f3c
000000f0: ace5 50be 445b 8cbd f0f0 a9bd e6ae 043d
00000100: ad1c 94be 1758 54be 52bf 6ebe e244 34bf
00000110: 8a94 94be d82e cfbd 1301 14be 35a4 3e3e
00000120: c39e fbbe eb2d 4bbe 6ded e5bc df15 9fbe
00000130: 5813 bbbe ce68 72be 98ea 17be 2409 27be
00000140: 1681 a2be d54e f8be 2651 c13e 8ab0 473e
00000150: 2dd1 35bf 01b1 0ebb 90f9 593e d84b f6be
00000160: bec9 f1be 72b1 d2be 9b0b 6a3e a334 d23e
00000170: c3b0 7e3e a66d 2b3d dae3 683c 5ce5 48bd
00000180: 3ba0 29be 6ad0 97be 902a 5fbe 241b 9b3d
00000190: 2f44 38be 406b 41be a4d8 c53d 591b afbe
000001a0: 0ead b5be 4f7c d43d dab5 4cbe e62b 1ebf
000001b0: 132e 713e 1786 803e 859b 793e aea4 93be
000001c0: 28b8 01bf b648 4cbd 57ff 90be e854 b9be
000001d0: 3238 dcb8 5c20 8f3e f219 233e 0337 9fbd
000001e0: 0d2c c03e de47 403e bd4a 853e b587 133e
000001f0: b0c5 833e d11b 90be 1f4e 803e bbc7 e2be
00000200: d7b1 9cbe 731e b13e 74ec 8abe c19a 55be
00000210: 018a cd3e 514c a13e 3a4d a53e 9a94 b0bd
00000220: 63ce 9e3e 7ec1 d83e 90c4 e93d 5d3c de3e
00000230: 9687 a23e 40de 823e 7f57 973e 2b43 e73c
