02-Autoencoder/01-PT-MNIST-basic/cnn16-cropped-autoencoder.pth (torch, 242881 bytes, 11 tensors)

encoder.0.weight f4 [16, 1, 3, 3]
0	0xbe077b00	-0.13230515
1	0x3e1ad128	0.1511885
2	0xbdf3d642	-0.11906101
3	0x3e057097	0.13031231
4	0xbd781825	-0.0605699
5	0x3ccff600	0.025385857
6	0x3e3c6488	0.18397725
7	0xbdf6d57d	-0.120524384
8	0x3e20d3d1	0.15705802
9	0x3e4216b4	0.18953973
10	0xbd872dc6	-0.066005275
11	0xbdf87117	-0.12130945
12	0xbeb5b7ea	-0.35491878
13	0xbed52331	-0.4162841
14	0xbd652be5	-0.055950064
15	0x3e15935e	0.14606997
16	0x3e3324d2	0.17494515
17	0x3ef62b49	0.480799
18	0x3de2c37f	0.11072444
19	0x3e106c28	0.14103758
20	0x3e1b0b4e	0.15141031
21	0x3d9b8451	0.07593597
22	0x3e4297a1	0.19003154
23	0xbe3bb9aa	-0.18332544
24	0xbda24fae	-0.07925354
25	0xbdceb021	-0.10092188
26	0xbdcad8b3	-0.09904613
27	0x3eb3d649	0.35124424
28	0x3dc87c4a	0.09789331
29	0x3e4b485b	0.1985182
30	0xbd9e3484	-0.0772486
31	0xbe395d88	-0.18102086
32	0xbe96e82e	-0.29474014
33	0x3e48b7a2	0.196013
34	0x3d540957	0.05176672
35	0xbe5cd870	-0.2156694
36	0x3bc3882d	0.005967161
37	0xbd3470c0	-0.04405284
38	0x3ebe0a6c	0.37117326
39	0xbd9e70ea	-0.077363804
40	0xbe39ddb2	-0.18150976
41	0x3e36acfa	0.17839423
42	0xbe5f03e2	-0.21778825
43	0xbe66e43f	-0.22548006
44	0x3e3a6f02	0.18206409
45	0x3e0b4ba3	0.13603072
46	0x3e1ccbea	0.15312162
47	0x3dbe67fb	0.092971765
48	0x3d84396b	0.06456264
49	0x3d7784fa	0.06042955
50	0x3e7dcb9f	0.24784707
51	0xbe1b2ce8	-0.15153849
52	0x3c881ad1	0.01661435
53	0xbde94aa2	-0.11391188
54	0x3dc79f03	0.09747126
55	0xbdd7beef	-0.105344646
56	0xbdf12a4d	-0.11775646
57	0xbd657e3b	-0.056028586
58	0x3c904c29	0.017614441
59	0x3d244151	0.040101353
60	0xbe06476c	-0.13113183
61	0xbe4240a0	-0.18969965
62	0x3eaaf4c8	0.33389878
63	0xbe2ea50e	-0.17055151
64	0xbd2bac6a	-0.041912474
65	0xbe69190c	-0.22763461
66	0x3db165c8	0.08661991
67	0xbd21bcef	-0.03948682
68	0xbdaa46d2	-0.08314289
69	0x3ea3f6d6	0.32024258
70	0x3d480225	0.04883017
71	0xbd534e02	-0.051588066
72	0x3eb55f97	0.35424492
73	0xbdccfc10	-0.100090146
74	0xbe450aad	-0.19242354
75	0x3c7f0af6	0.015566578
76	0xbe13abf5	-0.14421065
77	0xbe5d116c	-0.21588677
78	0x3e9e9497	0.3097274
79	0x3e284d57	0.16435753
80	0xbbaf8286	-0.005356136
81	0xbf0d08c7	-0.5509152
82	0xbf111392	-0.56670487
83	0xbf49eb44	-0.7887461
84	0xbef0bee6	-0.47020644
85	0x3ee53128	0.44764066
86	0xbf0e0dda	-0.55489886
87	0xbf4d888d	-0.80286485
88	0xbf50711b	-0.81422585
89	0xbfcde30e	-1.6084917
90	0x3e2b63eb	0.16737334
91	0x3dc1c6d5	0.09461752
92	0x3c16c253	0.009201604
93	0x3e260acd	0.16215058
94	0xbe91e9b0	-0.28498602
95	0x3d91dcb8	0.07122177
96	0xbe2d0f19	-0.1690029
97	0x3c500396	0.012696167
98	0x3e445738	0.19173896
99	0xbe12ef3e	-0.14349076
100	0x3e8160e5	0.25269237
101	0xbe5acb30	-0.21366572
102	0x3b6470e1	0.003485732
103	0x3e9cfe02	0.30662543
104	0xbe1374cf	-0.14400028
105	0xbe8ff98c	-0.28120077
106	0x3e4f4ff0	0.20245337
107	0xbf36725d	-0.71268255
108	0xbf01bb4c	-0.5067642
109	0xbe980564	-0.29691613
110	0x3db2fe87	0.087399535
111	0xbf052f96	-0.52025735
112	0xbdcd06a0	-0.10011029
113	0x3e30fb24	0.17283303
114	0xbef4287c	-0.47687137
115	0x3e23a04f	0.15979122
116	0x3ea459df	0.32099816
117	0xbe087744	-0.13326746
118	0x3c5001a7	0.012695706
119	0xbe510943	-0.2041369
120	0xbe1312d5	-0.14362653
121	0xbdf36d87	-0.11886125
122	0xbe30c02f	-0.17260812
123	0xbd9de569	-0.07709772
124	0x3b3f0063	0.0029144518
125	0x3cc01e70	0.023452014
126	0xbe763adc	-0.2404589
127	0x3e8061ba	0.2507456
128	0x3e217fda	0.15771428
129	0x3e57a1fa	0.21057883
130	0x3dd0d16c	0.10196194
131	0xbc138ccb	-0.009005736
132	0x3e50cfd4	0.2039178
133	0xbc001761	-0.007818074
134	0xbd923b68	-0.07140237
135	0x3d199d07	0.03750327
136	0x3b924d13	0.0044647544
137	0xbd8dcd30	-0.06923902
138	0x3e85f19c	0.26160896
139	0x3e0b4ae7	0.13602792
140	0x3d850c33	0.064964674
141	0x3d9e47f2	0.07728566
142	0x3e4ee433	0.20204239
143	0x3e8b068d	0.27153435

encoder.0.bias f4 [16]
0	0x3d9b3caa	0.0757993
1	0xbbf826cb	-0.007572984
2	0x3d0f6b4e	0.035014443
3	0x3b90b023	0.0044155284
4	0xbb46351f	-0.0030244065
5	0xbda2c05e	-0.079468474
6	0x3de1c8a8	0.110246
7	0x3d9658bc	0.073411435
8	0xbb2e214b	-0.0026570137
9	0x3e876cf8	0.26450324
10	0xbb7e7f05	-0.0038833034
11	0x3c007925	0.007841383
12	0x3d3a0e30	0.045423687
13	0xbe4875c1	-0.1957617
14	0xbe55875e	-0.2085242
15	0xbdf10e0b	-0.117702566

encoder.2.weight f4 [32, 16, 3, 3]
0	0xbda7678e	-0.08174048
1	0xbdcbe427	-0.09955626
2	0x3d984e3e	0.074367985
3	0xbcae5942	-0.021282796
4	0x3dc93069	0.09823687
5	0x3d7735dd	0.060354102
6	0xbe0c1bf3	-0.13682537
7	0xbd9dc978	-0.07704443
8	0x3b946c95	0.0045295455
9	0xbe846f19	-0.2586601
10	0xbed15207	-0.40882894
11	0xbe635751	-0.22201277
12	0xbece7c17	-0.40329048
13	0xbec7341d	-0.38906947
14	0xbe72833a	-0.23682871
15	0xbea322de	-0.3186254
16	0xbdcf5eaa	-0.101254776
17	0x3e61f3ce	0.2206566
18	0xbcd06456	-0.025438469
19	0x3c97552f	0.018473236
20	0x3dd6672e	0.10468899
21	0xbd118cec	-0.035534784
22	0x3d51c304	0.051211372
23	0x3e2a50a4	0.16632324
24	0xbda6f969	-0.0815304
25	0x3db511ba	0.08841272
26	0x3ddec653	0.10877671
27	0xbe377c56	-0.17918524
28	0x3d3e42a7	0.046450283
29	0x3e2852b2	0.16437796
30	0xbd038a56	-0.03211435
31	0xbd764937	-0.060128417
32	0x3e26bce6	0.16282997
33	0xbd0fe7b8	-0.035133094
34	0x3e04e51c	0.12978023
35	0x3e414bf5	0.18876632
36	0xbe9e198e	-0.30878872
37	0xbe851e66	-0.25999755
38	0xbe47d44f	-0.19514583
39	0xbe79c7cd	-0.24392624
40	0xbd41cd56	-0.047314964
41	0xbde39eb7	-0.11114257
42	0xbd6f347b	-0.05839966
43	0x3d4edf85	0.050506134
44	0xbc7ede88	-0.015555985
45	0xbdeee0fb	-0.11664005
46	0x3d92d186	0.0716887
47	0x3e13e4c5	0.14442737
48	0xbe66e1d8	-0.2254709
49	0x3d0e1f32	0.03469772
50	0x3df7e78f	0.12104713
51	0x3d53989c	0.05165921
52	0x3db9afd1	0.090667374
53	0x3e45adc5	0.19304569
54	0xbd9df20f	-0.07712185
55	0xbe16cae3	-0.14725833
56	0x3c892184	0.016739614
57	0xbe5f0b4e	-0.21781656
58	0xbe983401	-0.29727176
59	0xbd8db611	-0.06919492
60	0xbe3e3d7a	-0.18578139
61	0xbe8f07df	-0.27935693
62	0x3dc01b5e	0.0938022
63	0x3e92dd6b	0.28684554
64	0xbe0cb558	-0.13741052
65	0xbe51f356	-0.20502982
66	0xbd8ec79c	-0.06971666
67	0xbd58ccbf	-0.052929636
68	0xbe4a28a5	-0.19742067
69	0xbe887e41	-0.26658824
70	0xbe2bc224	-0.16773278
71	0xbd4ca42a	-0.049961247
72	0xbdbece1f	-0.09316658
73	0xbdffa924	-0.12483433
74	0xbdb72818	-0.08943194
75	0x3e2eb9f7	0.17063127
76	0xbe047e24	-0.12938744
77	0x3d630646	0.055425905
78	0x3c971d10	0.018446475
79	0xbd64e509	-0.055882487
80	0x3caae4c0	0.02086103
81	0x3f16a323	0.58842677
82	0xbeaa7c0e	-0.3329777
83	0xbf3e533b	-0.7434575
84	0x3de77d83	0.11303236
85	0xbe1f346c	-0.15547341
86	0xbe4df910	-0.20114541
87	0x3f095860	0.53650475
88	0x3ea4e9bd	0.32209578
89	0x3e7c2465	0.24623258
90	0xbe43b871	-0.19113328
91	0x3e1b512c	0.15167683
92	0x3d9d14a6	0.07669954
93	0x3d526789	0.05136827
94	0x3e07ded7	0.132686
95	0x3d9bbbdc	0.07604191
96	0xbdafe156	-0.08587901
97	0x3e12c14e	0.14331552
98	0xbd4b0046	-0.049560808
99	0x3e8ebf87	0.278805
100	0xbc589b0f	-0.013220563
101	0x3eaa21d7	0.33228943
102	0xbdbe21e0	-0.09283805
103	0x3e2c43b7	0.16822706
104	0x3e678e9a	0.22612992
105	0xbd5e78bb	-0.054314356
106	0x3e2d9aa6	0.16953525
107	0xbc91b910	-0.01778844
108	0x3d7ecdb8	0.062207907
109	0x3e670663	0.2256103
110	0x3e3443d4	0.17604
111	0x3c4bc654	0.012437422
112	0x3c9a308d	0.018821979
113	0x3e14bc03	0.14524846
114	0x3e70b1f8	0.2350539
115	0x3db0021d	0.08594153
116	0x3d511c1e	0.051052205
117	0x3d0fdbf7	0.035121884
118	0x3c4533d7	0.012036285
119	0x3afeef2b	0.001944994
120	0x3aae651d	0.0013305281
121	0x3d2c7578	0.042104214
122	0x3d317c05	0.043331165
123	0x3b8706f8	0.004120704
124	0xbd4b335b	-0.049609523
125	0x3bfe8b04	0.007768037
126	0xbcc1d197	-0.02365951
127	0xbd0be550	-0.034154236
128	0x3d404cfa	0.04694841
129	0xbdc74365	-0.09729651
130	0xbd2c1799	-0.042014692
131	0x3e8e2ece	0.27770084
132	0xbd1e598b	-0.038659614
133	0x3e1df595	0.15425713
134	0x3e8ad013	0.27111873
135	0xbe2cb043	-0.16864114
136	0xbe2430fe	-0.16034314
137	0x3dcd4074	0.10022059
138	0x3e05304f	0.1300671
139	0x3e14274d	0.14468117
140	0x3e94e705	0.29082504
141	0x3ceab279	0.028649556
142	0x3c89ecd6	0.016836565
143	0x3e25271b	0.16128199
144	0x3d63238c	0.055453822
145	0x3e102798	0.14077604
146	0x3d62387c	0.05522965
147	0x3de40426	0.11133604
148	0x3da09174	0.07840243
149	0x3dba4f7f	0.09097194
150	0x3c071826	0.0082455035
151	0x3d762b16	0.060099684
152	0x3d938fd2	0.07205166
153	0xbdfd4c69	-0.1236809
154	0x3c987f5c	0.018615417
155	0x3e5b8d35	0.21440585
156	0xbe8a6969	-0.27033547
157	0xbd8c1848	-0.06840569
158	0x3df67905	0.120348014
159	0xbdfe8ebe	-0.1242957
160	0xbe1dcc5a	-0.15409985
161	0xbe520826	-0.20510921
162	0xbd90481a	-0.07045002
163	0x3d95c88e	0.073136434
164	0x3d6ed703	0.05831052
165	0xbc0fce06	-0.008777147
166	0x3dae4645	0.085094966
167	0x3e0ce8cb	0.13760678
168	0x3c56240b	0.013070117
169	0x3c4f0c52	0.012637215
170	0x3d662f91	0.056197707
171	0xbdf77547	-0.12082916
172	0x3df7a4cc	0.120919794
173	0x3dd85531	0.10563124
174	0xbd97f931	-0.07420576
175	0x3da3306f	0.07968222
176	0x3e3df8d8	0.18551958
177	0xbda701f3	-0.08154669
178	0xbcaacea4	-0.020850487
179	0x3e1b8fd6	0.15191588
180	0xbe071a17	-0.13193546
181	0xbdc05061	-0.09390331
182	0x3d08b055	0.03337129
183	0xbe38ee39	-0.18059625
184	0xbd5408d7	-0.051766243
185	0xbdd2b2d1	-0.10288013
186	0x3d257386	0.040393375
187	0x3caba76e	0.02095386
188	0xbd769367	-0.060199168
189	0xbdc82d33	-0.09774246
190	0xbdba3035	-0.09091226
191	0xbd20864d	-0.03919058
192	0xbd4d7b25	-0.050166268
193	0x3c70f34a	0.014706442
194	0xbd68a8fe	-0.05680179
195	0x3cbea5fa	0.023272503
196	0x3d8f9d9e	0.07012485
197	0x3a75cd1e	0.0009376573
198	0x3e301499	0.17195357
199	0x3e27082e	0.16311714
200	0x3ded945f	0.11600565
201	0x3e0ee13c	0.13953108
202	0x3d538a16	0.05164536
203	0x3de8efda	0.11373873
204	0x3dfe9b7e	0.124320015
205	0x3d6bd9cf	0.057580765
206	0xbc651f55	-0.013984521
207	0xbe2a9e77	-0.16662012
208	0x3b2bed60	0.0026234016
209	0xbcbead40	-0.023275971
210	0xbdf6f132	-0.12057723
211	0xbdfd4bce	-0.12367974
212	0xbb501f4e	-0.003175694
213	0x3d9cece1	0.076623686
214	0xbc82e3c5	-0.01597775
215	0x3e012e0c	0.12615222
216	0x3d2103e3	0.039310347
217	0x3e2da051	0.16955687
218	0x3d2b1b89	0.041774306
219	0x3dfb8405	0.1228104
220	0x3ddf4a1d	0.10902808
221	0x3cda2365	0.026628206
222	0x3e50f8c2	0.20407394
223	0xbcf75a72	-0.030194495
224	0x3d7a5da5	0.061124463
225	0xbdd2d49f	-0.102944605
226	0xbca83c96	-0.020536702
227	0xbe0a308b	-0.1349508
228	0xbe0e0cfd	-0.13872142
229	0x3c392146	0.011299437
230	0xbd941887	-0.07231241
231	0xbdd93353	-0.106054924
232	0xbdef5b9d	-0.11687396
233	0xba084ff0	-0.00051999
234	0xbd863bd3	-0.06554379
235	0x3bb78e29	0.0056016636
236	0x3d10c54f	0.03534442
237	0xbc5e94ae	-0.013585253
238	0x3c853ef8	0.016265377
239	0x3dbf5a27	0.09343367
240	0x3c14a9e1	0.009073705
241	0x3ad29eea	0.0016069089
242	0x3d1a54bd	0.03767847
243	0xbe51902f	-0.20465158
244	0xbd057c1d	-0.032589067
245	0x3dd8428c	0.10559568
246	0xbd6c9e1e	-0.05776798
247	0x3c177042	0.009243073
248	0xbde30a48	-0.11085945
249	0x3d9fdfa5	0.07806329
250	0xbb39b2a1	-0.002833523
251	0xbe96f644	-0.2948476
252	0x3dda0238	0.106449544
253	0xba8140a5	-0.0009861185
254	0xbdb09563	-0.08622243
255	0x3de0e5d4	0.10981336

encoder.2.bias f4 [32]
0	0x3ccaf4d1	0.02477494
1	0x3dc56ab6	0.09639494
2	0x3db383f0	0.087653995
3	0x3db45e11	0.08807004
4	0xbc925de8	-0.017867044
5	0x3da1a922	0.07893588
6	0xbde6e5ef	-0.11274325
7	0x3deebe77	0.11657422
8	0x3c1dd5b6	0.009633472
9	0xbdce33f5	-0.10068504
10	0x3c3eadf0	0.01163815
11	0x3e1052c4	0.14094073
12	0x3cdb6a6c	0.026784144
13	0xbd326470	-0.043552816
14	0x3e0f275f	0.13979863
15	0x3db01632	0.085979834
16	0x3b6c6262	0.0036069383
17	0x3dc874f9	0.09787936
18	0xbe081a6b	-0.13291328
19	0xbd3a877b	-0.04553936
20	0x3d932b29	0.071859665
21	0x3de53a7d	0.111927964
22	0xbd37b120	-0.044846654
23	0xbbe969a3	-0.0071231886
24	0x3c432c52	0.011912422
25	0xbc92368a	-0.017848272
26	0x3d2e961c	0.042623624
27	0xbd094a37	-0.033518042
28	0x3d065c6d	0.032802988
29	0xbe436bd6	-0.19084105
30	0xbdc33e1e	-0.09533332
31	0x3dd8a5e1	0.10578514

encoder.4.weight f4 [16, 32, 7, 7]
0	0x3d3a594b	0.045495313
1	0x3df1c191	0.11804498
2	0x3e02d018	0.12774694
3	0x3e246365	0.16053541
4	0x3e3acda7	0.18242513
5	0x3dee0e6a	0.11623843
6	0x3e2e5c5b	0.17027418
7	0x3e2e60fe	0.17029187
8	0x3aa1a1a6	0.00123315
9	0x3cc828a7	0.024433447
10	0x3cd0ef5c	0.02550476
11	0x3cb80d8b	0.022467395
12	0xbd3ba50b	-0.045811694
13	0xbdd7a788	-0.10530001
14	0xbcd8d020	-0.02646643
15	0xbdfaf67e	-0.12254046
16	0xbe0d70c9	-0.13812555
17	0xbe012693	-0.12612371
18	0xbe707cc2	-0.23485091
19	0xbe9dc048	-0.3081076
20	0xbe4bb964	-0.1989494
21	0xbdb99c0a	-0.09062965
22	0xbd6d2f7a	-0.057906605
23	0xbd307fb6	-0.043090545
24	0xbcc1b602	-0.023646358
25	0xbe4195fd	-0.18904872
26	0xbe852bb7	-0.26009914
27	0xbdae36ac	-0.085065216
28	0xbc041863	-0.008062455
29	0x3e220fc4	0.15826327
30	0x3e67efcf	0.22650073
31	0x3e422e77	0.18963037
32	0xbd2e3c57	-0.042538013
33	0xbd5db6be	-0.054129355
34	0x3e2c3b7a	0.16819564
35	0x3d7c891b	0.06165419
36	0x3c902a1b	0.017598202
37	0x3daaac94	0.08333698
38	0xbcb8d744	-0.022563584
39	0xbe14ebcf	-0.14543079
40	0x3d0f6e28	0.035017163
41	0x3e9b2771	0.3030353
42	0xbcaf2d76	-0.021383982
43	0xbd96d970	-0.07365692
44	0xbd97f891	-0.07420457
45	0xbdfaaf77	-0.122404985
46	0xbda5063a	-0.08057828
47	0x3d8cb9f3	0.068714045
48	0x3e1cd894	0.15316993
49	0xba87da44	-0.0010364731
50	0x3d8e03a8	0.06934291
51	0xbca1f956	-0.019772213
52	0xbd106230	-0.03524989
53	0xbd1f499e	-0.038888566
54	0xbc0bfe23	-0.008544478
55	0x3d716c16	0.05894097
56	0xbd128099	-0.03576717
57	0xbc9ba6e7	-0.019000484
58	0xbc7d5989	-0.015463241
59	0xbcf9412e	-0.030426588
60	0xbd9ae22f	-0.07562672
61	0x3c850281	0.016236546
62	0x3d32d0d7	0.043656196
63	0x3e0f7832	0.14010695
64	0x3ca35f95	0.019943038
65	0x3d26df8d	0.04074054
66	0x3d8ab0dc	0.067720145
67	0x3e1f1345	0.15534694
68	0x3dbac5fd	0.091197945
69	0xbdfab348	-0.122412264
70	0xbcd72e2b	-0.026267132
71	0xbd8524ee	-0.065011844
72	0xbd1a288a	-0.037636317
73	0x3d8db0de	0.069185
74	0x3e4fbe84	0.2028752
75	0x3dff9530	0.12479627
76	0xbdac5107	-0.08413892
77	0xbe2aae41	-0.16668035
78	0xbe6aaa36	-0.22916493
79	0xbe01d682	-0.12679484
80	0x3b5b84a1	0.00334958
81	0x3cf9a14e	0.030472424
82	0xbd741781	-0.059592728
83	0xbdb40322	-0.0878966
84	0xbd1a73dc	-0.03770815
85	0xbd8e68e0	-0.06953597
86	0x3b9e7e37	0.0048368233
87	0x3d8ed301	0.069738396
88	0xbdf4cff2	-0.11953725
89	0xbe3f7713	-0.18697767
90	0xbdf4c9ff	-0.1195259
91	0xbc1a1192	-0.009403603
92	0xbd4f0d36	-0.05054971
93	0x3c8bbc2d	0.017057503
94	0x3d5ee744	0.05441977
95	0xbd923751	-0.07139457
96	0xbdfe9d80	-0.124323845
97	0x3d819889	0.06327922
98	0xbcd56f61	-0.026054086
99	0x3bfb1fc4	0.007663699
100	0xbca07acb	-0.019589802
101	0xbd9ed72e	-0.07755886
102	0xbdb3bea6	-0.08776598
103	0xbb9470c6	-0.004530045
104	0x3d2d3d22	0.04229463
105	0xbdc3e8ed	-0.095659114
106	0xbd98692a	-0.074419335
107	0xbdf9c557	-0.12195843
108	0xbe681445	-0.22663982
109	0xbe1e0f76	-0.15435585
110	0xbdf31a39	-0.11870236
111	0xbc80782b	-0.0156823
112	0xbc518aa5	-0.012789403
113	0x3d88a945	0.066729106
114	0xbcc14e10	-0.023596793
115	0xbda507d4	-0.08058134
116	0xbd7246f3	-0.059149694
117	0x3d49795b	0.049188
118	0x3debdc68	0.115166485
119	0x3e200c2b	0.15629642
120	0x3df4b1d1	0.11947978
121	0xbbed57e0	-0.0072431415
122	0xbc8a40af	-0.016876547
123	0x3e1d6240	0.1536951
124	0x3e9e33db	0.30898938
125	0x3df5e9b3	0.12007465
126	0x3d9a4b08	0.07533842
127	0xbe2996ca	-0.16561428
128	0xbde1b49b	-0.11020776
129	0xbcbca36f	-0.02302715
130	0xbd074a10	-0.033029616
131	0x3ceff579	0.029291855
132	0xbd46ccc2	-0.048535116
133	0xbe4e5811	-0.20150782
134	0xbddbf2d1	-0.10739673
135	0xbdb95815	-0.090500034
136	0xbdab6b9b	-0.083701335
137	0x3c9c162c	0.019053541
138	0x3e1ae130	0.15124965
139	0xbe6dddce	-0.23229143
140	0x3d61f350	0.05516368
141	0x3da4f1cb	0.08053931
142	0x3dabbfcd	0.083861925
143	0x3da809ba	0.0820498
144	0x3d111824	0.035423413
145	0x3e07a97b	0.13248245
146	0x3e2048d4	0.15652782
147	0x3e2fd853	0.17172365
148	0x3904ab90	0.00012652413
149	0x3da185ae	0.078868255
150	0x3cbeb9a6	0.023281883
151	0x3ced3ca3	0.028959578
152	0x3dea7f93	0.11450114
153	0x3dbffecc	0.093747705
154	0xbd5f3df8	-0.054502457
155	0x3db69473	0.08915033
156	0x3dc1240a	0.09430702
157	0xbd5d0937	-0.053963866
158	0xbcea0fe3	-0.028572029
159	0x3c774842	0.015092911
160	0x3da47108	0.080293715
161	0x3bd1b2a2	0.0063994685
162	0x3d5d3eff	0.054015156
163	0xbda9034e	-0.082525834
164	0xbe1fdcbe	-0.1561155
165	0xbe041c03	-0.1290131
166	0xbe0556e4	-0.13021427
167	0x3bc5eec3	0.0060404255
168	0x3d5f3ab5	0.054499347
169	0xbcb8bca9	-0.022550898
170	0xbe3cced5	-0.18438275
171	0xbe20c13c	-0.15698713
172	0x3ce18519	0.027529286
173	0xbe15da63	-0.14634089
174	0xbd6be4d5	-0.057591278
175	0x3d901234	0.07034722
176	0x3d717aab	0.058954876
177	0xbe2b62ae	-0.16736862
178	0xbdb1bcd7	-0.086785965
179	0x3db6c6d3	0.089246415
180	0xbcb79214	-0.022408523
181	0xbd4aea7d	-0.04954003
182	0x3d0bcbe3	0.03412999
183	0xbc7cd96b	-0.015432696
184	0xbdc1a4f1	-0.09455288
185	0x3ddd5344	0.10806897
186	0x3e06d973	0.13168888
187	0xbe0f08f3	-0.13968258
188	0xbdac04c7	-0.08399349
189	0xbe0f5108	-0.13995755
190	0xbd1abbdb	-0.03777681
191	0xbd0b5d38	-0.034024447
192	0x3dbefc36	0.09325449
193	0xbd1fa8f8	-0.0389795
194	0xbe5ddee1	-0.21667053
195	0xbd066ebd	-0.032820452
196	0xbd8c7bc2	-0.068595424
197	0xbc7a8068	-0.0152894035
198	0x3c4b90fb	0.012424703
199	0xbdeb37a9	-0.11485226
200	0xbdec089d	-0.1152508
201	0xbe197b9a	-0.14988557
202	0xbd47e299	-0.048800085
203	0xbb1201af	-0.0022278836
204	0x3dbf0c3c	0.093285054
205	0x3cdc94d9	0.026926445
206	0xbe11e6fd	-0.14248271
207	0xbe124f90	-0.14288163
208	0xbd9cae7a	-0.07650466
209	0x3d43d772	0.047812887
210	0x3d536a1e	0.051614873
211	0x3ea160e0	0.31519222
212	0x3ddac22c	0.106815666
213	0x3cce4ec9	0.025184052
214	0x3c8176c4	0.015803702
215	0x3d9532f8	0.07285112
216	0x398b8a89	0.00026615363
217	0x3d894a10	0.067035794
218	0x3e3bf83a	0.1835641
219	0x3d33ecad	0.043926883
220	0xbc22e2f7	-0.009941808
221	0x3d293c83	0.041317474
222	0x3e053ec5	0.13012226
223	0xbdb50aef	-0.08839976
224	0x3ddb351a	0.10703488
225	0xbc0e8100	-0.008697748
226	0xbe1f3c09	-0.15550245
227	0xbe015613	-0.12630491
228	0x3bd402c1	0.006470055
229	0x3d84bb4a	0.06481035
230	0xbcfb6e3f	-0.030692218
231	0x3da51a6b	0.080616795
232	0xbe5d2854	-0.21597415
233	0xbe1f8598	-0.15578306
234	0xbb5ba320	-0.0033513978
235	0x3de19654	0.11015001
236	0x3da17522	0.078836694
237	0xbe11a447	-0.14222823
238	0x3b3dd3a3	0.0028965257
239	0x3d043dcd	0.0322855
240	0x3e215004	0.1575318
241	0x3e863951	0.26215604
242	0x3e144ca1	0.14482357
243	0xbd34a77a	-0.04410503
244	0xbe63ff15	-0.22265275
245	0xbda28a9b	-0.07936593
246	0xbdf23cc4	-0.118279964
247	0xbda1aed4	-0.07894674
248	0xbe130a44	-0.14359385
249	0xbdfa1ec5	-0.122129
250	0xbe473f34	-0.19457704
251	0x3d76a6d6	0.0602177
252	0xbd9141f3	-0.07092657
253	0xbe6cd495	-0.23127969
254	0xbcdbdb30	-0.026837915
255	0xbdc52b10	-0.09627354

encoder.4.bias f4 [16]
0	0xbe158277	-0.1460055
1	0x3db66ad7	0.08907097
2	0x3d5c0589	0.053716216
3	0x3defade7	0.11703091
4	0x3e046a28	0.1293112
5	0xbdb5f80c	-0.08885202
6	0x3df1a2b5	0.11798612
7	0x3e2a732b	0.16645496
8	0xbdeab0e8	-0.114595234
9	0xbd82acf0	-0.063806415
10	0xbd7d1b2a	-0.061793484
11	0xbe3d0a22	-0.18460897
12	0xbd83caef	-0.06435191
13	0x3e03c363	0.12867503
14	0xbdcccb77	-0.09999745
15	0xbd06060f	-0.03272062

decoder.1.weight f4 [16, 32, 7, 7]
0	0xbda16583	-0.0788069
1	0xbddc7ffc	-0.107665986
2	0x3c352c3c	0.01105791
3	0xbda95f1b	-0.08270093
4	0xbd8de834	-0.06929055
5	0x3e26f4ae	0.16304275
6	0x3dae5e24	0.0851405
7	0xbdef9073	-0.116974734
8	0xbe46a2ce	-0.19398043
9	0xbc92d7f9	-0.01792525
10	0xbd50d1f4	-0.050981477
11	0x3e431ffb	0.19055168
12	0x3d8c6427	0.0685504
13	0xbbf45797	-0.0074567306
14	0x3e7b1d29	0.24522842
15	0xbca0980d	-0.019603753
16	0xbbb1bf24	-0.005424397
17	0x3df3add0	0.118983865
18	0x3e069817	0.13143955
19	0x3dec16ec	0.115278095
20	0x3e609729	0.21932663
21	0xbd8f18e2	-0.06987168
22	0x3ee8de6f	0.45482203
23	0x3f3610bd	0.7111929
24	0x3ee72f72	0.45153385
25	0x3e0c393f	0.13693713
26	0xbc8699ab	-0.016430696
27	0xbc81ce93	-0.015845573
28	0xbddeee54	-0.10885301
29	0xbe117556	-0.14204916
30	0x3c3d9f13	0.011573571
31	0x3c0dafe7	0.008647895
32	0x3dd04cfe	0.10170935
33	0xbace1185	-0.0015721774
34	0xbc950f9c	-0.01819592
35	0x3d58fa80	0.05297327
36	0x3d131c6d	0.03591578
37	0x3d631f85	0.05544998
38	0x3ed2ba31	0.41157678
39	0x3e1a82bd	0.15088935
40	0xbda03603	-0.07822802
41	0x3da10ecc	0.078641504
42	0x3dd7106a	0.105011776
43	0x3e710a3b	0.23539059
44	0x3e219c15	0.15782197
45	0x3db283ec	0.08716568
46	0xbdcf8963	-0.10133626
47	0x3edcc60a	0.43119842
48	0xbd5da815	-0.054115374
49	0x3c9a344f	0.01882377
50	0x3db9468c	0.09046659
51	0xbd05d6bc	-0.03267549
52	0xbdcd1325	-0.10013417
53	0x3eb9806b	0.36230788
54	0xbd924d31	-0.07143629
55	0xbd27d0b2	-0.04097051
56	0x3ea8abd3	0.3294359
57	0x3e19a045	0.15002544
58	0xbd5b2c12	-0.053508826
59	0x3e4a491c	0.19754452
60	0x3ef1576a	0.47137004
61	0x3e407a09	0.18796553
62	0x3e896220	0.26832676
63	0x3dd8d07a	0.10586639
64	0x3e3fad12	0.18718365
65	0xbcc1c59a	-0.023653794
66	0xbd34ccb7	-0.044140544
67	0xbcb3b196	-0.021935266
68	0x3e7ccfad	0.24688597
69	0x3e3cf351	0.18452193
70	0xbe281d20	-0.1641736
71	0xbe45e12c	-0.19324178
72	0xbebe8fe0	-0.37219143
73	0x3e4fa09c	0.20276111
74	0xbdf0380c	-0.1172944
75	0xbd934ce9	-0.07192404
76	0xbe3dde9e	-0.18541953
77	0x3e956de8	0.29185414
78	0xbd0d144f	-0.034443196
79	0xbe8f03d7	-0.27932617
80	0x3dbd878c	0.09254369
81	0x3e05a0e6	0.13049659
82	0x3d663de5	0.05621137
83	0xbdb771fa	-0.08957286
84	0xbdd5704b	-0.10421809
85	0x3e4d60a4	0.20056397
86	0x3e465ea3	0.19372039
87	0x3eb709a7	0.35749552
88	0x3db8906c	0.09011921
89	0x3e3cbb91	0.18430926
90	0xbd5e465a	-0.05426631
91	0x3e60ac0d	0.21940632
92	0xbd886409	-0.06659705
93	0x3f17582f	0.5911893
94	0x3eae9181	0.34095386
95	0x3e72c184	0.23706633
96	0xbdb19654	-0.08671251
97	0x3dd4e231	0.10394705
98	0x3e92394e	0.28559345
99	0x3d3d9d63	0.046292674
100	0xbdd51e70	-0.10406196
101	0x3e2dbe64	0.1696716
102	0xbd84e9d7	-0.06489914
103	0xbdd788a2	-0.105241075
104	0x3e8eef20	0.27916813
105	0xbde10c93	-0.109887265
106	0x3e85aa89	0.2610667
107	0xbe11ad3d	-0.14226241
108	0xbdf4cef0	-0.11953533
109	0xbcf5389f	-0.029934226
110	0x3e938e04	0.28819287
111	0x3e86ebca	0.26351768
112	0x3dabb52c	0.08384165
113	0x3d46ece1	0.04856575
114	0xbd8c4f57	-0.068510704
115	0x3c064981	0.008196236
116	0x3ed0972a	0.4074033
117	0x3e8001b5	0.25001302
118	0x3d493d0b	0.04913048
119	0x3ea93d99	0.33054808
120	0xbd385462	-0.04500235
121	0xbddfc6d0	-0.10926592
122	0x3e21c14a	0.1579639
123	0xbd7798a9	-0.060448322
124	0x3da49e94	0.08038059
125	0x3e3f8a9f	0.18705224
126	0x3e915451	0.2838464
127	0x3bc9bcb0	0.0061565265
128	0x3dd8496a	0.105608776
129	0x3e57b796	0.21066126
130	0xbc717857	-0.014738164
131	0xbe02985b	-0.12753431
132	0xbe53f878	-0.20700252
133	0x3d2f81ec	0.042848513
134	0xb71902c6	-9.120156e-06
135	0x3ea5f217	0.32411262
136	0x3ecbeac1	0.3982754
137	0x3d24d03d	0.040237654
138	0x3e15db8b	0.1463453
139	0x3dceacda	0.100915626
140	0x3e29e3ec	0.16590852
141	0x3d93daec	0.072194904
142	0xbc74f290	-0.0149504095
143	0x3e0f10c4	0.1397124
144	0xbd4bc622	-0.0497495
145	0xbd1dc755	-0.038520176
146	0xbc84fda2	-0.016234223
147	0x3d1e95da	0.03871713
148	0xbb225781	-0.0024771395
149	0x3d64472b	0.055731934
150	0xbb9d8ff5	-0.004808421
151	0x3d46cc12	0.04853446
152	0xbdd4493c	-0.10365531
153	0x3f12b583	0.57308215
154	0x3dd70fb2	0.105010405
155	0xbd315522	-0.04329408
156	0xbcfdb4d4	-0.030970015
157	0x3cbf79b4	0.023373462
158	0xbdf591dc	-0.11990711
159	0xbe9d0b16	-0.3067252
160	0xbdeb62b5	-0.11493436
161	0xbd208cd5	-0.039196808
162	0xbdc3d462	-0.09561993
163	0xbe2a515f	-0.16632603
164	0xbe0378e9	-0.12839092
165	0xbea991a9	-0.33118942
166	0xbee09c92	-0.43869454
167	0xbeb9bcee	-0.36276954
168	0xbe6601b2	-0.22461584
169	0xbdaa941e	-0.08329032
170	0x3cece362	0.028917018
171	0xbe187035	-0.14886554
172	0xbea63c73	-0.32467994
173	0xbea98ea9	-0.33116654
174	0x3e353e7b	0.17699616
175	0xbe426c97	-0.18986736
176	0x3e487b6d	0.19578333
177	0x3b47f564	0.0030511254
178	0xbd4d6904	-0.05014898
179	0xbe67f364	-0.2265144
180	0xbe0a52a4	-0.13508087
181	0x3e9abfaf	0.30224368
182	0xbc25e6c1	-0.010125817
183	0x3c403a13	0.011732596
184	0x3cab883a	0.020938981
185	0xbe9a1b6b	-0.30099043
186	0xbe47d01a	-0.19512978
187	0xbe096bd3	-0.13420038
188	0xbb2c6f41	-0.002631143
189	0xbdf40f76	-0.119170114
190	0xbe88a50b	-0.26688418
191	0xbc32590c	-0.010885488
192	0xbe7e844a	-0.24855152
193	0xbe3158d2	-0.17319039
194	0xbe296cfc	-0.1654548
195	0x3b6ef3dd	0.0036461272
196	0x3d8474ca	0.06467588
197	0xbc8a8d1d	-0.016912991
198	0x3dda8e4c	0.10671672
199	0x3cf0f740	0.029414773
200	0xbddc6e16	-0.10763185
201	0xbde9c960	-0.11415362
202	0xbe3c0afb	-0.18363564
203	0xbdc9d09d	-0.09854243
204	0xbd86b95d	-0.06578324
205	0xbd9cc862	-0.076554075
206	0x3c885be0	0.016645372
207	0xbe391f79	-0.18078412
208	0x3c286b13	0.010279435
209	0x3e14ae4d	0.14519615
210	0xbdcc4bc4	-0.09975389
211	0x3da0ba75	0.07848064
212	0x3ecd5600	0.40104675
213	0xbc652e33	-0.0139880655
214	0xbda606d2	-0.081067696
215	0x3e58035e	0.21095034
216	0xbcf7ff38	-0.030273065
217	0xbd23773a	-0.039908625
218	0x3e716770	0.23574615
219	0x3e5c2fa0	0.21502542
220	0x3d7986a7	0.06091943
221	0xbdc11c70	-0.09429252
222	0x3a9b8767	0.0011865915
223	0x3e459e3a	0.1929864
224	0x3d232ccf	0.039837655
225	0x3e2202e3	0.15821414
226	0x3e69ea86	0.2284337
227	0xbe0bc795	-0.13650353
228	0xbe06974b	-0.13143651
229	0xbe2f6fdc	-0.17132515
230	0x3cd31b52	0.025769863
231	0x3dcd6219	0.10028476
232	0xbe37c8d2	-0.179477
233	0x3d806004	0.062683135
234	0xbe708933	-0.23489837
235	0x3dda807a	0.10669036
236	0x3e6984dd	0.2280459
237	0xbe7e133b	-0.24812023
238	0xbdd3121f	-0.10306191
239	0x3f1eb640	0.6199684
240	0xbde03491	-0.10947526
241	0xbdd78638	-0.10523647
242	0x3e357459	0.17720164
243	0x3e1b7bf6	0.15184006
244	0x3b5ecbcd	0.0033995986
245	0x3e6476cb	0.22310941
246	0xbe8e9673	-0.2784916
247	0xba9bc064	-0.0011882898
248	0x3df0a1be	0.117496
249	0xbe04f9f4	-0.12985975
250	0x3e9733f0	0.29531813
251	0xbdf64104	-0.120241195
252	0xbd89bccd	-0.06725464
253	0xbe656d7e	-0.22405049
254	0xbe3be1d8	-0.18347871
255	0x3db44099	0.088013835

decoder.1.bias f4 [32]
0	0xbea6cac0	-0.3257656
1	0x3e005a8c	0.12534541
2	0xbda49bf8	-0.08037561
3	0xbed33a51	-0.4125543
4	0xbf809728	-1.0046129
5	0x3d412ca0	0.0471617
6	0xbf2247cc	-0.63390803
7	0xbec2e7bf	-0.38067433
8	0xbedfaa1e	-0.43684477
9	0xbe81b4cf	-0.25333259
10	0xbf148a28	-0.5802331
11	0x3df1f75a	0.11814757
12	0x3f18488d	0.59485704
13	0xbecf6ca6	-0.4051258
14	0xbe2af305	-0.16694267
15	0xbf43de14	-0.7651074
16	0xbe453d4b	-0.19261663
17	0xbe49565b	-0.19661848
18	0xbe6b5c6e	-0.22984478
19	0x3e056507	0.1302682
20	0xbf49d610	-0.7884226
21	0xbe98be64	-0.29832757
22	0xbf48f52a	-0.7849909
23	0x3ea754a3	0.3268176
24	0xbf2c0f1f	-0.6721057
25	0xbeefa4c8	-0.46805406
26	0xbe962dc0	-0.2933178
27	0xbef6cca6	-0.4820301
28	0x3dc7da8b	0.09758481
29	0xbe841716	-0.25798863
30	0xbf1c1d2e	-0.60982025
31	0xbeffc6eb	-0.4995645

decoder.3.weight f4 [32, 16, 3, 3]
0	0xbb8fc4b9	-0.004387465
1	0xbd242b1a	-0.040080167
2	0xbecc592e	-0.3991179
3	0xbe6e55cc	-0.23274916
4	0x3ce91e6e	0.028456893
5	0xbf70a2be	-0.93998325
6	0x3cbbe0c9	0.022934334
7	0x3b86d7cc	0.0041150805
8	0xbe64b1a9	-0.22333397
9	0x3dd3a398	0.103339374
10	0x3d73dfd3	0.059539627
11	0xbc184871	-0.009294615
12	0xbd8fdc6e	-0.070244655
13	0x3d969de1	0.07354332
14	0xbe892000	-0.26782227
15	0xbd579c2f	-0.052639183
16	0x3a9d52cf	0.0012002828
17	0xbe46a12c	-0.1939742
18	0x3eafbedc	0.34325302
19	0x3c4c12fa	0.012455696
20	0xbe25427f	-0.16138647
21	0xbee447d2	-0.44586045
22	0x3deedc7e	0.11663149
23	0xbe1c8e4b	-0.15288655
24	0x3e14002f	0.14453195
25	0xbe2049a9	-0.15653099
26	0xbd30e83e	-0.043190233
27	0xbe4cea7a	-0.2001132
28	0xbe341502	-0.17586139
29	0xbd017ab8	-0.031611174
30	0x3ce37c2a	0.027769167
31	0xbe1ce685	-0.15322311
32	0xbd8fdd8e	-0.0702468
33	0x3e8d953d	0.27652922
34	0xbe875662	-0.26433092
35	0x3d281bdd	0.041042197
36	0xbe35a8b8	-0.17740142
37	0xbe7c1829	-0.24618591
38	0x3e06f412	0.13179043
39	0xbeab07d4	-0.3340441
40	0xbe9fa456	-0.31180066
41	0x3d0fde18	0.035123914
42	0xbe34418b	-0.17603128
43	0xbe9c404b	-0.30517802
44	0xbd95e436	-0.073189184
45	0xbda64811	-0.08119214
46	0xbe858881	-0.26080707
47	0x3d6e573f	0.058188673
48	0xbe967131	-0.29383233
49	0xbe7e93ed	-0.24861117
50	0xbe579ccb	-0.21055906
51	0xbd5abf50	-0.053405106
52	0xbeb772f9	-0.35829905
53	0xbe17d346	-0.14826688
54	0xbe7136f3	-0.23556118
55	0xbe6ed624	-0.23323876
56	0xbe163cd9	-0.14671649
57	0xbe4c0c1d	-0.19926496
58	0xbec34703	-0.38140115
59	0xbe06c239	-0.13160028
60	0xbe264b41	-0.16239645
61	0xbe7520a5	-0.23938234
62	0xbda34a1a	-0.07973118
63	0xbf0aeeeb	-0.5427081
64	0xbe7eb396	-0.24873194
65	0xbd28d7d0	-0.04122144
66	0xbeb2ec59	-0.34945944
67	0x3e01d46c	0.12678689
68	0x3e22e5a2	0.1590791
69	0xbe680aa3	-0.22660308
70	0x3deee0f7	0.116640024
71	0x3e9b0352	0.3027597
72	0x3da0a08f	0.07843124
73	0x3e2d340b	0.16914384
74	0x3e53ffa1	0.20702983
75	0x3ddd95a8	0.1081956
76	0x3e4d10f7	0.20026003
77	0x3ec12233	0.37721404
78	0x3d903e1d	0.07043097
79	0x3da41976	0.08012669
80	0x3edde4f9	0.43338755
81	0x3d342e01	0.043989185
82	0x3e36dfe9	0.17858852
83	0x3e44fdea	0.19237486
84	0x3e22ba1f	0.15891312
85	0x3eca11c7	0.39466688
86	0x3e9594da	0.29215127
87	0x3df51cf3	0.11968412
88	0x3ed346a4	0.41264832
89	0x3ea7c7af	0.32769534
90	0xbdf18c94	-0.11794391
91	0x3d40d839	0.047081206
92	0xbe9f880d	-0.31158486
93	0x3d268476	0.04065367
94	0xbd5d8e0a	-0.054090537
95	0xbdedac4c	-0.11605129
96	0x3ea52679	0.32255915
97	0xbe9699b3	-0.29414138
98	0x3e3e9924	0.18613106
99	0xbf190641	-0.5977517
100	0xbdf029c7	-0.117267184
101	0x3ef4d72f	0.47820422
102	0xbcddce60	-0.027075946
103	0x3e4909de	0.1963267
104	0xbdd99173	-0.10623445
105	0xbed40673	-0.4141117
106	0xbd91bc84	-0.071160346
107	0x3ecb4baa	0.39706165
108	0xbea94526	-0.3306057
109	0xbeb15380	-0.34634018
110	0xbe8cfa6e	-0.27534813
111	0xbe4000f4	-0.18750364
112	0xbec1051c	-0.3769921
113	0xbdbe7ff3	-0.09301748
114	0xbe8e71e1	-0.27821258
115	0xbda79533	-0.08182754
116	0xbdb6e2cb	-0.08929976
117	0x3d85c32d	0.065313675
118	0x3e03a39e	0.12855384
119	0xbde3f40a	-0.11130531
120	0xbead3a99	-0.3383377
121	0x3c78482d	0.015153927
122	0xbe81c4c7	-0.25345442
123	0x3e3a4013	0.18188505
124	0x3e5c0cd4	0.21489269
125	0xbe0d0c8b	-0.13774316
126	0x3d8d16cc	0.06889114
127	0x3e50aaf4	0.20377713
128	0x3e701aed	0.23447771
129	0x3de3de11	0.1112634
130	0x3e4f7dfc	0.20262903
131	0x3f07afee	0.5300282
132	0x3e5f421a	0.2180256
133	0x3ec0b34f	0.37636802
134	0x3ecf507c	0.40491092
135	0x3a9bbcd6	0.0011881839
136	0xbc988b63	-0.018621152
137	0xbdb7677a	-0.089552835
138	0xbda5a1b6	-0.080874845
139	0x3e1bfea0	0.1523385
140	0xbdaec686	-0.08533959
141	0x3da59728	0.080854714
142	0x3e99ebd5	0.30062738
143	0xbea3050a	-0.31839782
144	0xbebdd984	-0.37080014
145	0x3d29d1cf	0.041459855
146	0xbcee5e47	-0.02909769
147	0x3cb4f8f4	0.022091366
148	0xbbbb10b6	-0.005708779
149	0xbd4f2a95	-0.05057772
150	0xbdaa98f6	-0.08329956
151	0xbe4e4be6	-0.2014614
152	0xbd92bd8e	-0.07165061
153	0xbe40591b	-0.18783991
154	0xbe50605a	-0.20349255
155	0xbcba184c	-0.022716664
156	0x3dcaa810	0.09895337
157	0x3d519d66	0.051175497
158	0xbc3ba649	-0.01145322
159	0x3dada7cd	0.08479271
160	0xbcadbe1c	-0.021208815
161	0xbce3bdd0	-0.02780047
162	0x3e864741	0.26226237
163	0x3ce2ccde	0.027685579
164	0x3e4af64f	0.19820522
165	0x3e20179c	0.15634006
166	0x3bf63041	0.0075130765
167	0x3e72c66c	0.23708504
168	0x3d4fec06	0.0507622
169	0x3dd13242	0.10214664
170	0x3e479873	0.19491749
171	0x3ca89c1d	0.020582253
172	0x3dc79f3a	0.09747167
173	0xbd56c5a2	-0.05243457
174	0x3e080b59	0.13285579
175	0xbd7b5717	-0.061362352
176	0x3dc9c347	0.09851699
177	0xbdc5f2ac	-0.096654266
178	0x3d68467f	0.056707855
179	0x3e02cbfb	0.12773125
180	0xbd2296a7	-0.039694455
181	0x3dc379fb	0.0954475
182	0x3da680e8	0.08130056
183	0xbc33faf3	-0.010985124
184	0x3e4091bc	0.18805593
185	0x3e5e4c79	0.2170886
186	0x3c7abfb4	0.015304495
187	0x3e58f35a	0.21186581
188	0x3e2d04b9	0.16896333
189	0xbd2de655	-0.04245599
190	0x3c443029	0.011974373
191	0xba89d015	-0.0010514284
192	0x3e52411f	0.20532654
193	0x3dc789dc	0.097430915
194	0x3ebdc0a2	0.3706103
195	0x3d888c85	0.06667427
196	0x3e9b07c1	0.30279353
197	0x3eb3c01e	0.3510751
198	0xbcb9fd11	-0.02270368
199	0xbd231bd5	-0.039821465
200	0xbe3739ef	-0.17893194
201	0xbdab3a66	-0.08360748
202	0xbe1c4c22	-0.15263417
203	0x3c88115f	0.016609846
204	0xbd639b8c	-0.055568263
205	0xbd63fc38	-0.055660456
206	0x3e0a626e	0.1351411
207	0xbe4aa9e4	-0.1979137
208	0xbd3c971f	-0.046042558
209	0xbe0cb3c4	-0.1374045
210	0xbe883e49	-0.2661002
211	0xbda8b5d7	-0.08237808
212	0x3d081043	0.033218633
213	0x3d5dc3a5	0.05414166
214	0x3cc144a3	0.023592299
215	0x3dfac8d2	0.12245335
216	0x3e06f9db	0.1318125
217	0x3d6245c9	0.055242334
218	0x3d2c6b0e	0.042094283
219	0x3dbf1a05	0.09331135
220	0x3e202168	0.15637743
221	0x3d89eb94	0.06734386
222	0x3e3b07cc	0.18264693
223	0x3dcadddf	0.099056
224	0x3d0cc188	0.034364253
225	0xbe4ba387	-0.198866
226	0xbea64a12	-0.32478386
227	0xbe7603e3	-0.2402492
228	0xbe252d4a	-0.16130558
229	0xbe8ce3ce	-0.2751755
230	0xbe2c715b	-0.16840117
231	0x3bd0360a	0.006354098
232	0xbdc3ec96	-0.095666096
233	0xbe083b1e	-0.13303801
234	0xbe3932c4	-0.18085772
235	0x3e5af27b	0.21381561
236	0xbeee31cb	-0.46522364
237	0xbd98bf2c	-0.07458338
238	0xbe5af522	-0.21382573
239	0xbba55216	-0.005045186
240	0xbdca803f	-0.09887742
241	0xbe0c2fd9	-0.13690127
242	0xbef992ec	-0.48744905
243	0x3e2d15a5	0.16902788
244	0xbcec75cc	-0.028864764
245	0xbd46a23e	-0.04849457
246	0xbdd4744a	-0.10373743
247	0xbe561a07	-0.20908366
248	0x3de93575	0.11387149
249	0xbeed999c	-0.46406257
250	0x3e4447e5	0.1916805
251	0xbd012a09	-0.03153423
252	0x3e073732	0.13204649
253	0xbe5ff0e2	-0.21869233
254	0x3e86ab75	0.26302686
255	0x3dc5bacc	0.09654769

decoder.3.bias f4 [16]
0	0xbe99ecf2	-0.30063587
1	0x3d03b4ad	0.032154728
2	0x3df62155	0.12018076
3	0xbf5b925b	-0.85770196
4	0xbea06d37	-0.31333324
5	0x3f75ecce	0.9606446
6	0x3eb75d20	0.35813236
7	0x3ebe635b	0.37185177
8	0x3eadef8a	0.33971816
9	0xbe0f7ab6	-0.14011654
10	0x3e1fed4b	0.15617864
11	0x3ee0394b	0.4379371
12	0x3ee975be	0.45597643
13	0xbc4992b0	-0.012303039
14	0x3f7aaf38	0.9792361
15	0xbed47dfc	-0.41502368

decoder.5.weight f4 [16, 1, 3, 3]
0	0xbe0611f1	-0.13092782
1	0x3e119c1c	0.14219707
2	0x3e670145	0.22559078
3	0x3c352684	0.011056546
4	0x3ec3ceb1	0.3824363
5	0x3e93c1ef	0.28858897
6	0x3e70e586	0.23525056
7	0x3ece3d50	0.40281153
8	0x3e89f160	0.26941967
9	0x3ddcc6c2	0.107800975
10	0xbca6f843	-0.020382052
11	0x3e3dc562	0.18532327
12	0xbb144eab	-0.0022629898
13	0x3c520c44	0.012820307
14	0x3ec9bf61	0.39403823
15	0xbd8799fa	-0.066211656
16	0x3e4bcf78	0.19903362
17	0x3ea89297	0.3292434
18	0x3dc4ad2e	0.09603344
19	0x3e7eab29	0.2486998
20	0x3ccd299e	0.025044259
21	0x3e11bdcc	0.14232558
22	0x3d67acd1	0.056561295
23	0xbea60e1b	-0.32432637
24	0xba56aa88	-0.0008188863
25	0xbea3ae5a	-0.31968957
26	0xbee46aa9	-0.44612625
27	0x3ed79767	0.42107698
28	0x3ed02915	0.40656343
29	0x3de1dc4b	0.11028346
30	0x3f41bf54	0.7568257
31	0x3f2cfb34	0.67570806
32	0x3d91451c	0.0709326
33	0x3f010676	0.50400484
34	0x3ed3d16d	0.41370717
35	0x3e005ec0	0.12536144
36	0xbec0f980	-0.37690353
37	0xbf3430fc	-0.70387244
38	0xbf241ea6	-0.64109266
39	0x3ea331cf	0.31873938
40	0x3dd834e3	0.10556962
41	0xbee1738c	-0.44033468
42	0xbbe488db	-0.0069743223
43	0x3ee34c75	0.4439427
44	0xbe95834e	-0.2920174
45	0x3cab87f9	0.02093886
46	0x3e7c05a4	0.24611527
47	0x3eb8c2b2	0.3608604
48	0xbee392dc	-0.44447982
49	0xbdde1faf	-0.10845887
50	0x3ec6d730	0.3883605
51	0xbeae1cd8	-0.3400638
52	0xbdb3cbd7	-0.08779114
53	0x3e9469aa	0.28986865
54	0xbe9b58dc	-0.30341232
55	0xbed358af	-0.41278598
56	0xbe3f6e95	-0.18694527
57	0xbec530c7	-0.38513777
58	0xbe22e1e2	-0.1590648
59	0x3c5968ef	0.013269647
60	0xbe2f31d8	-0.17108858
61	0xbd465602	-0.048421867
62	0xbe09df2f	-0.13464044
63	0x3d0e32e0	0.034716487
64	0xbe84f0de	-0.25965017
65	0xbe749586	-0.23885164
66	0xbe6a1c54	-0.22862369
67	0xbf21d366	-0.63213193
68	0xbe90c903	-0.2827836
69	0xbdeca3d7	-0.115546875
70	0xbe06f3a1	-0.13178875
71	0x3e252d89	0.16130652
72	0xbef46d75	-0.4773976
73	0xbe8d3a03	-0.27583322
74	0xbcc5b4d4	-0.024134077
75	0xbe96d5d2	-0.29460007
76	0xbeb52f2a	-0.35387546
77	0xbe505c1d	-0.20347638
78	0xbd496eea	-0.04917804
79	0xbe2b6c78	-0.16740596
80	0xbe771d89	-0.2413236
81	0xbf003d49	-0.50093514
82	0x3eebfde1	0.46092132
83	0xbdc52225	-0.09625653
84	0xbf381215	-0.7190259
85	0x3d7560dd	0.05990683
86	0x3eae0c10	0.33993578
87	0xbefa62e9	-0.48903587
88	0xbef6fceb	-0.48239836
89	0xbeb4d588	-0.3531916
90	0x3e4cfb9c	0.20017856
91	0x3ebcb2c6	0.36855143
92	0x3e46761e	0.19380996
93	0x3dc784f8	0.09742159
94	0x3cfef81f	0.031124173
95	0xbde01112	-0.10940756
96	0xbde8124d	-0.113316156
97	0xbe90074d	-0.2813057
98	0xbe65def0	-0.22448325
99	0x3d2d4dea	0.042310633
100	0xbe3d6fb3	-0.18499641
101	0xbe21122c	-0.15729588
102	0x3c6f4c9d	0.014605668
103	0xbec0c73e	-0.3765201
104	0xbeb3f4d5	-0.3514773
105	0x3db3d981	0.0878172
106	0xbe71e021	-0.23620655
107	0xbf0662b6	-0.5249437
108	0x3e80d884	0.25165188
109	0x3e8d8f29	0.27648285
110	0x3e3dc1a9	0.18530907
111	0xbe56441d	-0.2092442
112	0xbed02259	-0.40651205
113	0xbdab642d	-0.083687164
114	0xbe7fc0f2	-0.24975947
115	0xbeadc1f2	-0.3393703
116	0xbd6d2a9a	-0.057901956
117	0x3e7ad5ba	0.24495593
118	0x3e2341e7	0.15943108
119	0x3d83f7bd	0.06443737
120	0x3eb64fbb	0.35607705
121	0x3db9d363	0.09073522
122	0x3db81610	0.08988583
123	0x3e28672c	0.16445607
124	0x3e26c823	0.16287284
125	0xbee1f8b6	-0.44135064
126	0x3e85a4df	0.2610235
127	0xbeecaeb5	-0.4622704
128	0xbea6394b	-0.32465586
129	0x3ea6c746	0.3257391
130	0xbe721c31	-0.23643567
131	0xbe80ec65	-0.25180355
132	0x3eba0a4d	0.36335984
133	0x3e965ced	0.29367772
134	0x3e862667	0.26201174
135	0xbd8ca36c	-0.06867108
136	0x3e8e0fc4	0.27746403
137	0x3ec58f07	0.38585684
138	0x3e01b643	0.12667184
139	0x3ecb4b32	0.39705807
140	0x3ea7c6ed	0.32768956
141	0x3e898760	0.26861095
142	0x3e950ab8	0.2910974
143	0x3dc2e358	0.09516019
