02-Autoencoder/01-PT-MNIST-basic/cnn16-cropped-classifier.pth (torch, 124231 bytes, 10 tensors)

0.0.weight f4 [16, 1, 3, 3]
0	0xbd2be4a4	-0.041966096
1	0x3e09db42	0.13462546
2	0xbdd5ad61	-0.1043346
3	0x3e2e3e8a	0.17016044
4	0xbe3a5a3b	-0.18198483
5	0x3d0184b4	0.031620696
6	0x3e81ece3	0.25376043
7	0xbf03a981	-0.5143052
8	0x3e7b482e	0.24539253
9	0x3e11045f	0.14161824
10	0x3bb7007f	0.005584776
11	0xbdc5457a	-0.09632392
12	0xbe9a2d41	-0.3011265
13	0xbf01c989	-0.50698143
14	0xbd835c86	-0.06414132
15	0x3e1edb6b	0.15513389
16	0x3e8bd48e	0.27310604
17	0x3ec69ba1	0.3879061
18	0x3e636c9a	0.22209397
19	0x3e61473d	0.21999831
20	0x3d991123	0.07473972
21	0x3e3ef684	0.18648726
22	0x3e1c5da5	0.15270098
23	0xbecd59b4	-0.401075
24	0xbe9e0941	-0.30866435
25	0xbf01f959	-0.507711
26	0xbe921d5f	-0.28538033
27	0x3ed2b2ac	0.4115194
28	0x3e859f33	0.26098022
29	0x3eaf6f93	0.34264812
30	0x3cbb9b25	0.022901127
31	0xbe86b8f2	-0.26312977
32	0xbeae6fee	-0.3406977
33	0x3cb67da5	0.022276709
34	0xbd97ce9b	-0.07412454
35	0xbe3900d5	-0.18066724
36	0xbcc6185c	-0.024181537
37	0x3e2681d0	0.16260457
38	0x3f0be45e	0.54645336
39	0xbe94dbb5	-0.29073873
40	0xbecb0d0a	-0.39658386
41	0x3e7e8f28	0.24859297
42	0xbddb7ec7	-0.1071754
43	0xbe6319a2	-0.22177747
44	0x3e0f358e	0.13985273
45	0x3d9a58eb	0.07536491
46	0x3e525c28	0.20542967
47	0xbe08472d	-0.13308401
48	0xbbdb7085	-0.006696763
49	0x3ee2cb23	0.44295606
50	0x3e3937a1	0.18087627
51	0xbf0d195e	-0.5511683
52	0xbe281020	-0.16412401
53	0x3c6c2cbe	0.014414964
54	0xbb4788df	-0.0030446572
55	0x3bf495df	0.007464155
56	0xbeac5cce	-0.33664554
57	0x3c233252	0.009960728
58	0x3eaed367	0.34145662
59	0x3dc3be91	0.09557832
60	0xbe99658d	-0.2996029
61	0xbe45f702	-0.19332507
62	0x3e81d76f	0.25359675
63	0xbea4c904	-0.32184613
64	0xbebed15f	-0.37269112
65	0xbec8a0cb	-0.39185175
66	0x3ea277f2	0.31732136
67	0x3d007ecd	0.031370927
68	0xbdc1a6e4	-0.0945566
69	0x3e964742	0.2935124
70	0x3e5e9525	0.21736582
71	0x3dfa751d	0.12229369
72	0x3e93d5df	0.28874108
73	0xbd39b6b0	-0.04534024
74	0xbe9980c6	-0.2998106
75	0x3e89e1c6	0.26930064
76	0xbcee6828	-0.0291024
77	0xbefc6970	-0.49299192
78	0x3e8148ce	0.25250858
79	0x3e32ff8a	0.17480293
80	0xbc5fe9b3	-0.013666558
81	0xbf8401f7	-1.03131
82	0xc098cf69	-4.7753186
83	0xbf5a4eb6	-0.85276353
84	0xbfb10ba7	-1.3831681
85	0xc0f67b88	-7.7025795
86	0xc0819364	-4.049242
87	0x3e80dad3	0.2516695
88	0xbffc3300	-1.9703064
89	0xbf9d118e	-1.2270982
90	0x3ea71f1f	0.3264093
91	0x3e39891d	0.18118711
92	0xbd01adf1	-0.031660024
93	0xbdab00e1	-0.08349777
94	0xbe9c3eb2	-0.30516583
95	0xbdcea586	-0.10090165
96	0xbe6ab7e8	-0.22921717
97	0x3db70450	0.089363694
98	0x3e72ce6b	0.23711555
99	0xbdcc8fbf	-0.09988355
100	0x3e7ca370	0.24671721
101	0xbeb23fc6	-0.3481428
102	0xbdd6a6f2	-0.10481061
103	0x3ed0760c	0.40715063
104	0xbe383d29	-0.17992081
105	0xbdeec414	-0.11658493
106	0x3e4320bb	0.19055454
107	0xbe8f8a68	-0.28035283
108	0xbee3b612	-0.44474846
109	0xbe28d96b	-0.16489188
110	0x3d0e897c	0.034799084
111	0xbee7b40a	-0.45254546
112	0x3e955196	0.29163808
113	0x3e9eb330	0.30996084
114	0xbed7b023	-0.4212657
115	0x3e846f14	0.25865996
116	0x3e7d138e	0.24714491
117	0xbd20fce2	-0.039303668
118	0x3b75624b	0.003744262
119	0xbd7698e7	-0.060204413
120	0xbd2d80a7	-0.04235902
121	0xbd0f9576	-0.035054646
122	0xbd508299	-0.050905798
123	0xbcba44c9	-0.022737877
124	0x3a615294	0.0008595374
125	0x3be2a3c3	0.0069164946
126	0xbeec39ff	-0.46137998
127	0x3de0d78f	0.109786145
128	0x3e2045d8	0.15651643
129	0x3e56710a	0.20941558
130	0x3ed691e9	0.41908196
131	0xbd151942	-0.03640104
132	0x3e7e9ab8	0.24863708
133	0xbd43042b	-0.047611397
134	0xbe924090	-0.28564882
135	0x3dbc1070	0.09182823
136	0x3c97cb74	0.018529631
137	0xbea30d5c	-0.3184613
138	0x3d4ffd32	0.050778575
139	0x3e299235	0.1655968
140	0xba6119c4	-0.0008586908
141	0x3e1319a3	0.14365248
142	0x3d777c74	0.060421422
143	0x3e3cf22d	0.18451758

0.0.bias f4 [16]
0	0xbb43afaa	-0.0029859343
1	0xbb16011b	-0.0022888843
2	0x3d409214	0.04701431
3	0xbbce568b	-0.006296938
4	0xb9fd9808	-0.00048369193
5	0xbd498726	-0.049201153
6	0xbb32727d	-0.0027228885
7	0x3cf2dee6	0.029647302
8	0xbb873a7c	-0.004126845
9	0x3e8497c1	0.2589703
10	0xbbcd2d76	-0.006261523
11	0x3d15c64e	0.03656607
12	0x3cb4ee75	0.022086361
13	0xbd6c7b28	-0.05773464
14	0xbe5a0a18	-0.21292913
15	0xbe19bbbe	-0.15013024

0.2.weight f4 [32, 16, 3, 3]
0	0x3e0ab884	0.1354695
1	0x3b2d94b5	0.0026486341
2	0xbe33ec34	-0.17570573
3	0x3e18f047	0.14935409
4	0xbcd0a146	-0.025467526
5	0xbd91faaa	-0.071278885
6	0x3dbdd8c9	0.09269864
7	0x3a419615	0.00073847297
8	0xbdd1dbb8	-0.10246986
9	0x3cf8c883	0.030369049
10	0xbe6c074a	-0.23049656
11	0xbe9b1e78	-0.30296683
12	0xbe9aef5f	-0.3026075
13	0xbf0994e7	-0.5374283
14	0xbecf4326	-0.40480918
15	0xbd84e055	-0.064881004
16	0xbc238dd9	-0.00998255
17	0x3ce1da89	0.027570026
18	0xbe0ef422	-0.13960317
19	0x3d5fe999	0.054666135
20	0xbe883b81	-0.26607898
21	0x3e564e6b	0.20928352
22	0x3bd8e564	0.0066191424
23	0xbea07799	-0.31341246
24	0x3d5bca3a	0.053659655
25	0xbde0b3a9	-0.109717675
26	0xbdfd7222	-0.12375285
27	0xbec35137	-0.381479
28	0xbd92ca94	-0.07167545
29	0xbd316bdd	-0.043315757
30	0xbe6c1cc8	-0.23057854
31	0xbe4bf7cd	-0.19918747
32	0xbe5b2f2b	-0.21404712
33	0xbd8a9704	-0.06767085
34	0xbe1bb338	-0.15205085
35	0xbdf8ed8d	-0.12154684
36	0x3d505e03	0.050870907
37	0x3dee270a	0.1162854
38	0x3e7dbd40	0.24779224
39	0xbc36d7d5	-0.011159857
40	0xbc547231	-0.0129666785
41	0x3ccfdd3f	0.025374053
42	0x3d33deff	0.043913838
43	0x3ddf3c22	0.10900141
44	0x3dd872e1	0.105687864
45	0x3e1e17bf	0.15438746
46	0x3dd285f3	0.10279455
47	0x3de93b53	0.11388268
48	0x3d8f02c7	0.069829516
49	0xbc940f03	-0.018073564
50	0xbc06844a	-0.008210251
51	0x3d78bea6	0.06072869
52	0xbd251dfb	-0.040311795
53	0x3d5db664	0.05412902
54	0xbdea2084	-0.11431983
55	0xbe978535	-0.29593816
56	0xbe8c66e7	-0.27422258
57	0x3b3acb72	0.002850261
58	0x3d1df2cf	0.03856164
59	0x3de434df	0.11142897
60	0x3ddd4809	0.10804755
61	0x3da15866	0.07878189
62	0x3de39720	0.11112809
63	0x3e3438d1	0.17599799
64	0xbea2190a	-0.31659728
65	0xbf14b5dd	-0.5809
66	0xbdc30ea2	-0.09524275
67	0xbe08c43c	-0.13356107
68	0xbe49da77	-0.19712244
69	0xbefeb71d	-0.4974908
70	0xbe4a6f0e	-0.19768927
71	0xbe0b45e3	-0.13600878
72	0x3db72cca	0.0894409
73	0x3e3250de	0.17413661
74	0x3ce6fe8f	0.028197555
75	0xbd6be8f2	-0.0575952
76	0xbdab65c4	-0.0836902
77	0xbda610c3	-0.08108666
78	0xbcd1295a	-0.025532413
79	0x3dd21c4f	0.10259306
80	0x3daf2128	0.08551246
81	0x3d9da2cc	0.07697067
82	0x3b9f17f0	0.0048551485
83	0xbe7ce4ee	-0.24696705
84	0xbe353f89	-0.17700018
85	0xbe9c3d70	-0.30515623
86	0xbe0ed7dd	-0.13949533
87	0x3e1c46e7	0.15261422
88	0x3db80718	0.08985728
89	0xbd541856	-0.05178102
90	0x3cef697b	0.029225102
91	0xbd137c80	-0.036007404
92	0xbda43c57	-0.080193214
93	0x3e8eba34	0.27876437
94	0x3d26971c	0.040671453
95	0xbdf2c162	-0.11853291
96	0x3e2577a1	0.16158916
97	0x3e15f1f0	0.14643073
98	0xbd2c8cf7	-0.042126622
99	0x3e7d3ae4	0.24729496
100	0x3eb319d3	0.3498064
101	0x3e8ed116	0.27893895
102	0x3e0aec9b	0.1356682
103	0x3e5bf312	0.21479443
104	0x3e208d9c	0.1567902
105	0xbcd9bc85	-0.02657915
106	0xbdebb03f	-0.11508226
107	0xbd00b1ae	-0.03141945
108	0x3e092593	0.1339324
109	0x3cff0d23	0.031134194
110	0xbc6b0cc1	-0.0143463025
111	0x3dccbe67	0.09997254
112	0x3daca332	0.084295645
113	0x3e0f0811	0.13967921
114	0x3e120c3d	0.14262481
115	0x3d901181	0.070345886
116	0xbc5d87a0	-0.013521105
117	0x3c29b58f	0.010358228
118	0x3b68a33f	0.0035497693
119	0x3a165ed3	0.0005736176
120	0x39cdbb99	0.00039240418
121	0x3c4b7236	0.012417367
122	0x3c516071	0.012779341
123	0x3a9f4a1d	0.0012152825
124	0xbc6fb69c	-0.01463094
125	0x3b162372	0.002290931
126	0x3cb6d322	0.022317473
127	0xbd617791	-0.055045668
128	0xbe0d3882	-0.13791087
129	0xbe1c5ad9	-0.1526903
130	0xbe164812	-0.1467593
131	0xbd4655bb	-0.048421603
132	0x3d06cc3e	0.032909624
133	0xbe029476	-0.12751946
134	0xbba2c0ac	-0.004966816
135	0xbe4dfd8d	-0.20116253
136	0xbdb9c2af	-0.09070336
137	0xbd06c85b	-0.032905918
138	0xbddff741	-0.10935832
139	0x3c00da60	0.007864565
140	0x3d728dba	0.059217192
141	0x3dde505e	0.108551726
142	0x3e4cd058	0.20001352
143	0x3e7bbe49	0.24584307
144	0x3eaf0fe9	0.34191826
145	0x3e71086b	0.23538367
146	0x3d301b3f	0.042994734
147	0x3eb9b549	0.36271122
148	0x3ec69153	0.3878275
149	0x3dfe5ef6	0.12420456
150	0x3cd7b65e	0.026332077
151	0xbda5f97c	-0.08104226
152	0xbdf5d83d	-0.12004135
153	0xbdd4620b	-0.10370263
154	0xbda13345	-0.07871107
155	0x3e4c1aee	0.19932148
156	0xbeb77965	-0.35834804
157	0xbe1ba32f	-0.15198968
158	0xbbde2138	-0.0067788623
159	0xbece0b8e	-0.4024319
160	0xbe3fe9fe	-0.18741605
161	0xbe92daf8	-0.28682685
162	0x3c871d63	0.016493505
163	0x3d733dd1	0.059385125
164	0x3dac94bb	0.084268056
165	0x3d48d174	0.049027875
166	0x3df55de0	0.11980796
167	0x3df54388	0.11975771
168	0xbb67e04e	-0.0035381499
169	0x3dfb2860	0.1226356
170	0x3e95eb46	0.29281062
171	0xbd8fabcf	-0.07015192
172	0x3d72d56f	0.059285577
173	0x3db7a022	0.0896609
174	0xbe0a6e8b	-0.13518731
175	0xbc80ed9e	-0.015738305
176	0x3d4a1f8e	0.0493465
177	0xbe87ba50	-0.26509333
178	0xbd8b0772	-0.067885295
179	0x3dbbc55a	0.09168501
180	0xbd250d84	-0.040296093
181	0xbd92a4fc	-0.071603745
182	0xbe2c71fd	-0.16840358
183	0x3e3318e7	0.17489968
184	0x3b3c50d6	0.0028734705
185	0xbd5e2e03	-0.0542431
186	0x3e790e71	0.24321915
187	0x3d075716	0.033042036
188	0xbe0e91ef	-0.13922857
189	0xbda9317c	-0.082613915
190	0xbd3a0675	-0.045416314
191	0xbe0f3154	-0.13983661
192	0xbdb2cfc9	-0.08731038
193	0xbe819602	-0.2530976
194	0xbe7ca744	-0.24673182
195	0x3d81335f	0.063086264
196	0x3c14ba2e	0.009077592
197	0x3bbd4789	0.00577635
198	0x3d71a46a	0.058994688
199	0x3d4a494d	0.04938631
200	0x3e7a21aa	0.24426904
201	0x3e14bc69	0.14524998
202	0x3da223bf	0.07916974
203	0xbd48da92	-0.04903657
204	0x3db78e5d	0.089627005
205	0xbcab441e	-0.020906504
206	0xbe1fbac8	-0.15598595
207	0xbe073eda	-0.1320757
208	0xbdc96785	-0.09834198
209	0xbe50dd11	-0.2039683
210	0xbeb9358c	-0.36173666
211	0xbdd81126	-0.10550146
212	0xbd28cd4c	-0.04121141
213	0xbe800cee	-0.25009865
214	0xbe37c7f5	-0.17947371
215	0xbdea686c	-0.11445698
216	0xbe0ba0ff	-0.13635634
217	0xbdbfa7a9	-0.093581505
218	0xbdad669f	-0.08466839
219	0xbe82776d	-0.2548174
220	0x3dce1150	0.10061896
221	0x3c95756a	0.018244464
222	0x3d8cfd65	0.06884269
223	0x3caea55a	0.02131908
224	0x3d7d5f68	0.061858565
225	0x3e704a18	0.23465765
226	0x3d1cd3f2	0.038288064
227	0xbe8bed56	-0.2732951
228	0x3e6371b9	0.2221135
229	0xbe4fa228	-0.20276701
230	0xbecc9430	-0.39956808
231	0x3e91bd28	0.28464627
232	0xbe7fc8ea	-0.24978986
233	0xbeb2e289	-0.34938458
234	0xbd0b62fc	-0.034029946
235	0xbd6140a5	-0.05499329
236	0x3e045462	0.12922814
237	0xbd0b9363	-0.034076106
238	0xbc8b8986	-0.01703335
239	0xbd843f7b	-0.064574204
240	0xbe957ee8	-0.29198384
241	0xbc2874b9	-0.010281735
242	0xbda85ef2	-0.082212344
243	0xbda05100	-0.078279495
244	0xbc9b84f9	-0.018984305
245	0xbd345e27	-0.044035103
246	0x3e77c996	0.24197993
247	0x3dd2dad7	0.10295647
248	0x3e329653	0.17440157
249	0x3d9eb7fa	0.077499345
250	0x3dd6d591	0.10489953
251	0x3e51e93c	0.20499128
252	0xbcba1476	-0.022714835
253	0x3c49c278	0.012314431
254	0x3e414225	0.18872888
255	0x3dc2f72a	0.09519799

0.2.bias f4 [32]
0	0x3e555c3b	0.20835964
1	0x3e63d6c9	0.22249903
2	0xbd46f6fe	-0.048575394
3	0x3e4d1198	0.20026243
4	0x3dd1af84	0.10238555
5	0x3da3f186	0.08005051
6	0x3d64a255	0.055818874
7	0x3ecb8de8	0.39756703
8	0x3df1fa9d	0.11815379
9	0xbd965f24	-0.073423654
10	0x3c366b6f	0.011134013
11	0x3dd2fceb	0.103021465
12	0xbbf9f851	-0.0076284786
13	0x3d772afc	0.060343727
14	0x3e6e55e3	0.2327495
15	0x3e096b78	0.13419902
16	0xbcd57499	-0.026056575
17	0xbad94fc3	-0.0016579557
18	0xbccd7365	-0.025079438
19	0x3cfbba2b	0.03072842
20	0x3d16f436	0.03685399
21	0xbb91f36b	-0.0044540665
22	0x3c3bfdd8	0.011474095
23	0x3dd0085e	0.10157846
24	0xbdf773d9	-0.12082643
25	0xbbac7c2f	-0.0052638273
26	0x3d7e1a7f	0.062036987
27	0x3d92fd81	0.07177258
28	0xba1e86c9	-0.0006047306
29	0xbb276248	-0.0025540758
30	0xbdaa38b7	-0.08311599
31	0x3da955c4	0.082683116

0.4.weight f4 [16, 32, 7, 7]
0	0x3ea54f88	0.3228724
1	0x3e87f985	0.26557556
2	0x3e718cd0	0.23588872
3	0x3e5c774c	0.21529883
4	0x3e57f177	0.21088205
5	0x3e6f4888	0.23367512
6	0x3d454ee2	0.04817093
7	0x3da6ab7c	0.08138177
8	0x3e244b67	0.16044389
9	0x3e09286d	0.13394327
10	0x3e0a8cbc	0.13530248
11	0x3e0565f2	0.1302717
12	0x3e4be35b	0.19910948
13	0xbd682689	-0.056677375
14	0xbdc01a06	-0.093799636
15	0xbd05b4b8	-0.03264305
16	0xbdb64c81	-0.08901311
17	0xbc20de51	-0.009818629
18	0xbd3cb110	-0.046067297
19	0xbc093822	-0.0083751995
20	0xbe73349e	-0.2375054
21	0xbe2e3eb2	-0.17016104
22	0xbccc6f18	-0.024955317
23	0xbd4487b8	-0.047980994
24	0xbc5c926b	-0.013462643
25	0xbdbe7d8b	-0.09301289
26	0xbd201e35	-0.039091308
27	0xbe11b92a	-0.1423079
28	0xbe0c75e0	-0.1371684
29	0xbda1f3b5	-0.079078116
30	0xbdbd7848	-0.092514575
31	0xbda7360c	-0.081646055
32	0xbdc41edb	-0.09576198
33	0xbdb1ddb5	-0.086848654
34	0xbe5c6c05	-0.21525581
35	0xbe2353a6	-0.15949878
36	0xbd3020e2	-0.04300011
37	0xbdb8717b	-0.0900602
38	0xbd493c7b	-0.049129944
39	0xbd24cf07	-0.0402365
40	0xbde80717	-0.11329477
41	0xbe10b520	-0.14131594
42	0xbd82e1eb	-0.06390747
43	0xbdea737c	-0.11447808
44	0xbe2ddb68	-0.16978228
45	0xbd6189f2	-0.055063196
46	0xbc2e4745	-0.010637109
47	0x3da44b67	0.08022194
48	0xbd2f9437	-0.042865958
49	0xbdb46570	-0.0880841
50	0xbcb1c127	-0.021698548
51	0x3db7d9b5	0.08977071
52	0x3d8f2b9e	0.06990741
53	0x3d31ee36	0.043440066
54	0x3d2f10cf	0.04274064
55	0x3eaea666	0.34111327
56	0xbe188f29	-0.14898361
57	0xbe6cc47b	-0.23121826
58	0xbe33a9c1	-0.17545225
59	0xbe76c793	-0.24099569
60	0xbe421743	-0.18954186
61	0xbe06a7de	-0.13149974
62	0x3e6f71c6	0.23383245
63	0xbe23b84f	-0.15988277
64	0xbe5d0d09	-0.21587004
65	0xbe37d2d7	-0.17951523
66	0xbe206189	-0.15662207
67	0xbe311110	-0.17291665
68	0xbe8e4f3f	-0.27794835
69	0xbc8e75c9	-0.017390149
70	0xbd149c98	-0.036282152
71	0xbe1a4c98	-0.1506828
72	0xbe309114	-0.17242843
73	0xbddc9632	-0.10770835
74	0xbe151e51	-0.14562346
75	0xbe1f7983	-0.15573697
76	0xbdc0fca2	-0.09423186
77	0xbd2e5227	-0.042558815
78	0xbd851cc5	-0.06499628
79	0xbdec6ffc	-0.11544797
80	0xbd2bf409	-0.041980777
81	0xbdcb8a5d	-0.099385
82	0xbd1afc92	-0.037838526
83	0x3c962dfd	0.018332476
84	0xbd182fae	-0.037154846
85	0x3cca97d1	0.024730595
86	0xbcd122f0	-0.025529355
87	0xbbca6acc	-0.006177282
88	0xbceaed6c	-0.028677665
89	0x3d9b6198	0.07586974
90	0x3e08d2da	0.13361683
91	0xbe1895b9	-0.14900865
92	0x3cf878b5	0.030330995
93	0xbd0df3b6	-0.03465625
94	0x3c095334	0.008381654
95	0xbcc82307	-0.024430765
96	0xbd80a432	-0.06281318
97	0xbe96ce41	-0.29454234
98	0xbdfeb356	-0.12436549
99	0x3c6df1ca	0.014522979
100	0xbd6fb9f6	-0.058526956
101	0xbd6ff526	-0.0585834
102	0xbe12056a	-0.14259878
103	0xbe4af41e	-0.19819686
104	0xbea40522	-0.32035166
105	0x3ddcba22	0.107776895
106	0x3df86ce7	0.121301465
107	0xbd53c210	-0.051698744
108	0x3a8c1353	0.0010686911
109	0x3cb27313	0.021783387
110	0xbd8e5ac3	-0.06950905
111	0xbdffc31a	-0.124883845
112	0x3e06b0bf	0.13153361
113	0x3d9f6ed9	0.077848144
114	0x3c911aef	0.017713038
115	0x3c297d6f	0.010344847
116	0xbcb91933	-0.022595024
117	0xbd631098	-0.055435747
118	0xbca6b0f0	-0.020348042
119	0x3e322e31	0.17400433
120	0x3e2b8480	0.16749763
121	0x3d62a1f0	0.055330217
122	0xbc93fca5	-0.018064806
123	0xbc4f6df5	-0.012660493
124	0x3bd08f2c	0.0063647237
125	0x3d8b3fdf	0.06799292
126	0x3e3a8179	0.18213452
127	0x3dc87838	0.09788555
128	0x3d333190	0.04374844
129	0xbcb023f3	-0.021501517
130	0xbc6ecf36	-0.01457577
131	0xbd03f798	-0.032218546
132	0x3e693a44	0.22776133
133	0x3d9edd48	0.0775705
134	0x3d3fc926	0.04682269
135	0xbd07d9d5	-0.033166725
136	0xbdb81601	-0.08988572
137	0xbde89ae1	-0.11357666
138	0xbd443d2d	-0.047909904
139	0x3e0f666f	0.14003919
140	0x3dd2dbe9	0.10295851
141	0x3e8a9910	0.27069902
142	0x3e978864	0.29596245
143	0x3e7934eb	0.24336593
144	0x3e97c4c5	0.2964231
145	0x3e04011b	0.12891047
146	0x3d211894	0.03933008
147	0xbc3e4ebb	-0.0116154505
148	0x3c492d21	0.012278826
149	0xbdb68c28	-0.089134514
150	0xbde0a082	-0.109681144
151	0xbdb094da	-0.08622141
152	0xbdcb85b2	-0.0993761
153	0xbf000505	-0.5000766
154	0xbdaf6f42	-0.085661426
155	0xbeacb2f5	-0.33730283
156	0xbeb05a2d	-0.344438
157	0xbe2980fd	-0.16553111
158	0xbe1fd7a0	-0.15609598
159	0xbd0e6905	-0.034768123
160	0xbd7ac79c	-0.06122552
161	0x3cc3431d	0.023835713
162	0xbe702edb	-0.23455374
163	0xbe241e5d	-0.16027208
164	0xbd2a29d3	-0.041543793
165	0xbe021b96	-0.12705836
166	0xbc41bdb7	-0.011825017
167	0xbdce3cb6	-0.100701734
168	0x3ce0eabd	0.027455682
169	0xbe3b822e	-0.18311378
170	0xbe1f6bbb	-0.1556844
171	0xbd30202d	-0.042999435
172	0xbda0e475	-0.07856075
173	0x3c9775b2	0.018488739
174	0xbd95d5af	-0.073161475
175	0x3e004437	0.12526022
176	0xbde18ae1	-0.11012817
177	0xbd9a1e92	-0.07525362
178	0x3bf3251c	0.0074201953
179	0xbb52c5d0	-0.0032161362
180	0x3c817553	0.015803015
181	0xbcdb888f	-0.026798515
182	0x3df20af9	0.11818499
183	0xbdf985ca	-0.12183721
184	0xbd4d6004	-0.050140396
185	0x3b2cda0d	0.0026375086
186	0xbcde9596	-0.027170938
187	0xbdea5ebe	-0.11443852
188	0xbe762b76	-0.24040017
189	0xbaadbf14	-0.0013255798
190	0xbe17a860	-0.14810324
191	0xbda08ca0	-0.07839322
192	0xbd736843	-0.059425604
193	0xbe2da3d7	-0.16957031
194	0xbe22f3b3	-0.15913276
195	0xbe7502b1	-0.23926808
196	0xbe06ba52	-0.13157013
197	0xbd276d9f	-0.040876027
198	0x3d1bfc14	0.038082197
199	0x3da8b465	0.082375325
200	0x3dda24c3	0.10651543
201	0x3e306838	0.17227256
202	0x3dca67e3	0.09883096
203	0x3e8e95a8	0.27848554
204	0x3e3518b7	0.17685209
205	0x3e385059	0.179994
206	0x3e2b0d31	0.16704251
207	0x3e0dedf3	0.13860302
208	0x3db93c44	0.09044698
209	0x3e47d726	0.19515666
210	0x3e109e73	0.14122944
211	0x3d892dec	0.06698212
212	0x3d672cde	0.056439273
213	0x3da11401	0.078651436
214	0x3d6a96d5	0.05727275
215	0x3dc66aaa	0.09688313
216	0x3e467de0	0.19383955
217	0xbde4f7ba	-0.111800626
218	0xbbd21c8b	-0.006412094
219	0x3d903be9	0.07042677
220	0x3da1a990	0.078936696
221	0x3d6ae54f	0.057347592
222	0x3da88a5d	0.08229516
223	0x3e473dfb	0.19457237
224	0xbe05758d	-0.13033123
225	0x3d5f3243	0.054491293
226	0x3d21a31e	0.0394622
227	0x3cb70308	0.022340313
228	0x3ce97da0	0.028502285
229	0xbd5bfa2f	-0.05370539
230	0x3d4a5c4b	0.049404424
231	0xbe1a9e6d	-0.15099497
232	0x3c3d8070	0.011566266
233	0x3ba59a57	0.005053799
234	0xbc758f1e	-0.014987735
235	0x3cd739a9	0.026272612
236	0x3cd93fc1	0.026519658
237	0x3dc7bcb1	0.09752787
238	0xbdd08b9d	-0.10182879
239	0xbd8e8a1e	-0.069599375
240	0x3ce92c6d	0.028463567
241	0x3d944aba	0.072408155
242	0x3d2c0454	0.041996315
243	0x3e0d58bf	0.13803385
244	0x3e24f56c	0.16109246
245	0xbbc7cb38	-0.0060972236
246	0x3e65a702	0.2242699
247	0x3e309cac	0.17247266
248	0x3e77d1dd	0.2420115
249	0x3e910f1d	0.28331843
250	0x3ea5d540	0.3238926
251	0x3e4d383f	0.20040987
252	0x3d579edd	0.05264174
253	0x3e4d376f	0.20040677
254	0x3e105ad5	0.1409715
255	0x3dc711f9	0.09720225

0.4.bias f4 [16]
0	0xbc9f256a	-0.01942702
1	0xbd85185f	-0.06498789
2	0x3d804462	0.06263043
3	0xbc818b8a	-0.015813608
4	0x3d3c4367	0.045962717
5	0x3b4047b7	0.002933962
6	0xbdcd3483	-0.100197814
7	0xbdeb0066	-0.11474685
8	0x3b7ebca4	0.0038869763
9	0xbcbe279b	-0.023212245
10	0x3c7a8440	0.01529032
11	0x3d4a519a	0.049394228
12	0x3cbda902	0.023151878
13	0xbe8d2db1	-0.27573922
14	0x3daa6b99	0.08321304
15	0x3d030111	0.03198344

1.weight f4 [16, 16]
0	0x3f5b1d73	0.8559181
1	0x3e8def6f	0.27721736
2	0xbf16b7c9	-0.58874184
3	0x3f1f3e84	0.62204766
4	0xbe2ab25e	-0.16669604
5	0x3b17755b	0.002311072
6	0xbf43eb52	-0.76530945
7	0x3eebb7c7	0.46038648
8	0xbf44b9d0	-0.7684603
9	0x3e614686	0.21999559
10	0x3ef417e8	0.4767449
11	0xbf2a8cea	-0.6662127
12	0xbe21034a	-0.15723911
13	0xbe055406	-0.13020334
14	0xbf077c42	-0.5292398
15	0xbebc7096	-0.36804646
16	0xbf440f38	-0.7658572
17	0xbe0e6e4c	-0.13909262
18	0xbe2d8c48	-0.16948044
19	0x3e932232	0.28737026
20	0x3ef00bc1	0.46883968
21	0xbe42144b	-0.18953054
22	0x3edfb29f	0.43690965
23	0xbeebb87d	-0.4603919
24	0xbfbff0a9	-1.4995319
25	0x3e6d6d54	0.23186237
26	0x3bfc9bb6	0.007708992
27	0x3e2c9a6d	0.16855784
28	0xbf15b0c6	-0.5847286
29	0xbe5a21ee	-0.21302006
30	0x3ec64b34	0.3872925
31	0xbf0dcddc	-0.5539224
32	0x3f2697c1	0.6507531
33	0xbddc01fe	-0.107425675
34	0x3eebef0b	0.46080813
35	0x3ef8cdbb	0.4859446
36	0x3e3522bb	0.1768903
37	0xbe94a2e3	-0.29030523
38	0x3f1e9370	0.6194372
39	0xbe5af1d2	-0.2138131
40	0x3ee46d08	0.44614434
41	0x3d168867	0.036751177
42	0x3f267beb	0.65032834
43	0xbeea9b58	-0.45821643
44	0x3f5072df	0.8142528
45	0xbf2fd5ac	-0.6868541
46	0x3f696e2f	0.9118375
47	0x3f3e0675	0.742286
48	0x3f272218	0.652864
49	0xbf800626	-1.0001876
50	0xbeaac4f6	-0.33353394
51	0xbf7ae38b	-0.98003453
52	0x3f85074f	1.0392855
53	0xbe8f0320	-0.27932072
54	0x3ebcb88a	0.36859542
55	0x3e2d4523	0.16920905
56	0x3ec2f331	0.38076165
57	0xbf35fc3c	-0.71088004
58	0x3ed443ec	0.4145807
59	0xbe08fe48	-0.1337825
60	0xbe807e10	-0.25096178
61	0xbd7e186e	-0.062035017
62	0xbe582be4	-0.21110493
63	0xbc754613	-0.01497032
64	0x3e01d3c9	0.12678446
65	0xbf67c4ec	-0.90534854
66	0xbe385e63	-0.18004756
67	0x3e0de69b	0.138575
68	0xbe3bc0a6	-0.18335208
69	0x3e258179	0.16162671
70	0x3f1b5380	0.60674286
71	0x3ec9464e	0.3931145
72	0x3f547cff	0.8300323
73	0x3fb87fa1	1.4413949
74	0x3f3ca6fc	0.736923
75	0x3f407a7b	0.7518689
76	0xbf135fff	-0.57568353
77	0x3ec6d524	0.38834488
78	0xbeb31f73	-0.3498493
79	0x3eccdbd6	0.40011472
80	0x3f8a8dd9	1.0824538
81	0x3d00eebc	0.031477675
82	0x3f2d33e0	0.6765728
83	0xbea55095	-0.32288042
84	0x3e95a84c	0.29229963
85	0xbf29c8ca	-0.66322005
86	0x3d97585e	0.073899016
87	0x3fe948d1	1.8225347
88	0x3d971181	0.073763855
89	0x3ef0b980	0.47016525
90	0xbe5289d8	-0.20560396
91	0x3f29700d	0.661866
92	0x3c2a92d1	0.01041098
93	0xbea60005	-0.3242189
94	0xbe9a0cb7	-0.30087826
95	0xbece4675	-0.4028813
96	0x3f6aa2c1	0.9165459
97	0x3e971632	0.2950912
98	0xbd37ccb4	-0.044872954
99	0x3dc2e601	0.09516526
100	0xbf1f136e	-0.6213902
101	0xbf476fe9	-0.77905136
102	0x3f762c30	0.96161175
103	0x3e99e6cc	0.30058897
104	0x3f15b5fa	0.584808
105	0x3e7b2b51	0.24528243
106	0xbf09ba69	-0.53800064
107	0x3db7fe2d	0.08984027
108	0x3d0c5ba2	0.034267075
109	0x3c010acf	0.007876112
110	0xbfc03b40	-1.5018082
111	0x3e152e0c	0.14568347
112	0x3b604a65	0.003422403
113	0x3dd07c18	0.10179919
114	0xbf00543e	-0.50128543
115	0x3db7ec6b	0.0898064
116	0xbed60081	-0.4179726
117	0xbd5633ad	-0.052295376
118	0xbd7fc322	-0.062441953
119	0x3f78534a	0.9700209
120	0xbf5d84e2	-0.8653089
121	0xbf542a2e	-0.8287686
122	0xbd81af9e	-0.063323244
123	0xbd1362b9	-0.03598282
124	0x3f2e1b56	0.6801046
125	0xbe57f34b	-0.21088903
126	0x3ec2edd2	0.38072067
127	0x3fa8bb1b	1.31821
128	0x3e6675f5	0.22505935
129	0xbe568a58	-0.20951211
130	0xbe37246c	-0.17884988
131	0xbedaf4a1	-0.42764762
132	0xbf19fae3	-0.6014845
133	0x3ef23b50	0.47310877
134	0xbee7618b	-0.45191607
135	0xbf1f799f	-0.62294954
136	0xbe7197c8	-0.23593056
137	0xbfa2076e	-1.2658517
138	0x3c326267	0.010887719
139	0x3f72c855	0.9483693
140	0x3cf8740f	0.030328779
141	0xbf2a18a3	-0.6644384
142	0xbde8a820	-0.11360192
143	0xbf52debd	-0.8237112
144	0xbdd7db30	-0.105398536
145	0x3fadde69	1.3583499
146	0xbbc833c8	-0.0061096884
147	0x3df75ec1	0.1207862
148	0xbe707637	-0.23482595
149	0xbecaee9c	-0.3963517
150	0x3edba5cb	0.42899927
151	0x3ea88106	0.32910937
152	0x3f8364ec	1.0265174
153	0x3de44cce	0.11147462
154	0x3f9f847a	1.2462304
155	0x3f86f899	1.0544616
156	0xbeab1e49	-0.33421543
157	0xbf14dbc2	-0.58147824
158	0x3eab6086	0.3347208
159	0xbec5b948	-0.3861792
160	0xbd6148be	-0.055001013
161	0x3ec2dcab	0.3805898
162	0xbe445ee1	-0.19176818
163	0x3f650d34	0.8947327
164	0x3d3a2ac2	0.045450933
165	0x3fc2c6bf	1.5216902
166	0xbcf182e1	-0.029481353
167	0x3f14ce5c	0.5812738
168	0x3e907928	0.28217435
169	0xbe14247e	-0.14467046
170	0xbf803d60	-1.001873
171	0xbd5e6920	-0.054299474
172	0xbf319892	-0.6937343
173	0xbf51cd24	-0.81953645
174	0xbe81ed5d	-0.25376406
175	0xbe35c7f4	-0.17752057
176	0xbed81ca8	-0.42209363
177	0xbee54f74	-0.4478718
178	0xbf62f782	-0.88658917
179	0xbf443fe2	-0.7665998
180	0xbe9a7571	-0.30167726
181	0xbe02eba0	-0.12785196
182	0xbebbb368	-0.36660314
183	0xbf21fe82	-0.63278973
184	0x3ecb9db2	0.3976875
185	0xbe936457	-0.2878749
186	0xbf8462af	-1.0342616
187	0xbfa59fa9	-1.293935
188	0xbe18a8cb	-0.1490814
189	0xbe96d3bd	-0.29458418
190	0x3f2fff37	0.687488
191	0x3d730d29	0.059338722
192	0xbf5bd637	-0.8587374
193	0xbb7d200c	-0.0038623838
194	0xbee401b9	-0.44532564
195	0x3f15e7c0	0.5855675
196	0x3ef70a0a	0.48249847
197	0x3effd411	0.4996648
198	0xbecd4806	-0.40094012
199	0x3ef373b8	0.47549224
200	0xbe81e7f8	-0.2537229
201	0xbef6da22	-0.48213297
202	0xbf1418de	-0.57850444
203	0xbf11b9c6	-0.5692409
204	0x3fa6364c	1.298532
205	0x3f0c950c	0.5491493
206	0x3e57f764	0.21090466
207	0xbf2add1b	-0.6674363
208	0xbf8c609d	-1.0966984
209	0xbcb94f85	-0.022620926
210	0x3d968e34	0.07351342
211	0xbed3401d	-0.41259852
212	0xbef80727	-0.48442957
213	0x3e9ecc4b	0.31015238
214	0x3e9bd7ba	0.30438024
215	0x3eb79c6f	0.35861537
216	0x3cc42758	0.023944542
217	0x3f53a8e1	0.82679564
218	0x3df1415d	0.11780045
219	0xbebfa829	-0.37432984
220	0x3f08a7e5	0.53381187
221	0xbcf8a63e	-0.030352708
222	0xbefe4c02	-0.49667364
223	0xbf1bf0f7	-0.6091456
224	0xbf1a8ae2	-0.6036817
225	0xbf1553b0	-0.5833082
226	0x3f0ffb83	0.5624315
227	0x3e8c5312	0.27407128
228	0x3eb704ae	0.35745758
229	0xbf844854	-1.0334573
230	0xbf21ccff	-0.63203424
231	0x3e69b3d4	0.22822505
232	0x3e0d5e28	0.13805449
233	0xbf3977e4	-0.72448564
234	0x3d129d1e	0.03579437
235	0xbdc93e01	-0.098262794
236	0x3e844cdb	0.25839886
237	0xbf2317b4	-0.63708043
238	0xbf593809	-0.8485113
239	0x3ed2ee59	0.4119747
240	0x3f1e0f4c	0.6174209
241	0xbeaf8c23	-0.34286603
242	0xbecb41a7	-0.39698526
243	0xbebde13e	-0.3708591
244	0x3f170fb3	0.5900833
245	0x3d082d7d	0.033246506
246	0xbf610ed5	-0.87913257
247	0xbf223f70	-0.6337805
248	0x3ca7c11e	0.020477828
249	0x3f878d9e	1.0590093
250	0x3e082591	0.1329558
251	0x3f67a6d4	0.90488935
252	0x3f03cc24	0.5148337
253	0xbf3f9ada	-0.7484566
254	0x3ea2ac46	0.3177206
255	0x3f4391dc	0.7639444

1.bias f4 [16]
0	0x3ed0883c	0.4072894
1	0xbca5c247	-0.02023424
2	0x3ebad958	0.36493945
3	0xbeef62ab	-0.46754965
4	0xbf350f0c	-0.70726085
5	0x3e667d57	0.22508751
6	0x3f4d221a	0.8013016
7	0xbf09bad3	-0.53800696
8	0x3ec473e5	0.3836967
9	0xbda7ebab	-0.08199247
10	0x3e39c1a7	0.18140279
11	0x3e5a3edd	0.21313043
12	0x3f66cfad	0.9016064
13	0x3f05694d	0.521138
14	0xbf059094	-0.52173734
15	0x3f42a5b0	0.7603407

3.weight f4 [10, 16]
0	0xbec321f8	-0.38111854
1	0x3f03e043	0.5151407
2	0x3e9f82f9	0.31154612
3	0xbf4c4a3f	-0.7980079
4	0x3f6fef58	0.93724585
5	0xbf253339	-0.64531285
6	0x3eb8ba6c	0.3607973
7	0xbecd61cf	-0.40113685
8	0x3ef24316	0.47316808
9	0xbea16c69	-0.31528023
10	0x3e64c105	0.22339256
11	0xbeba6393	-0.36404094
12	0xbafa1d51	-0.0019082223
13	0xbed0cfaf	-0.4078345
14	0x3f9fe7a7	1.249257
15	0xbcb5e902	-0.022205833
16	0xbf5f2915	-0.8717206
17	0x3f02b307	0.51054424
18	0x3f3e411f	0.74318117
19	0xbe05e8cb	-0.13077085
20	0xbf4d68c9	-0.80238014
21	0xbdef216f	-0.11676299
22	0x3e263bb1	0.16233708
23	0xbf85c068	-1.0449343
24	0x3eed7339	0.4637697
25	0xbe29ddf1	-0.1658857
26	0xbe908a39	-0.28230456
27	0xbd3e0f44	-0.046401277
28	0xbe3050db	-0.17218344
29	0xbf3fd3a9	-0.7493234
30	0xbf08c079	-0.5341869
31	0x3f53b2f8	0.8269496
32	0x3dad6e8f	0.08468353
33	0x3e653071	0.2238176
34	0xbf455d5d	-0.77095586
35	0x3f4c1a6a	0.79727805
36	0xbf36a78b	-0.713494
37	0xbf75a0cf	-0.959485
38	0x3f9cef04	1.2260442
39	0x3ef4110e	0.47669262
40	0xbe59ba58	-0.21262491
41	0x3e883857	0.26605484
42	0x3f0cf406	0.5505985
43	0xbf76c77a	-0.9639813
44	0x3e54cc08	0.20780957
45	0x3f0d1b43	0.55119723
46	0x3ddd54df	0.108072035
47	0x3f28269f	0.6568393
48	0x3f20d45d	0.6282404
49	0xbecb7240	-0.39735603
50	0xbee03271	-0.43788484
51	0x3eec767e	0.46184152
52	0x3ebee5b2	0.3728462
53	0x3e9caf6a	0.3060258
54	0xbf03b695	-0.51450473
55	0xbf471ce8	-0.7777848
56	0xbda51d0b	-0.0806218
57	0xbe9e2097	-0.3088424
58	0x3f7bc99c	0.98354506
59	0xbebf9b33	-0.37423095
60	0x3e9da33d	0.30788603
61	0xbf2d99ad	-0.67812616
62	0xbe6e31f6	-0.23261246
63	0xbe315119	-0.17316093
64	0xbe2616b7	-0.16219603
65	0x3dd7876b	0.10523876
66	0xbf322fb7	-0.6960406
67	0x3ed478de	0.41498464
68	0xbf8e74fe	-1.1129453
69	0x3f3b6192	0.73195755
70	0xbea85d21	-0.32883552
71	0x3e5c1f12	0.21496227
72	0xbf1fca04	-0.62417626
73	0x3f5d7fd7	0.86523193
74	0xbefc7f07	-0.49315664
75	0x3f7f78f1	0.99793917
76	0xbdce8c09	-0.10085303
77	0xbecfd61c	-0.4059304
78	0x3e5947fc	0.21218866
79	0x3f06c6c1	0.52647024
80	0x3efe71da	0.49696237
81	0xbf8c0f39	-1.0942146
82	0xbeb32009	-0.34985378
83	0xbf47d6b8	-0.7806201
84	0x3f18bc48	0.59662294
85	0x3f3b610c	0.73194957
86	0xbf0795f5	-0.5296319
87	0xbd164cb1	-0.036694232
88	0x3f694b8d	0.91130906
89	0xbf323e12	-0.6962596
90	0x3c86986f	0.016430108
91	0x3f211241	0.6291848
92	0xbef2b008	-0.47399926
93	0x3edc5af1	0.43038133
94	0xbd5253b7	-0.051349368
95	0xbd992cb7	-0.07479232
96	0xbe18beb8	-0.14916503
97	0x3f5f1102	0.87135327
98	0x3ee5d3b7	0.44888088
99	0xbf84ba29	-1.0369312
100	0x3f01c640	0.5069313
101	0xbcb0fc86	-0.021604788
102	0x3f970137	1.1797246
103	0x3f7c1574	0.98470235
104	0x3f09b6b5	0.53794414
105	0xbf270374	-0.65239644
106	0xbe989b09	-0.29805782
107	0x3f1d8559	0.615316
108	0xbfbe6cd2	-1.4876959
109	0x3f8b821e	1.0899084
110	0xbd4d4074	-0.050110295
111	0xbe6ee8e7	-0.23331033
112	0x3eead17f	0.45862958
113	0xbeed361d	-0.46330348
114	0xbdb033bb	-0.08603617
115	0x3ef1fb19	0.47261885
116	0xbf7f23a2	-0.99663746
117	0xbf4360af	-0.763194
118	0xbe9deaa8	-0.3084309
119	0xbeb328c5	-0.34992042
120	0x3ebcb6fb	0.36858353
121	0x3f4cc120	0.79982185
122	0xbf0442e7	-0.51664585
123	0xbf452ad0	-0.7701845
124	0x3f7e1ea0	0.9926548
125	0xbda575c9	-0.08079106
126	0x3d70ff60	0.058837295
127	0x3f05580f	0.5208749
128	0xbf093db3	-0.5360977
129	0xbee48d38	-0.4463899
130	0x3f3bc1df	0.733427
131	0x3ef356fe	0.47527307
132	0x3eae5f5a	0.34057122
133	0x3ecb68c3	0.39728364
134	0xbe216e01	-0.1576462
135	0x3f13c559	0.57723004
136	0x3eccbf5a	0.3998974
137	0xbed36e9b	-0.41295323
138	0x3f3f52d8	0.74735785
139	0x3e002e66	0.125177
140	0x3ee08773	0.4385334
141	0x3e5cab05	0.21549614
142	0xbeac9fc7	-0.3371565
143	0xbf38bf25	-0.72166663
144	0x3f242318	0.6411605
145	0x3ecc88b4	0.39948046
146	0x3f528b0e	0.8224343
147	0x3e095bed	0.13413973
148	0xbdd8c9a3	-0.10585334
149	0x3eb44647	0.35209867
150	0xbf7180d2	-0.9433719
151	0xbe3f8896	-0.18704447
152	0xbecb3d4f	-0.39695212
153	0x3f055868	0.5208802
154	0xbeccf81d	-0.40033045
155	0x3f040af4	0.51579213
156	0x3f0aa3cc	0.54156184
157	0x3ea140b8	0.3149469
158	0x3ea37a7e	0.31929392
159	0xbf3b4e11	-0.73165995

3.bias f4 [10]
0	0xbf21ca37	-0.6319918
1	0x3f565ce0	0.83735466
2	0xbe2e8cb8	-0.17045867
3	0x3d9ca8f7	0.07649415
4	0x3f0d9474	0.55304646
5	0xbf02034a	-0.5078627
6	0x3d83c9a0	0.06434941
7	0x3eb1780b	0.34661898
8	0x3f023e7d	0.508766
9	0x3f53c128	0.8271661
