02-Autoencoder/01-PT-MNIST-basic/cnn4-autoencoder.pth (torch, 92353 bytes, 11 tensors)

encoder.0.weight f4 [16, 1, 3, 3]
0	0x3ea9f152	0.33191925
1	0x3e8b5ba5	0.27218357
2	0x3ecfa0e7	0.40552446
3	0x3e8f8de2	0.28037935
4	0x3e644e03	0.22295384
5	0x3dc86e9c	0.09786722
6	0x3ea6dff1	0.3259273
7	0x3e500d85	0.20317657
8	0x3f0a1aae	0.5394696
9	0x3d53eb3a	0.051738
10	0xbec55e0f	-0.38548324
11	0xbf4368f4	-0.7633202
12	0xbf7aca61	-0.97965056
13	0xbf09e18c	-0.5385978
14	0xbf48ebcf	-0.78484815
15	0x3e62a340	0.22132587
16	0x3f4f7bcf	0.8104829
17	0x3e8c13d2	0.27358872
18	0xbf8fbdc1	-1.1229783
19	0xbf951d13	-1.1649498
20	0xc04fc224	-3.2462244
21	0x3ed27e5f	0.41112038
22	0x3e5d8dc7	0.21636115
23	0xbeeeb94e	-0.4662575
24	0x3f05a494	0.5220425
25	0x3eba79ad	0.36420956
26	0xbefc752f	-0.49308154
27	0xbe036580	-0.12831688
28	0x3f2574c3	0.6463129
29	0x3ec41abd	0.3830165
30	0xbf0c4f91	-0.5480891
31	0x3eed8238	0.46388412
32	0x3e29f355	0.1659673
33	0xbfdf837a	-1.7461998
34	0xbfad4ce9	-1.3539096
35	0xbfaf749e	-1.3707464
36	0x3d1544ab	0.03644244
37	0xbcdb307f	-0.026756523
38	0x3ec29c84	0.38010037
39	0x3cb104f1	0.021608802
40	0xbe1358ac	-0.14389294
41	0x3e9c31f0	0.3050685
42	0x3ea3dd72	0.32004887
43	0x3ddb03ac	0.1069406
44	0x3e757ce3	0.23973422
45	0xbf52b8ae	-0.8231305
46	0xbf31a547	-0.6939282
47	0x3eb42ae3	0.3518897
48	0xbeade2b6	-0.3396203
49	0xbe87a53e	-0.26493257
50	0x3e0dcda9	0.13847984
51	0xbed70c0e	-0.42001384
52	0x3e826a63	0.25471792
53	0x3d9776fc	0.07395741
54	0x3e3e1ee5	0.18566473
55	0x3e6e901a	0.23297158
56	0x3f0ed6ba	0.55796397
57	0x3d5cffd1	0.053954903
58	0xbeb6ebe4	-0.35726845
59	0x3bfa611b	0.0076409704
60	0xbf051045	-0.5197795
61	0xbe0872d6	-0.13325056
62	0xbdfc11c0	-0.12308073
63	0x3e331561	0.17488624
64	0x3e0e1500	0.13875198
65	0x3bd7445a	0.0065694274
66	0x3f04b4f7	0.5183863
67	0x3eb83d95	0.35984483
68	0x3cae589c	0.021282487
69	0x3eabf0eb	0.33582243
70	0x3e7b97c6	0.24569616
71	0xbe470c90	-0.19438386
72	0xbe48fc25	-0.19627436
73	0x3edc2845	0.42999473
74	0x3e01374f	0.12618755
75	0xbede1e10	-0.4338231
76	0x3ec3f718	0.38274455
77	0x3dd428c0	0.10359335
78	0xbf0bb856	-0.5457815
79	0x3eb95aa1	0.36201957
80	0x3e82e236	0.2556321
81	0xbf36efbf	-0.71459574
82	0xbf5de680	-0.8667984
83	0xbf5e785a	-0.8690239
84	0x3f1349db	0.5753457
85	0x3f5a3e77	0.85251564
86	0x3ea2bba4	0.31783783
87	0xbd1f7235	-0.038927276
88	0x3d555320	0.052081227
89	0x3d34cf48	0.04414299
90	0xbec6e847	-0.3884909
91	0xbf3d42a4	-0.7392981
92	0xbcb64bbc	-0.02225291
93	0xbbd81bbd	-0.0065951035
94	0xbeb49af2	-0.35274464
95	0x3e816abf	0.25276753
96	0x3ed51a63	0.41621694
97	0x3eb971fe	0.36219782
98	0x3f05e90e	0.5230874
99	0x3f05b3a2	0.5222722
100	0x3ef33be2	0.47506624
101	0x3d847313	0.06467261
102	0x3e7b3c9e	0.24534842
103	0xbed04892	-0.40680367
104	0xbf393438	-0.72345304
105	0x3e198595	0.14992364
106	0xbeda3bdb	-0.4262379
107	0xbc1fc73e	-0.009752093
108	0xbde03f4f	-0.10949575
109	0x3dac09ee	0.084003314
110	0xbcec9f1a	-0.02888446
111	0x3c008de9	0.007846334
112	0xbe045499	-0.12922896
113	0xbe351e2f	-0.17687295
114	0x3dd31000	0.10305786
115	0xbe4aad2a	-0.1979262
116	0x3e247022	0.160584
117	0xbdd0b542	-0.10190822
118	0x3dafd503	0.08585551
119	0x3eb69c10	0.3566594
120	0xbed1c4f0	-0.40970564
121	0xbf98730a	-1.1910107
122	0xbf225580	-0.6341171
123	0x3f5b421b	0.85647744
124	0x3f0d1307	0.5510716
125	0x3dae0d7b	0.08498665
126	0xbf11a9ff	-0.5690002
127	0xbda12108	-0.07867628
128	0x3f344b4f	0.7042741
129	0xbf01c8b7	-0.5069689
130	0xbcbdc9f9	-0.023167597
131	0x3ef45e73	0.4772831
132	0xbf28c4c9	-0.6592527
133	0xbd8ce139	-0.06878895
134	0x3dd6fdd1	0.104976304
135	0x3e9efbc2	0.3105145
136	0xbe37aa27	-0.17936002
137	0xbd17654e	-0.036961846
138	0x3e8d37ee	0.27581733
139	0x3d600855	0.054695446
140	0x3f0a1d49	0.53950936
141	0xbdc6ea00	-0.09712601
142	0xbf292d67	-0.66084903
143	0x3d8d023d	0.068851925

encoder.0.bias f4 [16]
0	0xbed1b33c	-0.40957057
1	0x3e5e807b	0.21728699
2	0x3ea7f842	0.32806593
3	0x3e687a3a	0.22702876
4	0xbbb33bf5	-0.005469794
5	0x3e873d00	0.26413727
6	0x3de14904	0.11000255
7	0x3bf40093	0.0074463575
8	0x3d953de1	0.07287193
9	0x3c9b6460	0.018968761
10	0xba73fa0b	-0.00093069737
11	0xbac6d1b9	-0.0015168703
12	0x3ea20eb3	0.3165184
13	0x3ca73011	0.020408662
14	0xbab795a4	-0.0014006388
15	0x3d860609	0.0654412

encoder.2.weight f4 [32, 16, 3, 3]
0	0xbdc0bd01	-0.0941105
1	0xbe2d197f	-0.16904257
2	0xbe63a368	-0.22230303
3	0xbe19c3f8	-0.15016162
4	0xbe646df2	-0.22307566
5	0xbd926efb	-0.07150074
6	0xbda9ce6d	-0.08291326
7	0xbea02f6c	-0.3128618
8	0xbe788cb0	-0.24272418
9	0xbd65096f	-0.0559172
10	0xbe7d0c9b	-0.2471184
11	0xbdf2d383	-0.11856749
12	0x3d366988	0.044534236
13	0xbe0e3e38	-0.13890922
14	0xbe914ca3	-0.28378782
15	0x3e205dc7	0.15660773
16	0xbcc01468	-0.02344723
17	0xbe079944	-0.1324206
18	0x3d15ef41	0.036605123
19	0x3d561dcc	0.05227451
20	0x3d28580f	0.041099604
21	0xbe058ca2	-0.13041928
22	0xbea958f9	-0.33075693
23	0xbea12938	-0.3147676
24	0xbd1977c1	-0.03746772
25	0xbd9cae23	-0.076504014
26	0xbe9a0aa6	-0.3008625
27	0xbcb84ac2	-0.022496585
28	0x3e6c8e6d	0.23101206
29	0x3e1a1671	0.15047623
30	0x3d388469	0.04504815
31	0x3e3c9a22	0.18418172
32	0x3c1ca8c8	0.009561725
33	0x3ea3b586	0.3197443
34	0x3e1bb0bd	0.15204139
35	0x3e225e5d	0.15856309
36	0xbdd10b52	-0.10207237
37	0xbb7b69a0	-0.0038362518
38	0xbe48858c	-0.19582194
39	0xbe30868a	-0.17238823
40	0x3cc1c0ed	0.023651564
41	0x3e27d3cf	0.16389392
42	0xbeffca21	-0.499589
43	0xbebe9873	-0.37225685
44	0xbe32839d	-0.17433019
45	0x3eb73b56	0.35787457
46	0xbc9d0bb9	-0.019170629
47	0xbe14069d	-0.14455648
48	0x3e5a938f	0.21345352
49	0xbd31118a	-0.043229617
50	0xbe9c9790	-0.30584383
51	0x3e316f31	0.17327572
52	0xbc8d362e	-0.017237749
53	0x3db13726	0.08653097
54	0x3e6235a4	0.22090775
55	0xbd1d2495	-0.038364965
56	0xbe438ed8	-0.1909746
57	0x3d5671ee	0.052354746
58	0x3d93b073	0.072113894
59	0x3d5928d1	0.05301744
60	0x3e7bb3ba	0.24580279
61	0x3e7572ff	0.23969649
62	0x3df450b2	0.11929454
63	0xbe4f3743	-0.20235924
64	0x3e86d13e	0.26331514
65	0x3d58f772	0.052970357
66	0xbe9a5a3b	-0.30146965
67	0x3d5a47c4	0.053291097
68	0x3e101e6a	0.14074102
69	0xbf07023d	-0.5273779
70	0xbed80e4a	-0.42198402
71	0xbe1ba0a3	-0.15197997
72	0x3ec79294	0.38979018
73	0x3e2c74a8	0.16841376
74	0x3e026b61	0.12736274
75	0x3e455543	0.19270806
76	0x3d5df1ff	0.054185864
77	0x3e0370ea	0.12836042
78	0x3dd4b201	0.10385514
79	0xbe7b4256	-0.24537024
80	0xbe8aa9f6	-0.27082795
81	0xbe86a5d9	-0.26298407
82	0x3d85ab82	0.06526853
83	0xbcb185e6	-0.021670293
84	0xbf421ec9	-0.75828224
85	0x3e5020f4	0.2032507
86	0x3e5e4928	0.21707594
87	0xbc853e43	-0.01626504
88	0xbb88951b	-0.0041681654
89	0xbd3de52f	-0.046361145
90	0xbea34870	-0.31891203
91	0x3d36afb6	0.044601165
92	0x3e55c140	0.208745
93	0xbefa6522	-0.48905283
94	0xbe01e7e7	-0.1268612
95	0x3eac2da5	0.33628574
96	0xbeae38bf	-0.3402767
97	0xbe6c965f	-0.23104237
98	0xbe8eff28	-0.27929044
99	0xbd31831b	-0.043337923
100	0x3dc9ea6e	0.09859167
101	0x3d7f28a0	0.062294602
102	0xbebcf67d	-0.36906806
103	0xbd052b12	-0.03251178
104	0x3b0022b1	0.0019551928
105	0x3c10d0ee	0.008838875
106	0xbd1e439c	-0.038638696
107	0x3c298d23	0.010348591
108	0x3e8ba7ca	0.2727645
109	0x3c368e77	0.011142365
110	0x3d5f49de	0.054513805
111	0x3e1bd6cc	0.15218657
112	0x3cf3f3fb	0.029779425
113	0xbdc4d346	-0.0961061
114	0x3dcd8cfc	0.10036656
115	0x3dc193a0	0.09451985
116	0xbbafee80	-0.0053690076
117	0xbeb31f88	-0.34984994
118	0x3eb3a485	0.35086456
119	0x3e0c9652	0.13729218
120	0xbde2ab83	-0.110678695
121	0x3e6ea214	0.23304015
122	0x3e8081f9	0.2509916
123	0x3e18fdd4	0.14940578
124	0x3eef5400	0.46743774
125	0x3d711555	0.058858234
126	0x3ec06b04	0.37581646
127	0x3e919fe4	0.284423
128	0x3dd48d10	0.10378468
129	0x3e2ad4c6	0.16682729
130	0x3dc76a05	0.097370185
131	0x3e20d8fa	0.1570777
132	0x3e04a053	0.12951784
133	0xbd78740a	-0.06065754
134	0xbdedf1d3	-0.1161839
135	0x3e27d5a2	0.16390088
136	0x3de6912a	0.112581566
137	0x3c157172	0.009121286
138	0x3db4369e	0.0879948
139	0xbe340323	-0.17579322
140	0x3e764ce3	0.24052767
141	0x3d9821e6	0.074283406
142	0x3e5de71e	0.21670195
143	0x3d6c72e5	0.05772676
144	0x3e57e24d	0.2108242
145	0xbef5c16b	-0.4799913
146	0x3e9b970a	0.3038867
147	0x3dc571ed	0.0964087
148	0xbfba7607	-1.4567269
149	0xbdc56fed	-0.09640489
150	0x3dd24b0e	0.10268222
151	0x3c2b7aa2	0.01046625
152	0xbe2338f3	-0.15939693
153	0x3e525f48	0.2054416
154	0x3de9e62c	0.11420855
155	0x3edd338e	0.43203396
156	0x3e0fed76	0.14055428
157	0x3c1269aa	0.008936325
158	0x3da43144	0.08017209
159	0x3dc24458	0.09485692
160	0xbdd38586	-0.10328202
161	0xbeb21a9b	-0.34785923
162	0x3e9151b6	0.28382653
163	0x3e53f220	0.20697832
164	0x3f3e7c6c	0.744086
165	0x3d1de4ff	0.038548466
166	0xbd364d7a	-0.04450748
167	0xbf14365f	-0.57895464
168	0x3d0fe9fc	0.035135254
169	0xbe1330a8	-0.1437403
170	0xbf35b55e	-0.7097987
171	0x3d8623a0	0.06549764
172	0xbe36096c	-0.17777032
173	0x3e0c8b8c	0.13725108
174	0x3ddae52d	0.10688243
175	0x3e0ad9e8	0.13559687
176	0xbdc1da89	-0.094655104
177	0x3e689da3	0.22716384
178	0xbe8b481b	-0.2720345
179	0xbb5fe34e	-0.0034162584
180	0xbea45719	-0.320977
181	0xbea42ee4	-0.32067025
182	0xbf46e353	-0.7769062
183	0xbc88a8b5	-0.016682008
184	0xbf7628cd	-0.9615601
185	0x3e04762a	0.12935701
186	0xbff7e3ae	-1.9366357
187	0x3cfed4bc	0.031107299
188	0x3db7fca5	0.08983735
189	0x3e6305b4	0.22170144
190	0x3d88bce9	0.06676657
191	0x3d7cb47e	0.06169557
192	0x3d96507a	0.073395684
193	0x3bc03a7e	0.005866348
194	0xbd85a4c4	-0.06525567
195	0x3e0ee68f	0.13955139
196	0x3df541d0	0.11975443
197	0x3e9f6d1b	0.31137928
198	0x3cdfe7b1	0.027332159
199	0xbc3db7b6	-0.011579445
200	0x3d512f40	0.05107045
201	0x3d586cbe	0.05283808
202	0x3b68cd19	0.0035522638
203	0xbf1ccf03	-0.61253375
204	0x3e2a0365	0.16602857
205	0xbe9a153a	-0.3009432
206	0xbf5ba43d	-0.8579748
207	0xbf03bc2d	-0.5145901
208	0xbe547020	-0.20745897
209	0xbf244e62	-0.641821
210	0xbecc5fc6	-0.3991682
211	0xbed474c9	-0.4149535
212	0xbe95c564	-0.2925216
213	0xc00981fe	-2.148559
214	0xbe9a30ad	-0.30115262
215	0x3f0716fa	0.52769434
216	0x3dae73b7	0.085181646
217	0xbe566cb5	-0.20939906
218	0xbf054bfa	-0.52069056
219	0x3e2c782b	0.16842715
220	0xbf078005	-0.5292972
221	0x3e80dbb7	0.2516763
222	0xbc2f7edd	-0.010711399
223	0x3d4e1664	0.050314322
224	0xbd027125	-0.031846184
225	0x3e9acd44	0.3023473
226	0x3bf4b974	0.007468397
227	0xbe28dc42	-0.16490272
228	0x3de9ae94	0.11410251
229	0xbd966d2d	-0.073450424
230	0x3e306535	0.17226107
231	0xbd178d56	-0.037000023
232	0xbe912b24	-0.28353226
233	0xbf267694	-0.65024686
234	0xbdef6c10	-0.11690533
235	0xbe1d5cf4	-0.1536749
236	0xbe65df9c	-0.22448581
237	0x3ed9bc05	0.4252626
238	0xbf05ec98	-0.5231414
239	0x3ed1cc80	0.40976334
240	0xbf89f068	-1.0776491
241	0x3f0fcb94	0.5617001
242	0x3e16ae6e	0.14714977
243	0xbd68e7b1	-0.056861583
244	0xbe84e7fb	-0.25958237
245	0x3e37fef5	0.17968352
246	0xbeb7dc33	-0.35910186
247	0x3e143f13	0.14477186
248	0xbdc06e92	-0.093960896
249	0xbe9a22c5	-0.30104652
250	0xbf0c4776	-0.5479654
251	0x3f79aec9	0.97532326
252	0x3da98c8c	0.0827876
253	0x3daa9190	0.08328545
254	0x3be23730	0.0069035515
255	0x3d6886d7	0.05676922

encoder.2.bias f4 [32]
0	0x3d8c7a8f	0.06859314
1	0x3d5e31a7	0.05424657
2	0x3e318c5e	0.17338702
3	0xbd93e96f	-0.07222258
4	0xbc9c2c7f	-0.019064186
5	0x3db867ac	0.09004149
6	0xbd60c6cc	-0.054877087
7	0x3d9381d4	0.07202497
8	0x3d8d6982	0.0690489
9	0xbd0836ed	-0.033255506
10	0x3dbfe919	0.09370632
11	0xbd90be96	-0.070676014
12	0xbdf3e933	-0.119097136
13	0xbd80efb4	-0.0629572
14	0x3d93cef0	0.072172046
15	0xbd39bb51	-0.045344654
16	0x3e0a53aa	0.13508478
17	0x3d987489	0.07444102
18	0x39a5b025	0.0003160249
19	0x3e2059d7	0.15659271
20	0x3dda1a5d	0.1064956
21	0x3d0b9c8a	0.034084834
22	0x3d6d90ce	0.057999425
23	0xbb1660ab	-0.0022945802
24	0x3e16744f	0.14692806
25	0xbdba2a8c	-0.090901464
26	0xbd8a43da	-0.06751223
27	0xbd9d2028	-0.07672149
28	0x3c5518a8	0.013006367
29	0x3dcb71f8	0.09933847
30	0xbb062520	-0.0020468906
31	0x3d34d9eb	0.044153135

encoder.4.weight f4 [4, 32, 7, 7]
0	0xbc849c7f	-0.016187904
1	0xbdb226b8	-0.08698791
2	0xbdb8d41a	-0.0902483
3	0xbe04fbd2	-0.12986687
4	0xbd00d385	-0.03145172
5	0x3bf15e0a	0.0073659467
6	0xbd5236d4	-0.05132182
7	0x3f2cc0c9	0.67481667
8	0x3c6c7baf	0.014433785
9	0x3d76cd08	0.060254127
10	0x3ee5137e	0.44741434
11	0x3e9039b2	0.28169018
12	0xbcd88a4d	-0.026433134
13	0x3ce3e408	0.027818695
14	0xbd660c97	-0.05616435
15	0x3dce0d57	0.10061138
16	0x3e011a72	0.12607744
17	0x3d8a86f0	0.067640185
18	0x3cc9b46c	0.024622165
19	0x3c0bea66	0.008539772
20	0xbbc4136d	-0.005983761
21	0xbdbe6e8d	-0.0929843
22	0x3d3b6237	0.04574796
23	0x3e28ed6e	0.16496822
24	0x3e34157c	0.1758632
25	0xbe6f2b3c	-0.23356336
26	0xbe92add0	-0.28648233
27	0x3db5ace0	0.08870864
28	0xbcf6a82d	-0.03010949
29	0xbd59d917	-0.05318555
30	0x3d4ac288	0.049501926
31	0xbd846127	-0.06463843
32	0x3eb5d786	0.35515994
33	0x3e56d3bb	0.20979206
34	0x3cef63ac	0.029222332
35	0xbe0d19f4	-0.13779432
36	0xbbdef292	-0.006803819
37	0xbdc5e8fc	-0.09663579
38	0x3e3d2eab	0.18474834
39	0xbc2f7f34	-0.01071148
40	0xbdeab2e2	-0.114599004
41	0x3c3aa560	0.011391968
42	0xbe2866f1	-0.16445519
43	0xbc2b8ba7	-0.010470307
44	0x3cfc4fb0	0.030799717
45	0x3d5419c9	0.051782403
46	0xbc885db8	-0.016646251
47	0x3c95af06	0.018271934
48	0xbca8eed7	-0.0206217
49	0x3c196e6c	0.0093647055
50	0x3db53f3b	0.08849951
51	0xbebbd800	-0.36688232
52	0xbed885e7	-0.4228966
53	0xbe01bd9b	-0.12669985
54	0xbe9a80c1	-0.30176356
55	0x3cc49a53	0.023999369
56	0xbed9d54f	-0.42545554
57	0x3b97f5c3	0.0046374514
58	0x3e2c2f9f	0.16815041
59	0x3e0d422d	0.13794775
60	0xbd92b373	-0.071631335
61	0xbce4e48f	-0.027941016
62	0x3d98680d	0.07441721
63	0xbe66effe	-0.22552487
64	0x3dd46aaf	0.10371911
65	0x3d64d100	0.05586338
66	0xbeb2e9fe	-0.34944147
67	0x3dfeb8d4	0.12437597
68	0xbf4773fa	-0.7791134
69	0x3c990b8b	0.018682262
70	0x3e0a1571	0.13484742
71	0xbd0913de	-0.033466212
72	0xbe4289e5	-0.18997915
73	0x3e970de0	0.29502773
74	0xbcf9537b	-0.030435314
75	0x3f9eba5f	1.2400626
76	0xbdb89d6e	-0.09014402
77	0x3bd2b258	0.0064299516
78	0xbd9af0c7	-0.07565456
79	0xbddae845	-0.10688833
80	0xbce094d6	-0.02741472
81	0xbd225f1f	-0.039641496
82	0xbf2bd291	-0.67118174
83	0xbe355cfb	-0.1771125
84	0xbd049b94	-0.032374933
85	0xbd42f352	-0.04759533
86	0x3ce465f0	0.027880639
87	0x3e1aed44	0.15129572
88	0xbed48330	-0.41506338
89	0xbed08e50	-0.40733576
90	0x3d99c6a0	0.07508588
91	0xbed8d3e1	-0.4234915
92	0xbdd034e8	-0.10166341
93	0xbdab7e01	-0.08373643
94	0xbe29440d	-0.16529866
95	0x3dd4fcd8	0.103997886
96	0x3db5a292	0.088688985
97	0x3c4157de	0.011800734
98	0x3c2add05	0.010428672
99	0xbea37355	-0.3192393
100	0x3e1442cb	0.14478604
101	0xbf144c20	-0.5792866
102	0xbfad8272	-1.3555434
103	0x3e829ad5	0.25508752
104	0x3d0cc16d	0.034364153
105	0x3e5b7468	0.21431124
106	0x3c04ddfe	0.008109568
107	0xbd54d9ab	-0.051965397
108	0xbd2b3554	-0.041798905
109	0xbf2067f9	-0.6265865
110	0x3e30e2cc	0.17274016
111	0xbe856844	-0.2605611
112	0x3e279206	0.16364297
113	0x3d72935b	0.05922256
114	0x3d5fece0	0.05466926
115	0xb92f28e7	-0.00016704538
116	0xbc811859	-0.01575868
117	0xbec00cad	-0.3750967
118	0x3e689b29	0.22715439
119	0xbd4272e3	-0.047472846
120	0xbdc51b95	-0.096244015
121	0xbd8ff0f0	-0.07028377
122	0xbc43fab7	-0.011961631
123	0x3d8e5743	0.069502376
124	0xbee0319f	-0.43787858
125	0xbdf2eae6	-0.118612096
126	0x3d6eae9c	0.05827199
127	0xbc00e1e7	-0.007866359
128	0x3d7ab459	0.06120715
129	0x3d7105bb	0.058843356
130	0xbd8785d7	-0.06617325
131	0xbe61aa3b	-0.22037594
132	0xbe9d44c1	-0.30716518
133	0x3d84275b	0.06452819
134	0xbd379355	-0.04481824
135	0x3e093dae	0.13402435
136	0x3d775537	0.060384
137	0x3d25aa3b	0.040445548
138	0x3e8d7a2d	0.27632275
139	0xbea23fbe	-0.31689256
140	0x3e52cac2	0.20585158
141	0x3cbc74a5	0.02300484
142	0x3d03ea8c	0.032206103
143	0x3c9989bf	0.01874244
144	0x3e8556d1	0.26042798
145	0x3dea1248	0.11429268
146	0xbe625330	-0.22102046
147	0xbd58bc8f	-0.0529142
148	0xbd90be3f	-0.070675366
149	0xbd541eb6	-0.0517871
150	0xbd71dfcb	-0.059051316
151	0x3e06d545	0.13167293
152	0x3ddbac87	0.10726266
153	0xbd5a5d6d	-0.053311754
154	0xbd217875	-0.039421517
155	0x3a911202	0.0011067989
156	0x3d8b14bf	0.067910664
157	0x3ce48109	0.02789356
158	0x3e1b1429	0.15144409
159	0x3d6f68ae	0.05844944
160	0xbd576fdf	-0.052596923
161	0xbd9dc2dc	-0.07703182
162	0x3ce61712	0.028087173
163	0x3ed88f50	0.4229684
164	0x3de1b3b2	0.11020602
165	0x3f2559b0	0.6458998
166	0x3ef90766	0.48638457
167	0x3d76ba9c	0.06023656
168	0xbc8d8c6f	-0.017278878
169	0x3da0c19a	0.078494266
170	0x3e29a2e4	0.16566044
171	0xbd79a81a	-0.06095133
172	0xbebf7d0a	-0.37400085
173	0x3ed652d6	0.41860074
174	0x3e3bba72	0.18332842
175	0xbd4ccd81	-0.05000067
176	0x3e75f65c	0.2401976
177	0xbccba52d	-0.024859035
178	0xbcbb76b4	-0.02288375
179	0x3ecb68e7	0.39728472
180	0x3ec56eda	0.38561136
181	0xbd5529a9	-0.052041683
182	0xbdd7b401	-0.1053238
183	0x3d6014e1	0.05470741
184	0xbd2087bc	-0.039191946
185	0xbedb6f90	-0.42858553
186	0xbf9dd9da	-1.2332108
187	0xbee638ac	-0.44965112
188	0xbde2b0af	-0.11068856
189	0xbca33d2f	-0.019926636
190	0xbd9fc67c	-0.0780153
191	0x3d9765db	0.07392474
192	0xbdf74497	-0.12073629
193	0x3b564235	0.003269327
194	0xbd6abadf	-0.05730712
195	0x3d15f78f	0.036613043
196	0x3d5dfd40	0.054196596
197	0xbe348fe7	-0.1763302
198	0x3e10bd12	0.14134625
199	0x3c545f9d	0.012962249
200	0x3dc2815f	0.09497332
201	0xbe4d582e	-0.20053169
202	0x3e82117f	0.25403973
203	0xbe2fade8	-0.17156184
204	0xbd4b84ed	-0.049687315
205	0xbda1989f	-0.07890438
206	0xbe1d46e2	-0.15359071
207	0x3d6db601	0.0580349
208	0x3d442a2d	0.047891784
209	0xbdb6b25e	-0.089207396
210	0x3e55e36a	0.20887533
211	0xbc9a5677	-0.018840058
212	0xbdf8fe6b	-0.121579014
213	0x3efb854e	0.4912514
214	0xbe0d2539	-0.1378373
215	0xbe900bb9	-0.28133944
216	0xbdbb096e	-0.09132658
217	0xbd0d7f07	-0.03454497
218	0x3d8e2e0c	0.069423765
219	0x3e464aaa	0.1936442
220	0x3e1c091a	0.15237847
221	0x3e739b29	0.23789658
222	0xbf105fa2	-0.56395924
223	0x3e34bd29	0.17650284
224	0x3d0c8e3d	0.034315336
225	0xbc04df97	-0.008109949
226	0x3df24df3	0.11831274
227	0x3d539e03	0.051664364
228	0xbbb8433f	-0.0056232507
229	0x3d91b78f	0.07115089
230	0xbe6491d6	-0.22321257
231	0xbe25eca4	-0.16203552
232	0xbc191a62	-0.009344669
233	0x3cb688ca	0.022282023
234	0x3def6f7b	0.11691185
235	0x3e4399e7	0.19101678
236	0xbd043635	-0.03227826
237	0x3c87362f	0.016505329
238	0x3f0b58f7	0.54432625
239	0xbca187d9	-0.019718098
240	0xbd106612	-0.03525359
241	0x3e170f7b	0.14751999
242	0x3e86882b	0.26275763
243	0x3e48dcc9	0.19615473
244	0xbd18bb80	-0.03728819
245	0xbda19c90	-0.0789119
246	0xbc14abb7	-0.009074143
247	0xbd17f601	-0.037099842
248	0xbd3b5c29	-0.045742188
249	0x3d5eb1c3	0.054368746
250	0x3d7740f1	0.060364667
251	0x3ccea231	0.025223823
252	0xbd50884a	-0.050911225
253	0xbca7118c	-0.02039411
254	0xbd53ede0	-0.051740527
255	0x3b72438b	0.0036966528

encoder.4.bias f4 [4]
0	0x3d0ff92d	0.035149742
1	0xbd30f2be	-0.043200247
2	0x3cdd766d	0.027034009
3	0x3de3e25b	0.11127158

decoder.1.weight f4 [4, 32, 7, 7]
0	0x3dd13bc7	0.1021648
1	0xbd4b54c4	-0.049641386
2	0x3e04a97d	0.1295528
3	0x3cd2c42d	0.02572831
4	0xbd6fe47e	-0.058567517
5	0x3e288d53	0.16460161
6	0xbd70cba2	-0.05878795
7	0x3d3fdde2	0.046842463
8	0xbdc1c306	-0.09461026
9	0x3db02321	0.0860045
10	0xbc6e99bd	-0.014563021
11	0xbe248489	-0.16066183
12	0x3ea9e215	0.331803
13	0x3debc00d	0.1151124
14	0x3db74fb9	0.08950753
15	0xbe254e24	-0.1614309
16	0xbb5ebf51	-0.0033988545
17	0xbc8756c2	-0.016520862
18	0xbc0e86d5	-0.008699139
19	0x3ebe01ce	0.37110752
20	0x3e2456f4	0.16048795
21	0xbd9458e8	-0.0724352
22	0xbbd1d133	-0.0064031123
23	0xbe26b75c	-0.16280884
24	0x3d83da11	0.06438077
25	0xbc22c561	-0.009934754
26	0x3da8b0ea	0.08236869
27	0xbe0b381b	-0.13595621
28	0x3eaca6fb	0.33721146
29	0xbd3ac40e	-0.04559713
30	0xbc209680	-0.009801507
31	0xbc01fb34	-0.007933427
32	0x3d8c17c0	0.068404675
33	0xbc0745f5	-0.008256425
34	0xbd320d56	-0.04346975
35	0xbe27be7b	-0.16381256
36	0x3d53243b	0.051548224
37	0x3e8439e4	0.25825417
38	0xbd8e05d2	-0.06934704
39	0xbc56b35e	-0.013104288
40	0xbdee00f0	-0.116212726
41	0xbd2da7d0	-0.042396367
42	0xbafa2b01	-0.0019086302
43	0xbedc8dc5	-0.43076912
44	0x3e3d2015	0.1846927
45	0x3e2c0fb3	0.16802864
46	0x3e32cb60	0.17460394
47	0xbed17836	-0.40912026
48	0x3e24e8c9	0.16104425
49	0x3dcf93ca	0.101356104
50	0x3daf1d32	0.085504904
51	0x3d5a4973	0.053292703
52	0xbe804de9	-0.2505944
53	0x3c2595b5	0.010106494
54	0xbd584e78	-0.05280921
55	0x3d66da9a	0.05636082
56	0x3da15a36	0.078785345
57	0x3dba9a51	0.09111465
58	0x3d8650fd	0.06558416
59	0xbe81a85c	-0.2532376
60	0xbe6e238c	-0.23255748
61	0x3e5ba135	0.21448214
62	0xbe0b8a5a	-0.13626996
63	0x3e687095	0.22699197
64	0xbdc0a175	-0.094057955
65	0x3da0f1a9	0.07858593
66	0x3e7c6836	0.24649128
67	0xbeb8abbf	-0.36068532
68	0xbdf88c61	-0.1213615
69	0xbe71feef	-0.23632406
70	0x3d663c8c	0.056210086
71	0x3d6b8f4d	0.05750971
72	0x3ea19a20	0.315629
73	0xbe58048b	-0.21095483
74	0x3bf279bf	0.007399767
75	0xbdc38fe8	-0.09548932
76	0x3e263ff2	0.1623533
77	0x3e5f1e7b	0.21788971
78	0xbe017e03	-0.12645726
79	0x3e47a7db	0.19497626
80	0xbd9cd19d	-0.07657168
81	0xbd88ca92	-0.06679262
82	0x3e5c359a	0.21504822
83	0xbe860799	-0.26177672
84	0x3e119007	0.14215098
85	0xbe0a0113	-0.13476972
86	0xbe3fc6a3	-0.18728118
87	0xbdc0029d	-0.093754984
88	0xbb074ab4	-0.0020643892
89	0x3db69f37	0.089170866
90	0xbe573447	-0.21016036
91	0x3e557c40	0.20848179
92	0x3eb1cc82	0.3472634
93	0xbd9a21f4	-0.07526007
94	0xbd5a3b7d	-0.05327939
95	0xbd05099a	-0.03247986
96	0xbe17834f	-0.14796184
97	0xbaf97844	-0.0019033034
98	0xbdcc01ce	-0.09961282
99	0x3e788e9d	0.24273153
100	0xbd45a1a9	-0.048249874
101	0xbbd125d1	-0.006382682
102	0xbe187bd1	-0.14890982
103	0xbdf07355	-0.11740748
104	0xbd92fa1b	-0.0717661
105	0x3e3985a7	0.1811739
106	0x3e3bd20c	0.18341845
107	0x3dd37f34	0.103269964
108	0xbe9ca730	-0.30596304
109	0xbe970ea7	-0.29503366
110	0xbde778d2	-0.113023415
111	0xbe8f7f78	-0.28026938
112	0x3d71bdb4	0.059018806
113	0xbd932fcb	-0.0718685
114	0xbb9ddbe6	-0.0048174737
115	0xbbac9a7f	-0.005267441
116	0xbc985b1a	-0.018598128
117	0x3e148de3	0.1450725
118	0x3e90b74e	0.2826485
119	0xbd9f4490	-0.07776749
120	0xbdee6d6f	-0.116419666
121	0xbd717dfc	-0.05895804
122	0x3e64d6c3	0.2234755
123	0xbe38b085	-0.18036087
124	0xbcc000bc	-0.02343785
125	0x3dd223ad	0.10260711
126	0x3dde354a	0.10850008
127	0xbbabb760	-0.005240366
128	0x3decb872	0.11558618
129	0xbe1d03c0	-0.15333462
130	0xbe187e32	-0.1489189
131	0x3e5b3aba	0.21409121
132	0x3d53db75	0.051722962
133	0x3de93a6a	0.11388095
134	0x3dd03028	0.10165435
135	0x3e6a1891	0.22860934
136	0xbc501127	-0.012699402
137	0x3e699ea7	0.22814427
138	0xbcab2480	-0.020891428
139	0xbc1e9a23	-0.009680304
140	0x3b4e1016	0.0031442693
141	0x3ebdd466	0.3707611
142	0xbd0e4de2	-0.034742244
143	0xbd00f9af	-0.031488117
144	0xbb232adc	-0.0024897372
145	0xbe1a62b5	-0.15076716
146	0xbe094998	-0.1340698
147	0xbe14079b	-0.14456026
148	0xbe746faf	-0.23870729
149	0xbd8c8d68	-0.068629086
150	0xbece8b35	-0.40340582
151	0xbec02fd2	-0.37536484
152	0xbeb999f3	-0.36250266
153	0xbeb2436f	-0.34817073
154	0x3b91bb9d	0.004447414
155	0xbdfc3fa0	-0.12316823
156	0xbe0427a7	-0.12905751
157	0xbe423bb0	-0.18968081
158	0x3dd4412d	0.10363994
159	0x3e0d1333	0.13776855
160	0xbe75c59f	-0.24001168
161	0xbe2aea3d	-0.16690917
162	0xbddc494c	-0.10756168
163	0xbbef6c5f	-0.00730662
164	0xbd66f5aa	-0.056386627
165	0xbd6b23f7	-0.057407346
166	0xbd068eb3	-0.032850932
167	0xbd2533ff	-0.04033279
168	0x3e848fb8	0.258909
169	0xbcd115ea	-0.025523145
170	0x3d40ca22	0.04706777
171	0xbda00951	-0.07814277
172	0xbe69edf0	-0.22844672
173	0xbf236722	-0.63829243
174	0x3e6ac1e2	0.22925523
175	0xbccb2344	-0.02479709
176	0x3c7b81b3	0.015350747
177	0x3d888ad8	0.06667107
178	0x3e1c4e5b	0.15264265
179	0x3d5fd475	0.054645974
180	0x3cd37d58	0.025816604
181	0x3e202dfa	0.15642539
182	0xbe80bc9c	-0.25143898
183	0x3ec6d36c	0.38833177
184	0xbd08881b	-0.033332925
185	0x3e7d732a	0.24750963
186	0xbd796bda	-0.06089387
187	0xbe1255d7	-0.14290558
188	0x3d464eb2	0.048414893
189	0x3f0511ba	0.51980174
190	0x3e9df25f	0.30848977
191	0x3e816ee8	0.25279927
192	0xbe68f0f5	-0.22748168
193	0xbdf00f3b	-0.11721655
194	0x3c49f522	0.012326511
195	0xbdfd9b2c	-0.12383112
196	0xbec1e8ed	-0.3787302
197	0x3bdc4787	0.006722394
198	0xbca2c06c	-0.019867145
199	0x3cca3a9a	0.024686147
200	0xbe849d01	-0.25901034
201	0xbf384143	-0.7197458
202	0xbe86295e	-0.26203436
203	0x3c99ef22	0.018790785
204	0xbe81041a	-0.25198442
205	0xbdd368c0	-0.10322714
206	0xbe904cdd	-0.28183642
207	0xbd7eaa1a	-0.06217394
208	0xbefdc275	-0.4956242
209	0xbeb54522	-0.35404307
210	0xbde88b2d	-0.11354671
211	0xbdbe0431	-0.09278143
212	0xbd9d3e07	-0.076778464
213	0x3d5db6c5	0.05412938
214	0xbc15f692	-0.009153025
215	0xbe395cb2	-0.18101767
216	0xbeb431b9	-0.35194185
217	0xbe6a96de	-0.22909114
218	0xbd8d4c28	-0.06899291
219	0x3dc1cc8e	0.09462844
220	0xbe4f897b	-0.20267288
221	0xbdeaadc1	-0.11458922
222	0x3ec3dfd4	0.38256705
223	0xbea318f8	-0.31854987
224	0xbd98ee1c	-0.07467291
225	0xbccf3d07	-0.025297655
226	0xbea43046	-0.3206808
227	0x3ce9e590	0.028551847
228	0xbd9dadd1	-0.076991685
229	0xbe3090d8	-0.17242754
230	0x3e2d7984	0.16940886
231	0xbf205a9d	-0.62638265
232	0x3de00823	0.10939052
233	0xbed31d6f	-0.41233394
234	0xbe61fc90	-0.22069001
235	0xbe104e63	-0.14092402
236	0xbdbbc384	-0.09168151
237	0x3c10813e	0.008819876
238	0x3e8cf613	0.2753149
239	0xbf30d9b2	-0.69082177
240	0x3de5300c	0.11190805
241	0xbe7c56a6	-0.24642429
242	0xbea5d5d9	-0.32389715
243	0xbdaffb7b	-0.08592888
244	0x3e70da2c	0.23520726
245	0xbde1976b	-0.11015209
246	0x3df5f213	0.120090626
247	0xbd2d91b1	-0.04237527
248	0x3c4ff526	0.012692725
249	0xbe1da6bd	-0.15395637
250	0x3c371219	0.011173748
251	0xbd354625	-0.04425635
252	0xbd96533c	-0.073400944
253	0xbe09193f	-0.13388537
254	0xbc9f4ca8	-0.019445732
255	0xbdcd191e	-0.10014556

decoder.1.bias f4 [32]
0	0xbee05194	-0.4381224
1	0x3e2b7207	0.16742717
2	0xbefaee56	-0.4900996
3	0xbe3bfcf1	-0.18358208
4	0x3ea72317	0.3264396
5	0x3bfbd633	0.0076854466
6	0xbfa0713d	-1.2534558
7	0x3f4f024f	0.808629
8	0x3d1d23e8	0.03836432
9	0x3f509345	0.81474715
10	0x3e46d9b6	0.19418988
11	0x3c2287fb	0.009920116
12	0xbf77c343	-0.9678232
13	0xbf53f178	-0.8279033
14	0x3dededc3	0.11617615
15	0xbd333863	-0.043754946
16	0xbeb40162	-0.35157305
17	0x3f671f45	0.9028209
18	0x3dab2280	0.0835619
19	0xbf9419b3	-1.1570343
20	0x3f8b6921	1.0891458
21	0xbe9248a3	-0.28571042
22	0x3fb63ff1	1.4238263
23	0x3eed4aff	0.4634628
24	0x3e6be6af	0.23037218
25	0x3e39f68d	0.18160458
26	0xbfa53eaa	-1.2909749
27	0x3e0c14e7	0.13679849
28	0xbed0016c	-0.40626085
29	0x3f03092b	0.51185864
30	0xbfbbf9b5	-1.468558
31	0xbf5cc755	-0.86241657

decoder.3.weight f4 [32, 16, 3, 3]
0	0xbed0f889	-0.40814617
1	0x3e49d6cf	0.19710849
2	0xbd5b5543	-0.05354811
3	0xbd9fabe3	-0.07796457
4	0x3dc01c35	0.0938038
5	0x3e7ae4bd	0.24501319
6	0xbea7b747	-0.32757017
7	0xbd983da2	-0.074336305
8	0x3e0f33cd	0.13984604
9	0x3e2fdadb	0.1717333
10	0xbc28e675	-0.0103088515
11	0x3ceff228	0.029290274
12	0xbe9b59ae	-0.30341858
13	0x3ea74939	0.32673052
14	0xbe6e0109	-0.23242582
15	0x3d5abf65	0.053405184
16	0x3d91ec46	0.07125144
17	0xbe3918c7	-0.18075858
18	0xbd9f9f7d	-0.07794092
19	0x3e80edac	0.2518133
20	0xbf903685	-1.1266638
21	0x3e8fb4ba	0.2806757
22	0xbd5f6fc5	-0.05454995
23	0x3d9eb579	0.07749457
24	0x3ec2d13d	0.3805026
25	0xbe434bb8	-0.19071853
26	0x3d1cd6e3	0.03829087
27	0x3e1718ca	0.1475555
28	0x3e3be959	0.18350734
29	0x3e5e2a19	0.21695746
30	0xbd9b3964	-0.07579306
31	0xbd0f2435	-0.03494664
32	0x3cb050c0	0.02152288
33	0x3e0303e5	0.12794454
34	0x3e0ee69d	0.1395516
35	0x3d972091	0.073792584
36	0x3e681124	0.22662789
37	0x3e288607	0.16457377
38	0xbdbd690c	-0.09248552
39	0x3e20d8e3	0.15707736
40	0xbd61b5d5	-0.05510505
41	0x3e0ee847	0.13955794
42	0x3e4acafd	0.19803996
43	0xbe2e12ab	-0.16999309
44	0xbe06cc83	-0.13163953
45	0x3d013cfa	0.031552292
46	0x3d24b912	0.04021556
47	0xbd902ab7	-0.07039397
48	0xbe4e4113	-0.20142011
49	0x3da6a5e0	0.08137107
50	0x3c82b364	0.01595468
51	0x3cc621a5	0.024185965
52	0xbd1a23b5	-0.03763171
53	0x3db68cf7	0.08913606
54	0xbee87298	-0.45399928
55	0x3e0732c0	0.13202953
56	0xbbeef71e	-0.0072926423
57	0x3e17087b	0.14749329
58	0x3e6efbdd	0.23338266
59	0xbf004f5f	-0.5012111
60	0x3e527ef3	0.2055624
61	0x3e0165b3	0.12636451
62	0x3d77c8a1	0.06049407
63	0x3d842899	0.06453056
64	0x3d72a825	0.059242386
65	0xbe671f89	-0.22570623
66	0xbd0bd4e7	-0.034138586
67	0x3cad01a2	0.021118943
68	0xbd90ccaf	-0.0707029
69	0x3e81159f	0.25211808
70	0x3e31b71e	0.1735501
71	0x3dede43d	0.116157986
72	0xbd34a85e	-0.04410588
73	0x3cac10ee	0.021004166
74	0xbdec193a	-0.11528249
75	0x3dcad573	0.099039935
76	0x3ea4b32a	0.3216794
77	0xbe9b1a94	-0.30293715
78	0x3e8f5e00	0.28001404
79	0x3ea546ae	0.32280487
80	0x3e86a0da	0.26294595
81	0xbe6c667b	-0.23085968
82	0xbe4ea705	-0.201809
83	0x3e0a0e88	0.13482106
84	0xbdbcb237	-0.09213679
85	0x3d6d83ad	0.057986904
86	0x3d38ee03	0.04514886
87	0x3e320afa	0.17387
88	0x3d1b4991	0.037911955
89	0xbe29e1d6	-0.16590056
90	0x3d6e818b	0.05822901
91	0x3db49dce	0.08819161
92	0xbded5932	-0.11589278
93	0xbe504b18	-0.20341146
94	0xbc507bc4	-0.0127248205
95	0xbe04eaf5	-0.12980254
96	0x3e033833	0.12814407
97	0x3e8b429c	0.27199256
98	0x3d860634	0.06544152
99	0x3d7f69b3	0.062356662
100	0xbe04b976	-0.12961373
101	0x3dc2a8c3	0.09504845
102	0x3e934aae	0.28767914
103	0x3d93e1b4	0.07220784
104	0x3ddf23ed	0.10895524
105	0xbe8b9387	-0.27260992
106	0x3ee04292	0.4380079
107	0x3e6e4546	0.23268613
108	0xbe1713e9	-0.14753689
109	0x3e1e2eaa	0.15447488
110	0x3db5678b	0.0885764
111	0xbea31581	-0.31852344
112	0xbd8dbf7c	-0.06921288
113	0x3ec434dd	0.3832158
114	0xbdde6b72	-0.10860337
115	0x3e0a12d4	0.13483745
116	0x3c5f9147	0.013645477
117	0xbdfd1f6d	-0.123595096
118	0x3dd6a5d2	0.104808465
119	0xbe2112f3	-0.15729885
120	0xbe0a048e	-0.134783
121	0xbe0042ab	-0.12525432
122	0xbe879a21	-0.2648478
123	0x3d93e52a	0.07221444
124	0x3e467720	0.1938138
125	0xbeb1d001	-0.34729007
126	0x3e1707c3	0.14749055
127	0x3dcb1264	0.09915617
128	0xbd4ee70c	-0.050513312
129	0xbf006760	-0.5015774
130	0xbf78b11f	-0.97145265
131	0xbd66a2c9	-0.056307588
132	0x3d722b08	0.05912307
133	0x3dbe63d3	0.09296384
134	0x3e8f5bbb	0.27999672
135	0x3d4d2367	0.05008259
136	0xbe82feae	-0.2558493
137	0x3d385bf9	0.045009587
138	0xbc0bce09	-0.008533009
139	0x3e752ba3	0.23942427
140	0x3e8b9607	0.272629
141	0x3da7a252	0.08185257
142	0xbe88beb3	-0.26707992
143	0x3db0f10d	0.08639727
144	0x3df1ee45	0.118130244
145	0x3d677530	0.056508243
146	0xbeac17e1	-0.33611968
147	0xbdf9d53e	-0.12198876
148	0x3e28f704	0.16500479
149	0xbccba3ea	-0.024858434
150	0xbe506ada	-0.2035326
151	0x3e24650b	0.1605417
152	0x3da4b3a5	0.08042077
153	0x3dd57a78	0.1042375
154	0xbd39dbca	-0.045375623
155	0x3e92b7af	0.28655764
156	0x3e73a6db	0.23794119
157	0x3e7e6293	0.2484229
158	0x3e5b45e2	0.21413377
159	0xbd0a2d62	-0.033734687
160	0xbec498a0	-0.38397694
161	0xbd061cde	-0.032742374
162	0x3d85feaf	0.06542718
163	0x3e4a7e3f	0.19774722
164	0x3e66d19b	0.22540896
165	0x3dfe02fc	0.12402913
166	0x3dc1ae3c	0.09457061
167	0xbc4f7adc	-0.012663569
168	0xbc135c39	-0.008994156
169	0xbe815972	-0.25263554
170	0xbe9787ff	-0.29595944
171	0x3e065966	0.1312004
172	0x3e61efd1	0.22064139
173	0x3dd5f207	0.10446554
174	0x3e9e4d6c	0.30918443
175	0x3e166bc6	0.1468955
176	0x3b5fa332	0.0034124372
177	0xbe803807	-0.25042745
178	0xba0816dd	-0.0005191395
179	0xbd85f317	-0.06540506
180	0xbdca400c	-0.09875497
181	0x3daa43bb	0.083137
182	0xbb499ab4	-0.0030762376
183	0x3e94b331	0.29042962
184	0xbe154c9e	-0.14580008
185	0x3ebb02bd	0.36525527
186	0x3dfed936	0.124437734
187	0xbc809ab7	-0.015698774
188	0xbdb1e651	-0.086865075
189	0x3dd88e96	0.10574071
190	0x3e090b5c	0.1338324
191	0x3dd66277	0.104679994
192	0x3d6f9ebc	0.05850099
193	0x3e164f80	0.14678764
194	0x3d579d8d	0.052640487
195	0x3baa5bb8	0.005198922
196	0xbd9ddceb	-0.077081524
197	0xbdaa6c25	-0.08321408
198	0x3e4b99df	0.19882916
199	0xbd162f57	-0.03666624
200	0x3de3ac97	0.11116903
201	0xbda045b7	-0.07825797
202	0x3e37c5f2	0.17946604
203	0x3e90bc29	0.28268555
204	0xbf0c11a1	-0.547144
205	0xbe0047ff	-0.12527464
206	0xbe8d452e	-0.27591842
207	0x3df0e904	0.11763194
208	0x3df0690c	0.11738786
209	0x3d8a1ba9	0.06743557
210	0x3d967e9d	0.07348368
211	0x3e2d3796	0.16915736
212	0x3dcc4857	0.09974735
213	0x3e17a891	0.14810397
214	0x3e89c78d	0.26910058
215	0x3d9f3360	0.07773471
216	0x3e5ff2d8	0.21869981
217	0x3e37a66d	0.1793458
218	0xbe11c04c	-0.14233512
219	0x3e8914eb	0.26773772
220	0x3df679a9	0.120349236
221	0x3de3a8a3	0.11116149
222	0x3e5c21cc	0.21497267
223	0x3e134859	0.14383067
224	0x3e02c02c	0.1276862
225	0xbe0019d4	-0.12509853
226	0x3e0f50ef	0.13995717
227	0xbd1a1122	-0.037613995
228	0x3e96cda8	0.29453778
229	0x3e256a34	0.16153795
230	0xbe11a6c1	-0.14223768
231	0x3d8fb299	0.07016487
232	0xbe1627c8	-0.14663613
233	0xbdad36f2	-0.084577456
234	0x3e07bf4a	0.13256565
235	0xbe0a4251	-0.1350186
236	0x3dec248c	0.11530408
237	0xbebe929b	-0.37221226
238	0x3d4383e2	0.047733195
239	0xbf3fee07	-0.74972576
240	0x3dd786ca	0.10523756
241	0x3e859847	0.2609274
242	0xbe3d2507	-0.18471156
243	0x3dc45373	0.09586229
244	0x3e89b82f	0.26898333
245	0xbe0ec8e3	-0.1394382
246	0xbe76344d	-0.24043389
247	0x3b7630b9	0.0037565662
248	0x3cb1070b	0.021609804
249	0x3d9d70b0	0.07687509
250	0x3e34c772	0.17654207
251	0x3ea66d08	0.3250506
252	0xbe2e703e	-0.17035004
253	0x3dc90be2	0.098167196
254	0x3e4f740d	0.20259114
255	0xbda33e21	-0.079708345

decoder.3.bias f4 [16]
0	0xbf3ae138	-0.72999907
1	0xbe7df9b4	-0.24802285
2	0xbf1ab3cd	-0.60430604
3	0x3e872f4f	0.2640328
4	0xbe165bb2	-0.14683416
5	0x3ea51181	0.32239917
6	0x3defc622	0.11707713
7	0x3eab17c2	0.33416563
8	0xbf3ac65a	-0.7295891
9	0x3f48c404	0.78424096
10	0x3ef38660	0.47563457
11	0x3ec2b7e9	0.38030937
12	0xbeaf2d5a	-0.34214288
13	0xbe5af68b	-0.21383111
14	0xbe9f8d7a	-0.31162626
15	0x3ef845c9	0.48490742

decoder.5.weight f4 [16, 1, 3, 3]
0	0xbed2162c	-0.4103254
1	0xbf4b6479	-0.79450184
2	0xbf041c1a	-0.5160538
3	0xbf44136b	-0.7659213
4	0xbfa1a235	-1.2627627
5	0xbf2c5f31	-0.6733275
6	0xbf0c8465	-0.5488952
7	0xbf4e6cb2	-0.80634606
8	0xbeab0cf9	-0.33408335
9	0xbeb627fb	-0.35577378
10	0xbf15369c	-0.5828645
11	0xbee84932	-0.45368344
12	0xbf44c9d9	-0.76870495
13	0xbf931de6	-1.1493499
14	0xbf390a75	-0.7228158
15	0xbef543df	-0.47903344
16	0xbf160049	-0.58594185
17	0xbe97913f	-0.29603
18	0xbec1ee26	-0.37877005
19	0xbf3e6520	-0.74373055
20	0xbeda5e04	-0.42649853
21	0xbf5f8ef3	-0.873275
22	0xbfb7a9db	-1.4348711
23	0xbf25b6a6	-0.64731824
24	0xbf203d54	-0.6259358
25	0xbf67bfab	-0.9052684
26	0xbeae5315	-0.34047762
27	0xbe64ebf9	-0.22355641
28	0xbf037419	-0.51349026
29	0xbebd39b8	-0.36958098
30	0xbec136fa	-0.37737256
31	0xbf440f6c	-0.7658603
32	0xbeebddc7	-0.4606764
33	0xbebab5fd	-0.3646697
34	0xbf231be6	-0.63714445
35	0xbeafe36b	-0.34353194
36	0x3ef0b682	0.47014242
37	0x3f5a113e	0.8518256
38	0x3f1caafb	0.61198395
39	0x3f68471c	0.90733504
40	0x3fb17676	1.3864276
41	0x3f5fbe53	0.87399787
42	0x3f1b38c1	0.60633475
43	0x3f56c35f	0.8389186
44	0x3edf8fc0	0.4366436
45	0xbe3bd1fb	-0.1834182
46	0xbe8fade9	-0.2806237
47	0xbe4d10b5	-0.20025904
48	0xbeda1f8e	-0.426022
49	0xbf1865fa	-0.59530604
50	0xbeadae95	-0.33922258
51	0xbe38d119	-0.18048514
52	0xbe3f2b07	-0.18668757
53	0xbd66f92b	-0.05638997
54	0x3ea2a77b	0.31768402
55	0x3f2b0ff8	0.6682124
56	0x3f024c0c	0.5089729
57	0x3f2b1d1e	0.66841304
58	0x3f930d99	1.1488525
59	0x3f3168e7	0.69300693
60	0x3f008c01	0.5021363
61	0x3f402675	0.7505868
62	0x3ebe6f89	0.3719447
63	0xbe8952da	-0.26821023
64	0xbef1b1ce	-0.47205967
65	0xbea99ef4	-0.33129084
66	0xbf1713c2	-0.59014523
67	0xbf67e86c	-0.9058902
68	0xbf07f947	-0.5311474
69	0xbeb7dc58	-0.35910296
70	0xbeeaa159	-0.45826223
71	0xbe4e47b6	-0.20144543
72	0xbdbd3301	-0.09238244
73	0xbf001a8e	-0.5004052
74	0xbf0ab3c1	-0.5418053
75	0xbede2a38	-0.43391585
76	0xbf9869de	-1.1907308
77	0xbf755319	-0.9582992
78	0xbebf30df	-0.37341973
79	0xbf60b453	-0.8777515
80	0xbf1589c5	-0.58413345
81	0x3e9b8e53	0.30382022
82	0x3f299887	0.66248363
83	0x3ee0b120	0.43885136
84	0x3f2cde44	0.6752665
85	0x3f8fe2c0	1.1241074
86	0x3f23cb7b	0.6398236
87	0x3ee099c4	0.43867314
88	0x3f207945	0.6268504
89	0x3e8f91f1	0.28041032
90	0x3eb24c30	0.3482375
91	0x3f314006	0.69238317
92	0x3eea0cb6	0.45712823
93	0x3f233964	0.63759446
94	0x3f83d5f1	1.0299665
95	0x3f1395d9	0.57650524
96	0x3edf219f	0.43580338
97	0x3f1bf8ec	0.609267
98	0x3e8b695e	0.27228826
99	0x3ed2efc4	0.41198552
100	0x3f3c52f1	0.7356406
101	0x3f021900	0.50819397
102	0x3f4fd673	0.811866
103	0x3f9b9725	1.2155501
104	0x3f37efbb	0.71850175
105	0x3f061f65	0.52391654
106	0x3f2a631d	0.66557485
107	0x3e99f65b	0.30070767
108	0x3bd1e881	0.0064058905
109	0xbe7a8620	-0.24465227
110	0xbdebe307	-0.115179114
111	0xbea5195f	-0.3224592
112	0xbf4c99ae	-0.79921997
113	0xbec0dc12	-0.376679
114	0xbe2a3fbc	-0.16625875
115	0xbebaed7b	-0.36509308
116	0xbe165d14	-0.14683944
117	0xbf175742	-0.5911752
118	0xbf7dee96	-0.9919218
119	0xbf21260f	-0.629487
120	0xbf8e45c8	-1.1115046
121	0xbfcde963	-1.6086849
122	0xbf62d903	-0.88612384
123	0xbf487707	-0.7830662
124	0xbf8202a0	-1.0157051
125	0xbef0c384	-0.47024167
126	0x3ed4a901	0.4153519
127	0x3f41e2fc	0.75736976
128	0x3efeb0df	0.49744317
129	0x3f29b7a7	0.66295856
130	0x3f876f32	1.0580809
131	0x3f13581c	0.5755632
132	0x3ee0d3ce	0.43911594
133	0x3f174894	0.5909512
134	0x3e82e249	0.25563267
135	0xbd6439e8	-0.055719286
136	0xbeab839d	-0.3349885
137	0xbe89b3b6	-0.2689492
138	0xbe3d8a6d	-0.18509836
139	0xbf174e9c	-0.59104323
140	0xbec52a4e	-0.38508838
141	0xbe8df269	-0.27724007
142	0xbf1b4cf2	-0.60664284
143	0xbea80a77	-0.32820484
