02-Autoencoder/01-PT-MNIST-basic/cnn4-autoencoder.pth (torch, 92353 bytes, 11 tensors)

encoder.0.weight f4 [16, 1, 3, 3]
00000000: 9bdd af3e cf3f 7d3e b552 c33e 2e8a 823e
00000010: 0e08 4e3e 65b7 e43d 723c 9b3e b2b0 353e
00000020: c30f 093f 217f ce3c 735e e2be dcf6 38bf
00000030: fcde 72bf 3028 ebbe 1e84 4dbf 2037 773e
00000040: a873 463f 77b9 923e add3 8ebf db9e 8bbf
00000050: ac06 49c0 677f c53e 6610 313e b2d6 ebbe
00000060: 46e2 fe3e 7e20 c03e ad9c eabe e4c5 1dbe
00000070: 7fad 1e3f ca84 c73e 3ca9 0fbf ae14 e33e
00000080: c4c9 1e3e 0fa2 d9bf 816b a5bf d4a0 afbf
00000090: 920f 113d bca3 e5bc c1a9 c23e eccf a23c
000000a0: fcf1 2ebe 02f7 953e 97f8 923e 0c1b 9e3d
000000b0: 8501 6d3e 0d7c 5cbf 5175 37bf 0953 ab3e
000000c0: fbba c0be 4e22 7ebe 4d80 3c3e 331a d3be
000000d0: aec7 613e e76a da3d f995 393e 47c0 4f3e
000000e0: 53a3 123f 00cc 3f3d 5b62 adbe 1e05 af3c
000000f0: abfc 02bf ecf1 30be e81e b7bd 1616 2a3e
00000100: 22cf 003e 9e46 003c 8308 ef3e da1c b93e
00000110: a726 2c3c 4339 983e 249b 8d3e 755a 47be
00000120: c95b 46be dff0 dc3e 7cae f63d 99fc f5be
00000130: 8b87 d53e 2798 433d 2d02 03bf d5bc b63e
00000140: 5b5f 763e a1bc 29bf 236f 56bf d566 53bf
00000150: 0b84 1d3f d2b5 5b3f c37e 9f3e 795c 82bd
00000160: 367a 293d d289 553c 9e77 bcbe 44f9 31bf
00000170: a06a 69bd 7cb8 8bbd c103 b2be 13b4 7a3e
00000180: f0b4 c43e 35c0 b73e 717d 023f efdd 053f
00000190: 8caa e43e 24ef 293d 5b49 9a3e 808d c4be
000001a0: 20f0 2dbf 6fc7 5d3d bd9b 00bf 6a10 4cbc
000001b0: 48c1 e7bd cb34 a63d 7c90 f5bc b868 ec3b
000001c0: 20ca fbbd f78b 31be cc46 cb3d 96a9 49be
000001d0: 0559 253e fd31 c8bd 7306 033d 7d02 a43e
000001e0: 2221 d3be 70d6 94bf d27f 20bf 09c3 5d3f
000001f0: 1ca2 073f 8178 cb3d d46e 05bf f660 c8bd
00000200: 3e9a 323f 1901 dfbe c0c2 a8bd 2a14 fe3e
00000210: 3f23 1abf b97d f7bd d942 033e c3f4 993e
00000220: 66e1 22be 459b 7ebc b4ed 8a3e d9e9 e63c
00000230: cf8d 093f c440 e0bd a9ad 1dbf d019 583d
0.3434876 0.24731372 0.38149038 0.25496048 0.2012026 0.11167792 0.30319554 0.17743185
0.53539675 0.025207104 -0.44212684 -0.7225168 -0.948715 -0.45929098 -0.8027972 0.24142122
0.7752023 0.28657123 -1.1158348 -1.0907854 -3.1410322 0.38573763 0.17291412 -0.46062237
0.49782008 0.3752479 -0.4582266 -0.1540752 0.61983484 0.38968498 -0.56117606 0.44351715
0.15506655 -1.7002581 -1.2923433 -1.3720956 0.03541524 -0.028032176 0.38020137 0.019874536
-0.17084497 0.29290015 0.28705284 0.077200025 0.23145111 -0.86126786 -0.71663386 0.33461788
-0.37642655 -0.24817774 0.18408318 -0.41230926 0.22048828 0.10664921 0.18123616 0.20288192
0.57280463 0.04682541 -0.33864102 0.021364745 -0.5116679 -0.17279786 -0.08941442 0.16609988
0.12579015 0.007829336 0.4668618 0.36154824 0.010507262 0.29731187 0.27657425 -0.194681
-0.19370951 0.4315252 0.12044999 -0.4804428 0.41704974 0.047752526 -0.51175195 0.35690942
0.24059813 -0.6630345 -0.8376333 -0.82578784 0.61529607 0.8582431 0.311514 -0.06365294
0.041376315 0.013033347 -0.3681001 -0.69520974 -0.05698645 -0.06822297 -0.3476849 0.24482755
0.38419294 0.3588883 0.5097266 0.5229177 0.44661367 0.041487828 0.3013409 -0.38389206
-0.67944527 0.054145273 -0.5023764 -0.012455085 -0.11316162 0.08115538 -0.029976122 0.007214632
-0.12294412 -0.17338549 0.09925613 -0.19693598 0.1614724 -0.097751595 0.031988572 0.32033148
-0.41236216 -1.1627941 -0.6269504 0.86625725 0.52981734 0.09935094 -0.52122235 -0.09784119
0.69766605 -0.43555525 -0.082402706 0.4962476 -0.6021003 -0.120845266 0.12818469 0.3006955
-0.15906295 -0.015539949 0.27134478 0.02818768 0.5373201 -0.10949853 -0.6159311 0.05275899

encoder.0.bias f4 [16]
00000000: ae5d c9be 6ea5 4b3e 9d0c 9f3e 372c 683e
00000010: 1b87 61bb af83 7d3e d35c b83d 4898 d3ba
00000020: 20a5 433d c9ea 533c 3912 1c3b 87d8 59bb
00000030: dfc6 9a3e 19fa 5b3c ead9 94bb 99d2 363d
-0.39329284 0.19887325 0.3106431 0.22673117 -0.0034412805 0.24757265 0.0900208 -0.0016143406
0.047764897 0.012934395 0.0023814572 -0.0033240633 0.30229852 0.013426327 -0.004542579 0.044634435

encoder.2.weight f4 [32, 16, 3, 3]
00000000: 0a5e a1bd 0f6f 24be 0b04 7abe 3e5b f4bd
00000010: f7bc 5ebe 2c9d 54bd cc8b 09bd cd28 98be
00000020: 316a 8dbe dc44 babd b454 92be b90d d1bd
00000030: 022e 093d 71df f5bd 4cfc 9dbe e071 3c3e
00000040: d073 e83c 3095 e1bd 413e c0bc 6c95 a23c
00000050: 734f 103d 35a8 2fbe 0485 99be 7cdb a5be
00000060: 9e17 afbc 895d 6cbd f90b b0be fbb5 15bc
00000070: 841e 853e f740 263e 69dd a63d 8981 493e
00000080: 9c70 423d f33d af3e 5474 273e 06ec 2f3e
00000090: 4e4d 31bd 2e58 f03c 2a02 49be dd13 26be
000000a0: d74c 6a3d 87cf 4f3e 3e51 e7be 255b bebe
000000b0: bf72 3dbe d283 b53e c2b0 acbc 37c3 f2bd
000000c0: 7328 893e bff8 8bbd c3c4 96be 2ad5 143e
000000d0: 80b6 45bd 2155 b83d b6b0 703e d171 76bb
000000e0: 46cd 1cbe dd42 3a3d e503 bf3d a7e5 943d
000000f0: 0b28 793e 2d03 823e f9b0 1e3e 2799 31be
00000100: 510d 813e 0897 103d 9f57 67be c14e 163d
00000110: 7242 1b3e 2a7a 1bbf 4282 c4be 6c2f 01be
00000120: 0c0b be3e 53c5 5e3e a7ac c03d 9481 213e
00000130: 8769 8b3d cd52 e23d 714c 053e f6c5 91be
00000140: 0f0e 92be 23c8 57be 6c6f d33d 8347 d23c
00000150: a29c 5cbf 2a2b 753e e63d 773e a3a7 edbd
00000160: 311d 013e da01 32bd 1505 c1be 9f92 803b
00000170: 8bfc 6b3e f5b5 febe 942e 38be da41 9b3e
00000180: d851 a0be b00e 96be 4a74 84be bb28 d0bd
00000190: 73d4 183d aba3 c53b c0f9 afbe 4b9c 5fba
000001a0: fcde bfbc c1ec 3c3c 7b97 6dbd 0355 4a3c
000001b0: 41ac 893e 5f09 07bd e3ba 3e3d 6514 113e
000001c0: 37cd 043c 5b6a fabd 9306 9e3d ea5a d03d
000001d0: e8e7 28bd e0d9 97be 7f2b c03e 079d 2f3e
000001e0: 2477 09be be4b 933e cde7 823e 693a f03d
000001f0: 6af0 e83e e2d7 053e d4c4 b13e 93b5 943e
00000200: b94f ef3d 934b 153e 4faa d83d c8aa 1c3e
00000210: 0abb f63d 64ba 0cbe a7fd bfbd 3d1e f43d
00000220: faf4 d03d 18d8 093d 10d5 403d 8906 62be
00000230: 54a3 963e 937c 0a3e 4fb6 803e 470a aa3d
00000240: 9634 263e 13a5 e8be 13e9 b13e a7dc 483d
00000250: b31c acbf 863f 85bd fc7f a93d 40a1 43bc
00000260: ecec 61be 07de 353e ad64 d03d 68dc da3e
00000270: c20a 123e 9bf7 b7bb dd1c d33d 736a f53d
00000280: 84ef 1ebe 59f2 8bbe d596 873e c644 283e
00000290: aac8 3e3f d756 503d 993b 2abd 73b5 0fbf
000002a0: 027e f93b f3ab 4ebe f01a 2dbf 4d2b 223d
000002b0: ee42 31be acfb df3d 92d3 a53d cf9f 153e
000002c0: 7b2a c4bd db55 533e f352 a0be acf1 3e3c
000002d0: 724c 88be 51e3 99be e582 3abf fe8b d7bd
000002e0: 451e 63bf d5a8 333e 6794 edbf 8a24 a53d
000002f0: 3088 603d 5011 623e 9ed5 4e3d 5c10 833d
00000300: 5185 953d 93af 7a3c 4893 4cbd 6f67 133e
00000310: ce97 0d3e c5f4 ae3e ca72 b93c 9b86 b13c
00000320: 4268 e33b 2bab fa3c b138 83bc 7233 25bf
00000330: 8e11 313e c394 c3be 0499 5fbf c289 02bf
00000340: 59ec 86be 78b2 21bf 600b cdbe 066e e3be
00000350: 026e 8dbe 3f5f 00c0 2d31 89be 9a50 103f
00000360: 54bf b0bd e179 67be e1a0 00bf 46b5 043e
00000370: 7672 04bf 8ad8 6e3e c2c5 a73d 5747 303c
00000380: c0b0 8abd b711 933e bbd7 f9bd 1941 a2be
00000390: 6955 0d3e 28ef b9bd 5fd5 1b3e 7cec e1bd
000003a0: 42f4 d3be 56fb 1fbf 2333 8dbc ebfd 7ebe
000003b0: 13c5 12be 40df 113f e86f e9be 7692 dd3e
000003c0: 4e2c 79bf 7923 123f 12c5 303e 86de 1ebd
000003d0: fed5 72be ac9d 803e ea48 bfbe a7c2 603d
000003e0: 524c 88be 37a4 8cbe d816 15bf 1944 6d3f
000003f0: 8d90 793d c5c5 833d 40eb c9bb 5e52 373d
-0.07879265 -0.1605799 -0.24415605 -0.119314656 -0.21751772 -0.051907703 -0.033580586 -0.2971863
-0.2762008 -0.09095165 -0.28580248 -0.102076955 0.033491142 -0.12005509 -0.3085655 0.18402815
0.028375536 -0.110147834 -0.023467185 0.01984664 0.03523202 -0.1715401 -0.29984295 -0.32394016
-0.021373566 -0.05770639 -0.34384134 -0.009137626 0.25999844 0.1623572 0.081476994 0.1967832
0.047470674 0.3422695 0.1635297 0.1717988 -0.043286614 0.029338922 -0.19629732 -0.16218515
0.057202186 0.20294009 -0.4517917 -0.37178913 -0.18500803 0.35452133 -0.021080378 -0.118536405
0.26788673 -0.06834554 -0.29446992 0.1453444 -0.04826975 0.09000612 0.2350491 -0.003760446
-0.1531268 0.045473922 0.09326915 0.07270365 0.24331681 0.25393048 0.15497197 -0.17343579
0.25205472 0.035300285 -0.22592019 0.0366962 0.15162066 -0.6073328 -0.3838063 -0.12615746
0.37117803 0.2175496 0.09407931 0.15772086 0.06807237 0.11050949 0.13017441 -0.28471345
-0.2852635 -0.2107244 0.103239864 0.025668865 -0.861765 0.23942247 0.24144706 -0.1160424
0.12608792 -0.043458797 -0.3769919 0.0039237286 0.23045556 -0.49748197 -0.17986518 0.30323678
-0.31312442 -0.2930808 -0.25869972 -0.10164019 0.037311982 0.0060314736 -0.34370232 -0.00085300644
-0.023421757 0.011531056 -0.05800579 0.01234937 0.26889232 -0.03296792 0.046564948 0.14167936
0.008105568 -0.12227317 0.07716098 0.101735905 -0.041236788 -0.29658413 0.37533185 0.17149745
-0.13424355 0.28768724 0.25567475 0.11729891 0.4549592 0.13070634 0.3472048 0.2904478
0.11685128 0.1457961 0.10579359 0.15299523 0.120473936 -0.13742977 -0.09374552 0.1191983
0.102029756 0.03365335 0.047078192 -0.22072805 0.29421484 0.13524084 0.2513909 0.083027415
0.16230997 -0.45438442 0.34748134 0.049038555 -1.3446258 -0.06506257 0.08276364 -0.0119403
-0.22063035 0.17760478 0.101754524 0.42746282 0.14261916 -0.0056142337 0.103082396 0.11983194
-0.15521055 -0.27333334 0.26482263 0.16432485 0.7452494 0.050864067 -0.041560743 -0.56136245
0.0076138983 -0.20182781 -0.6761923 0.039592076 -0.17310688 0.109366745 0.080969945 0.14611743
-0.09578415 0.2063822 -0.31313285 0.011654299 -0.26620823 -0.3005624 -0.7285598 -0.10524748
-0.8871806 0.17544873 -1.8560914 0.0806361 0.05481738 0.22076917 0.05049669 0.06399605
0.07300819 0.015300649 -0.049945146 0.14394926 0.1382744 0.3417112 0.022637744 0.02167063
0.0069399187 0.030599197 -0.016018244 -0.64531624 0.17291853 -0.38199434 -0.8734286 -0.5099145
-0.26352194 -0.63162947 -0.4004774 -0.4441988 -0.27622992 -2.0058134 -0.2679533 0.5637299
-0.08630243 -0.22605087 -0.5024548 0.12959775 -0.51737154 0.2332479 0.08192016 0.010759196
-0.06771994 0.28724453 -0.121993504 -0.3169029 0.13802113 -0.090788186 0.15218113 -0.11031434
-0.4139729 -0.62492883 -0.017236298 -0.2490155 -0.1433299 0.5698128 -0.4559319 0.43275803
-0.9733323 0.57085377 0.17262676 -0.038786434 -0.23714444 0.25120294 -0.37360317 0.054873135
-0.26620728 -0.27469036 -0.5823798 0.92682034 0.06092887 0.06434206 -0.006162077 0.044756286

encoder.2.bias f4 [32]
00000000: a6c6 7e3d c1de 463d af15 383e cd13 8abd
00000010: f3c0 73bc e362 a33d 0ed6 59bd b495 8b3d
00000020: 4d76 843d d5da f0bc d767 c13d 1048 8dbd
00000030: fc5b febd a22d 8cbd 5a9e 8d3d 1f13 3cbd
00000040: 575f 043e b923 8c3d 7d46 2e3c 049a 253e
00000050: 9837 da3d e635 ae3c e26b 683d c560 30bc
00000060: 6e4e 1f3e c532 adbd 80a8 9bbd b0df a4bd
00000070: b14e 423c 0a8c c13d d383 10b9 5caf 253d
0.062201165 0.04855228 0.17977022 -0.06742058 -0.014877546 0.079778455 -0.053182654 0.06815663
0.064678766 -0.029401222 0.09443634 -0.068985105 -0.124198884 -0.06844641 0.06914969 -0.045916673
0.12926994 0.06842751 0.010636923 0.16172034 0.10655135 0.021265935 0.05674351 -0.010765259
0.15557262 -0.08456949 -0.07600498 -0.080504775 0.011859582 0.094505385 -0.00013782019 0.04045044

encoder.4.weight f4 [4, 32, 7, 7]
00000000: bf71 71bc 3dbc c4bd bc13 e1bd d4f6 18be
00000010: dda1 37bd 853f c93b b459 53bd 6d84 893f
00000020: 730f 703c e0e6 a13d 36ba 003f 8daf 893e
00000030: 8d69 c6bb b248 643c 0408 05be 74c3 193e
00000040: d4ba 123e 2238 b73d 2f08 933c 1575 883d
00000050: cc88 2dbd 41ce b8bd 3cff aebb f80e 103e
00000060: 4022 213e bd4c 79be 83a5 6fbe 073f 1d3e
00000070: 6ab9 dfbc cd25 40bd 1269 f93b 2d46 81bd
00000080: ae95 b23e c228 393e 9998 163d b4dc 3dbe
00000090: 0aca ddbc 5594 03be 51cc 0a3e e01b b43a
000000a0: 3a05 ccbd f44b 1e3d a41a 18be b631 b3bb
000000b0: a018 4d3d d85f 3d3d a54b a7bc ddb9 743d
000000c0: e216 17bd 0aad 0b3c 2661 cc3d abe3 03bf
000000d0: cb18 d0be 3516 3abe e706 1fbe d5f9 b23c
000000e0: bac4 14bf 5d40 723c 69bb 373e 560e 143e
000000f0: acc4 a3bd 0d4c d8bc 639e 843d 83c3 6bbe
00000100: 98a0 de3d f0dc 233d 073c bdbe 54ab a43d
00000110: 3f0d 64bf 62e2 703c d2e6 583e 082b 0fbd
00000120: fc09 52be 3245 913e ff78 36bd bbb4 ae3f
00000130: 66c1 6bbd 4ecd a2bc 7ebc 96bd 9628 e6bd
00000140: 04ed 6a3c f707 4dbc 18ab 43bf 6208 4abe
00000150: f8fb d0bd 7ad3 46bd 87c6 bb3b 4974 de3d
00000160: 3eae fdbe 873b cbbe c39d 773d 39e4 d8be
00000170: 1d61 fabd 77a2 b8bd fae2 1ebe 5d54 3b3e
00000180: 09a8 a63d 9ea5 b33c a48b 1b3c 26ff a8be
00000190: 5d4f 353e 234b 1bbf 68a2 bfbf ed8d 593e
000001a0: 4723 003d 7f59 1f3e cec5 8f3c 2502 08bd
000001b0: fad6 6abd 4a8d 29bf 24d2 3c3e cbf1 08be
000001c0: 2aa4 f03d faa3 a13d cc43 3f3d c26a cf3c
000001d0: 0fea b0bc 7467 bfbe 0e9a d73e f6bb 67bd
000001e0: 5745 debd c70a 7cbd a5f1 84bc 5fc8 8f3d
000001f0: 47d9 d6be 708b 213d 43b8 0c3d 4a84 c8bc
00000200: 8c49 503d 45b7 373d f1c9 88bd 20e8 63be
00000210: 7da6 80be 757e 843d 6cb7 34bd c403 053e
00000220: c04c db3c 5d93 783c 6dcd a13e 5a2e b6bd
00000230: 8d51 503e 1763 df3c 7086 2f3d 765b 95bb
00000240: 102d 923e b769 863d a220 763d 814c 94bd
00000250: f52f a4bd bc15 8abd 8211 efbc 5322 043e
00000260: 5a2d 023e 8cae 63bd a8ae 2abc 53ef f3bb
00000270: e63f 803d d345 bf3c 607b 423e c578 e63c
00000280: d5ef 57bd fb7e 9dbd 5c47 423d f080 e93e
00000290: 77a9 ca3d c164 423f 688c f73e bfd6 a53d
000002a0: 868e 5ebc 916d ac3d 0312 173e a5c6 37bd
000002b0: a525 a8be 94fc e53e 5aa9 4e3e 7166 19bd
000002c0: 7bf3 483e 3512 7abd 2142 413d 3e6f b83e
000002d0: 389b b23e 5271 aebd 25f8 edbd 1b70 8c3c
000002e0: c89c b0bd 9fd6 ebbe 7b84 9fbf c621 febe
000002f0: 86ac cfbd 12b5 fbbb bab2 8cbd db2f 803d
00000300: bf6e bcbd fced bc3c 0ae3 28bd 8282 473d
00000310: 6016 4a3d 8b00 87be 8683 453e 11a9 973d
00000320: a22a a73d 2556 95be cdf2 d43e e022 4fbe
00000330: c06e 99bd 7a93 9abd aa7a 15be 97c6 993d
00000340: b289 773d 924b e2bd 26a8 433e 7380 91bc
00000350: 9785 07be a938 033f 61e7 00be 465b a0be
00000360: 52e5 7bbd 0915 27bd 2b27 5e3d f3e4 473e
00000370: d417 253e 5e5b 623e d8ac 1bbf 7677 0e3e
00000380: d8c6 56bc af9e 37bc f451 c63d a197 883c
00000390: 9b0e b63a 41c5 a23d ab70 7bbe af62 3bbe
000003a0: 1114 83bc f24f 9cba 9d5c fc3d f8cd 4d3e
000003b0: 1464 653d 729d 353d 4219 253f c3b6 ad3b
000003c0: a89c debc 4289 383e b2fd 923e 42cf 593e
000003d0: 1f40 1f3a 9dd2 37bd e713 04bc 7962 34bd
000003e0: 0e7b eebc 95f6 893d aa71 903d d109 1c3d
000003f0: 30f6 233c 7248 293c 6194 66bd b28f 1f3d
-0.014736592 -0.09606216 -0.10990092 -0.14937907 -0.0448321 0.0061416053 -0.05159922 1.0743538
0.014652121 0.07905364 0.50284135 0.26891747 -0.006055063 0.013933348 -0.12991339 0.15015966
0.14329082 0.08946253 0.017948238 0.066629566 -0.042366788 -0.09023715 -0.005340485 0.1406821
0.15735722 -0.2434568 -0.23402981 0.15356074 -0.027310092 -0.04691105 0.0076114023 -0.06312213
0.34879822 0.18081954 0.036766622 -0.18541223 -0.027073879 -0.12849553 0.13554503 0.0013741218
-0.099619344 0.038646653 -0.14853913 -0.0054685725 0.050072312 0.04623398 -0.020421812 0.059747566
-0.036887057 0.008525142 0.09979467 -0.5151927 -0.40643916 -0.18172534 -0.15529977 0.021847645
-0.5811268 0.014785853 0.17942585 0.14458594 -0.079964966 -0.026403451 0.06475522 -0.230238
0.108704746 0.040005624 -0.3695986 0.08040491 -0.8908271 0.014702411 0.21181801 -0.034953147
-0.20511621 0.28373104 -0.044548985 1.3648905 -0.057557486 -0.019873288 -0.07360171 -0.1123821
0.0143387355 -0.012514106 -0.76432943 -0.1972976 -0.10204309 -0.048541524 0.0057304534 0.108620234
-0.49547 -0.39693853 0.060453188 -0.4236162 -0.12225554 -0.09015363 -0.15516272 0.18293901
0.08137519 0.021929558 0.009493742 -0.33007163 0.17706056 -0.60661525 -1.4971437 0.21245547
0.031283643 0.15561484 0.017550375 -0.03320517 -0.057333924 -0.66231215 0.18439537 -0.13373487
0.11750062 0.07892604 0.046695516 0.02531946 -0.021595983 -0.37383616 0.42109722 -0.056575738
-0.10853069 -0.061533716 -0.016228506 0.0702064 -0.41962644 0.03943962 0.034355413 -0.024477143
0.05085139 0.044852514 -0.06679142 -0.22256517 -0.2512702 0.06469432 -0.044120237 0.12989718
0.026769996 0.015171853 0.3160204 -0.088955596 0.20343609 0.02726893 0.04285282 -0.004558022
0.28550005 0.06563132 0.060089715 -0.072411545 -0.080169596 -0.06742427 -0.029183153 0.12903719
0.12712613 -0.055586383 -0.010417618 -0.007444301 0.06262188 0.023348724 0.18992376 0.02813376
-0.052718956 -0.07690235 0.047431335 0.45606184 0.09895604 0.7593499 0.4834931 0.080976
-0.013583785 0.08419336 0.14752965 -0.044867177 -0.3284122 0.44919264 0.2018179 -0.03745121
0.1962413 -0.06105252 0.047182206 0.3602237 0.34884048 -0.08517708 -0.116195954 0.0171433
-0.08623654 -0.4606218 -1.2462305 -0.49635142 -0.10140328 -0.0076814974 -0.06870027 0.06259128
-0.09200811 0.023062699 -0.041232146 0.048708446 0.049337745 -0.26367602 0.19288453 0.07405294
0.081624284 -0.29167286 0.41591492 -0.20228148 -0.07491827 -0.0754766 -0.14597574 0.07508581
0.06043405 -0.1104957 0.19107112 -0.017761445 -0.13234554 0.5125833 -0.12588264 -0.31319636
-0.061497994 -0.040791545 0.054236572 0.19520931 0.16122371 0.22105166 -0.60810614 0.13912758
-0.0131089315 -0.011207267 0.096836 0.016673865 0.0013889851 0.079477794 -0.24554698 -0.18299364
-0.01600078 -0.0011925681 0.12322352 0.20098102 0.056003645 0.044339605 0.64491665 0.005301328
-0.027174309 0.1802111 0.2870918 0.21270469 0.00060749234 -0.04487859 -0.008061386 -0.044039223
-0.029111411 0.06736485 0.0705293 0.0380953 0.010007426 0.010332214 -0.05629385 0.038955398

encoder.4.bias f4 [4]
00000000: 2212 143d f8aa 58bd f459 003d 86d0 f73d
0.036150105 -0.052897424 0.031335786 0.121003196

decoder.1.weight f4 [4, 32, 7, 7]
00000000: c75f dc3d 3353 0cbd 9156 083e caf9 1a3c
00000010: 96d4 27bd 8728 fa3d a53b 89bd 7f08 8ebc
00000020: 35ad 07be 7ec2 363d ea19 6d3b 8483 d7bd
00000030: 67a5 b53e a7ee 4e3e 6000 ba3d 4755 1bbe
00000040: 1276 483c 6069 76bc 28c0 01bc 9fb9 ce3e
00000050: 6fc6 513e 0d22 8abd b401 bfbb c487 3bbe
00000060: 5095 983d a52d 14bc 9ac0 aa3d b4de 45be
00000070: 9dca e43e 6b7f 19bd 2e31 12bc 5ca8 ecbb
00000080: 86c2 613d c84a f6bb d2e1 bfbc eba3 1abe
00000090: b53e 833c ef38 8f3e 772e 81bd c473 43bc
000000a0: ba71 0bbe e9dd 0bbe 5441 3bbe af58 f4be
000000b0: 50df 343e 2db4 233e 6157 3c3e 9510 d7be
000000c0: 1fa8 563e 1756 013e d886 b93d e3dc cb3d
000000d0: 0d5a 8fbe 8015 3f3d 7ebf 92bd 869f 313c
000000e0: c004 4c3d aee4 ef3d 9d42 503d 459a 73be
000000f0: 11d4 73be 2ff9 503e 86a9 4fbe 591f 3e3e
00000100: 2426 a7bd eb76 953d 0be5 7a3e 06eb bcbe
00000110: e016 18be f28c 84be 8a79 7f3d f087 0f3d
00000120: 3173 a53e c402 45be 5d3c a43c 2921 bcbd
00000130: 5902 023e e92c 793e 684f f9bd 327d 393e
00000140: a18f adbd fa5d 75bd 1dc1 7a3e 80f5 98be
00000150: 4b76 d53d efd6 0dbe fbed 48be f6e2 b2bd
00000160: b687 8cbc 1b54 b13d a7fb 6fbe 5fd3 653e
00000170: bf0b a43e e0da b8bd 0878 4fbd 9f06 d1bc
00000180: 1e2f 17be 92db 3b3c a277 b9bd 150f 463e
00000190: 957d eabd d365 bebb e32c 4abe fe2c 0dbe
000001a0: f1fa 0bbd f5d9 553e 8611 223e 1ca6 d93d
000001b0: a51e 9cbe 4d31 a1be 4258 e1bd 18bc a1be
000001c0: 55cf 7a3d 7423 a4bd 0fb5 8fbb 4121 9dbb
000001d0: 7ab2 8abc 93a1 223e 89f6 983e a3cd 35bd
000001e0: c312 20be 5f32 56bd 694f 753e 37da 49be
000001f0: 04ca aebc f740 ec3d 465f ba3d 3a52 9cbb
00000200: 7a2c f23d 88f8 29be 5a35 20be 111c 5d3e
00000210: 5c45 e23c 6302 273e f8a0 e33d 6cb2 713e
00000220: 036a 3dbc 8ba2 793e bdcc 9bbc 116f 36bc
00000230: 92e0 d8bd b859 c83e d73b 25bd c4d3 eabc
00000240: a489 14bb 58ee 24be 3f7a a8bd 00c0 0cbe
00000250: 769e 5ebe 38ae d6bd e50a f5be 5be5 b7be
00000260: a9c3 a0be c5d5 babe 9dce 4fbb 8be4 1dbe
00000270: 3be3 0ebe 4f11 45be 4069 dc3d f285 173e
00000280: 1cea 66be b41c 2cbd a563 c5bd 8ce2 46bc
00000290: 2428 6fbd 0665 0dbd 64fd f4bc 9c64 16bd
000002a0: 85e2 763e 79e8 a6bc ab1f 873d 4731 a7bd
000002b0: 0bc6 6abe 8e16 23bf 36e3 753e 8741 88bd
000002c0: 2b4f b33a 1894 8a3d 5530 173e 226d 893d
000002d0: a01f 043d 9025 343e 1575 79be e8aa bb3e
000002e0: 204f 1cbd ee3e 853e bdf1 4ebd 0c9e 23be
000002f0: d2b3 2a3d e618 083f 81a0 953e 59e1 9f3e
00000300: 4183 69be 97d8 d2bd 8465 5ebb 4bc6 00be
00000310: ff23 c8be 4ab3 5f3c 3d7e 20bd 6e24 1f3d
00000320: eb15 81be 425a 39bf c006 81be 6693 b73c
00000330: 9ed0 86be b2f0 dfbd 3873 97be 9094 febb
00000340: e776 05bf 4097 aabe 637f 16be 8d37 a7bd
00000350: 58fb 9cbd 4964 613d 0180 4cbc 9996 5cbe
00000360: c0ba b8be b53a 72be 65cd f1bd 7bd0 ea3d
00000370: 282b 62be ba48 f8bd 23b5 c73e 1461 babe
00000380: e5aa 703c 6a52 bfbc 8c91 a3be 01c3 1f3d
00000390: 1022 5ebd 4930 3cbe 6395 3a3e ed7a 21bf
000003a0: c5d3 f43d c054 ecbe fd3e 80be 9067 9ebd
000003b0: 0877 c0bd 547b 87bc 0dfa 733e a6cd 37bf
000003c0: c822 d63d bc36 87be 1f1b a1be 5d94 e1bd
000003d0: 213d 703e 6cd3 bfbd aee3 093e a0ae 5fbd
000003e0: abf2 9a3d f0fe 31be 9e8f e5bc f68b f6bd
000003f0: c1a9 e2bc c7eb 6fbe 4f0e 0dbc 59ab dcbd
0.107604556 -0.034259032 0.13314272 0.009458968 -0.040974222 0.12214761 -0.067008294 -0.017338036
-0.13249667 0.044619076 0.0036178776 -0.105231315 0.35477754 0.20208226 0.09082103 -0.1516925
0.012235181 -0.015039772 -0.007919349 0.40375993 0.20485853 -0.06744776 -0.0058290605 -0.18313509
0.07450354 -0.009044086 0.08337517 -0.19323236 0.44685832 -0.03747503 -0.008922858 -0.0072222184
0.055117153 -0.007516239 -0.02342311 -0.15101592 0.016021112 0.27973124 -0.063076906 -0.011929456
-0.13617602 -0.13658871 -0.1828664 -0.4772391 0.17663312 0.159867 0.18392707 -0.4200484
0.2096257 0.12630497 0.090589225 0.0995424 -0.2799839 0.046651363 -0.071654305 0.010841256
0.049809217 0.11713539 0.050844777 -0.23789318 -0.23811366 0.20407556 -0.20279512 0.18566646
-0.081615716 0.072980724 0.24501435 -0.3689806 -0.14852476 -0.25888783 0.062371768 0.03504175
0.32314447 -0.19239336 0.020048315 -0.09186012 0.12696208 0.24333538 -0.12173349 0.18114164
-0.08474661 -0.059904076 0.2448773 -0.29874802 0.10422953 -0.13851522 -0.19622032 -0.087346956
-0.017154556 0.0865862 -0.23435842 0.22443913 0.32040212 -0.09026122 -0.05065158 -0.025515852
-0.14764068 0.011465924 -0.09056021 0.19341691 -0.11449734 -0.0058104782 -0.19743685 -0.13786694
-0.034174863 0.20883925 0.15826997 0.10627386 -0.3049213 -0.31482926 -0.11003162 -0.31588817
0.061232883 -0.08014575 -0.0043855975 -0.004795224 -0.016930807 0.15881948 0.2987559 -0.044385564
-0.15632157 -0.05229413 0.23956074 -0.19712149 -0.021336563 0.115358286 0.09100203 -0.0047705444
0.118248895 -0.16598713 -0.15645352 0.21592738 0.027620964 0.16309504 0.11114687 0.23603219
-0.01156092 0.24378411 -0.019018525 -0.011134879 -0.105897084 0.3913095 -0.04034027 -0.02866543
-0.0022665048 -0.16106546 -0.082264416 -0.13745117 -0.21740136 -0.10482448 -0.47859874 -0.35917172
-0.31399277 -0.36491218 -0.0031708844 -0.15419213 -0.13953869 -0.19244884 0.10762262 0.1479719
-0.22550243 -0.04201956 -0.09638146 -0.012138974 -0.05838789 -0.03452017 -0.029905982 -0.036717042
0.24109848 -0.020374523 0.06597837 -0.08163696 -0.2292711 -0.6370629 0.24012455 -0.06653123
0.001368021 0.06766528 0.14764531 0.067102686 0.032256722 0.17592454 -0.2436107 0.3665383
-0.038161397 0.26024574 -0.05052351 -0.15978259 0.041675396 0.5316299 0.29224017 0.31226614
-0.22803976 -0.102952175 -0.003393502 -0.12575643 -0.39089963 0.013653586 -0.03918289 0.0388531
-0.25212035 -0.7240335 -0.25200462 0.022409152 -0.26331037 -0.10934581 -0.29580092 -0.007769175
-0.52134556 -0.3331852 -0.14697032 -0.08164892 -0.076651275 0.05502728 -0.01248169 -0.21541823
-0.3607998 -0.23655207 -0.11806754 0.11465546 -0.22086775 -0.121232465 0.39005384 -0.3640219
0.014689182 -0.023354728 -0.3194698 0.03900433 -0.054231703 -0.18377794 0.18221049 -0.63078195
0.11954454 -0.4615841 -0.25048056 -0.07734597 -0.093977034 -0.0165383 0.23825856 -0.7179817
0.10455853 -0.26408947 -0.31466004 -0.11014626 0.23460819 -0.093664974 0.13465759 -0.054609895
0.075658165 -0.17382407 -0.028022584 -0.12038414 -0.027668836 -0.23429786 -0.0086093685 -0.107748695

decoder.1.bias f4 [32]
00000000: 4295 e4be 710b 383e dbe5 06bf e9c4 45be
00000010: bca7 af3e 7899 2fbd 04ca a5bf 5443 443f
00000020: 9568 fb3c 1351 583f 6bea 443e 19a5 e93c
00000030: 0709 75bf b3a0 4cbf 4d5a 9a3d 0ec0 13bd
00000040: bc62 9abe 1dcb 6d3f 5172 9b3d 895c 9abf
00000050: 3b16 8f3f a013 8ebe 9ca8 b43f 631d dd3e
00000060: e901 5f3e ae23 363e 1558 a4bf 47b9 093e
00000070: c37a c0be eb53 053f 3074 bbbf 4b89 61bf
-0.44645125 0.17973115 -0.5269448 -0.19313397 0.3430766 -0.04287097 -1.2952275 0.76665235
0.030689517 0.8449871 0.19230048 0.028521108 -0.957169 -0.7993271 0.07536755 -0.03607183
-0.30153453 0.9288805 0.075901635 -1.205949 1.1178659 -0.27749348 1.4113955 0.43186483
0.21778072 0.17787048 -1.283938 0.13449584 -0.3759366 0.52081174 -1.4644833 -0.8810012

decoder.3.weight f4 [32, 16, 3, 3]
00000000: c166 d7be 65b3 3e3e a95c 5dbd b27c a6bd
00000010: ab73 c03d 6803 753e 4060 96be c68d 80bd
00000020: 6db3 093e f2bb 503e 5d93 cebd ea79 683d
00000030: b284 92be 3732 b33e 2690 71be dfda 6d3d
00000040: b549 6e3d 64da 4abe 4b94 cdbd 296e 963e
00000050: c96f a4bf 0a72 903e ee1a 8cbd 3b8f 6c3d
00000060: d3f1 ce3e 1441 5fbe 2a64 853d a008 0c3e
00000070: 3064 4b3e c2f5 6b3e 13a6 adbd c146 36bc
00000080: be20 b23c a4d3 023e fec0 1f3e cfce 543d
00000090: 2cca 803e d420 2f3e 149c bdbd 030e 2a3e
000000a0: 0c25 fabc 4db2 173e 796d 4e3e f8b3 3bbe
000000b0: 1512 03be 1599 a83c 0fd4 f73c e32f c5bd
000000c0: 902d 37be 68ae c63d 079f 26bc c4ce 1a3d
000000d0: 7f09 69bd 211d e33d 11c1 1ebe 3375 0d3e
000000e0: 4976 91bc 3c1d 193e 7b16 813e c923 1cbf
000000f0: 4134 3b3e a0ca d53d 6165 d53c ec32 163d
00000100: dd30 b83d eaa4 81be 0ccd 8ebc 896b 243c
00000110: ed0d 0bbe 1e83 763e 1509 213e 76d8 113e
00000120: 4071 a2bc d97a 033c c94a f3bd 8716 b43d
00000130: ee54 a93e b7a5 a4be 6d3d 933e ce28 ae3e
00000140: 57e9 913e d33c 63be 1e56 68be 0138 1c3e
00000150: c283 f0bd 3380 8a3d 6bf6 533d fe9d 3f3e
00000160: d848 4d3d 839a 11be 6a6f 9c3d 5133 de3d
00000170: 80c1 eebd c876 6ebe 6a57 c2bc 9eb3 07be
00000180: 1c2f 183e 509c 883e 3a6c bf3d c0be 363d
00000190: d737 1fbe 14cb f73d 9606 9c3e 8200 dd3d
000001a0: 1e1d e73d c420 8abe eb15 df3e 2599 8f3e
000001b0: 7681 32be e957 1b3e 5156 ce3d 867f a0be
000001c0: ac08 89bd 6c25 d33e 82dd e0bd c668 0c3e
000001d0: 09fb fa3a 8faa f1bd 3ae9 d03d 34ef 19be
000001e0: 3d3a 63be 1274 0bbe b6b6 8ebe a569 a03d
000001f0: cab2 2f3e 8742 c6be 8e27 1f3e e513 d13d
00000200: 8216 61bd 4bc0 f1be a68f 87bf 0d17 c6bd
00000210: 1ac6 033d 8221 de3d 7a6e 813e 7437 383d
00000220: 5137 95be 6f16 5f3c 54bd 77bc 1e14 833e
00000230: 3eda 5d3e c58f 983d 9c13 a0be 077b fa3d
00000240: aa5d f83d 1134 9c3d 0713 b7be c3d0 16be
00000250: 1d69 303e 2e08 16bd 32c2 4dbe 5216 2e3e
00000260: c2d5 af3d 622a db3d 87b6 64bd 91f6 9a3e
00000270: 2340 5d3e 5032 893e 078c 4b3e 97a4 4dbd
00000280: c84e d8be ed24 f9bc 51bf ae3d 075d 373e
00000290: 2df9 683e bbdd e53d 5b74 f23d 8cc0 ffbc
000002a0: 526d d4ba 618f 65be 05d6 aebe 3235 193e
000002b0: d4e7 663e 86fd a53d ea00 a03e 6277 253e
000002c0: 2a77 75bb e9a2 78be 39e9 f73a ac29 55bd
000002d0: 31f9 d9bd e997 bf3d a7ea d6bc df47 943e
000002e0: 9596 20be 1aaf be3e f60f 0d3e a3a5 59bd
000002f0: a8d3 90bd 1314 b03d e7b1 0f3e 042e a63d
00000300: ffb2 c63c c0f5 263e 0d71 643d 4447 ea3c
00000310: e625 aabd 68c6 a5bd 8c7a 4f3e 8612 3fbd
00000320: 5872 2f3e 570d 9dbd da52 423e 45e8 9c3e
00000330: 3577 d0be 878e fbbd b00e 85be 50d8 323e
00000340: e1fb 043e 65bf 0f3e 9348 b93d a182 233e
00000350: 7a6b b53d 95fd f73d 85e7 863e 901e b13d
00000360: 1556 483e f62e 283e cbc1 39be 8e98 8b3e
00000370: 9ac7 dd3d 08f2 f53d 8d20 503e 091c 133e
00000380: f89a d63d 5057 f3bd 00c1 193e d6b8 f1bc
00000390: 04ef a73e 3a61 373e 851e 1fbe a97d b83d
000003a0: db01 05be e018 c2bd 7ca8 033e dd72 0ebe
000003b0: 435e d93d a018 c0be 8ab6 eb3c 77bc 43bf
000003c0: 72a0 113e 5596 853e 1d06 51be 75a8 023e
000003d0: bd9b 8c3e cad4 1bbe 7ed6 7abe 2e7b ad3c
000003e0: 6dc5 c13b 39c5 b33d f484 3a3e d471 993e
000003f0: 8abc 3bbe 57c4 db3d 8180 563e f733 a1bd
-0.42070583 0.18623121 -0.054043446 -0.081292525 0.09397062 0.2392708 -0.29370308 -0.06277041
0.13447352 0.20384195 -0.10086701 0.05675689 -0.28616863 0.34999248 -0.23590145 0.05807006
0.05817576 -0.19809872 -0.1003805 0.2938092 -1.2846614 0.28212005 -0.06841074 0.057753783
0.40418872 -0.21802169 0.065132454 0.13675165 0.19862437 0.23042968 -0.08478942 -0.0111252675
0.021744128 0.12776047 0.15600964 0.05195504 0.25154245 0.17102367 -0.09258285 0.16606908
-0.030535243 0.1481411 0.20158948 -0.18330371 -0.12799866 0.020580808 0.030252485 -0.09628274
-0.17888474 0.09701234 -0.010169751 0.037794843 -0.05689382 0.1108954 -0.15503336 0.13814239
-0.017756598 0.14952558 0.25212464 -0.60992104 0.18281652 0.10439038 0.026049318 0.036669657
0.08993695 -0.25321132 -0.017431758 0.010035404 -0.13579531 0.24073455 0.15726121 0.1424273
-0.019829392 0.008024895 -0.118794985 0.08793359 0.3307261 -0.3215768 0.28757802 0.34015507
0.28498337 -0.22191171 -0.22689101 0.15255739 -0.11743881 0.06762733 0.051748674 0.18712613
0.050118297 -0.14219098 0.07638438 0.108496316 -0.11658001 -0.23287499 -0.023723323 -0.13252112
0.14861721 0.26681757 0.093468145 0.044615507 -0.15548645 0.12099281 0.30473775 0.107911125
0.112848505 -0.26978123 0.4357141 0.28046528 -0.17432198 0.15170254 0.10075057 -0.31347293
-0.06691107 0.41239488 -0.10979749 0.13711843 0.0019148301 -0.118001096 0.102007344 -0.15032655
-0.22190185 -0.13618496 -0.27873772 0.0783265 0.17158046 -0.3872263 0.15542433 0.10208873
-0.054953106 -0.4721702 -1.0590713 -0.09672365 0.032171346 0.10846235 0.252796 0.04497476
-0.29143766 0.013616188 -0.015120823 0.25601286 0.21665284 0.07449297 -0.3126496 0.12230497
0.1212724 0.076271184 -0.35756704 -0.14728074 0.17227598 -0.036628895 -0.20093611 0.17000702
0.08585693 0.10701443 -0.055838134 0.3026624 0.21606497 0.26796198 0.19877635 -0.050205793
-0.42247605 -0.030413115 0.085325845 0.17906581 0.22751303 0.11223932 0.11838599 -0.031219743
-0.0016206896 -0.22417976 -0.3414766 0.14961699 0.22549373 0.081049964 0.31250697 0.16158822
-0.003745506 -0.24280895 0.001891411 -0.052041695 -0.106432326 0.093551464 -0.026234938 0.28961083
-0.15682442 0.37242967 0.1377562 -0.05313648 -0.0707162 0.08597579 0.14032708 0.081142455
0.024255274 0.16304684 0.055771876 0.028598435 -0.0830801 -0.080944836 0.20261592 -0.046648525
0.17133462 -0.0766856 0.18976918 0.30645958 -0.40715948 -0.12283044 -0.25987768 0.17465329
0.12986709 0.14037855 0.090470456 0.159678 0.0885839 0.12108914 0.2634851 0.086484075
0.19564088 0.16424164 -0.18140332 0.27264827 0.108290866 0.120090544 0.20324917 0.14366163
0.10478777 -0.11881888 0.1501503 -0.029507082 0.32799542 0.17908183 -0.15538986 0.09008343
-0.12988989 -0.09477401 0.1285724 -0.13911004 0.10613682 -0.37518787 0.028773565 -0.7645945
0.14221361 0.26091257 -0.20412488 0.12759574 0.2746257 -0.15217891 -0.24495885 0.0211769
0.0059134276 0.087778516 0.1821478 0.29969656 -0.1833364 0.10730808 0.20947458 -0.0787124

decoder.3.bias f4 [16]
00000000: ba1f 36bf 44a5 64be dc2e 18bf f74b 863e
00000010: 013a 1dbe b623 b43e 6422 0b3e 205b a13e
00000020: 4aed 3cbf b316 443f 833d fd3e 5335 c53e
00000030: 4805 babe 2e84 3cbe 956f 9abe 314e 013f
-0.7114216 -0.22328669 -0.594465 0.26229832 -0.15354158 0.35183495 0.13587338 0.31514835
-0.73799574 0.76597136 0.49460992 0.38517246 -0.36332154 -0.18409798 -0.30163255 0.50509936

decoder.5.weight f4 [16, 1, 3, 3]
00000000: 259a d4be 304e 4bbf 5015 04bf 8a58 44bf
00000010: 16f8 a0bf 467c 2abf 899b 0cbf 4959 4ebf
00000020: e6f8 aabe 5e96 b4be fea4 16bf c9e7 eabe
00000030: 638a 44bf b025 96bf 12c6 3bbf d1a8 f6be
00000040: d6be 19bf e18b 9abe 50ea c2be 4686 42bf
00000050: b719 e9be 53e7 61bf 8314 babf 10a4 2ebf
00000060: f6c3 21bf 7782 6dbf ea65 b9be 1bfb 6bbe
00000070: ab55 04bf dbde bdbe 6adf cabe 23ef 47bf
00000080: 7c1a eebe 66e1 c0be f186 23bf 977c acbe
00000090: 96f6 f13e 529c 5c3f 74ba 203f c16d 6c3f
000000a0: 1714 b43f 5198 643f 0b6e 1d3f ef43 5b3f
000000b0: ae29 e53e 136f 3abe 9629 95be d828 52be
000000c0: 4aa5 debe faba 20bf da4c b2be c9e1 40be
000000d0: 7ad2 4fbe c940 86bd 5654 a53e 0089 2f3f
000000e0: 5549 083f f743 2e3f 06de 953f f75b 353f
000000f0: 9f77 033f 4409 453f c61b c53e eb62 89be
00000100: 4a3f f3be 169c adbe a7c0 16bf c7cc 6abf
00000110: a1ec 0bbf 1f1d b9be ede8 f0be ef74 58be
00000120: e482 dabd 07e6 09bf 6564 11bf e5d4 e6be
00000130: 2926 9dbf 825e 79bf 8b9a c4be 31c4 61bf
00000140: 3988 13bf d27c 983e a1da 263f 9b4a dc3e
00000150: ec6c 293f 17b5 8d3f 8848 203f c07a db3e
00000160: a63b 1f3f fca0 8c3e ac2e b93e 1e81 353f
00000170: 9d61 ee3e 1455 253f c506 853f 6283 163f
00000180: 2212 e43e 6fb0 1d3f 7f56 903e 520d d03e
00000190: 1a90 3c3f ee90 003f 046b 4f3f 8c10 9c3f
000001a0: f150 363f 7e22 073f 2990 2c3f 3811 9a3e
000001b0: 8a0e d1bb 3349 82be 1b31 f7bd be8c afbe
000001c0: 3cd6 4fbf 4e07 c4be 4f02 37be c8f7 bebe
000001d0: 7c08 17be a42e 17bf c703 7cbf 0fe2 20bf
000001e0: 24a2 8ebf 9929 cdbf d0d5 5fbf 989f 4bbf
000001f0: e3b6 82bf d6fa eebe 01ec d33e cd91 433f
00000200: 32f7 013f 67b7 293f 7814 883f d0e2 143f
00000210: dc65 df3e ba3e 1a3f c930 863e 2c5f 88bd
00000220: 1015 b2be 5ba5 8cbe 6055 56be d4bc 1ebf
00000230: 3652 c9be 6191 96be f24c 1ebf 1890 aabe
-0.41523853 -0.7941618 -0.5159502 -0.766976 -1.257571 -0.66595876 -0.5492483 -0.8060499
-0.3339302 -0.3527097 -0.5884551 -0.45879963 -0.7677366 -1.1730251 -0.73349106 -0.48175672
-0.6005682 -0.30184844 -0.3806939 -0.75986135 -0.4552743 -0.882436 -1.453751 -0.6821909
-0.6318964 -0.927772 -0.36210567 -0.23045008 -0.5169322 -0.37084088 -0.39623576 -0.7809927
-0.4650458 -0.37671965 -0.6387778 -0.33688805 0.47258443 0.86176026 0.62784505 0.9235497
1.4068631 0.89294916 0.6149604 0.85650533 0.44758362 -0.18206434 -0.2913329 -0.20523393
-0.4348548 -0.62785304 -0.34824258 -0.1883613 -0.20295134 -0.065553255 0.32290906 0.6856842
0.53236896 0.68072456 1.1708381 0.7084345 0.513544 0.76967263 0.38497752 -0.2683328
-0.47509223 -0.33908147 -0.58887714 -0.91718715 -0.5465794 -0.3615503 -0.47052708 -0.21138357
-0.10669497 -0.5386662 -0.56793815 -0.450843 -1.227727 -0.9740983 -0.38399157 -0.8818999
-0.57629734 0.2978273 0.6517735 0.4302567 0.66181827 1.1070889 0.62610674 0.42867088
0.6220039 0.2746657 0.3616842 0.7090014 0.46558848 0.64582944 1.0392691 0.58794224
0.44545084 0.6159734 0.2819099 0.40635163 0.7365738 0.50221145 0.8102267 1.219255
0.71217257 0.52787006 0.6740747 0.30091262 -0.006379907 -0.25446472 -0.12069913 -0.34287065
-0.8118627 -0.38286823 -0.17871974 -0.37298417 -0.1474933 -0.5905554 -0.98443264 -0.6284494
-1.1143231 -1.602832 -0.87435627 -0.79540396 -1.0212063 -0.46675748 0.41390994 0.7639435
0.50767815 0.66295475 1.0631247 0.5815859 0.436324 0.60251963 0.26209095 -0.066587776
-0.34781694 -0.27469906 -0.20931005 -0.6200688 -0.39320534 -0.2940779 -0.6183616 -0.3331306
