02-Autoencoder/01-PT-MNIST-basic/cnn4-autoencoder.pth (torch, 92353 bytes, 11 tensors)

encoder.0.weight f4 [16, 1, 3, 3]
0	0x3ea4d86d	0.3219637
1	0x3e9aaf1d	0.30211726
2	0x3edfa46c	0.4368013
3	0x3e9d1dc6	0.30686778
4	0x3e7710fe	0.24127576
5	0x3d8e04d3	0.06934514
6	0x3eada0e3	0.3391181
7	0x3e75f74e	0.2402012
8	0x3f0b020a	0.54299986
9	0x3dc077b6	0.09397833
10	0xbeb1328d	-0.3460888
11	0xbf43cf95	-0.7648862
12	0xbf7a8c33	-0.9787018
13	0xbf165b3e	-0.58732975
14	0xbf41d3a9	-0.7571359
15	0x3e692e25	0.22771509
16	0x3f582b24	0.8444083
17	0x3e75e848	0.2401439
18	0xbf8d5b4c	-1.1043487
19	0xbf96cd3d	-1.1781384
20	0xc0534680	-3.301178
21	0x3ed44178	0.414562
22	0x3e80c4ff	0.25150296
23	0xbf0154da	-0.505201
24	0x3f0803e4	0.53130937
25	0x3ebc38be	0.3676204
26	0xbf0270f2	-0.5095359
27	0xbdf4c118	-0.11950892
28	0x3f28ac10	0.65887547
29	0x3ec0983d	0.3761615
30	0xbf17efdf	-0.5935039
31	0x3eff628b	0.4987987
32	0x3e41d0e6	0.18927345
33	0xbfddf330	-1.733984
34	0xbfb6a3b4	-1.4268708
35	0xbfb06a08	-1.3782358
36	0x3d518051	0.051147763
37	0xbcdac3ec	-0.026704751
38	0x3ecb22f5	0.39675108
39	0x3c107a65	0.008818244
40	0xbdf0c7fe	-0.117568955
41	0x3ea80b99	0.32821348
42	0x3ebe16aa	0.37126666
43	0x3e0f6685	0.14003952
44	0x3e8b207b	0.27173218
45	0xbf2d6517	-0.67732376
46	0xbf3348a1	-0.700327
47	0x3ec130ba	0.37732488
48	0xbea54122	-0.32276255
49	0xbe831e3a	-0.25609
50	0x3d93fc0f	0.07225811
51	0xbedf1701	-0.43572238
52	0x3e99bc79	0.30026606
53	0x3d30040b	0.042972606
54	0x3e44b27c	0.19208711
55	0x3e82a50d	0.2551655
56	0x3f086130	0.53273296
57	0x3d6878cd	0.05675583
58	0xbec657ff	-0.3873901
59	0xbabea0ab	-0.0014543732
60	0xbefaff09	-0.490227
61	0xbde7fe51	-0.11327804
62	0xbe20717f	-0.15668295
63	0x3e56952d	0.20955344
64	0x3e3279d4	0.17429286
65	0x3d33f910	0.043938696
66	0x3f157406	0.5838016
67	0x3eb8593b	0.36005577
68	0x3d92ba20	0.07164407
69	0x3ec386b7	0.38188717
70	0x3e558564	0.20851666
71	0xbe3b687b	-0.18301575
72	0xbe573e9a	-0.21019974
73	0x3ed2435c	0.41067016
74	0x3dfd1eb7	0.12359374
75	0xbebd1e0c	-0.36936986
76	0x3ebaa11c	0.36451042
77	0x3e426f9a	0.18987885
78	0xbf1034fe	-0.5633086
79	0x3ebae2b0	0.36501074
80	0x3e93611a	0.2878502
81	0xbf476c69	-0.77899796
82	0xbf59bed5	-0.8505681
83	0xbf620f19	-0.8830429
84	0x3f05fd9d	0.5234011
85	0x3f5113cd	0.8167084
86	0x3e99d3d2	0.3004442
87	0xbc530b7f	-0.012881159
88	0x3d92cdcb	0.07168158
89	0x3db2f3c9	0.087379046
90	0xbee108dd	-0.43952075
91	0xbf42fb59	-0.76164776
92	0x3cb3de01	0.021956446
93	0x3d228448	0.039676934
94	0xbebdc2d7	-0.37062714
95	0x3e80c23e	0.25148195
96	0x3eea73e0	0.4579153
97	0x3ea36008	0.31909204
98	0x3f05dd0b	0.5229041
99	0x3f08fd91	0.5351191
100	0x3efd4c57	0.49472305
101	0x3dafc7f0	0.08583057
102	0x3e4841c8	0.19556344
103	0xbec4a915	-0.3841025
104	0xbf4d4207	-0.80178875
105	0x3e62148e	0.22078153
106	0xbebcc9f9	-0.36872843
107	0xbc27f7f6	-0.01025199
108	0xbdcf3b18	-0.10118693
109	0x3d8793db	0.06619998
110	0xbccd7630	-0.02508077
111	0x3ab5c29e	0.0013867205
112	0xbe1f4a32	-0.15555647
113	0xbe3f3a10	-0.18674493
114	0x3de07c47	0.10961204
115	0xbe48b9b0	-0.19602084
116	0x3e1b63e1	0.1517482
117	0xbe318b9f	-0.17338417
118	0x3df16b01	0.117879875
119	0x3ebd4f8c	0.36974752
120	0xbecd1b25	-0.40059772
121	0xbf9c3839	-1.2204658
122	0xbf1e2490	-0.6177454
123	0x3f4a1571	0.78938967
124	0x3f0892cf	0.5334901
125	0x3d885623	0.06657054
126	0xbf1b216d	-0.6059788
127	0xbd68923c	-0.056780085
128	0x3f38301c	0.7194841
129	0xbf11fed7	-0.5702948
130	0x3d75164d	0.05983572
131	0x3eede8c5	0.46466652
132	0xbf3d17a8	-0.7386422
133	0x3ca87e7e	0.020568129
134	0x3dbf635f	0.093451254
135	0x3e9fd2ff	0.31215665
136	0xbe59bf60	-0.2126441
137	0xbd8ded69	-0.06930048
138	0x3e85fbc8	0.26168656
139	0x3dc4f1c0	0.09616423
140	0x3f0dce6c	0.553931
141	0xbdb58e76	-0.08865063
142	0xbf3492a0	-0.7053623
143	0x3d673254	0.05644448

encoder.0.bias f4 [16]
0	0xbeced7aa	-0.40398914
1	0x3e7342c1	0.23755933
2	0x3eacc78e	0.33745998
3	0x3e6d0dbf	0.23149775
4	0xbc3f71c7	-0.0116848415
5	0x3e948a8b	0.2901195
6	0x3e0450f5	0.12921508
7	0x3c434fd6	0.01192089
8	0x3dcac346	0.09900527
9	0x3cf201af	0.029541818
10	0xbbfb3ccb	-0.007667159
11	0xbbcf003d	-0.006317167
12	0x3eab9726	0.33513755
13	0x3ca9eb5f	0.020742116
14	0xb9d67544	-0.0004090463
15	0x3dc2fd44	0.09520963

encoder.2.weight f4 [32, 16, 3, 3]
0	0xbdf3afa7	-0.118987374
1	0xbe29acb5	-0.16569789
2	0xbe5d6bc0	-0.21623135
3	0xbe6c8fec	-0.23101777
4	0xbe5084bb	-0.20363133
5	0xbda0f359	-0.07858915
6	0xbda36a0c	-0.07979211
7	0xbeaea207	-0.34107992
8	0xbe30b5fe	-0.17256925
9	0x3d4591d6	0.048234783
10	0xbe2e175f	-0.17001103
11	0xbe07adb6	-0.13249859
12	0x3da98e08	0.082790434
13	0xbe1dd030	-0.15411448
14	0xbe64127a	-0.22272673
15	0x3df15c12	0.11785139
16	0xbd821824	-0.06352261
17	0xbdf7c1e5	-0.12097529
18	0x3dcd1683	0.100140594
19	0x3dc81cd6	0.09771125
20	0x3d2f4023	0.042785775
21	0xbd68d079	-0.05683944
22	0xbeb0f450	-0.34561396
23	0xbe9b5a1d	-0.30342188
24	0xbcd5f41c	-0.026117377
25	0xbdb490dc	-0.08816692
26	0xbe7cf9f5	-0.24704726
27	0xbd40ae87	-0.047041442
28	0x3e3997c7	0.18124305
29	0x3e2e294e	0.17007944
30	0x3d5218ab	0.051293056
31	0x3e2a7f4f	0.16650127
32	0xbbb06ff4	-0.0053844396
33	0x3eac354d	0.33634415
34	0x3e19076f	0.14944242
35	0x3e1c5802	0.15267947
36	0xbe2f68f2	-0.17129877
37	0xbd1012a7	-0.03517404
38	0xbe4f55b7	-0.20247541
39	0xbe2f4a76	-0.17118248
40	0xbbab0661	-0.0052192663
41	0x3e0a1d4e	0.13487741
42	0xbf0d8294	-0.5527737
43	0xbebad1a1	-0.3648806
44	0xbe02b1ea	-0.12763181
45	0x3ec3807b	0.3818396
46	0xbcf5b698	-0.029994294
47	0xbe32e920	-0.17471743
48	0x3e173721	0.14767124
49	0xbcc1a546	-0.023638379
50	0xbea487f2	-0.32134968
51	0x3e47eb29	0.195233
52	0x3cf4e4ac	0.029894195
53	0x3da738cf	0.08165132
54	0x3e583be0	0.2111659
55	0xbd2d4348	-0.042300493
56	0xbe45e8d1	-0.19327094
57	0x3d5bc3be	0.05365347
58	0x3cf1e555	0.0295283
59	0xbb957b83	-0.004561843
60	0x3e839fef	0.25707957
61	0x3e75d027	0.24005185
62	0x3dd382c4	0.10327676
63	0xbe833f98	-0.25634456
64	0x3e8eef8b	0.27917132
65	0x3d9a1ded	0.07525239
66	0xbee78305	-0.45217147
67	0x3da85d35	0.08220903
68	0x3dfc8f97	0.12332075
69	0xbeeeaacd	-0.46614686
70	0xbed28427	-0.4111645
71	0xbe293337	-0.16523443
72	0x3ec92623	0.39286909
73	0x3de3c7a7	0.11122065
74	0x3e0520b1	0.13000752
75	0x3e75b840	0.23996067
76	0x3d88b641	0.06675387
77	0x3e1328af	0.14370988
78	0x3dce160e	0.100628
79	0xbe53b519	-0.20674552
80	0xbe6783a1	-0.22608806
81	0xbe84963d	-0.25895873
82	0x3da38968	0.079851925
83	0xbc584922	-0.01320103
84	0xbee7d227	-0.4527752
85	0x3e07ef7a	0.13274947
86	0x3e53e073	0.2069109
87	0x3d5298a6	0.05141511
88	0xbdd7f62b	-0.10545
89	0xbdfae969	-0.12251551
90	0xbe3dd623	-0.18538718
91	0x3d916bbf	0.07100629
92	0x3e3d495c	0.18485016
93	0xbee825dd	-0.45341387
94	0xbd8cfb70	-0.068838954
95	0x3ec1edbf	0.37876698
96	0xbed837a2	-0.42229944
97	0xbe68c58e	-0.22731611
98	0xbe89c841	-0.26910594
99	0x3c743a5c	0.014906492
100	0x3e0f289c	0.13980335
101	0x3dc9c143	0.09851315
102	0xbebbdb05	-0.36690536
103	0xbc21b0f1	-0.009868846
104	0x3d41f1a4	0.047349587
105	0x3b935e66	0.004497337
106	0xbd30a2f2	-0.043124147
107	0xbca40cc2	-0.020025615
108	0x3e7b2474	0.24525625
109	0x3d12d3d1	0.035846535
110	0x3d20f63e	0.039297335
111	0x3e3919f7	0.18076311
112	0x3d590cbc	0.05299066
113	0xbd3d72a5	-0.04625191
114	0x3df5e92b	0.12007364
115	0x3dc58022	0.0964358
116	0x3d3af916	0.045647703
117	0xbeb46f9a	-0.35241395
118	0x3e9f157d	0.31071082
119	0x3de21f87	0.110411696
120	0xbd4a0761	-0.049323443
121	0x3e689022	0.22711232
122	0x3e84df42	0.25951582
123	0x3ce93843	0.02846921
124	0x3eb0f333	0.34560546
125	0x3d9daf33	0.07699432
126	0x3ec64cb9	0.3873041
127	0x3e8b3681	0.2719002
128	0x3db71867	0.08940201
129	0x3e7791d0	0.24176717
130	0x3d889920	0.06669831
131	0x3e153024	0.14569145
132	0x3e31d72c	0.17367238
133	0x3d0003ff	0.03125381
134	0xbe1d382d	-0.1535346
135	0x3e5e29dd	0.21695657
136	0x3e06007f	0.13086127
137	0x3b813991	0.00394363
138	0x3d5d6d30	0.054059207
139	0xbe09bc08	-0.13450634
140	0x3e42c415	0.19020112
141	0x3deb0ac8	0.11476666
142	0x3e42a890	0.19009614
143	0x3d7c8c16	0.061657034
144	0x3e81095f	0.25202462
145	0xbefe702a	-0.4969495
146	0x3e94037e	0.28908914
147	0x3d3a9670	0.045553625
148	0xbfb9b72c	-1.4509025
149	0xbe0b976e	-0.13631985
150	0xbd9551e4	-0.0729101
151	0x3bc7d6c3	0.0060985996
152	0xbdb5367d	-0.088482834
153	0x3e61611b	0.22009699
154	0x3dfcca7c	0.12343308
155	0x3edbe736	0.42949837
156	0x3e0d8691	0.13820864
157	0x3ce412af	0.02784094
158	0x3d8935b4	0.06699696
159	0x3d2b191f	0.041772004
160	0xbd945737	-0.072431974
161	0xbed6066c	-0.41801775
162	0x3e94df8c	0.29076803
163	0x3e6ea6b1	0.23305775
164	0x3f3a93b4	0.7288163
165	0x3ce86d4d	0.028372431
166	0xbd1e02c7	-0.038576867
167	0xbf174919	-0.59095913
168	0x3d877131	0.066133864
169	0xbdb77040	-0.08956957
170	0xbf3df601	-0.742035
171	0x3dd43690	0.103619695
172	0xbe2adffd	-0.16687007
173	0x3e0c15f3	0.13680248
174	0x3df56fff	0.11984252
175	0x3dfaeedf	0.12252592
176	0xbdcd2fd3	-0.10018887
177	0x3e8a4998	0.27009273
178	0xbe5d935b	-0.21638243
179	0xbd785c38	-0.06063482
180	0xbec1495e	-0.37751287
181	0xbe9b5427	-0.3033764
182	0xbf5cf996	-0.8631834
183	0x3d13a708	0.036047965
184	0xbf80770c	-1.003633
185	0x3db5bce0	0.08873916
186	0xc0077514	-2.116521
187	0xbd41f2aa	-0.047350563
188	0x3dee073c	0.116224736
189	0x3e5643f1	0.20924355
190	0x3d8b585a	0.06803961
191	0x3d1fab3a	0.038981654
192	0x3d9149ec	0.070941776
193	0x3ba2163f	0.0049464996
194	0xbd9c3891	-0.07627977
195	0x3e05dba4	0.13072067
196	0x3dce7369	0.100806065
197	0x3e734428	0.23756468
198	0x3d05b9bc	0.032647833
199	0xbcb5d451	-0.022195967
200	0x3d90b11d	0.07065032
201	0x3d9d5d42	0.07683803
202	0x3cebdb3b	0.02879106
203	0xbf04b181	-0.5183335
204	0x3e378af8	0.17924106
205	0xbe4b770a	-0.19869629
206	0xbf48d7a9	-0.7845407
207	0xbf078847	-0.5294232
208	0xbe49facc	-0.19724578
209	0xbf0f651f	-0.56013674
210	0xbeef87e1	-0.46783355
211	0xbf00bd4e	-0.50288856
212	0xbe94dc6e	-0.29074425
213	0xc011803c	-2.2734518
214	0xbebf8e09	-0.37413052
215	0x3efc0daf	0.4922919
216	0x3e3e4138	0.18579566
217	0xbe35ce22	-0.17754415
218	0xbf0ae47b	-0.54254884
219	0x3e3421d6	0.17591032
220	0xbf09b6a4	-0.5379431
221	0x3e8fcd21	0.28086188
222	0xbdfaa90d	-0.12239275
223	0x3dc320e5	0.095277585
224	0x3cad9036	0.02118693
225	0x3ea44d78	0.32090354
226	0x3e29c139	0.16577615
227	0x3bcd8788	0.00627226
228	0x3db4e6e9	0.08833105
229	0xbd67391b	-0.056450944
230	0x3e5f0e0a	0.21782699
231	0xbcbbedd2	-0.02294055
232	0xbdfd0702	-0.12354852
233	0xbf27459f	-0.6534061
234	0xbe75bcec	-0.23997849
235	0xbc7491ac	-0.014927309
236	0xbeb11a2b	-0.34590277
237	0x3ec3a9e3	0.3821555
238	0xbf156ec0	-0.58372116
239	0x3ec5949c	0.38589942
240	0xbfa7f223	-1.3120769
241	0x3f001709	0.5003515
242	0x3dcbb46f	0.09946524
243	0xbd798fc9	-0.06092814
244	0xbe8c61bf	-0.27418324
245	0x3da9c2af	0.08289086
246	0xbe574e3c	-0.21025938
247	0x3e78d805	0.24301155
248	0xbd8bf04c	-0.06832942
249	0xbe979104	-0.29602826
250	0xbf02dd7e	-0.5111922
251	0x3f7aaac4	0.9791682
252	0x3dd2702b	0.102753006
253	0x3dc4904e	0.095978364
254	0x3c6c3580	0.014417052
255	0x3d8dfe86	0.06933312

encoder.2.bias f4 [32]
0	0x3daf83ed	0.08570085
1	0x3d75d7e6	0.06002035
2	0x3e295f31	0.16540219
3	0xbd9a6323	-0.0753844
4	0xbcac0831	-0.021
5	0x3db48ce1	0.08815933
6	0xbd5a63c0	-0.053317785
7	0x3da5b86e	0.08091818
8	0x3da1b5ed	0.07896028
9	0xbcc92365	-0.02455301
10	0x3dbd75df	0.09250998
11	0xbd89600f	-0.06707775
12	0xbdd986a9	-0.106213875
13	0xbd4bba1a	-0.049738027
14	0x3d9b2eda	0.075772956
15	0xbd2667c4	-0.040626302
16	0x3e12dc48	0.14341843
17	0x3d855e4f	0.065121286
18	0xbc173ac5	-0.00923032
19	0x3e1a8c2f	0.15092538
20	0x3dca503b	0.09878584
21	0x3c9e2895	0.01930646
22	0x3d868237	0.06567805
23	0x3b6aca0b	0.0035825993
24	0x3e01918b	0.12653176
25	0xbdbcae37	-0.09212916
26	0xbd809ab5	-0.06279508
27	0xbd85b4b5	-0.06528608
28	0x3c8b9d89	0.017042892
29	0x3dd2bcec	0.1028994
30	0xbbbefb88	-0.0058283247
31	0x3d3dc1df	0.046327468

encoder.4.weight f4 [4, 32, 7, 7]
0	0xbc91ab5c	-0.017781906
1	0xbd50aa42	-0.05094362
2	0xbd265f43	-0.040618192
3	0xbda56535	-0.08075944
4	0xba17829c	-0.0005779655
5	0x3cecf69c	0.028926186
6	0xbceb5f22	-0.028731886
7	0x3eb92ef4	0.36168635
8	0x3c9bd2e3	0.019021457
9	0x3c70c6b2	0.01469581
10	0x3eaa59e0	0.33271694
11	0x3e6a1d63	0.22862773
12	0xbd2bb4a7	-0.04192033
13	0x3cf1710e	0.029472854
14	0x3d0fe531	0.035130683
15	0x3d33e239	0.043916915
16	0x3deac9ce	0.114642724
17	0x3db33337	0.08750003
18	0x3d42713b	0.047471266
19	0xbd81dad4	-0.06340566
20	0x3c8ac580	0.016939878
21	0xbd35fd20	-0.044430852
22	0x3dc6c38c	0.09705266
23	0x3e477985	0.1947995
24	0x3e203d17	0.15648304
25	0xbe8e5cf1	-0.27805284
26	0xbeba24a6	-0.36356086
27	0x3d021f81	0.031768326
28	0xbce934cd	-0.02846756
29	0xbd7756f6	-0.060385667
30	0x3da4ec86	0.08052926
31	0xbc978b64	-0.018499084
32	0x3edbd820	0.42938328
33	0x3e5a95f6	0.21346268
34	0x3c261979	0.010137909
35	0xbdaec485	-0.08533577
36	0x3cd3401e	0.02578741
37	0xbd97a817	-0.074051075
38	0x3e852b04	0.2600938
39	0x3d25b82b	0.04045884
40	0xbde0ccfb	-0.10976597
41	0xbcdbe85e	-0.0268442
42	0xbdf99f8b	-0.121886335
43	0xbcb0018d	-0.021485114
44	0x3c990240	0.01867783
45	0x3d5ba978	0.053628415
46	0xbd11a6e7	-0.03555956
47	0xbcc69d03	-0.02424479
48	0xbc3bf0d3	-0.011470991
49	0x3c288a74	0.010286916
50	0x3d787405	0.06065752
51	0xbe5a79e4	-0.2133556
52	0xbedb3127	-0.42810938
53	0xbcfbb01b	-0.030723622
54	0xbeeff1fd	-0.4686431
55	0x3cd7f6b9	0.026362764
56	0xbe94d1de	-0.29066366
57	0xbba7c94c	-0.005120432
58	0x3e0c7685	0.13717087
59	0x3e0634d6	0.13106093
60	0xbd9dbb6c	-0.077017635
61	0xbd6404b6	-0.055668555
62	0x3d922f21	0.071378954
63	0xbe81dd50	-0.2536416
64	0x3db4a4c2	0.088204876
65	0x3d9cfb29	0.076650925
66	0xbeae5f86	-0.34057254
67	0x3e2f9b9f	0.17149208
68	0xbf0b7088	-0.54468584
69	0x3d29335a	0.04130874
70	0x3d7c9892	0.06166894
71	0xbd1f2a7c	-0.038858876
72	0xbe449c93	-0.19200353
73	0x3e9e4bf1	0.30917314
74	0xbd1e2f54	-0.038619354
75	0x3f907e4a	1.128854
76	0xbdfdd41d	-0.12393973
77	0x3d58d6da	0.052939273
78	0xbd2f8f1d	-0.042861093
79	0xbd8eca0d	-0.06972132
80	0xbd5607be	-0.052253477
81	0xbd0d9d54	-0.034573868
82	0xbefde245	-0.49586692
83	0xbe3b1043	-0.18267922
84	0x3c1afa34	0.009459067
85	0xbd2d5087	-0.042313125
86	0x3cf9b01d	0.030479485
87	0x3daa3eb3	0.0831274
88	0xbeac1c49	-0.3361533
89	0xbeb64708	-0.35601068
90	0x3d8c7a56	0.06859271
91	0xbee478ac	-0.44623315
92	0xbd6bfe7b	-0.05761574
93	0xbde372d9	-0.1110589
94	0xbe7bc4ac	-0.24586743
95	0x3df877c0	0.121322155
96	0x3df9dba4	0.12200096
97	0x3b9343bc	0.0044941586
98	0x3c3bb098	0.011455677
99	0xbe6f0ee6	-0.23345527
100	0x3e1786da	0.14797536
101	0xbe8fce6a	-0.2808717
102	0xbf864dd8	-1.0492506
103	0x3e949301	0.29018405
104	0x3d1a9dd8	0.037748188
105	0x3e75eff2	0.24017313
106	0xbcb0bce6	-0.021574449
107	0xbd9a5353	-0.07535424
108	0xbd7d1dce	-0.061796002
109	0xbf0fe4bd	-0.562084
110	0x3e25bb38	0.161847
111	0xbe8732db	-0.26405987
112	0x3e43889b	0.1909508
113	0x3d002628	0.03128639
114	0x3d5596e0	0.05214584
115	0xbca2165d	-0.019786054
116	0x3c84a030	0.016189665
117	0xbea65fd5	-0.3249499
118	0x3dd22542	0.102610126
119	0x3b18187e	0.0023207958
120	0xbdc94cde	-0.098291144
121	0xbd89c9af	-0.06727921
122	0x3cb5ec00	0.02220726
123	0x3d6d56d2	0.057944126
124	0xbecd72ea	-0.40126735
125	0xbdc1a9fd	-0.09456251
126	0x3d90a8e8	0.07063466
127	0x3b7d55a2	0.0038655777
128	0x3d3a85d0	0.04553777
129	0x3d82e26f	0.06390845
130	0xbdcc2454	-0.099678665
131	0xbe7d472e	-0.24734184
132	0xbe9716cc	-0.2950958
133	0x3dcb3391	0.09921945
134	0xbcae33bb	-0.021264901
135	0x3e0f06bf	0.13967417
136	0x3d9cd0d4	0.07657018
137	0x3d1f8a23	0.038950097
138	0x3e9c3319	0.30507734
139	0xbec4c7e8	-0.38433766
140	0x3e32162c	0.1739127
141	0xbbe08cd7	-0.006852727
142	0x3c199e61	0.009376139
143	0x3c427cb3	0.011870551
144	0x3e623c36	0.22093281
145	0x3e27e02b	0.16394107
146	0xbe272f5e	-0.16326663
147	0xbd25a0f5	-0.040436704
148	0xbd667d1c	-0.056271657
149	0xbd1ddd8a	-0.038541354
150	0xbdb3b1d9	-0.08774156
151	0x3e0b15f7	0.13582598
152	0x3d722c69	0.059124384
153	0xbd3af3e7	-0.04564276
154	0xbd026625	-0.031835694
155	0x3cb15c50	0.021650463
156	0x3d775756	0.060386024
157	0x3d19a3bc	0.037509665
158	0x3ddbf5d2	0.10740246
159	0x3d5ca26f	0.053865846
160	0xbd60b2cc	-0.054858014
161	0xbd5394c3	-0.051655542
162	0x3ace8c2c	0.0015758327
163	0x3ec3ef2d	0.38268414
164	0x3e068c98	0.1313957
165	0x3f12d8fa	0.5736233
166	0x3ef8c120	0.48584843
167	0x3d29648f	0.041355666
168	0xbc202d0c	-0.009776365
169	0x3d9bee4f	0.07613813
170	0x3e35a366	0.17738113
171	0xbd9fab96	-0.07796399
172	0xbed418d1	-0.41425183
173	0x3eaf6e15	0.34263673
174	0x3e1b5b82	0.15171626
175	0xbd42a9b7	-0.047525134
176	0x3e935839	0.28778246
177	0xbc44eb84	-0.012019042
178	0xbdb31276	-0.087437555
179	0x3edc9165	0.43079677
180	0x3ecee8db	0.4041203
181	0xbd11b770	-0.03557533
182	0xbda1739c	-0.07883379
183	0x3de63408	0.11240393
184	0xbd18c5a4	-0.03729786
185	0xbebbb203	-0.3665925
186	0xbf8a36a9	-1.0797931
187	0xbeb9e351	-0.3630624
188	0xbdfca772	-0.12336625
189	0xbc233610	-0.00996162
190	0xbd85eaee	-0.0653895
191	0x3d9ade37	0.07561915
192	0xbe1eefb0	-0.15521121
193	0xb9704236	-0.00022912849
194	0xbd3ef3d0	-0.046619236
195	0x3ca8298e	0.020527627
196	0x3d73d9ef	0.05953401
197	0xbdfe5e45	-0.12420324
198	0x3e03cb30	0.12870479
199	0xbcc5edd2	-0.024161253
200	0x3d9e9719	0.07743663
201	0xbdd942f9	-0.10608477
202	0x3dd8a495	0.105782665
203	0xbdeefe84	-0.11669639
204	0xbd3b14bb	-0.045674067
205	0xbd970117	-0.07373255
206	0xbe0fd708	-0.14046872
207	0x3d3819c5	0.04494645
208	0x3cc5e663	0.024157709
209	0xbd85103e	-0.064972386
210	0x3e27adf5	0.16374953
211	0xbcd1e84d	-0.025623465
212	0xbdbdd4a8	-0.092690766
213	0x3eef1c15	0.46701112
214	0xbe210539	-0.15724649
215	0xbe5e5bc3	-0.21714692
216	0xbe0c79e0	-0.13718367
217	0xbcd654d8	-0.026163504
218	0x3d983821	0.07432581
219	0x3e454b06	0.192669
220	0x3e18cbb4	0.14921457
221	0x3e897de0	0.26853848
222	0xbefa85cf	-0.48930213
223	0x3e697e23	0.22802024
224	0x3cc5b9ba	0.024136413
225	0xbc896066	-0.0167696
226	0x3e0a1318	0.13483846
227	0x3d95dd2d	0.073175766
228	0xbcfdaa6c	-0.030965053
229	0x3d477573	0.048695993
230	0xbdafb6f3	-0.08579817
231	0xbe21bef1	-0.15795495
232	0x3c064fbb	0.00819772
233	0x3d403840	0.046928644
234	0x3dd57bba	0.104239896
235	0x3e0f284f	0.1398022
236	0xbe2d1db2	-0.16905859
237	0xbafe2a5b	-0.0019391285
238	0x3eb84cdd	0.35996142
239	0xbc8d98e1	-0.017284812
240	0xbcbeb7aa	-0.023280937
241	0x3dbbaa73	0.0916337
242	0x3e3e186a	0.18564
243	0x3e108ecf	0.14116977
244	0xbcb9b265	-0.022668073
245	0xbdcf1eab	-0.10113271
246	0xbc265f29	-0.010154524
247	0xbd12a5fc	-0.035802826
248	0xbd5ac198	-0.05340728
249	0x3d16390e	0.036675505
250	0x3d2a3009	0.041549716
251	0x3c1ee98d	0.0096992375
252	0xbd4264fc	-0.047459587
253	0xbcf4113f	-0.02979338
254	0xbd40e0e5	-0.047089476
255	0xbbea0a46	-0.007142338

encoder.4.bias f4 [4]
0	0x3cfdbf31	0.030974956
1	0xbcf7a409	-0.030229585
2	0x3cc23af2	0.023709748
3	0x3dcf7755	0.10130183

decoder.1.weight f4 [4, 32, 7, 7]
0	0x3dbff609	0.09373099
1	0xbccabb32	-0.024747465
2	0x3df05e1a	0.117366984
3	0x3b76cfd9	0.0037660508
4	0xbd12a624	-0.035802975
5	0x3de41bd1	0.11138118
6	0xbced806f	-0.028991906
7	0x3db76e45	0.08956579
8	0xbd82e05a	-0.06390448
9	0x3dd9292b	0.10603555
10	0xbcc7ac46	-0.024374139
11	0xbdfcee10	-0.12350094
12	0x3e9d87df	0.30767724
13	0x3de8d079	0.11367888
14	0x3dba029b	0.09082528
15	0xbe2337b3	-0.15939216
16	0xbc2d692c	-0.010584157
17	0xbc94aa6c	-0.01814767
18	0xbc1c9061	-0.009555907
19	0x3eb88903	0.36042032
20	0x3dea98c0	0.11454916
21	0xbe0aff2a	-0.135739
22	0xbbe67aeb	-0.007033696
23	0xbe2f670e	-0.17129156
24	0x3d2cec76	0.042217694
25	0xbc32ccd2	-0.010913091
26	0x3da8f2f9	0.08249468
27	0xbdc4175e	-0.095747694
28	0x3e97fe9b	0.29686436
29	0xbc5d758f	-0.013516798
30	0xbc30673c	-0.0107668005
31	0xbc0ec822	-0.008714708
32	0x3d87a4b6	0.06623213
33	0xbc1497eb	-0.009069423
34	0xbd3afe86	-0.04565289
35	0xbe4851e5	-0.1956249
36	0xbd19eb7e	-0.0375781
37	0x3e7099dd	0.23496194
38	0xbd496f72	-0.04917855
39	0xbc6bd818	-0.0143947825
40	0xbdb61fc7	-0.0889278
41	0x3c23ac5a	0.009989822
42	0x3e563ec0	0.20922375
43	0xbeb06792	-0.34454018
44	0x3e3c1f67	0.18371354
45	0x3e1a6720	0.15078402
46	0x3e3346f3	0.17507534
47	0xbe7d70ce	-0.24750063
48	0x3e0925a0	0.13393259
49	0x3de435cd	0.11143074
50	0x3db1b1eb	0.08676513
51	0x3dce03f0	0.10059345
52	0xbe736535	-0.23769076
53	0x3a9a9281	0.0011792929
54	0xbd677ef9	-0.056517575
55	0x3dd824b6	0.10553877
56	0x3dd441f7	0.10364144
57	0x3d948d20	0.0725348
58	0x3da0491c	0.078264445
59	0xbe80b3df	-0.2513723
60	0xbe776c03	-0.24162297
61	0x3e51b57c	0.20479387
62	0xbdc61a4a	-0.09672983
63	0x3e83633c	0.25661647
64	0xbddf2b28	-0.10896903
65	0x3da89337	0.08231204
66	0x3e6048ff	0.21902846
67	0xbea6f8f8	-0.32611823
68	0xbdce499b	-0.10072633
69	0xbe37ce06	-0.17949685
70	0x3da9161e	0.08256172
71	0x3d8a628e	0.06757079
72	0x3e9ecf04	0.31017315
73	0xbe828cd2	-0.25498062
74	0xbb89a61b	-0.0042007095
75	0xbde1952f	-0.11014783
76	0x3e25110f	0.16119789
77	0x3e2322df	0.15931271
78	0xbdd98939	-0.10621876
79	0x3e2eb4e4	0.17061192
80	0xbdc02168	-0.09381372
81	0xbcea63c4	-0.028612025
82	0x3e5dab8b	0.2164747
83	0xbe5ded78	-0.21672618
84	0x3e21c319	0.1579708
85	0xbe0ae828	-0.13565123
86	0xbe23548a	-0.15950218
87	0xbda09bfa	-0.0784225
88	0x3bbc5ab2	0.0057481164
89	0x3db3312b	0.087496124
90	0xbe297383	-0.1654797
91	0x3e31630d	0.17322941
92	0x3ead6a0b	0.33869967
93	0xbd9899e5	-0.07451228
94	0xbd6df8b0	-0.058098495
95	0xbd188f04	-0.037245765
96	0xbe0f2a02	-0.13980868
97	0x3c0352f0	0.008015379
98	0xbdea489a	-0.11439629
99	0x3e6d36dc	0.23165458
100	0xbcc6184e	-0.024181511
101	0xbbe5bea1	-0.00701125
102	0xbe029927	-0.12753735
103	0xbdef8f6d	-0.11697278
104	0xbd16412f	-0.036683258
105	0x3e4fddca	0.2029945
106	0x3e385ba0	0.18003702
107	0x3de19bb0	0.11016023
108	0xbe890ebc	-0.26769054
109	0xbe8846ae	-0.26616424
110	0xbdd7b590	-0.10532677
111	0xbe7c5384	-0.24641234
112	0x3d171065	0.03688087
113	0xbd734884	-0.05939533
114	0xbbad67e3	-0.0052919253
115	0xbbbd99ce	-0.005786157
116	0xbca75c09	-0.020429628
117	0x3e147f56	0.145017
118	0x3e822454	0.2541834
119	0xbe143a59	-0.14475383
120	0xbd9aa564	-0.07551077
121	0xbd8c5f7f	-0.06854152
122	0x3e4e3cdb	0.20140402
123	0xbe2a7408	-0.16645825
124	0xbcd2e909	-0.025745885
125	0x3dd10f05	0.10207943
126	0x3e057650	0.13033414
127	0xbbbca093	-0.0057564466
128	0x3da3d86d	0.08000264
129	0xbe187eb0	-0.14892077
130	0xbe06b7a1	-0.13155986
131	0x3e589b68	0.21153033
132	0x3d7a7fac	0.061156914
133	0xbbd821c2	-0.006595821
134	0x3dc168d7	0.09443825
135	0x3e5918a2	0.21200803
136	0xbc648f04	-0.013950113
137	0x3e570531	0.20998074
138	0xbcbbff16	-0.022948783
139	0x3b8502c3	0.004059167
140	0xbc3aa080	-0.011390805
141	0x3eb37f3d	0.35058013
142	0xbd4ae6df	-0.049536582
143	0xbd0dad89	-0.034589324
144	0xbb333c31	-0.002734911
145	0xbe55991c	-0.20859188
146	0xbe00de3d	-0.12584777
147	0xbe0655fa	-0.13118735
148	0xbe363afe	-0.17795941
149	0xbdca6756	-0.09882991
150	0xbea2c8ab	-0.31793723
151	0xbe862015	-0.26196352
152	0xbeb8bc0c	-0.36080968
153	0xbeb8f6c5	-0.3612577
154	0xbd2051c8	-0.039140493
155	0xbe171a4b	-0.14756124
156	0xbe0f5686	-0.1399785
157	0xbe352e24	-0.17693383
158	0x3de6689b	0.11250421
159	0x3e0cb51b	0.13740961
160	0xbe90a1af	-0.28248355
161	0xbe3d0fa2	-0.18462995
162	0xbe131d4a	-0.14366642
163	0x3b59cf3e	0.0033235098
164	0xbdaf4eed	-0.08559976
165	0xbd55748b	-0.052113097
166	0xbd13cf2e	-0.036086254
167	0xbd357932	-0.044305034
168	0x3e2c8fae	0.16851684
169	0xbcdcaa1f	-0.026936589
170	0x3d2c8193	0.04211576
171	0xbdade5ec	-0.0849112
172	0xbe52352a	-0.20528093
173	0xbf1d7ed4	-0.6152165
174	0x3e0ef68c	0.13961238
175	0xbd6878af	-0.056755718
176	0xbbd66a12	-0.0065434063
177	0x3d9f823d	0.07788513
178	0x3e1a9e13	0.15099363
179	0x3d5d287d	0.05399369
180	0x3ca2d5d6	0.019877356
181	0x3e14579e	0.14486548
182	0xbe104cfd	-0.14091869
183	0x3ec9a7ae	0.39385742
184	0xbd10dcdc	-0.035366878
185	0x3e76ee90	0.24114442
186	0xbd91f1bd	-0.07126186
187	0xbe0c9baa	-0.13731256
188	0x3d6017a9	0.054710064
189	0x3f240bb7	0.64080375
190	0x3e9ea093	0.30981883
191	0x3e5ea085	0.21740921
192	0xbe50a1d9	-0.2037424
193	0xbdf32977	-0.11873143
194	0x3cd068f7	0.025440676
195	0xbdf3dc18	-0.11907214
196	0xbeacde87	-0.33763525
197	0x3c1192d7	0.008885107
198	0xbc372ebd	-0.011180577
199	0xbc084a29	-0.008318462
200	0xbe6704d6	-0.22560439
201	0xbf2919db	-0.6605508
202	0xbe8d147a	-0.27554685
203	0x3dc4c54a	0.096079424
204	0xbe4a9b8f	-0.19785903
205	0xbdc06634	-0.09394494
206	0xbe8c4774	-0.27398264
207	0xbd909c5b	-0.070610724
208	0xbef02d59	-0.46909598
209	0xbeb48805	-0.35260025
210	0xbdb8e013	-0.09027114
211	0xbd6dd973	-0.058068704
212	0xbc9d1bb1	-0.019178243
213	0x3b26507e	0.0025377567
214	0xbd36cedf	-0.04463088
215	0xbe344d33	-0.17607574
216	0xbea479f1	-0.32124284
217	0xbe7a948b	-0.24470727
218	0xbd64490b	-0.05573372
219	0x3db6f387	0.08933168
220	0xbe37e73b	-0.17959301
221	0xbde556b5	-0.11198179
222	0x3ebcbfe6	0.36865157
223	0xbe9fe657	-0.31230423
224	0xbdfdc80e	-0.12391673
225	0xbb77247d	-0.0037710958
226	0xbea4cac5	-0.3218595
227	0x3c6f55d6	0.014607867
228	0xbdd94c1b	-0.10610219
229	0xbe28010a	-0.16406646
230	0x3e28870f	0.16457771
231	0xbf172979	-0.5904766
232	0x3dc3fa08	0.09569174
233	0xbec0befc	-0.3764571
234	0xbe4aef52	-0.19817856
235	0xbdd540c1	-0.104127415
236	0xbdbf612e	-0.093447074
237	0x3cba1e08	0.022719398
238	0x3e8f74ab	0.28018698
239	0xbf1eaa29	-0.61978394
240	0x3dcf65a7	0.101268105
241	0xbe766dd2	-0.2406533
242	0xbea645a4	-0.32475007
243	0xbdc3d6e1	-0.09562469
244	0x3e71258a	0.23549476
245	0xbda9601a	-0.08270283
246	0x3e4ba76a	0.19888082
247	0xbdc979da	-0.098376945
248	0x3d0443c8	0.032291204
249	0xbe046aa9	-0.12931313
250	0xbc645581	-0.013936401
251	0x3e8ed12b	0.27893957
252	0xbda4e0a4	-0.08050659
253	0xbdbc7331	-0.092016585
254	0x3cc0089f	0.02344161
255	0xbdc05eb8	-0.09393066

decoder.1.bias f4 [32]
0	0xbedf50b2	-0.43616253
1	0x3e10d9bc	0.14145559
2	0xbee92f13	-0.45543727
3	0xbe2ff54a	-0.17183414
4	0x3e8847c6	0.2661726
5	0x3d648e2a	0.05579964
6	0xbf95ebb7	-1.171256
7	0x3f586125	0.8452323
8	0x3d3da1cb	0.046296876
9	0x3f507f76	0.8144449
10	0x3e529aee	0.20566913
11	0xbcf684aa	-0.030092556
12	0xbf7558c4	-0.9583857
13	0xbf572bb8	-0.84051085
14	0x3e1a656f	0.15077756
15	0xbd6d7e8f	-0.057982024
16	0xbece2562	-0.40262896
17	0x3f664d80	0.89962006
18	0x3d9c8034	0.0764164
19	0xbf8961dc	-1.0732989
20	0x3f843ef7	1.0331715
21	0xbe8d92b7	-0.27650997
22	0x3fb78fc5	1.434075
23	0x3f026d86	0.5094837
24	0x3e688c21	0.22709705
25	0x3e2586a3	0.16164641
26	0xbfa02f6b	-1.2514471
27	0x3e179ad9	0.14805163
28	0xbee2144a	-0.44156104
29	0x3f087aa6	0.53312147
30	0xbfb9e998	-1.4524412
31	0xbf5eb856	-0.87000024

decoder.3.weight f4 [32, 16, 3, 3]
0	0xbebf8556	-0.37406415
1	0x3e702369	0.23451008
2	0xbcd4c243	-0.025971537
3	0xbd765253	-0.060137104
4	0x3de83edf	0.11340117
5	0x3e6b9dac	0.23009366
6	0xbeba9575	-0.36442152
7	0xbd80e584	-0.06293777
8	0x3e0fc9c8	0.14041817
9	0x3e0e103a	0.13873377
10	0x3ccc18f4	0.024914242
11	0xba6b8349	-0.00089841016
12	0xbe91d518	-0.2848289
13	0x3e9d6223	0.30738935
14	0xbe8c7a5d	-0.27437106
15	0x3d432071	0.04763836
16	0x3d5c0e74	0.05372472
17	0xbe204fc3	-0.15655427
18	0xbd83726c	-0.064183086
19	0x3e698400	0.2280426
20	0xbf81cd82	-1.0140841
21	0x3e8345f8	0.2563932
22	0xbd1f54c4	-0.0388992
23	0x3da9eb0e	0.08296786
24	0x3eb351ad	0.3502325
25	0xbe1df07e	-0.15423772
26	0x3c478ffa	0.012180323
27	0x3e1e4e75	0.15459616
28	0x3e2779df	0.16355084
29	0x3e511bbb	0.20420735
30	0xbd6c013f	-0.057618376
31	0xbcf4f7e1	-0.029903354
32	0x3d0f31ed	0.034959722
33	0x3ddef291	0.108861096
34	0x3db17c9a	0.08666344
35	0x3db9329d	0.09042857
36	0x3e1ae3bb	0.15125935
37	0x3e15b2ab	0.14618938
38	0xbe017710	-0.12643075
39	0x3e043c56	0.12913641
40	0xbda089f3	-0.07838812
41	0x3e0dd4fa	0.13850775
42	0x3e421364	0.1895271
43	0xbe33eeb6	-0.1757153
44	0xbe02b61b	-0.1276478
45	0x3cd479c0	0.025936961
46	0x3d9d221b	0.07672521
47	0xbd68a897	-0.056801405
48	0xbe572475	-0.21010001
49	0x3d9a2ace	0.075276956
50	0x3bb35dbd	0.005473821
51	0x3c8d180c	0.01722338
52	0xbd50b0af	-0.05094975
53	0x3d8a479e	0.06751941
54	0xbee6c720	-0.45073795
55	0x3dd2853c	0.10279319
56	0xba9c2a1d	-0.0011914406
57	0x3e0e5546	0.13899717
58	0x3e5f81da	0.21826878
59	0xbed27154	-0.41102087
60	0x3e6a9a70	0.22910476
61	0x3e096bdb	0.1342005
62	0x3dc67e64	0.09692076
63	0x3d53fa61	0.05175245
64	0x3d2bc337	0.04193422
65	0xbe72de34	-0.23717576
66	0xbd62501f	-0.05525219
67	0x3d944038	0.07238811
68	0xbc4280e4	-0.01187155
69	0x3e86a65c	0.26298797
70	0x3e54963f	0.2076044
71	0x3dc99471	0.09842766
72	0xbd28abe2	-0.041179545
73	0x3d3ad1a4	0.045610085
74	0xbde44292	-0.1114551
75	0x3df47bcc	0.11937675
76	0x3ea03bcf	0.3129563
77	0xbea266c4	-0.3171903
78	0x3e860cdc	0.26181686
79	0x3e97028b	0.29494128
80	0x3e693bd9	0.22776736
81	0xbe7b3ebb	-0.24535649
82	0xbe3fdf5c	-0.18737549
83	0x3dda2c83	0.10653021
84	0xbd71602b	-0.058929604
85	0x3d38180e	0.044944815
86	0x3d7ae728	0.061255604
87	0x3e20d074	0.15704519
88	0x3cb04f15	0.021522084
89	0xbe301087	-0.17193805
90	0x3d3c6b23	0.04600061
91	0x3d6b86a3	0.057501446
92	0xbdd1df82	-0.10247709
93	0xbe37393e	-0.1789293
94	0xbc879037	-0.01654826
95	0xbe1e2306	-0.15443048
96	0x3dea6fc1	0.114470966
97	0x3e871b51	0.26388028
98	0x3d4661b1	0.04843301
99	0x3d8cdf3a	0.068785146
100	0xbdcea0f8	-0.10089296
101	0x3daf5c23	0.085624956
102	0x3e862a99	0.26204374
103	0x3d7e036f	0.062014993
104	0x3de8a32c	0.113592476
105	0xbe969496	-0.29410237
106	0x3eda6bde	0.4266042
107	0x3e3cbc47	0.18431197
108	0xbdf3926b	-0.118931614
109	0x3e0c786b	0.13717811
110	0x3dbc8a57	0.09206074
111	0xbea43436	-0.32071084
112	0xbd89684f	-0.067093484
113	0x3eb978b9	0.36224917
114	0xbddc8570	-0.10767639
115	0x3e2cfb11	0.16892649
116	0x3cd973c1	0.026544454
117	0xbe0d9540	-0.13826466
118	0x3dcab224	0.09897259
119	0xbe122570	-0.14272094
120	0xbda3ecb8	-0.08004135
121	0xbdbc9c19	-0.09209461
122	0xbe8ff522	-0.2811671
123	0x3d56ef7b	0.05247448
124	0x3e6bbf3d	0.2302217
125	0xbea5bdf3	-0.32371482
126	0x3e0844d3	0.13307504
127	0x3db685fd	0.08912275
128	0xbd845e23	-0.06463268
129	0xbeee0da5	-0.46494785
130	0xbf56f5ee	-0.8396901
131	0x3d25754f	0.040395077
132	0x3d7a8020	0.061157346
133	0x3e0bda36	0.1365746
134	0x3e9c12ef	0.30483195
135	0x3d4b1a1c	0.049585447
136	0xbe6edcdd	-0.2332644
137	0x3da93756	0.082625076
138	0x3cae4518	0.02127318
139	0x3e65df7f	0.22448538
140	0x3eab115c	0.33411682
141	0x3daefe19	0.08544559
142	0xbe4457c3	-0.19174103
143	0x3d9ef63a	0.07761808
144	0x3dd783f8	0.10523218
145	0x3c8066ef	0.015674083
146	0xbe9fe7f0	-0.31231642
147	0xbdeb629b	-0.11493417
148	0x3e1edb6c	0.1551339
149	0xbca9e53a	-0.020739187
150	0xbe673f10	-0.2258265
151	0x3e060a5b	0.13089888
152	0x3d690354	0.05688794
153	0x3dec6d4a	0.11544283
154	0xbbf47166	-0.007459807
155	0x3e8c60ee	0.274177
156	0x3e70e4ff	0.23524855
157	0x3e612337	0.2198609
158	0x3e46245e	0.1934981
159	0xbc3efbd1	-0.011656717
160	0xbed134b1	-0.40860513
161	0xbd061402	-0.032733925
162	0x3d8e30e4	0.06942919
163	0x3e3b823c	0.18311399
164	0x3e520857	0.20510994
165	0x3e03e07b	0.12878601
166	0x3db4a5cc	0.08820686
167	0x3bb6a721	0.0055741225
168	0xbc2cd2e9	-0.010548332
169	0xbe864590	-0.26224947
170	0xbe6a8e79	-0.22905912
171	0x3def9d60	0.11699939
172	0x3e540981	0.2070675
173	0x3de0aea2	0.109708086
174	0x3e9349a5	0.28767124
175	0x3e039e2b	0.12853305
176	0x3c48ee2f	0.012263819
177	0xbe7dc715	-0.24782975
178	0xbd35f25b	-0.04442058
179	0xbdd04565	-0.10169486
180	0xbd84c45a	-0.064827636
181	0x3d9c27f8	0.07624811
182	0x3c54c294	0.012985844
183	0x3e95f19a	0.2928589
184	0xbe1ce405	-0.15321358
185	0x3eb94ec3	0.36192903
186	0x3dd3b11f	0.103365175
187	0x3bd15b12	0.0063890303
188	0xbda4f8a7	-0.08055239
189	0x3e07241a	0.13197365
190	0x3e079a7a	0.13242522
191	0x3dc2e58b	0.09516438
192	0x3da87d36	0.08227007
193	0x3e2b125b	0.16706221
194	0x3d3c7b86	0.04601624
195	0x3c9b2313	0.018937623
196	0xbdb44b62	-0.08803441
197	0xbd88648a	-0.06659801
198	0x3e3ff943	0.1874743
199	0xbcf65e3d	-0.030074233
200	0x3d82c536	0.06385271
201	0xbdb541f9	-0.08850474
202	0x3e31e0d1	0.17370917
203	0x3e81e1e7	0.25367662
204	0xbf21a70e	-0.6314553
205	0xbe265d56	-0.16246542
206	0xbe96380d	-0.29339638
207	0x3db1371b	0.08653089
208	0x3de866e2	0.11347748
209	0xbb1dee4a	-0.002409833
210	0x3d814739	0.06312413
211	0x3e368fdb	0.17828314
212	0x3db77c6a	0.08959277
213	0x3e31edb7	0.17375837
214	0x3e8701c9	0.2636855
215	0x3de27551	0.110575326
216	0x3e63dd21	0.22252323
217	0x3e4fc4b3	0.20289879
218	0xbe186174	-0.14880925
219	0x3e8437a3	0.25823697
220	0x3dfb1267	0.12259369
221	0x3ddf3c29	0.109001465
222	0x3e5a6ff7	0.21331774
223	0x3e25970b	0.161709
224	0x3e178ec3	0.14800553
225	0xbe0066c8	-0.12539208
226	0x3e058ba1	0.13041545
227	0xbd35984b	-0.04433469
228	0x3e810cb1	0.25204995
229	0x3e165b1e	0.14683196
230	0xbe021f18	-0.12707174
231	0x3d8b89f4	0.06813422
232	0xbe1f9607	-0.15584575
233	0xbd8ad1cd	-0.067782976
234	0x3e1cae49	0.1530086
235	0xbdf70dcc	-0.120631784
236	0x3dfac98d	0.12245474
237	0xbec0b784	-0.3764001
238	0x3d57e19d	0.052705396
239	0xbf34d6b9	-0.7064014
240	0x3da252b1	0.079259284
241	0x3e80e2a3	0.2517291
242	0xbe360daa	-0.1777865
243	0x3d7aa8bf	0.061196085
244	0x3e8dfa90	0.27730227
245	0xbdca7e09	-0.098873205
246	0xbe714cb0	-0.2356441
247	0x3bdc773f	0.0067280824
248	0x3cec814f	0.028870253
249	0x3dac482f	0.084122054
250	0x3e11027d	0.14161105
251	0x3e9dafab	0.30798087
252	0xbe1db053	-0.15399294
253	0x3dbb09d6	0.091327354
254	0x3e51dd8b	0.20494668
255	0xbda0e4c6	-0.07856135

decoder.3.bias f4 [16]
0	0xbf413a1b	-0.75479287
1	0xbe8eaa7a	-0.27864438
2	0xbf1b9137	-0.60768455
3	0x3e8b98b1	0.27264932
4	0xbe194940	-0.14969349
5	0x3e9c0473	0.30472144
6	0x3dd8aca2	0.10579802
7	0x3eaa6814	0.3328253
8	0xbf33b4f4	-0.7019799
9	0x3f4c5782	0.79821026
10	0x3eea8236	0.45802468
11	0x3ec8f7d2	0.39251572
12	0xbea200d3	-0.31641254
13	0xbe7317f7	-0.2373961
14	0xbea08aca	-0.31355888
15	0x3ee79326	0.45229453

decoder.5.weight f4 [16, 1, 3, 3]
0	0xbed20cc4	-0.41025364
1	0xbf4b0253	-0.7930042
2	0xbf04d029	-0.5188013
3	0xbf47ebbb	-0.7809407
4	0xbfa27ca7	-1.2694291
5	0xbf2a0602	-0.6641542
6	0xbf0e719a	-0.5564209
7	0xbf4d985d	-0.8031061
8	0xbea69899	-0.32538298
9	0xbeb35155	-0.3502299
10	0xbf119094	-0.56861234
11	0xbee44c5c	-0.44589508
12	0xbf40a40d	-0.7525032
13	0xbf8d9bfd	-1.1063229
14	0xbf32ca06	-0.69839513
15	0xbeea7b98	-0.4579742
16	0xbf0e5010	-0.55590916
17	0xbe90345f	-0.28164956
18	0xbec65f45	-0.3874456
19	0xbf39b2e3	-0.72538584
20	0xbec917b4	-0.39275897
21	0xbf5f1f08	-0.87156725
22	0xbfb0ddf5	-1.3817736
23	0xbf19ea87	-0.60123485
24	0xbf1cc4eb	-0.6123797
25	0xbf5e5be9	-0.86858994
26	0xbe9b05d3	-0.3027788
27	0xbe52340d	-0.20527668
28	0xbeff1566	-0.49821013
29	0xbeb506d6	-0.35356778
30	0xbeb20f69	-0.34777382
31	0xbf3b7971	-0.7323218
32	0xbee002af	-0.43752047
33	0xbeb55315	-0.3541495
34	0xbf1fbe58	-0.62399817
35	0xbeab7bf9	-0.3349302
36	0x3eee27a4	0.46514618
37	0x3f56744a	0.83771193
38	0x3f1a267d	0.6021498
39	0x3f690d56	0.91035974
40	0x3fb06718	1.3781462
41	0x3f5fd8a8	0.87439966
42	0x3f1d3b83	0.6141893
43	0x3f56f04a	0.839604
44	0x3ee2da75	0.44307294
45	0xbe3f450c	-0.18678683
46	0xbe8d8aa8	-0.2764485
47	0xbe44dee8	-0.19225657
48	0xbed94dec	-0.42442262
49	0xbf13ba45	-0.577061
50	0xbea6b625	-0.3256084
51	0xbe30dce7	-0.17271768
52	0xbe2b5a33	-0.16733627
53	0xbd47c4bd	-0.04877161
54	0x3e9d81d8	0.30763125
55	0x3f2537a1	0.6453801
56	0x3efad540	0.48990822
57	0x3f223db7	0.6337542
58	0x3f8bbafb	1.0916437
59	0x3f28b1d4	0.65896344
60	0x3ef5a753	0.4797922
61	0x3f3988a6	0.72474134
62	0x3eba1d24	0.36350358
63	0xbe871f69	-0.26391152
64	0xbeecbf47	-0.46239683
65	0xbea2b18b	-0.3177608
66	0xbf18a7f9	-0.59631306
67	0xbf64e4e8	-0.89411783
68	0xbf040515	-0.51570255
69	0xbeb637e1	-0.35589507
70	0xbee1904b	-0.440554
71	0xbe3f6f27	-0.18694745
72	0xbd92a92b	-0.071611725
73	0xbef23c62	-0.47311693
74	0xbf0ab7e2	-0.5418683
75	0xbec67d23	-0.38767347
76	0xbf932eea	-1.1498692
77	0xbf7582ab	-0.9590251
78	0xbeb704bd	-0.35745803
79	0xbf5cfdbc	-0.8632467
80	0xbf1757be	-0.5911826
81	0x3e9adb6b	0.30245528
82	0x3f2cfd4d	0.67574006
83	0x3ee42426	0.4455883
84	0x3f2fb063	0.6862852
85	0x3f928601	1.1447145
86	0x3f277aa2	0.654215
87	0x3ee3bb8b	0.4447902
88	0x3f24ab24	0.6432364
89	0x3e956573	0.29178962
90	0x3ea9b884	0.33148587
91	0x3f2b59d3	0.66933936
92	0x3ee2d065	0.44299617
93	0x3f1b92a5	0.60770637
94	0x3f7eafbd	0.99486905
95	0x3f0f5389	0.5598684
96	0x3ed97ab9	0.42476442
97	0x3f19ef45	0.6013072
98	0x3e8dbdce	0.27683872
99	0x3ecfddda	0.40598947
100	0x3f3ba34e	0.7329606
101	0x3f022f8b	0.50853795
102	0x3f4d6585	0.8023303
103	0x3f9af3b4	1.2105622
104	0x3f37d5e2	0.71810734
105	0x3f040a24	0.51577973
106	0x3f28b5e5	0.6590255
107	0x3e9891c9	0.29798725
108	0x3ca7fec1	0.020507218
109	0xbe63c786	-0.22244081
110	0xbdce7424	-0.10080746
111	0xbe9ae1ab	-0.30250296
112	0xbf47899d	-0.77944356
113	0xbeb8d8bf	-0.36102864
114	0xbe1d9034	-0.1538704
115	0xbeb103eb	-0.34573302
116	0xbe0e1a65	-0.13877256
117	0xbf158c5d	-0.584173
118	0xbf7c1593	-0.9847042
119	0xbf21420f	-0.6299142
120	0xbf8c78f1	-1.0974408
121	0xbfcb9967	-1.590619
122	0xbf623604	-0.8836367
123	0xbf422d20	-0.75850105
124	0xbf7de1b9	-0.9917255
125	0xbee88066	-0.4541046
126	0x3ed3ed9b	0.41392216
127	0x3f3ebed8	0.74509954
128	0x3efbf0fe	0.492073
129	0x3f26e027	0.6518578
130	0x3f82f2f1	1.023039
131	0x3f0df68e	0.5545434
132	0x3ed91c80	0.42404556
133	0x3f11d143	0.56959933
134	0x3e78c3c9	0.24293436
135	0xbd2e53cc	-0.042560384
136	0xbea6620a	-0.32496673
137	0xbe871fff	-0.263916
138	0xbe27b69b	-0.16378252
139	0xbf12809b	-0.57227486
140	0xbec14974	-0.37751353
141	0xbe8ab107	-0.27088186
142	0xbf1a7c3d	-0.6034582
143	0xbea98d28	-0.33115506
