02-Autoencoder/01-PT-MNIST-basic/dense-autoencoder.pth (torch, 844161 bytes, 12 tensors)

encoder.1.weight f4 [128, 784]
0	0xbb6eac88	-0.0036418755
1	0x3c59de81	0.013297678
2	0xbce45d23	-0.027876442
3	0xbce13f36	-0.027495962
4	0xbbeae5cf	-0.0071685086
5	0x3cd3ab58	0.025838539
6	0x3c4ccc07	0.012499816
7	0x3cd33ced	0.025785888
8	0x3c8ead59	0.017416643
9	0x3b65eb19	0.0035082756
10	0xbc5cdee8	-0.013480879
11	0x3c1d5147	0.009601898
12	0x3e37c1ec	0.17945069
13	0x3e845145	0.25843254
14	0x3dadc726	0.0848525
15	0x3c121ac3	0.008917513
16	0x3c9539fc	0.018216126
17	0xbc71cc8f	-0.014758243
18	0x3c82509b	0.015907576
19	0xbca0c5eb	-0.019625625
20	0x3cdad32f	0.026712028
21	0xbc5e25cc	-0.013558816
22	0xbc228a52	-0.009920673
23	0x3c87ac93	0.016561782
24	0xbcdeb6b5	-0.02718673
25	0xbc875727	-0.01652105
26	0x3c2c890e	0.010530723
27	0xbc8e1f1e	-0.017348822
28	0x3bd07c91	0.0063625057
29	0xbbd10e22	-0.0063798586
30	0x3c8ea04b	0.017410418
31	0xbc1b917a	-0.0094951335
32	0x3ba1e7aa	0.0049409466
33	0x3ba5263c	0.0050399583
34	0xbb6fee30	-0.0036610477
35	0xbdda5e8b	-0.10662564
36	0xbd67864f	-0.05652457
37	0xbd70b9fe	-0.058771126
38	0xbe84bf91	-0.25927404
39	0xbc480fda	-0.012210811
40	0xbdd2b247	-0.1028791
41	0xbc812910	-0.01576665
42	0x3dc9892e	0.09840618
43	0xbdd1ec5e	-0.102501616
44	0xbded8e61	-0.11599422
45	0xbc816bd3	-0.015798485
46	0xbdfdabea	-0.12386306
47	0xbe828efc	-0.25499713
48	0xbea6c508	-0.32572198
49	0x3e6f1e3c	0.23351377
50	0x3ea670b0	0.3250785
51	0x3e2d8030	0.16943431
52	0xbc8ad3b1	-0.016946645
53	0x3c3679a5	0.011137401
54	0x3cd967af	0.026538698
55	0x3ca0eeb8	0.01964508
56	0xbcc875b0	-0.02447018
57	0x3ccc83cb	0.024965188
58	0xba9e03c3	-0.0012055564
59	0x3e0de201	0.13855745
60	0x3ea30bd6	0.31844968
61	0x3e8b3105	0.27185836
62	0x3e138d43	0.14409356
63	0x3e85f47a	0.26163083
64	0xbc13f317	-0.009030125
65	0x3d524e1e	0.05134403
66	0x3dc8be22	0.0980189
67	0x3cc514b3	0.024057722
68	0x3dbe1061	0.09280468
69	0x3d662ff2	0.056198068
70	0x3d4da834	0.05020924
71	0xbca1e1e8	-0.01976104
72	0xbd432848	-0.047645837
73	0xbd891649	-0.06693704
74	0x3d4cb1d4	0.049974278
75	0x3b486489	0.0030577502
76	0xbde72fa5	-0.11288384
77	0xbe1d8c96	-0.1538566
78	0x3e9d08fa	0.3067091
79	0x3ead3bfa	0.3383482
80	0xbe1a3888	-0.15060627
81	0xbe79a13d	-0.24377914
82	0xbcb159ac	-0.021649204
83	0xbca3869c	-0.019961648
84	0x3c664e7e	0.0140568
85	0xbb340b51	-0.0027472565
86	0xbd921c1b	-0.07134267
87	0x3e47dcf7	0.19517885
88	0x3b371460	0.0027935728
89	0x3d26756d	0.04063933
90	0x3e3866eb	0.1800801
91	0x3ec4251d	0.38309565
92	0x3ddb891d	0.10719512
93	0x3e3b6473	0.18300037
94	0x3d199928	0.037499577
95	0xbaf15d77	-0.0018414696
96	0xbda716c8	-0.08158642
97	0xbc0a30a0	-0.008434445
98	0xbbdd8f59	-0.006761473
99	0x3d06e7d5	0.032935936
100	0x3d828f5a	0.063749984
101	0x3d8e4868	0.06947404
102	0x3e4b2145	0.1983691
103	0x3e2961a3	0.16541152
104	0x3e30e081	0.17273141
105	0x3e4bfe02	0.19921115
106	0x3dcc12f5	0.09964553
107	0x3d11d755	0.035605747
108	0xbe3266f3	-0.17422085
109	0xbd4628f8	-0.048378915
110	0x3e6fda46	0.23423108
111	0x3bd63a61	0.006537721
112	0x3bc6c1c2	0.006065578
113	0xbd0efd1e	-0.03490936
114	0xbda17b92	-0.07884897
115	0x3e4ea9f8	0.20182025
116	0xbe112455	-0.14174016
117	0xbd8d4cf9	-0.06899447
118	0x3d992794	0.07478252
119	0x3ddd545b	0.10807105
120	0xbd9ee6a0	-0.07758832
121	0xbc4f0bed	-0.012637121
122	0x3b81ae63	0.003957556
123	0xbcf25729	-0.029582577
124	0xbcb9ee0e	-0.022696521
125	0xbd4a55e1	-0.049398307
126	0xbdb5c309	-0.08875091
127	0x3c8f1cdd	0.017469818
128	0x3daa8e70	0.08327949
129	0x3e2f0c34	0.17094499
130	0x3e1c7650	0.15279508
131	0x3d3e75b8	0.046498984
132	0x3a9b86c0	0.001186572
133	0x3d5b267b	0.053503495
134	0x3de291e3	0.11062982
135	0x3e2d00d7	0.16894852
136	0x3e6f20ac	0.23352307
137	0x3e13dd23	0.14439826
138	0xbb856ffd	-0.004072188
139	0xbc81a9cc	-0.015828036
140	0x3c0e6cdd	0.008692947
141	0xbc5391d2	-0.012913184
142	0x3ba157e5	0.004923808
143	0x3bbe8bf5	0.005815024
144	0xbdc3f3ea	-0.09568007
145	0x3dc8dd1a	0.09807797
146	0xbd9965b3	-0.07490101
147	0xbdc18a03	-0.09450152
148	0x3baeb2db	0.00533138
149	0x3d81ff56	0.063475296
150	0x3d528ea9	0.051405583
151	0xbc314ace	-0.0108210575
152	0xbbd80806	-0.0065927533
153	0xbcf66564	-0.030077644
154	0xbcaecbe9	-0.021337466
155	0xbcec95b6	-0.028879981
156	0x3dd9cff6	0.106353685
157	0xbc552608	-0.013009556
158	0xbd0c9b82	-0.03432799
159	0x3cb7924f	0.022408633
160	0x3c01dcf8	0.007926218
161	0xbc3db815	-0.011579533
162	0xbd16ea3c	-0.036844477
163	0xbd13efc0	-0.036117315
164	0x3da21a0a	0.07915123
165	0x3d9d421f	0.07678627
166	0x3e3ffc75	0.18748648
167	0x3d88d0e3	0.06680467
168	0x3ce27297	0.027642531
169	0x3b9712f5	0.004610414
170	0xbe23392d	-0.1593978
171	0x3d2df4e9	0.042469893
172	0xbdf11294	-0.117711216
173	0xbce02450	-0.027361065
174	0xbd894132	-0.06701888
175	0x3bf6431a	0.0075153233
176	0x3c4cb329	0.012493887
177	0xbcd25e82	-0.02567983
178	0x3d0ec31e	0.034854047
179	0xbd152174	-0.036408857
180	0xbc0744f1	-0.008256183
181	0xbdbec442	-0.09314777
182	0xbd53bd21	-0.05169404
183	0x3d7980fb	0.06091402
184	0x3d234de5	0.039869208
185	0xbc000962	-0.007814737
186	0xbcd703c1	-0.026246907
187	0xbc8b54be	-0.017008182
188	0xbd4968ea	-0.04917232
189	0xbdcffe03	-0.10155871
190	0xbd1d3ea6	-0.038389824
191	0x3c84dec4	0.016219504
192	0xbddb177d	-0.106978394
193	0xbe07e0f3	-0.13269405
194	0x3db74bfd	0.089500405
195	0xbc67f9bf	-0.014158665
196	0xbce9cd1f	-0.028540192
197	0xbd22aa52	-0.03971321
198	0xbdaa61d5	-0.08319441
199	0x3decf1a3	0.11569526
200	0xbe68f1e6	-0.22748527
201	0x3d9a630b	0.07538422
202	0xbe1426e3	-0.14467959
203	0xbe2f5a08	-0.17124188
204	0xbd234a5f	-0.039865848
205	0xbd267673	-0.040640306
206	0x3cbca3e5	0.02302737
207	0xbd1aed4c	-0.03782396
208	0xbda2086e	-0.07911764
209	0xbd78dcc4	-0.060757414
210	0xbdc6e0c8	-0.09710842
211	0xbd2ba94f	-0.041909512
212	0xbc9807c3	-0.018558389
213	0xbe1ee050	-0.15515256
214	0xbd97f027	-0.07418852
215	0xbcb595c9	-0.02216615
216	0xbd9c6fe6	-0.076385304
217	0x3d776792	0.060401507
218	0x3deaccb3	0.114648245
219	0x3e18c2a6	0.14918002
220	0x3d677c1f	0.056514855
221	0xbc24a9b6	-0.010050228
222	0x3dd93704	0.106061965
223	0xbe2becc0	-0.16789532
224	0xbe086a79	-0.13321866
225	0x3ca84a7f	0.020543335
226	0xbe3b0239	-0.18262567
227	0xbc782175	-0.0151446955
228	0xbda0815e	-0.07837175
229	0x3cefd4f7	0.029276354
230	0xbe0fc0c0	-0.14038372
231	0xbdce48ac	-0.10072455
232	0xbcce5f2a	-0.025191862
233	0xbdf8a280	-0.121403694
234	0xbd8488b7	-0.06471389
235	0xbd5cd9f3	-0.05391879
236	0xbcd398a9	-0.02582963
237	0xbcccd592	-0.025004182
238	0xbd3ee157	-0.04660162
239	0xbdc89608	-0.09794241
240	0xbd3b0c4e	-0.04566603
241	0xbdf82e70	-0.12118232
242	0xbd8bd785	-0.068282165
243	0x3d850226	0.064945504
244	0x3c09b43f	0.00840479
245	0x3e00ffc0	0.12597561
246	0x3e07d1d7	0.13263641
247	0x3e2fb767	0.17159806
248	0x3e37b846	0.17941388
249	0x3dc241b5	0.09485189
250	0x3c931b14	0.017957248
251	0xbe127814	-0.14303619
252	0x3d36c0e0	0.044617534
253	0xbc81b561	-0.015833559
254	0xbe1197f8	-0.14218128
255	0x3d9b7b67	0.075918965

encoder.1.bias f4 [128]
0	0xbed4b280	-0.41542435
1	0x3f016afe	0.5055388
2	0x3b275c60	0.0025537238
3	0xbc127aa6	-0.0089403745
4	0x3e257488	0.16157734
5	0xbe858fd3	-0.26086292
6	0xbe30901e	-0.17242476
7	0xbd65c2b6	-0.056093894
8	0x3c9ed5a0	0.019388974
9	0xbf149d02	-0.58052075
10	0x3f199133	0.5998718
11	0x3bd30297	0.0064395177
12	0x3e00c97c	0.1257686
13	0xbef1568a	-0.47136337
14	0x3ea53bc5	0.32272163
15	0xbc8760c2	-0.01652563
16	0xbc6dcbeb	-0.01451395
17	0xbd0e3054	-0.034714058
18	0x3f059801	0.52185065
19	0x3edbac6d	0.42904988
20	0xbaca2433	-0.0015422165
21	0xbef3a843	-0.4758931
22	0x3e195f22	0.14977697
23	0x3f0f7781	0.56041723
24	0x3fa24fe3	1.268063
25	0x3ea983d7	0.33108398
26	0x3e50d158	0.20392358
27	0x3f358a29	0.7091394
28	0xbef62f93	-0.4808317
29	0xbccfa9cb	-0.025349518
30	0x3f03b2b3	0.5144455
31	0x3c2cbe89	0.010543474
32	0x3b0f07ad	0.0021824643
33	0xbb84f786	-0.0040578274
34	0x39dfff87	0.00042724257
35	0x3e57f65b	0.21090071
36	0xbb0c8d2f	-0.0021446457
37	0xbf52c1ce	-0.8232697
38	0x3f0040a2	0.5009862
39	0xbce83806	-0.028347027
40	0xbe3a62b4	-0.18201715
41	0x3bf316c8	0.007418487
42	0x3f58c644	0.8467753
43	0xbf0e3432	-0.55548394
44	0xbd01fe2b	-0.031736534
45	0xbcd8c034	-0.026458837
46	0xbe6e49a4	-0.23270279
47	0x3e6cc11d	0.23120542
48	0x3f4c5d02	0.7982942
49	0xbc9c75c5	-0.019099126
50	0xba5a3d05	-0.00083251327
51	0xbf1fcc36	-0.62420976
52	0xbc414a2c	-0.011797469
53	0xbaa3898a	-0.0012476903
54	0x3f1849e1	0.5948773
55	0xbc024e3f	-0.007953226
56	0xbcc9feae	-0.024657574
57	0xbd5641ef	-0.052308973
58	0x3b1554d9	0.002278617
59	0x3e5df757	0.21676384
60	0x3f26f132	0.65211785
61	0xbea3cc30	-0.3199172
62	0xbcd05607	-0.025431646
63	0x3d28110c	0.041031882
64	0xbc9ed07a	-0.019386519
65	0x3c1ae98c	0.009455096
66	0xbf33cd59	-0.7023521
67	0xbb4c9c17	-0.0031220966
68	0xbe623d13	-0.2209361
69	0x3d8ae891	0.0678264
70	0xbd17ad87	-0.037030723
71	0x3b422aa2	0.0029627462
72	0x3f5165ab	0.8179576
73	0xbcaa0587	-0.020754589
74	0xbe17196d	-0.14755793
75	0x3d204ea5	0.0391375
76	0x3e03f86a	0.12887731
77	0xbbdfdf52	-0.006832042
78	0xbd5f592a	-0.054528393
79	0xbca6075e	-0.020267185
80	0x3d4d5b8d	0.050136138
81	0xbed42e78	-0.41441703
82	0x3d4f764b	0.050649922
83	0x3c559e02	0.01303816
84	0x3dc3a63f	0.09553193
85	0x3f04388b	0.5164878
86	0xbee670cf	-0.4500794
87	0x3c3f3ab5	0.011671712
88	0x3f7ff2bb	0.9997975
89	0xbe14af2a	-0.14519945
90	0xbcadd531	-0.021219822
91	0xbebf2322	-0.37331492
92	0xbd131ea6	-0.0359179
93	0xbc1637fc	-0.009168621
94	0x3cf06ac6	0.029347789
95	0x3f6d2773	0.9263832
96	0x3ef268d5	0.47345605
97	0x3bce2c75	0.006291921
98	0xbd83c73f	-0.064344876
99	0x3d4cba04	0.049982086
100	0xbb80628c	-0.0039179977
101	0x3df54fc6	0.11978106
102	0x3ee8c08c	0.45459402
103	0xbcc3cd7c	-0.023901694
104	0xbec71ffd	-0.38891593
105	0x3efac165	0.48975673
106	0xbede430d	-0.4341053
107	0x3e097d3f	0.13426684
108	0xbe91004c	-0.2832054
109	0x3e190b02	0.14945605
110	0x3ed30098	0.4121139
111	0xbe91c940	-0.28473854
112	0xbe87f685	-0.26555267
113	0x3e0e3280	0.13886452
114	0x3f1c207d	0.60987073
115	0x3db04146	0.086062
116	0xbd9c2be4	-0.07625559
117	0xbf1e9ea7	-0.61960834
118	0xbca5be22	-0.020232264
119	0x3e9eebe2	0.3103934
120	0xbd10182a	-0.035179295
121	0x3aec64a3	0.0018035363
122	0xbef31c18	-0.4748237
123	0x3d42586e	0.047447614
124	0xbcecee24	-0.028922148
125	0xbed3a577	-0.41337177
126	0x3e45838c	0.19288462
127	0xbcaf8cc7	-0.021429433

encoder.3.weight f4 [32, 128]
0	0x3da52a74	0.08064738
1	0x3e11298a	0.14176002
2	0x3d78f5c0	0.06078124
3	0xbd0289dd	-0.031869758
4	0x3de5b24e	0.112156495
5	0x3dda4596	0.10657804
6	0xbe0dbcb9	-0.13841523
7	0xbd787200	-0.060655594
8	0xbbaac85b	-0.0052118725
9	0x3e1b2765	0.15151747
10	0x3de848a5	0.11341981
11	0x3b221e0a	0.0024737143
12	0xbbde72fc	-0.0067886095
13	0xbdb40e69	-0.08791811
14	0xbdab41b8	-0.08362144
15	0x3d661433	0.056171607
16	0x3d302ae9	0.043009672
17	0xbd87a091	-0.066224225
18	0x3d4f5faf	0.05062836
19	0xbc9a152d	-0.018808926
20	0xbdfebd83	-0.1243849
21	0xbe4ed55a	-0.20198575
22	0xbddaa708	-0.1067639
23	0xbc877c30	-0.01653871
24	0x3e15e738	0.14638984
25	0x3bcc351e	0.006231918
26	0x3da18b30	0.07887876
27	0x3c7f785d	0.015592662
28	0xbd56d3d6	-0.052448116
29	0xbd261a75	-0.040552575
30	0x3dc2dc50	0.095146775
31	0x3c80c25b	0.015717676
32	0xbd16dc1f	-0.036831018
33	0x3d5a076b	0.05322973
34	0x3d9ce9c9	0.076617785
35	0x3c07a46e	0.008278949
36	0x3cd8d499	0.026468562
37	0xbe286a68	-0.16446841
38	0x3ddf6a21	0.10908914
39	0xbc72286f	-0.014780148
40	0x3ef5cfeb	0.4801019
41	0xbd2ff5bf	-0.04295897
42	0x3d6a291c	0.05716811
43	0xbe023e6b	-0.12719123
44	0xbd67ce02	-0.05659295
45	0xbd6fad67	-0.05851498
46	0x3dd8eab5	0.10591642
47	0x3e01ff6e	0.12695095
48	0x3dce38c0	0.10069418
49	0x39aae705	0.0003259705
50	0x3d5f86c7	0.054571893
51	0x3d68b4cf	0.056813058
52	0x3d93b707	0.07212644
53	0x3d6cf172	0.057847448
54	0xbd02dd6f	-0.031949457
55	0x3d64c03e	0.0558474
56	0xbd11d5ed	-0.035604406
57	0xbdb15bfc	-0.08660123
58	0x3d5a223f	0.053255316
59	0x3e0035e4	0.12520558
60	0xbba26bb2	-0.004956686
61	0xbd82093d	-0.06349418
62	0x3c703e6c	0.01466332
63	0x3ef31c9a	0.4748276
64	0x3df48d9e	0.11941074
65	0xbcf75f15	-0.030196706
66	0xbd2990f5	-0.041398007
67	0x3d502791	0.050818983
68	0x3e38c9f5	0.1804579
69	0x3c8e3d02	0.017363075
70	0x3d46cb8f	0.048533972
71	0x3d2e0b2a	0.042491116
72	0x3dc682df	0.096929304
73	0x3d003ad2	0.031306095
74	0x3bf2fcba	0.0074153813
75	0x3c4f5028	0.012653388
76	0xbc790d37	-0.015200905
77	0xba748c06	-0.00093287264
78	0xbd92d87c	-0.07170197
79	0x3d18b217	0.037279215
80	0xbcc8bc4f	-0.024503855
81	0x3d8244e1	0.06360794
82	0xbe3431f7	-0.17597185
83	0x3d292cea	0.0413026
84	0x3d4aff42	0.04955984
85	0x3d18514a	0.0371869
86	0x3cc6470d	0.024203802
87	0x3d3f64ca	0.04672698
88	0x3de7bf8f	0.11315834
89	0xbd3fa0f9	-0.046784375
90	0xbd811a74	-0.06303874
91	0xbd18bff4	-0.037292436
92	0xbd2dff0e	-0.042479567
93	0xbc81cec8	-0.015845671
94	0x3df1bb64	0.1180332
95	0x3e955f85	0.29174438
96	0xbd1abe5f	-0.03777921
97	0xbe6bddf8	-0.23033893
98	0xbe28e9d6	-0.16495451
99	0xbdd391de	-0.10330556
100	0xbcf22068	-0.029556468
101	0x3e82c614	0.25541747
102	0x3dfb5ae1	0.12273193
103	0x3c979d1a	0.018507529
104	0x38bf7911	9.13014e-05
105	0x3c95e93d	0.018299693
106	0xbd98cb6d	-0.074606754
107	0xbeff4dbf	-0.49864003
108	0xbd36fb5b	-0.044673305
109	0x3ca40294	0.02002076
110	0x3d2cad34	0.042157367
111	0xbe38d0cc	-0.180484
112	0xbe71c404	-0.2360993
113	0xbd9c6307	-0.076360755
114	0xbc7da6b8	-0.015481643
115	0xbdea0a12	-0.11427702
116	0x3cc27da7	0.023741556
117	0xbc7d7c3d	-0.015471515
118	0xbc22d8e3	-0.009939405
119	0xbe05d728	-0.13070357
120	0xbc737f13	-0.01486184
121	0xbd5959dd	-0.053064216
122	0x3b202112	0.0024433774
123	0xbe295c2b	-0.16539066
124	0xbcfddb1e	-0.030988272
125	0xbcf30036	-0.029663187
126	0xbec02555	-0.37528482
127	0x3c917bbf	0.017759202
128	0x3df088e7	0.11744862
129	0x3e580ae7	0.21097909
130	0xbc265648	-0.010152407
131	0xbd763661	-0.060110454
132	0xbe5de55f	-0.2166953
133	0x3da7ec92	0.08199419
134	0xbd0f27f4	-0.03495021
135	0xbd6fcbb4	-0.058543876
136	0xbd408a66	-0.047006987
137	0x3d89aba4	0.06722191
138	0x3d9cc89b	0.0765545
139	0xbcef0890	-0.029178888
140	0x3cc455a4	0.023966618
141	0xbd7ea928	-0.06217304
142	0x3d4c4fdc	0.049880847
143	0x3c8a3435	0.016870597
144	0xbd548eed	-0.051894117
145	0xbd544f2e	-0.051833324
146	0x3c121cda	0.008918012
147	0x3d9b1f76	0.0757436
148	0x3e8eb8eb	0.27875456
149	0x3c483285	0.012219076
150	0x3d46aa60	0.048502326
151	0xba37f0a2	-0.0007016753
152	0x3e24c88e	0.1609213
153	0xbd2427c2	-0.04007698
154	0x3e0ebad7	0.13938461
155	0xbd251ad5	-0.040308792
156	0x3cf21277	0.02954982
157	0xbd4da2af	-0.050203975
158	0xbcb4311e	-0.021996077
159	0xbd93d059	-0.072174735
160	0xbd4d88d8	-0.050179332
161	0xbd4ea39f	-0.05044901
162	0xbd25974b	-0.040427487
163	0x3da5db9d	0.080985285
164	0xbb47ad26	-0.0030468195
165	0xbcbd542b	-0.023111423
166	0x3cbcf9be	0.023068305
167	0xbd5a5ff7	-0.053314175
168	0x3e97dc21	0.29660133
169	0x3c7faa3e	0.015604554
170	0xbc6ee461	-0.014580817
171	0xbd621131	-0.055192176
172	0x39071cf9	0.00012885396
173	0x3d580527	0.05273929
174	0x3d15b69a	0.036551096
175	0x3e1166c2	0.14199355
176	0x3d6a343e	0.05717873
177	0x3d257e92	0.04040391
178	0xbd0acdfd	-0.033887852
179	0x3d6d54cd	0.0579422
180	0x3d964e55	0.073391594
181	0x3cd82406	0.026384365
182	0x3e07b756	0.13253531
183	0xbd234f12	-0.03987033
184	0x3d43dfd5	0.047820885
185	0x3bde31e3	0.0067808493
186	0xbd1062f0	-0.035250604
187	0x3d7fef5c	0.06248413
188	0xbcd91987	-0.02650143
189	0x3e21e6c2	0.15810683
190	0xbd2393c9	-0.03993586
191	0xbde1ae4d	-0.11019573
192	0x3d05b5c1	0.032644037
193	0x3a8037fe	0.0009782312
194	0xbd2ec12a	-0.042664684
195	0xbb287c73	-0.0025708943
196	0x3e535ec3	0.20641617
197	0x3dea8283	0.114506744
198	0xbd3a76cd	-0.045523454
199	0xbb3dbcca	-0.0028951638
200	0x3e138951	0.14407851
201	0x3c29dba6	0.01036731
202	0xbd0219ab	-0.03176276
203	0xbeb55c3d	-0.35421935
204	0xbe04794d	-0.12936898
205	0x3c840d12	0.016119514
206	0xbc86cceb	-0.016455134
207	0x3d7008c2	0.058602102
208	0xbd40e8cc	-0.047097012
209	0x3ddcb3d5	0.10776488
210	0xbda53bb1	-0.08068026
211	0x3d6353b7	0.05549976
212	0x3d2b1c37	0.041774955
213	0x3da14959	0.07875318
214	0xbda401c5	-0.0800815
215	0xbd40722e	-0.04698389
216	0x3e0dfdf1	0.13866402
217	0xbd0e66f3	-0.03476615
218	0xbcf3eac8	-0.029775038
219	0x3daa7854	0.08323732
220	0x3da430f2	0.08017148
221	0xbd37ef79	-0.044906113
222	0x3d992daf	0.074794166
223	0xbd073445	-0.033008832
224	0x3c26c098	0.010177754
225	0xbda31efd	-0.07964895
226	0x3b6de6fb	0.0036301005
227	0x3decd0ba	0.11563249
228	0x3d89775f	0.06712221
229	0xbed16edd	-0.40904894
230	0xbdba07a9	-0.09083492
231	0xbd52baa8	-0.05144754
232	0x3e584054	0.21118289
233	0xbe07f33f	-0.13276385
234	0x3c9d711f	0.01921898
235	0xbeaf6c56	-0.3426234
236	0x3c20ee4c	0.009822439
237	0x3da86503	0.082223915
238	0xbdfe4f4b	-0.12417468
239	0xbe8b7e49	-0.27244785
240	0x3d9ff25e	0.078099
241	0x3d4a635d	0.049411166
242	0x3e028f27	0.12749921
243	0x3d908294	0.07056156
244	0xbd9dc7b7	-0.07704108
245	0x3e0dd756	0.13851675
246	0xbd6eb261	-0.058275584
247	0xbe2f43b1	-0.17115666
248	0x3d690622	0.056890614
249	0xbd3141f8	-0.043275803
250	0xbd4a4208	-0.04937938
251	0x3d0f7644	0.035024896
252	0x3caec1f4	0.021332718
253	0x3ddb1bbc	0.10698649
254	0xbf3e1cbd	-0.742626
255	0xbd919ecd	-0.07110367

encoder.3.bias f4 [32]
0	0x3e44b185	0.19208343
1	0x3e89b0a2	0.26892573
2	0x3f000993	0.5001461
3	0x3e8d575c	0.27605712
4	0xbccc207f	-0.02491784
5	0xbe0d9bde	-0.1382899
6	0x3f33958a	0.70150054
7	0x3e0bf950	0.13669324
8	0xbda2eb4e	-0.07955037
9	0x3d5f562b	0.054525536
10	0x3dd1acaa	0.10238011
11	0x3d6fb960	0.058526397
12	0x3d23d229	0.039995346
13	0x3f4405ce	0.7657136
14	0x3dd8c19d	0.10583804
15	0x3f22d97c	0.63613105
16	0x3e4abe35	0.1979912
17	0x3e14aeb9	0.14519776
18	0xbdc217b7	-0.094771795
19	0xbd13afff	-0.036056515
20	0x3df47851	0.11937011
21	0x3eae236c	0.340114
22	0xbcb9a430	-0.022661299
23	0xbd898ec2	-0.06716682
24	0xbd9598c5	-0.07304529
25	0xbd41c872	-0.0473103
26	0x3f238fbb	0.6389119
27	0xbd76e3ce	-0.060275845
28	0x3ddcd2b2	0.107823744
29	0x3ebafdec	0.36521852
30	0xbd558e67	-0.05213776
31	0x3d8e40d4	0.06945959

encoder.5.weight f4 [2, 32]
0	0xbd160639	-0.03662703
1	0x3cd3abdc	0.025838785
2	0xbec8248c	-0.39090383
3	0x3dd196a1	0.10233808
4	0x3c16c476	0.009202113
5	0x3da30d87	0.079615645
6	0x3df61c98	0.120171726
7	0x3ecf6ae9	0.40511253
8	0xbdcb4130	-0.09924543
9	0xbe4fb63e	-0.20284364
10	0xbdcc47c0	-0.09974623
11	0x3e24c534	0.16090852
12	0xbdfa21a5	-0.122134484
13	0xbfa50a0a	-1.2893689
14	0xbd61731a	-0.05504141
15	0xbe3e103f	-0.18560885
16	0xbe409dce	-0.18810198
17	0xbe38ce20	-0.1804738
18	0x3be562d0	0.0070003048
19	0xbd5f407f	-0.054504868
20	0x3d054b5b	0.032542568
21	0x3f1c7f8c	0.6113212
22	0xbe283a0e	-0.16428396
23	0x3cdd9f86	0.027053606
24	0x3d3f097b	0.0466399
25	0x3ed6a273	0.41920814
26	0x3f4ac6b2	0.79209435
27	0x3daab52f	0.08335339
28	0xbe152f8b	-0.14568917
29	0x3de8d355	0.113684334
30	0xbd65d7fa	-0.056114174
31	0xbdb98c4b	-0.09059962
32	0xbe29e41e	-0.16590926
33	0xbe087c78	-0.13328731
34	0x3f492bed	0.7858265
35	0x3c8d5f89	0.017257469
36	0x3dafc780	0.085829735
37	0x3dd4ba62	0.10387112
38	0xbf7bef2f	-0.9841184
39	0x3f29acb0	0.66279125
40	0x3e084851	0.13308837
41	0xbdf1cc48	-0.11806542
42	0xbde65ea4	-0.1124852
43	0x3e9de949	0.30842045
44	0xbe0151b4	-0.12628824
45	0x3f16f8e6	0.5897354
46	0xbda659db	-0.08122607
47	0x3fae3dc1	1.3612596
48	0xbc217394	-0.009854216
49	0xbe23da46	-0.16001233
50	0x3cf06ee2	0.029349748
51	0x3ddda23c	0.108219594
52	0x3ed26037	0.4108903
53	0x3f303ce3	0.68842906
54	0xbc96560e	-0.018351581
55	0x3db49578	0.088175714
56	0x3d0a4d24	0.033764973
57	0xbeaf9e4d	-0.3430046
58	0xbf47158e	-0.77767265
59	0xbcc50247	-0.024048937
60	0xbe2373f4	-0.15962201
61	0xbe774fe2	-0.24151567
62	0xbdcb9ba7	-0.09941798
63	0xbdc9b0f2	-0.09848203

encoder.5.bias f4 [2]
0	0xbd9e21e3	-0.07721307
1	0xbcec2cfe	-0.028830048

decoder.0.weight f4 [32, 2]
0	0xbecb51ea	-0.39710933
1	0xbeefb426	-0.4681713
2	0x3f3a1f6d	0.727042
3	0xbf0c88be	-0.5489615
4	0x3e933f7a	0.28759366
5	0x3ed81b1b	0.4220818
6	0xbf29035a	-0.6602074
7	0x3f08d03c	0.5344274
8	0xbbe40f3d	-0.0069598244
9	0x3f4efd31	0.8085509
10	0xbdf33ddc	-0.11877033
11	0xbe70df3b	-0.23522656
12	0xbd7eef44	-0.0622399
13	0xbe85f2f7	-0.2616193
14	0xbef50a14	-0.47859251
15	0xbed8c868	-0.42340398
16	0x3e581757	0.21102653
17	0xbf247ab7	-0.6424975
18	0xbe9b50aa	-0.3033498
19	0xbedb38ae	-0.4281668
20	0x3eaf3fb6	0.34228295
21	0x3f45fc23	0.77337855
22	0x3c05c312	0.008164184
23	0xbc8ca278	-0.017167315
24	0xbf4a4b51	-0.79021174
25	0x3eaa16ea	0.33220607
26	0xbed576be	-0.41692156
27	0xbea658e9	-0.32489708
28	0xbe3d27c4	-0.184722
29	0x3f28775b	0.6580712
30	0x3e18d921	0.14926578
31	0xbf39de58	-0.72604895
32	0x3fcc3d33	1.5956177
33	0xbddb3a1f	-0.10704445
34	0x3ebd9caa	0.37033588
35	0x3ea7b98b	0.32758746
36	0x3f473fb7	0.77831596
37	0x3dfd4162	0.123659864
38	0x3f6adbe2	0.91741765
39	0xbef0e5a4	-0.47050202
40	0x3ea68fda	0.32531625
41	0xbe9c4979	-0.30524805
42	0xbe9d7afd	-0.30757895
43	0x3ec6a098	0.38794398
44	0xbed74f16	-0.42052525
45	0xbee033b9	-0.4378946
46	0xbb8ea386	-0.0043529896
47	0x3f34128c	0.703408
48	0xbf201b62	-0.6254178
49	0x3edacf72	0.42736393
50	0xbf0c09b5	-0.5470231
51	0x3eb23be8	0.3481133
52	0x3f098a63	0.53726786
53	0x3f10ed8f	0.56612486
54	0x3efb82a3	0.49123105
55	0xbedbda5d	-0.42940035
56	0x3bfeaa2a	0.00777175
57	0xbeb737e3	-0.35784826
58	0xbf24053b	-0.6407048
59	0xbeb1ee52	-0.34752136
60	0x3f232197	0.6372313
61	0x3e534780	0.20632744
62	0x3f1ae87f	0.6051101
63	0x3e8f21d5	0.279555

decoder.0.bias f4 [32]
0	0xbe8e678d	-0.27813378
1	0x3f62965d	0.88510686
2	0xbf89a32e	-1.0752923
3	0x3eea6d5b	0.45786557
4	0xbf982252	-1.1885474
5	0x3f38ee25	0.7223838
6	0x3f956e7f	1.1674346
7	0xbfa9017c	-1.3203578
8	0x3f088aee	0.5333699
9	0xbef7b04e	-0.48376697
10	0x3ec1a23f	0.37819096
11	0x3f9dbe30	1.2323666
12	0xbe0ad7ca	-0.1355888
13	0xbd847eba	-0.06469484
14	0x3eedcd99	0.4644592
15	0xbf652cd8	-0.8952155
16	0x3f001ca1	0.50043684
17	0x3fa3e4dd	1.2804219
18	0xbf94bce4	-1.1620145
19	0x3dc6716f	0.096896045
20	0x3f93755d	1.1520191
21	0xbf92a7af	-1.1457423
22	0x3ed3c3a1	0.4136019
23	0x3f2bf08d	0.67163926
24	0x3f261128	0.6486993
25	0x3eb80586	0.35941714
26	0xbf0ffda7	-0.5624642
27	0xbf2f0a7c	-0.6837537
28	0x3f934872	1.1506484
29	0xbf95f696	-1.1715877
30	0xbf2a10b9	-0.66431767
31	0x3fab8221	1.3399087

decoder.2.weight f4 [128, 32]
0	0x3d6fa5c9	0.058507714
1	0xbebdce60	-0.37071514
2	0xb999b730	-0.0002931892
3	0x3cb75213	0.022378003
4	0x3d694f49	0.056960378
5	0xbd9c9b64	-0.07646826
6	0xbdd202d0	-0.10254443
7	0xbe2b44d4	-0.16725475
8	0x3e0eaa8d	0.13932247
9	0xbcdece4c	-0.02719798
10	0x3ddafb75	0.10692493
11	0xbd30dec1	-0.043181185
12	0xbcaee37f	-0.021348713
13	0x3dd0460e	0.10169612
14	0xbcc2c84a	-0.023777146
15	0x3e78b45a	0.24287549
16	0xbe7a6c4d	-0.24455376
17	0xbf0e2060	-0.5551815
18	0x3dbc9a44	0.09209111
19	0x3ea0a36f	0.3137469
20	0xbe2ec6d0	-0.17068028
21	0x3caf026a	0.021363456
22	0x3de30eb2	0.11086787
23	0x3d94200f	0.07232677
24	0xba7ac451	-0.00095659966
25	0x3e0786ab	0.13234966
26	0xbe99b327	-0.30019495
27	0x3ea2d8e8	0.3180611
28	0xbd3a3bff	-0.045467373
29	0x3d273438	0.040821284
30	0x3f3631c8	0.7116971
31	0xbf4b92d8	-0.7952094
32	0x3d8b045b	0.0678794
33	0xbd91a100	-0.071107864
34	0xbdcd1a05	-0.100147285
35	0x3dbaf84d	0.09129391
36	0xbec52de9	-0.3851159
37	0xbd9f2026	-0.07769804
38	0xbdc62790	-0.09675515
39	0x3d61c0a4	0.055115357
40	0x3e01a049	0.126588
41	0xbe3ec04d	-0.18628044
42	0xbf68e104	-0.90968347
43	0x3dc7dde1	0.09759117
44	0x3d4eba9f	0.050470944
45	0x3b1357fe	0.0022482867
46	0x3e8773e1	0.26455596
47	0x3e688812	0.22708157
48	0xbe1dbdb1	-0.15404393
49	0xbe3df30c	-0.18549746
50	0xbe966330	-0.2937255
51	0xbdbbd7bd	-0.09172008
52	0xbe2f5421	-0.17121936
53	0xbe47667e	-0.19472691
54	0x3d1570bf	0.036484476
55	0x3eb5d19d	0.35511485
56	0xbde37b5d	-0.11107514
57	0x3d2702bf	0.040774103
58	0xbe1882f0	-0.14893699
59	0x3e8feb5b	0.2810925
60	0xbe0eab49	-0.13932528
61	0x3e31f951	0.17380263
62	0x3beeced0	0.0072878376
63	0x3f039410	0.513978
64	0x3dca300c	0.098724455
65	0xbe3cf18d	-0.1845152
66	0xbddfe625	-0.109325685
67	0xbaeb09b1	-0.0017931965
68	0xbe90f4cd	-0.28311768
69	0xbe0c41b1	-0.13696934
70	0xbdc9245e	-0.098213896
71	0x3d6f8cdf	0.058483955
72	0xbe33f4b1	-0.17573811
73	0x3d8f07ea	0.06983931
74	0xbe3221a6	-0.17395648
75	0xbe503f09	-0.20336546
76	0x3dd3927e	0.103306755
77	0xbd915032	-0.07095374
78	0x3e2e211b	0.17004816
79	0x3e86fb7a	0.26363736
80	0x3d85582d	0.06510959
81	0xbf6d48d6	-0.92689264
82	0x3efdb157	0.49549362
83	0x3d8c73e8	0.06858045
84	0x3c6bf479	0.014401549
85	0x3e5995e3	0.21248583
86	0xbcb240d5	-0.02175943
87	0x3d955759	0.07292051
88	0x3d89e348	0.067328036
89	0x3dec75e9	0.11545927
90	0xbe4f9b74	-0.20274144
91	0x3e75a2bf	0.23987864
92	0xbde578ae	-0.112046584
93	0xbda69fc2	-0.0813594
94	0x3f30bf91	0.6904231
95	0xbf6aade9	-0.91671616
96	0xbd381891	-0.044945303
97	0xbdf5dddf	-0.12005209
98	0xbdbd3a4f	-0.09239637
99	0xbe35a135	-0.17737277
100	0x3e1fb39f	0.15595864
101	0xbd2c7cdc	-0.042111263
102	0xbdc62f24	-0.0967696
103	0x3dc9e6ca	0.09858473
104	0x3b60f5d0	0.0034326203
105	0x3dfde6a3	0.12397506
106	0x3d28f7a1	0.041251782
107	0xbd76e312	-0.060275145
108	0x3e0e5275	0.13898642
109	0x3db96c0e	0.09053813
110	0xbde7d1d2	-0.11319317
111	0x3e9f7120	0.31140995
112	0xbe0bbdd9	-0.1364664
113	0x3ce96c83	0.028494125
114	0x3e675dc1	0.22594358
115	0x3e137710	0.14400887
116	0x3d819dcd	0.06328926
117	0x3e64851e	0.22316405
118	0xbdc11a26	-0.094288155
119	0xbe2c9719	-0.16854514
120	0x3e061dde	0.13097331
121	0x3d85d9cd	0.06535683
122	0xbe32103b	-0.17389004
123	0x3d2f543b	0.042804938
124	0xbe0291a0	-0.12750864
125	0x3e1cbf7f	0.15307425
126	0x3f330755	0.6993306
127	0xbbc81464	-0.0061059464
128	0xbf6cb7aa	-0.9246775
129	0xbcaba900	-0.020954609
130	0xbdbec73a	-0.09315343
131	0xbc96940c	-0.018381141
132	0xbe837133	-0.25672302
133	0x3e22ba24	0.1589132
134	0x3e9a7b19	0.3017204
135	0xbd7b80dc	-0.061402187
136	0x3e233016	0.15936312
137	0xbf514e83	-0.81760424
138	0xbc43ea07	-0.011957652
139	0x3ec7ff1d	0.39061823
140	0xbfb2671e	-1.3937719
141	0xbe9b2e27	-0.3030865
142	0xbdba5108	-0.09097487
143	0xbee3c952	-0.44489533
144	0x3e7fab67	0.24967729
145	0x3e6dd626	0.23226222
146	0x3cb1d365	0.021707246
147	0xbe64befe	-0.22338483
148	0x3cab7883	0.020931488
149	0x3d319f25	0.043364663
150	0xbcf7caec	-0.030248128
151	0xbe3a7215	-0.18207581
152	0xbdd07219	-0.101780124
153	0xbe9d348f	-0.30704162
154	0xbe9f5a4d	-0.31123582
155	0xbeb94dfd	-0.36192313
156	0x3cddbd77	0.027067883
157	0xbf05e2f2	-0.52299416
158	0x3e9fa161	0.3117781
159	0x3ecc87bd	0.3994731
160	0xbf694ad5	-0.9112981
161	0xbf2a76bb	-0.6658742
162	0xbf3f4755	-0.7471822
163	0xbd196fe3	-0.03746022
164	0x3e1b2cb9	0.15153779
165	0xbfb92e7f	-1.4467314
166	0xbf581734	-0.84410405
167	0xbec5a413	-0.3860174
168	0xbec23578	-0.37931418
169	0xbe354eb4	-0.17705804
170	0x3eab143d	0.33413878
171	0x3e7d3aa4	0.24729401
172	0xbddb4f33	-0.107084654
173	0xbf85d77e	-1.0456388
174	0x3e8421d6	0.25807065
175	0x3cdfe5bd	0.027331227
176	0xbeecc6f0	-0.46245527
177	0x3efcb836	0.49359292
178	0x3dc78d83	0.09743788
179	0xbf3ac61f	-0.7295856
180	0xbd510cd2	-0.051037617
181	0xbe2e2d26	-0.1700941
182	0xbf8221fc	-1.0166621
183	0x3e645a67	0.22300111
184	0x3e0243da	0.12721196
185	0xbd901574	-0.07035342
186	0xbdde5b8d	-0.10857306
187	0xbd0cb968	-0.034356505
188	0x3f2c567e	0.67319477
189	0xbf161b18	-0.5863509
190	0xbe64b092	-0.22332981
191	0xbd007430	-0.031360805
192	0xbed16f80	-0.4090538
193	0x3e288ed7	0.16460739
194	0x3ed7de0a	0.4216159
195	0xc05287aa	-3.2895303
196	0xbdaebea3	-0.08532455
197	0x3e923c97	0.2856185
198	0x3e87b532	0.2650543
199	0xbe5f33b9	-0.21797074
200	0xbda2fa53	-0.07957902
201	0xbe2fe705	-0.1717797
202	0xbecf2f1a	-0.40465623
203	0x3efd30bc	0.49451244
204	0xbe30e84b	-0.17276113
205	0xbef162e2	-0.47145754
206	0xbfa5d154	-1.2954507
207	0xbeff48e1	-0.4986029
208	0x3e72375e	0.23653933
209	0x3eab7360	0.33486462
210	0x3debdfe9	0.11517317
211	0x3d4abb8e	0.049495272
212	0x3df6f367	0.12058144
213	0xbe09f203	-0.13471226
214	0x3c7217cb	0.0147761805
215	0xbf4d368a	-0.80161345
216	0xbfe61c1f	-1.7977332
217	0xc0079aa9	-2.1188147
218	0xbec945f0	-0.3931117
219	0xbf03090e	-0.5118569
220	0xbceb0ac1	-0.028691651
221	0x3eb2352c	0.34806192
222	0x3ed09020	0.4073496
223	0x3ec63c65	0.38717952
224	0xbc7fb574	-0.015607227
225	0xbdd2bd41	-0.102900036
226	0x3d9599cf	0.07304727
227	0xbdb7ed7b	-0.08980843
228	0xbd0b6585	-0.034032363
229	0xbdf81e86	-0.12115197
230	0x3d91be39	0.0711636
231	0xbe2d5435	-0.16926654
232	0x3d1963d5	0.037448723
233	0x3cd5eeed	0.026114905
234	0x3d85af61	0.065275915
235	0xbe31a603	-0.17348485
236	0xbdbd19f8	-0.09233469
237	0xbdc2e8f7	-0.09517091
238	0x3da3dbae	0.08000885
239	0x3cf1da54	0.029523052
240	0xbcdfac52	-0.027303848
241	0x3c837dc2	0.016051177
242	0xbd85ce99	-0.06533546
243	0xbc2cbbb8	-0.0105428025
244	0xbc9eacec	-0.019369565
245	0x3c087d5b	0.008330668
246	0xbe2091ba	-0.1568059
247	0x3b7b3dce	0.00383364
248	0xbc826064	-0.015915103
249	0xbd0312bc	-0.03200029
250	0xbc7fcd68	-0.0156129375
251	0x3d34b817	0.044120874
252	0xbda2ecf8	-0.079553545
253	0xbd6d70fa	-0.05796907
254	0x3d66a2df	0.05630767
255	0xbe0bb753	-0.13644151

decoder.2.bias f4 [128]
0	0xbe3a1a1a	-0.1817402
1	0xbd298eff	-0.041396137
2	0xbeaa363d	-0.33244506
3	0xbeaeef27	-0.34166834
4	0x3e841129	0.25794342
5	0x3e856480	0.26053238
6	0x3f024ca5	0.508982
7	0xbdc4bcf2	-0.09606351
8	0x3e0d06d6	0.13772139
9	0x3f2c7bd2	0.67376435
10	0x3d9c6791	0.07636941
11	0x3ed620e4	0.4182197
12	0x3e58a959	0.21158351
13	0x3ea2fa04	0.31831372
14	0x3f018c1f	0.5060443
15	0xbe1da668	-0.1539551
16	0x3ea92f8f	0.33044097
17	0xbdf973fe	-0.12180327
18	0x3f166b0d	0.58757097
19	0x3ec4761b	0.38371357
20	0xbf170872	-0.5899726
21	0x3ed4d5e8	0.41569448
22	0x3eb253fc	0.348297
23	0xbe1e5a18	-0.15464056
24	0x3e184990	0.14871812
25	0x3e1f7251	0.15570952
26	0x3e05a959	0.13052882
27	0x3ea18e3f	0.31553838
28	0x3e773241	0.24140264
29	0x3e8d3c26	0.27584952
30	0x3dd1fb80	0.10253048
31	0xbe505a58	-0.20346963
32	0x3ecb7f2b	0.3974546
33	0x3db3cf17	0.08779734
34	0xbf445c34	-0.7670319
35	0x3ea30e07	0.3184664
36	0xbd3801f2	-0.04492373
37	0xbe0a7034	-0.13519365
38	0xbd4d903c	-0.05018638
39	0xbe9cdfa7	-0.30639383
40	0x3e4aa582	0.19789699
41	0xbe811f35	-0.25219122
42	0x3e515d2b	0.20445697
43	0x3e04c4e1	0.12965728
44	0x3e47da1b	0.19516794
45	0x3dd2ffba	0.10302682
46	0xbf1fb9a0	-0.62392616
47	0x3e8f4eab	0.27989706
48	0xbed47ab8	-0.41499877
49	0x3ea7410b	0.3266681
50	0x3dafebe4	0.085899144
51	0x3e146533	0.1449173
52	0xbed50749	-0.4160712
53	0x3eac7554	0.33683264
54	0xbdb4c240	-0.08826113
55	0x3f08f552	0.5349933
56	0xbdbe098b	-0.09279164
57	0x3e968a5e	0.2940244
58	0x3d3f8797	0.046760168
59	0xbdd86dff	-0.10567855
60	0xbde940a3	-0.113892816
61	0xbdf4f78b	-0.119612776
62	0x3dccc0d7	0.09997719
63	0xbd446a41	-0.047952894
64	0xbeb3cc74	-0.35116923
65	0x3d3cc9a9	0.046090756
66	0x3c7f9f3e	0.015601931
67	0x3e08d01c	0.13360637
68	0xbdf203af	-0.11817109
69	0xbf05a676	-0.52207124
70	0x3d56dc7f	0.052456375
71	0x3eca589c	0.3952073
72	0x3e899239	0.26869372
73	0x3e1a478d	0.15066357
74	0x3eb0ea84	0.3455392
75	0xbd2b919b	-0.041886907
76	0x3ecadf68	0.3962357
77	0x3e8ad641	0.27116588
78	0xbd97adaf	-0.074061744
79	0x3e1cd026	0.15313777
80	0x3de8e862	0.113724485
81	0xbea16045	-0.3151876
82	0xbf476f5b	-0.7790429
83	0x3e1265a4	0.14296585
84	0x3e9b3199	0.30311278
85	0xbd96c59f	-0.07361912
86	0x3ddf650e	0.109079465
87	0x3ec1a568	0.37821507
88	0xbe2c4608	-0.1682359
89	0x3e63b6c1	0.22237684
90	0x3e716dea	0.23577085
91	0x3e7348b7	0.23758207
92	0x3e205e7d	0.15661044
93	0xbd6e1893	-0.058128905
94	0x3eea35f0	0.45744276
95	0x3d8433ed	0.064552166
96	0xbdba4384	-0.09094909
97	0xbe13c6a3	-0.14431243
98	0xbddcc74f	-0.107802026
99	0x3e97623d	0.29567137
100	0x3e7c3383	0.24629025
101	0x3e0c9cc1	0.13731672
102	0x3c2ff642	0.010739865
103	0x3f0068d5	0.5015996
104	0x3d926f01	0.071500786
105	0x3e28658a	0.16444984
106	0x3dc310d7	0.09524696
107	0x3d459dce	0.048246197
108	0x3e3d5ad7	0.18491684
109	0x3ea6cdcd	0.3257889
110	0x3d8d09c9	0.06886632
111	0xbc3519c3	-0.011053505
112	0x3e70ec71	0.23527695
113	0x3e296c32	0.1654518
114	0x3edcd5e3	0.43131933
115	0xbc0870c7	-0.008327669
116	0x3ebc3e27	0.36766168
117	0x3dd6622a	0.10467942
118	0x3e95e0c6	0.2927305
119	0x3ef85fb2	0.4851051
120	0x3f008dc0	0.50216293
121	0xbd2f683d	-0.04282402
122	0x3e81994d	0.25312272
123	0x3f16d052	0.5891162
124	0x3ee0e1e1	0.43922332
125	0x3ec5fd50	0.38669825
126	0x3ef8d57e	0.48600382
127	0x3dc184fb	0.09449192

decoder.4.weight f4 [784, 128]
0	0x3c085bed	0.008322698
1	0x3c7389ca	0.014864394
2	0xbd966891	-0.07344163
3	0xbd5e2e1d	-0.054243196
4	0x3c7c1160	0.015385002
5	0x3caaebe5	0.020864436
6	0xbdb64559	-0.08899946
7	0xbbbd6a18	-0.0057804696
8	0xbdf5670e	-0.11982547
9	0xbf8e7505	-1.1129462
10	0xbd9f125c	-0.07767174
11	0xbf04ae72	-0.5182868
12	0xbdaa2124	-0.08307102
13	0xbdf5e18e	-0.12005912
14	0xbd69bd45	-0.057065267
15	0xbccb09be	-0.024784919
16	0xbe1eb0b5	-0.15497096
17	0xbd31636c	-0.043307707
18	0xbcb3213e	-0.021866437
19	0xbe1f3230	-0.15546489
20	0xbbb6ced3	-0.0055788546
21	0xbc65e9a4	-0.014032755
22	0xbd9649ac	-0.073382705
23	0x3a5c8e2d	0.000841352
24	0xbd5e477c	-0.05426739
25	0x3cc490e2	0.023994867
26	0x3cf38f29	0.02973135
27	0x3bb2ecd0	0.005460359
28	0xbd91f1e1	-0.07126213
29	0xbdcde593	-0.100535534
30	0xbdda335f	-0.106543295
31	0xbd372a0b	-0.04471783
32	0xbe0efae6	-0.13962898
33	0xb813063c	-3.5053337e-05
34	0x3cc7a6d1	0.024371536
35	0xbdb57a24	-0.08861187
36	0x3d849828	0.06474334
37	0x3d77e369	0.06051961
38	0x38bee1d3	9.101969e-05
39	0x3c3e87e3	0.011629078
40	0xbd99daaa	-0.0751241
41	0xbea50a74	-0.32234538
42	0xbd99b54f	-0.07505285
43	0xbc11e493	-0.008904594
44	0xbe7221bc	-0.23645681
45	0xbc9de8fc	-0.019276135
46	0xbd4ccda0	-0.050000787
47	0xbc1fddf5	-0.0097575085
48	0xbdc50440	-0.09619951
49	0xbdd19b4d	-0.102346994
50	0xbc7afb43	-0.0153186945
51	0xbe14fd3f	-0.1454973
52	0xbdaa9c08	-0.08330542
53	0xbd158a61	-0.03650892
54	0x3d47b868	0.048759848
55	0xbda1bedb	-0.07897731
56	0x3cff8cd2	0.031195078
57	0xbd2b7127	-0.041855957
58	0x3be6161d	0.007021679
59	0x3d88589f	0.06657528
60	0xbd2029e2	-0.039102443
61	0x397eb595	0.00024290972
62	0xbdab0c44	-0.08351949
63	0x3cd846e1	0.026400985
64	0xbd835092	-0.06411852
65	0xbcb4f72a	-0.022090513
66	0xbde7982d	-0.11308322
67	0xbf886fa3	-1.0659069
68	0xbcf8b099	-0.030357646
69	0x3d4a2276	0.04934927
70	0xbd85653c	-0.065134495
71	0xbea1f421	-0.31631568
72	0xbed63439	-0.41836718
73	0xbd5f3455	-0.054493267
74	0xbdb536ab	-0.08848318
75	0xbd8eed67	-0.06978875
76	0xbecbc340	-0.397974
77	0xbf03c07f	-0.514656
78	0x3cbcf0b0	0.023063987
79	0x3bed006e	0.0072327172
80	0x3ba5c278	0.005058583
81	0xbd5daa27	-0.054117348
82	0xbc1c8fb9	-0.0095557505
83	0xbd5bafca	-0.053634442
84	0xbe12cda2	-0.14336255
85	0xbcf3c745	-0.029758105
86	0xbdd72b40	-0.10506296
87	0xbe0a6bc0	-0.13517666
88	0xbd7b2649	-0.06131581
89	0xbd9ae8b5	-0.075639166
90	0xbdc36028	-0.09539825
91	0xbdff1ae9	-0.124563046
92	0xbd94ba7a	-0.0726213
93	0xbc0a48bb	-0.008440192
94	0xbe0e465f	-0.13894032
95	0x3b11949e	0.0022213827
96	0x3b21afd0	0.0024671443
97	0xbd57bac4	-0.052668348
98	0xbde8d7d5	-0.11369292
99	0xbd1213cf	-0.035663422
100	0xbc78e2e9	-0.015190818
101	0x3c0c5458	0.008565031
102	0xbd97c1e2	-0.07410027
103	0xbe080e6e	-0.13286754
104	0xbc18b0e1	-0.009319515
105	0xbd92f8de	-0.07176374
106	0x3cff4213	0.031159436
107	0xbd6f747c	-0.058460698
108	0xbdd40947	-0.10353332
109	0xbdf266cb	-0.118360125
110	0xbdff1691	-0.12455476
111	0xbd2f9594	-0.04286726
112	0xbdb839a7	-0.08995371
113	0xbe0f583f	-0.13998507
114	0xbe17f2e5	-0.1483875
115	0x3d333b5e	0.04375779
116	0xbca550c7	-0.02018012
117	0xbdebfa86	-0.11522393
118	0xbdb253fd	-0.08707426
119	0xbd3019ab	-0.04299323
120	0xbdec71ee	-0.11545168
121	0xbbdc4d9e	-0.00672312
122	0xbe0bbfef	-0.13647436
123	0xbe1f12ab	-0.15534465
124	0xbdaa7a96	-0.08324163
125	0xbe12d0d6	-0.14337477
126	0xbdfaf087	-0.12252908
127	0xba1dfa3f	-0.0006026364
128	0xbda9374f	-0.082625024
129	0xbc07b2d6	-0.008282384
130	0xbd28f1ed	-0.041246343
131	0xbc0da818	-0.008646034
132	0xbdb9a078	-0.0906381
133	0x3c642451	0.013924674
134	0x3d6ba1a5	0.057527203
135	0x3c5c7f50	0.013458088
136	0xbda57fd3	-0.08081021
137	0xbf93eeae	-1.1557214
138	0xbdb3f85a	-0.08787604
139	0xbf1dfed2	-0.6171695
140	0xbe00a7a1	-0.12563945
141	0xbd9e10b0	-0.07718027
142	0x3cd95c3e	0.026533242
143	0x3cc43ba2	0.023954216
144	0xbdf20794	-0.11817852
145	0x3b0116f4	0.001969752
146	0xbdbcfbe4	-0.09227732
147	0xbe3d3c12	-0.18479946
148	0xbce500e9	-0.027954536
149	0xbde05e3c	-0.10955474
150	0xbc81cd50	-0.015844971
151	0x3d3f1315	0.046649057
152	0xbcbf2b76	-0.023336153
153	0xbd7f17a3	-0.0622784
154	0x3accde6c	0.0015630252
155	0x3bd293e6	0.0064263223
156	0x3c3baec0	0.011455238
157	0xbe07200e	-0.13195822
158	0xbc131acc	-0.008978557
159	0xbcf4079c	-0.029788785
160	0xbe6374d6	-0.22212538
161	0xbd6afbfa	-0.05736921
162	0xbcd3e101	-0.025864126
163	0xbd5c4a8a	-0.053782023
164	0xbcc1ec61	-0.023672285
165	0x3c42f473	0.011899102
166	0xbba17284	-0.0049269814
167	0xbd846714	-0.06464973
168	0xbdfd1a43	-0.12358525
169	0xbeda751d	-0.42667475
170	0xbd0c0571	-0.034184877
171	0x3ca090dd	0.019600326
172	0xbe206484	-0.15663344
173	0xbd7b1cb4	-0.06130667
174	0xbdcdb5af	-0.10044419
175	0xbda3895d	-0.07985184
176	0x3c50946d	0.0127307
177	0xbd243660	-0.04009092
178	0xbc6996b3	-0.014257121
179	0xbe0586a7	-0.13039647
180	0xbd5c9f26	-0.053862713
181	0xbd155151	-0.036454502
182	0x3d810abc	0.063008755
183	0xbddf64bf	-0.10907888
184	0x3bdee784	0.006802501
185	0xbda123e3	-0.07868173
186	0x3c5ef9fb	0.013609405
187	0x3c78a43a	0.015175873
188	0xba759c33	-0.0009369284
189	0xbc45ddec	-0.012076836
190	0xbd778f23	-0.06043924
191	0xbdc82e58	-0.09774464
192	0xbdc2c828	-0.09510833
193	0xbda97a26	-0.08275251
194	0xbd1d7212	-0.038438864
195	0xbf954368	-1.1661196
196	0x3c8d8ce3	0.017279094
197	0xbd47507c	-0.04866074
198	0xbd5909d7	-0.0529879
199	0xbebaa70b	-0.3645557
200	0xbedca84a	-0.43097144
201	0xbd082223	-0.03323568
202	0xb9c94538	-0.0003838928
203	0xbd45debf	-0.04830813
204	0xbecc1b8d	-0.3986477
205	0xbf0e7ff2	-0.5566398
206	0xbdc8bec9	-0.098020144
207	0xbd584e89	-0.052809272
208	0x3c6f99bb	0.014624055
209	0xbe20eca7	-0.15715276
210	0xbdc21b17	-0.09477823
211	0xbcc1eed3	-0.02367345
212	0xbe0af061	-0.1356826
213	0xbd9e7e00	-0.07738876
214	0xbd5c8884	-0.05384113
215	0xbe282ba8	-0.16422904
216	0x3c113858	0.008863531
217	0xbd8bc46a	-0.068245724
218	0xbd5bb454	-0.05363877
219	0xbc566daa	-0.013087669
220	0xbcbc7d21	-0.023008885
221	0xbb3bfbd6	-0.0028684041
222	0xbe1e74cf	-0.15474246
223	0xbd1db808	-0.038505584
224	0xbd33b094	-0.04386957
225	0xbd55442d	-0.05206697
226	0xbde44811	-0.11146558
227	0x3c1a50fc	0.009418722
228	0xbdc5dcd6	-0.09661262
229	0xbd226051	-0.039642636
230	0xbd552066	-0.05203285
231	0xbe020abf	-0.12699412
232	0x3c868ce4	0.016424604
233	0xbdee6da8	-0.11642009
234	0xbdb47c56	-0.08812778
235	0x3cbd63df	0.023118911
236	0xbe2408eb	-0.16019027
237	0xbd837b81	-0.06420041
238	0xbce6c32d	-0.028169239
239	0x3d5ada21	0.05343068
240	0x3cb483bc	0.022035472
241	0xbe155329	-0.14582504
242	0xbde5310c	-0.111909956
243	0xbc272240	-0.010201037
244	0xbe09ac8d	-0.13444729
245	0xbd93cfc2	-0.07217361
246	0xbdfd06a3	-0.123547815
247	0xbdd04810	-0.10169995
248	0xbddae326	-0.106878564
249	0xbdd6165d	-0.10453484
250	0xbd957c74	-0.07299128
251	0xbe08360b	-0.13301866
252	0xbd55eec6	-0.052229665
253	0xbdf0100a	-0.11721809
254	0xbd2b8150	-0.04187137
255	0xbded0b63	-0.115744375

decoder.4.bias f4 [784]
0	0xbd6517b9	-0.055930827
1	0xbca80e48	-0.020514622
2	0xbdbb0b89	-0.091330595
3	0xbdf9e447	-0.122017436
4	0x3bab1100	0.0052205324
5	0xbb618d6b	-0.0034416567
6	0xbd8da311	-0.06915868
7	0xbd7f8452	-0.06238205
8	0xbdeea206	-0.11651997
9	0xbd5f837c	-0.054568753
10	0xbcce8c29	-0.025213318
11	0x3c747e21	0.01492265
12	0xbd054023	-0.03253187
13	0xbcadb8c4	-0.021206267
14	0x3c2ba457	0.010476193
15	0xbdd7ab5f	-0.10530733
16	0xbd5cfbd2	-0.053951092
17	0xba3d3d89	-0.0007218947
18	0xbdb2fb5c	-0.08739349
19	0xbd03802d	-0.03210466
20	0xbd92f316	-0.07175271
21	0xbd4f75ef	-0.05064958
22	0xbd946d04	-0.072473556
23	0xbdc65577	-0.0968427
24	0x3b05fb9c	0.002044416
25	0xbdf918db	-0.12162944
26	0xbd79f5e8	-0.06102553
27	0xbcd0e37d	-0.0254991
28	0xbd7920ad	-0.060822178
29	0xbddaf777	-0.106917314
30	0xbde4d3c7	-0.11173206
31	0xbd52cc1b	-0.05146418
32	0xbdb1f988	-0.086901724
33	0xbd388dd2	-0.045057125
34	0xbb9c0bda	-0.004762155
35	0xbdfc4d72	-0.12319459
36	0xbda158d4	-0.07878271
37	0xbbd6fd2a	-0.006560941
38	0xbd313443	-0.04326273
39	0x3d3781c9	0.044801507
40	0x3d24f3d6	0.040271603
41	0xbda14386	-0.07874207
42	0xbc86bb42	-0.016446713
43	0xbbd18542	-0.0063940594
44	0xbd8e234b	-0.06940325
45	0xbc983fe6	-0.018585157
46	0xbd483dc8	-0.048887044
47	0xbd9e3d6f	-0.07726561
48	0xbd150351	-0.036380116
49	0xbddea2de	-0.10870908
50	0xbdfa4d0c	-0.12221727
51	0xbe076b3d	-0.13224502
52	0xbdaaf332	-0.08347167
53	0xbc60760a	-0.013700018
54	0xbd39d2ba	-0.04536698
55	0xbcaa5dca	-0.020796675
56	0x3aabcc04	0.0013107066
57	0xbd6a62b5	-0.05722304
58	0xbd72a224	-0.05923666
59	0xbc39ce39	-0.011340671
60	0xbcf1e9da	-0.029530454
61	0xbde82247	-0.11334663
62	0xbdc9fdc9	-0.09862859
63	0xbc9c02f4	-0.019044377
64	0xbd101fda	-0.035186626
65	0xbc82ae13	-0.015952146
66	0xbd1407b5	-0.036140162
67	0xbb3e6992	-0.0029054624
68	0xbdb90bed	-0.09035478
69	0xbdb66412	-0.08905806
70	0xbd0e1092	-0.03468377
71	0xbd873784	-0.06602386
72	0xbd22f652	-0.03978569
73	0x3c89969b	0.016795447
74	0xbd2a8032	-0.041626163
75	0x3d56981e	0.052391164
76	0x3d19d2a7	0.03755441
77	0x3c899c4e	0.016798165
78	0x3bd5f921	0.0065299426
79	0xbcd6446f	-0.026155679
80	0xbde1e31b	-0.11029645
81	0xbd66cf35	-0.05634995
82	0xbd128d62	-0.035779364
83	0xbdbbae89	-0.09164149
84	0xbd325dcc	-0.043546483
85	0xbd8497f3	-0.064742945
86	0x3c036331	0.008019255
87	0xbcdea57e	-0.027178522
88	0xbceeb8ae	-0.029140797
89	0xbd16562d	-0.036703277
90	0xbdc3f45b	-0.095680915
91	0xbc3f2bdb	-0.011668171
92	0xbcb4ceb8	-0.022071227
93	0xbd5fa924	-0.054604664
94	0xbde7c3a1	-0.1131661
95	0xbdc5dd58	-0.096613586
96	0xbbb235ce	-0.005438543
97	0xbdbe1e5f	-0.092831366
98	0xbd322926	-0.043496273
99	0xbd9853cc	-0.07437858
100	0xbd8e96e4	-0.06962374
101	0x3cd7e128	0.02635248
102	0x3d331fab	0.043731373
103	0x3ce108e3	0.027470058
104	0xbc87b681	-0.016566517
105	0x3cd5599c	0.026043706
106	0xbd969736	-0.0735306
107	0x3d2db993	0.042413305
108	0xbc46e82b	-0.012140314
109	0xbdd4f257	-0.10397785
110	0xbdb601ae	-0.08887039
111	0x3bb89ddf	0.005634054
112	0xbd444870	-0.047920644
113	0xbdacf539	-0.0844521
114	0xbadb062a	-0.0016710211
115	0xbd1faf7e	-0.03898572
116	0x3cf30d9e	0.02966958
117	0xbd1abcc5	-0.03777768
118	0xbacda6b5	-0.0015689941
119	0xbdf18925	-0.11793736
120	0xbd9bb675	-0.0760316
121	0xbd8100f7	-0.06299012
122	0x3d19ee88	0.037580997
123	0xbd53ba20	-0.051691175
124	0xbb390537	-0.0028231868
125	0xbd2b06cf	-0.04175454
126	0xbd850dec	-0.06496796
127	0xbd1b1f51	-0.037871663
128	0xbb22b624	-0.0024827803
129	0x3c86eff2	0.016471837
130	0xbdbc7460	-0.09201884
131	0xbd975db4	-0.07390919
132	0xbdd7498e	-0.10512076
133	0xbdbe4d9e	-0.09292148
134	0xbe190303	-0.14942555
135	0xbd85a4e4	-0.06525591
136	0xbc821b5e	-0.01588219
137	0xbdcc64e4	-0.09980181
138	0xbd08a914	-0.03336437
139	0xbdf83d6a	-0.12121089
140	0xbdd32e92	-0.10311617
141	0xbd9a50e3	-0.07534959
142	0xbd102dbb	-0.035199862
143	0x3c75e390	0.015007868
144	0xbdb1a066	-0.08673172
145	0xbde7080d	-0.112808324
146	0xbbf1e795	-0.007382343
147	0x38486396	4.7776462e-05
148	0xbd37ef3d	-0.04490589
149	0xbcb8c480	-0.022554636
150	0xbcdf536b	-0.027261456
151	0x3d6479ea	0.05578033
152	0x3e09ef6b	0.13470237
153	0x3d2834bd	0.04106592
154	0x3ce948d9	0.02847712
155	0xbd7567ca	-0.059913434
156	0x3d3581f5	0.04431339
157	0xbd2f8fd1	-0.042861763
158	0xbc2296c9	-0.009923645
159	0xbdb3f6f7	-0.08787339
160	0xbd2dbe19	-0.04241762
161	0xbe300f8d	-0.17193432
162	0xbe42efab	-0.19036739
163	0xbdee1a52	-0.11626114
164	0x3cba4797	0.022739215
165	0x3ceeeaa5	0.029164622
166	0xbcaa9fe6	-0.020828199
167	0xbd010650	-0.03150016
168	0xbddb8522	-0.107187524
169	0xbd9899a7	-0.07451182
170	0xbdf25857	-0.11833256
171	0xbd0e85a0	-0.034795403
172	0xbd6fb72b	-0.058524292
173	0xbdeb45a8	-0.11487895
174	0xbdee1131	-0.11624373
175	0xbd148830	-0.03626269
176	0xbda8487c	-0.0821695
177	0xbd121206	-0.03566172
178	0xbd43ef4c	-0.047835633
179	0xbce8d448	-0.028421536
180	0xbd82c01f	-0.063843004
181	0xbcf72d3a	-0.030172933
182	0x3d169457	0.03676256
183	0x3c8d8d10	0.017279178
184	0xbd231a1d	-0.039819825
185	0x3cd586a8	0.026065186
186	0xbda2177e	-0.07914637
187	0xbd8540d3	-0.06506505
188	0xbdbac1f5	-0.091190256
189	0xbe3c808a	-0.18408409
190	0xbe88f767	-0.26751253
191	0xbe14788d	-0.14499111
192	0xbd2a5823	-0.04158796
193	0x3d353d93	0.044248175
194	0xbd0716e6	-0.032980822
195	0xbdf664c3	-0.120309375
196	0xbd8f3af2	-0.06993665
197	0xbcbc67b7	-0.022998674
198	0x3cc91c8d	0.024549747
199	0x3aae47c4	0.0013296534
200	0xbd410a72	-0.047129102
201	0xbe175f44	-0.14782435
202	0xbe4a4215	-0.19751771
203	0xbdfb3e74	-0.12267771
204	0xbda45fdb	-0.080260955
205	0xbd9e2a67	-0.07722931
206	0xbd693fda	-0.05694566
207	0xbdde049e	-0.108407244
208	0xbdddd866	-0.1083229
209	0xbc9cde89	-0.019149082
210	0xbd4e7739	-0.05040667
211	0xbcc96f09	-0.024589079
212	0xbd8d1547	-0.06888824
213	0xbdc759a8	-0.097338974
214	0xbd803a70	-0.06261146
215	0xbe13e077	-0.14441095
216	0xbe2949ce	-0.1653206
217	0xbdb41d2c	-0.087946266
218	0xbe3038de	-0.17209193
219	0xbe51d099	-0.2048973
220	0xbd03e45a	-0.032200195
221	0xbd02e436	-0.03195592
222	0x3d1f3ab2	0.038874336
223	0xbd5d6378	-0.05404994
224	0xbd089143	-0.033341657
225	0x3b90b861	0.004416511
226	0x3c4e330f	0.0125854155
227	0x3a996beb	0.0011705136
228	0xbb5fcdaf	-0.0034149697
229	0xbd5788f4	-0.052620843
230	0xbe5a0c32	-0.21293715
231	0xbdd44b09	-0.10365874
232	0xbdfdd13e	-0.123934254
233	0xbdb4e78d	-0.08833227
234	0xbd9544cc	-0.072885126
235	0xbdeb33dd	-0.114845015
236	0xbde9d838	-0.114181936
237	0xbdf7df6b	-0.121031605
238	0xbe2b4b2b	-0.16727893
239	0xbdab4719	-0.0836317
240	0xbd819e6e	-0.06329046
241	0xbdb29099	-0.08718986
242	0xbd78c1cc	-0.060731694
243	0xbcd4af3b	-0.025962463
244	0xbdedc667	-0.11610108
245	0xbe3232da	-0.17402211
246	0xbe681f01	-0.22668077
247	0xbe20700c	-0.15667742
248	0x3d0da162	0.034577735
249	0x3d89dd79	0.06731696
250	0xbc5bfd35	-0.0134270685
251	0xbd29fc4d	-0.04150038
252	0xbd9bc33c	-0.076055974
253	0xbd37e4ba	-0.044895865
254	0xbd3b2d51	-0.045697514
255	0xbce072f4	-0.027398564
