02-Autoencoder/01-PT-MNIST-basic/dense-autoencoder.pth (torch, 844161 bytes, 12 tensors)

encoder.1.weight f4 [128, 784]
00000000: 42cc 45bb ee8d 343c c940 bdbc 36ab babc
00000010: f3aa c2bb fc6a af3c efb8 293c a20f af3c
00000020: 337c 6c3c a78a 3e3b 1c0b 37bc 9c5f 023c
00000030: ae2d 393e 3d45 613e c4b3 a8bd 7e4e d0bc
00000040: b256 773c eb62 48bc 06ff 573c 0b3d 85bc
00000050: 4859 b53c 071a 38bc d5b3 06bc 09e0 603c
00000060: 1e92 b8bc c252 60bc 87fc 0e3c 1190 6bbc
00000070: 8cc7 ac3b 4940 adbb b166 6c3c 82ec 00bc
00000080: 4ead af3d 496e 473d 85a2 0dbe 6c29 e7bc
00000090: c119 33ba a890 a4bd a56b aebe 545f cb3c
000000a0: 686c 94bd 6bb4 8bbc 3894 de3c 0d23 0ebe
000000b0: 29e4 89b9 977b 8dbb 3645 08be 7ba1 d0be
000000c0: 4ac6 efbe a78a 423e 9d09 4b3e e117 3b3d
000000d0: 1b1a 66bc 4839 173c e22b b43c a15e 853c
000000e0: 0f21 a6bc 197d a93c 474f bdbd 958a be3c
000000f0: f559 803e e9c7 7a3e e509 363d 32d0 ac3e
00000100: cea2 0d3d 2b05 e43d 93a8 063d d3aa debc
00000110: c352 0b3e 5471 5a3d d2d4 4bbc 170b a0bd
00000120: 6a06 cfbd b893 c8bd a21f e93c 7c93 a53b
00000130: fc14 87be fd81 b7bd 5806 783e 19a6 683e
00000140: 39b1 94be 401f ddbe d0f9 92bc 3d85 87bc
00000150: ecdc 3e3c 9235 15bb b2f5 82be cace 9b3d
00000160: b6f8 c2be 3882 903e 430c 9d3e 18cb a03e
00000170: 3b48 603d 9a56 9c3e 078b 3a3e 51de 80bd
00000180: edf6 0abe 2e15 25bc 2787 b33c d9e4 423d
00000190: 56af 463c 6867 343e 0cce b03e 208a f43e
000001a0: a2ba 9c3e 70a3 8d3e 33b0 4c3e 41ea c23e
000001b0: 0da6 8c3d 4ccd 01be 7049 0a3f a289 b13b
000001c0: c4b7 a43b d1ff ecbc 7f94 96be 8c98 ed3e
000001d0: f2ff 04bf 6bd1 a9bd 726f 4fbc 8c6e 0b3e
000001e0: 5413 1dbe 750b ab3d c927 3b3c 9000 d3bd
000001f0: 52c3 89bd 495b e4bd 0424 a0bc d42e be3c
00000200: 285e 593d 44fc 383e 0ea3 8a3e 7595 ee3d
00000210: 6c1b 9a3d 6f89 943d 7f73 593d c9dd 3f3e
00000220: fe18 b23e 9a3e 993e 2dd0 a33d 4cb8 d2bd
00000230: a511 ec3b de55 2fbc d626 9cbd 894f a53e
00000240: 329d f1be b6f6 50bb 39c2 66bd 6f05 cfbd
00000250: 20f5 1abc e671 cc3d d838 903d 1e0d 4cbc
00000260: 5ba9 14bd ce02 08bd caea a1bc b709 6f3a
00000270: fe46 ea3d 17cd 153d 3a5d 1fbd cf5e 15bc
00000280: 83a0 dbbd 682c d6bd 00ea a43d d096 eb3d
00000290: 2049 363e 8499 833d 8073 ed3d d366 ac3d
000002a0: 6caa bb3c b166 7a3b 45ba cf3d 9d28 e23d
000002b0: 9994 95be f507 2f3c a584 053d 8551 353d
000002c0: 390e 823d 86c5 73bd ad6c 6a3c 19dc dfbd
000002d0: cdb1 d23c d0c7 ecbd bc61 413d 7d68 1c3e
000002e0: 8497 543d 65c1 c3bc 2559 0abe 20a2 82bb
000002f0: faeb 2fbd 79b0 1bbe 7a5c ee3b 84f3 6a3e
00000300: c675 1dbe edb3 56be 9044 e93d 9dc1 dabd
00000310: 93c2 c1bc 6395 c9bc 2404 543e 9671 1c3e
00000320: b47a c3be 17d7 313e e9e0 37be 38c8 d9bd
00000330: 434f ce3c 1df3 aebd 7233 493d edf6 48bd
00000340: 1bbb 6b3c 881b 04bd c0e4 adbd 1d8b 8ebc
00000350: 0972 0b3c abfc 07bc f8c9 89bd 7de0 bd3c
00000360: fe08 d6bd ec1a 1ebc efa4 cc3d a4b0 343e
00000370: 2692 d1bc 2262 b93c 797e a03e b7bc 3dbd
00000380: c2c5 14be ec04 323e 23cd 723e 7cdd d3bb
00000390: fd7c 9dbe 0445 23bd 518f 34be 3b34 48bd
000003a0: 832d e73b 3399 e4bd 05b6 8bbd 6e99 9ebd
000003b0: e42c 63bd 8265 c5bc 7468 28be 9979 16be
000003c0: 4c1f 6f3c 7b68 bfbc 3568 77bc e7db d63d
000003d0: 0717 913d 5d38 493e 2778 103e af28 12bc
000003e0: 4a04 3d3e 8da7 1f3e dc0b 8e3e 79d3 1cbe
000003f0: 0c74 173d 4654 67be 3a34 a53e 7de6 293e
-0.0030181562 0.011020167 -0.023102181 -0.022786718 -0.005940789 0.021413319 0.010359033 0.021369759
0.014433908 0.0029074342 -0.011172082 0.007957365 0.18083832 0.21999069 -0.082374126 -0.025428053
0.015096353 -0.012230615 0.013183361 -0.01626446 0.0221373 -0.011236674 -0.008221586 0.013725289
-0.022530612 -0.013691606 0.008727199 -0.01437761 0.0052728113 -0.0052872044 0.01442878 -0.007868888
0.08577977 0.04868916 -0.13831528 -0.028217994 -0.0006832146 -0.080354035 -0.340665 0.02482573
-0.07247239 -0.017053803 0.027170286 -0.13880558 -0.0002630067 -0.0043177116 -0.13307652 -0.407482
-0.4683097 0.18998204 0.19827886 0.04567707 -0.01404431 0.0092299655 0.021993581 0.016280474
-0.020279435 0.020689534 -0.092436366 0.02325944 0.25068632 0.24490322 0.04444303 0.3375259
0.03457909 0.11133798 0.03287561 -0.027181065 0.1360579 0.053330734 -0.012440877 -0.07814615
-0.10108645 -0.097938 0.028457467 0.005052982 -0.26383197 -0.0896034 0.2422117 0.22719611
-0.2904146 -0.43187904 -0.017941386 -0.016543025 0.011649352 -0.0022767526 -0.25578076 0.07607801
-0.38080376 0.2822435 0.30673417 0.31404948 0.054756384 0.30534822 0.18217097 -0.062924035
-0.13570757 -0.01007585 0.021915032 0.047581527 0.012126764 0.17617571 0.345322 0.4776163
0.3061114 0.27663755 0.1998909 0.38069347 0.06867609 -0.12675971 0.54018307 0.0054180184
0.0050267894 -0.028930577 -0.2941017 0.46405447 -0.5195304 -0.082918964 -0.012660848 0.13616389
-0.15339404 0.08351795 0.01142306 -0.10302842 -0.067267075 -0.11150224 -0.019548424 0.023215689
0.05306831 0.18064982 0.27077526 0.116496004 0.075247616 0.07252776 0.05308866 0.18736948
0.34784693 0.29930574 0.07998691 -0.10289058 0.007204252 -0.010701625 -0.07624595 0.32287243
-0.47190243 -0.0031885332 -0.05633757 -0.10108458 -0.009457856 0.09982662 0.07042092 -0.012454299
-0.036294322 -0.0332058 -0.019765276 0.0009118574 0.11439322 0.036572542 -0.038907267 -0.009116842
-0.107239746 -0.104576886 0.080524445 0.115033746 0.17801332 0.06425765 0.115942955 0.0841805
0.022908412 0.0038208182 0.1014295 0.110429026 -0.29214934 0.010683049 0.032597203 0.044267196
0.06350369 -0.059514545 0.014308137 -0.10930652 0.025719548 -0.11561549 0.047212347 0.15274234
0.05190231 -0.023895929 -0.13510568 -0.003986612 -0.042949654 -0.15204038 0.0072742077 0.22944456
-0.15376958 -0.20967074 0.113900304 -0.1068146 -0.02365235 -0.024607366 0.20704705 0.15277705
-0.38179553 0.17367207 -0.1795689 -0.10633892 0.02518428 -0.08542464 0.049121328 -0.04906361
0.014387871 -0.03225282 -0.08490896 -0.017400319 0.008511075 -0.008299987 -0.067279756 0.023178333
-0.10450934 -0.009649973 0.09992396 0.17645508 -0.025582384 0.022629801 0.3134649 -0.04632255
-0.14528564 0.1738469 0.23711066 -0.006465612 -0.3075942 -0.03986074 -0.17632796 -0.048877936
0.007054986 -0.11162033 -0.06821827 -0.07744108 -0.055462733 -0.024096254 -0.16446096 -0.14694823
0.014594864 -0.02336525 -0.0151005285 0.10491162 0.0708447 0.19650407 0.14108334 -0.008920833
0.18458667 0.1559126 0.27743423 -0.15315045 0.036975905 -0.22590742 0.32266408 0.1659183

encoder.1.bias f4 [128]
00000000: a038 01bf 9b6c ed3e c0b2 0a3b f3c8 f2bb
00000010: 2975 283e 68c0 d6be 8194 ffbd 4616 47be
00000020: 8ea1 833c 8a5d 27bf 8b40 203f 50df ae3b
00000030: 6599 49bd d40c 0fbf 8dee a33e 9c62 60bc
00000040: e011 45bc c3ac ebbc e78a 163f c250 da3e
00000050: 624b c2bd b461 29bf ae1b 5e3d c827 2c3f
00000060: ab33 c43f 58ea c33e 3f27 fa3e bf37 923f
00000070: ff4a 29bf 2c19 acbc 8c3c 463f 0429 0f3c
00000080: 5611 ed3a 9e63 5cbb 96a2 b939 4c6c dc3e
00000090: 08f6 e8ba c781 92bf f77d 643f b972 c0bc
000000a0: fcc8 c7be 0575 c93b dc6d 833f 79a5 35bf
000000b0: bd75 d7bc 1ba1 b3bc 24ff 6abe fb59 013f
000000c0: 13f7 843f 4838 3dbe 8ddc 34ba a54a 39bf
000000d0: ac2f 20bc ad87 87ba 4a84 043f 20fb d7bb
000000e0: b666 a7bc 5b5f b0bd 1c83 f73a 6545 9e3d
000000f0: d06a 2f3f e874 a5be 8bf0 22bd 7923 cabc
00000100: 8f35 9f3d bb61 003c 9a76 a6bf 3991 29bb
00000110: eb54 bfbe a495 cc3d a667 fbbc 9ee9 203b
00000120: f8f8 753f ffe6 8cbc a52b 5cbe b679 4eba
00000130: a4df d63e da87 b9bb 4d39 9bbd eb97 89bc
00000140: 2690 01be 32e0 1cbf 4e09 82bd 3f08 313c
00000150: 237a 82bc 5cd3 2c3f 3e8d 24bf db7a 1e3c
00000160: 0a2c b13f e6e6 17be 560f 90bc 83c1 01bf
00000170: 8cd9 f3bc 30fc f8bb 9228 933e 1a3e 9a3f
00000180: 1af5 493f 28a7 273e 2bc6 17be 83d1 7ebd
00000190: 6bcb 54bb 1479 d73d bad7 083f 0cf1 e03b
000001a0: 2727 f1be 9aec 5f3f 1578 fcbe fed2 65bd
000001b0: c635 c6bc f5c1 df3e d3fb f53e f401 08bf
000001c0: 7dbe 5dbe 1d4b 213e b9dc 263f 4f5d dc3d
000001d0: 0019 75be 676a 39bf 735b 89bc 8b2b 543e
000001e0: b9d5 eebc 06e8 c33a b543 ecbe 8529 4fbd
000001f0: 745a c4bc 45e6 e7be 3eab de3d ac7b 91bc
-0.5047703 0.46371922 0.0021163672 -0.007409209 0.16450943 -0.4194367 -0.12479497 -0.1944209
0.016068246 -0.65377104 0.62598485 0.0053366795 -0.049218554 -0.5587895 0.32017937 -0.013695385
-0.0120281875 -0.028768903 0.588057 0.42639738 -0.094870344 -0.6616471 0.054225616 0.672482
1.5328268 0.38264728 0.48858067 1.1423262 -0.6613006 -0.021008097 0.7743614 0.008737806
0.0018086832 -0.0033628712 0.00035407086 0.43051374 -0.0017773518 -1.1445855 0.8925471 -0.023492204
-0.39020526 0.006147983 1.0267901 -0.70955616 -0.02630126 -0.021927407 -0.22948891 0.50527924
1.0387901 -0.18478501 -0.00068993197 -0.72379524 -0.009776991 -0.0010340117 0.5176436 -0.0065912157
-0.020434719 -0.086119376 0.0018883678 0.0772808 0.6852236 -0.32315755 -0.03978018 -0.024675118
0.07773887 0.007835801 -1.3004944 -0.0025873913 -0.37369475 0.09989479 -0.030689072 0.002455331
0.9608302 -0.017199991 -0.21501024 -0.0007876413 0.419675 -0.0056619467 -0.07579289 -0.016796073
-0.12652645 -0.61279595 -0.06349431 0.010805189 -0.01592738 0.6751001 -0.6427802 0.009672846
1.3841565 -0.14834175 -0.017585438 -0.506859 -0.02976682 -0.0075984225 0.2874189 1.2050202
0.7888962 0.16372359 -0.14821689 -0.062211525 -0.003246988 0.10521141 0.5345417 0.0068646725
-0.47100183 0.874704 -0.49310365 -0.05610942 -0.024195563 0.43702665 0.4804369 -0.5312798
-0.21654697 0.1575131 0.65180546 0.10759985 -0.23935318 -0.7242798 -0.01676724 0.20719735
-0.029154645 0.0014946468 -0.46145406 -0.050576705 -0.023968913 -0.4529287 0.108725056 -0.017759167

encoder.3.weight f4 [32, 128]
00000000: f95c b63d 3b90 973d 5552 4e3d 925d d8bc
00000010: cbcc 5a3e fed1 933d 09e2 1ebd 1d0a e0bc
00000020: a488 8dbb 6d5d f33d 3ba2 383e 715a 063b
00000030: f8c4 183d cdcc 6bbe 3337 d4bd aaac 3e3d
00000040: 41ff 113d 15cc 60bd 1f24 983d d45b ecbd
00000050: 1cd1 8dbe 65b6 12be 5a59 bcbd 21f6 22be
00000060: 31f0 433e c171 ff3c 0cf7 b83d 5713 dfbd
00000070: f832 72bd b0a7 09bd 117a 1a3e 196b 553c
00000080: da0b fabc f2af 343d f009 823d fe8e c1bc
00000090: 0db2 b33c 1585 1fbe ed4a 823d 33af 48bc
000000a0: 8aba ab3e 31d3 11bd 7171 f13c 278a 07be
000000b0: da1a 40bd f6a0 46bd 5811 883d 0636 a73d
000000c0: 5c1c 343e 6492 173c 5d3e 393d c2df 6f3d
000000d0: 50d5 743d 375d 443d ef48 ff3d b592 3d3d
000000e0: 20b8 f1bc 278c 06be 45c6 343d 6165 493d
000000f0: 9d32 9a3c f6a0 33bd 8512 8aba 7464 e53e
00000100: 30f6 e23c 3501 cdbc 3620 c23b 7081 2c3d
00000110: 5333 433e 14ee ab3c e9bf 243d 503c 103d
00000120: b82e c63d 4589 d43c 9e9d 53bc 7ed7 d33d
00000130: 0c3d 603d 68aa 4aba a646 90bd f616 fd3c
00000140: 230f 773a 390e 4e3d 37d5 0cbe af33 0c3d
00000150: 677c a53d 6815 e13c 621b 403d 9b9d 1e3d
00000160: 4236 cf3d 5db1 523d 33fc 55bd 84a0 d9bd
00000170: 3932 10bd 2227 57bc bd49 1e3e 66d5 733e
00000180: a2a9 8bbd 3d2d 5abe 06b5 98bd 1f52 b0be
00000190: 87a8 c8bc 8d38 9a3e f903 f53d 9eea 063d
000001a0: ffe1 75bd 8385 44be 2e39 d6bd 5c2f 4ebf
000001b0: 56f3 36be ab68 c0bc 80a8 ccbd 4f92 95ba
000001c0: aa21 8fbd 90e0 c0bd e0d9 4dbd 5ea6 69be
000001d0: 5217 893d d329 bd3c bbf4 06bc b196 e0bd
000001e0: 13cb 49bc 7d20 34bd 3e44 39bc a19a 1fbe
000001f0: 4961 d2bc d0eb d2bd 612c cbbe 3923 713c
00000200: b47c dc3d 3a21 1d3e 16d9 09bc b00b 4cbd
00000210: dd73 febe 9869 af3d 51ea 97bb 1d1f 7d3d
00000220: bf90 1fbd f7cf bf3d ebf6 883d 7618 c6bc
00000230: bf6c bdbd e7f1 e1bd 010b 553d eb11 653c
00000240: 9e27 30bd 88f2 2fbd 6730 0c3c 4a41 123c
00000250: d97c b8bd ad64 e43d a0ce 883d 20e7 31bd
00000260: c553 683e 613a babc 4978 303e 2f1b 813d
00000270: 2bce a4bc d76a 2abd 0ead 293d 56ff 74bd
00000280: 6755 2abd c13f 2bbd 623b 09bd c305 133e
00000290: 567a 25bb 8e78 07bd 0c54 2f3e a3f9 34bd
000002a0: 562b 113d fbe0 533c 03b6 a4bd 3677 acbd
000002b0: a7f2 df38 b905 333d f227 953c 99dd 183e
000002c0: 7384 703d 9268 0c3d a410 e6bc f3fa 873d
000002d0: fa20 793d 521f b33c 719c 0a3e 0a57 07bd
000002e0: dc53 223d cb4e f23c 4951 efbc 4691 98bc
000002f0: 9e79 adbd 04fb 593d 5308 81bd e5f4 37bf
00000300: 9389 893d 9584 543a a103 8abd 6da1 0bbb
00000310: 8ed6 3e3e 0497 eb3d 6c87 1abd 473e 1dbb
00000320: 61de 0f3e 82c4 0c3c 51f1 09bd 4e3d bfbe
00000330: 6898 d6bd 31df 5a3c 1973 babc b1ec 463d
00000340: dc17 87bd b080 6a3d 5a46 5cbd b264 3c3d
00000350: f0df fdbc cf7e 903d bdc7 90bd 927c 1fbd
00000360: 8d99 623e 6488 27be 6024 cabc 18fe cb3c
00000370: 2812 883d 396f 18bd 2b81 b33d 8576 a8bd
00000380: 0d4e 34bc 1c04 e4bd d1f3 053c e01c 523e
00000390: 94d8 633d fa80 2ebf 1bca cebd 08ee 423c
000003a0: 28bf b13e 2ff3 92be ac89 be3d 14fe cbbe
000003b0: 4a5a 173d a5e3 6e3d e01b 13bc 7554 53be
000003c0: a420 a03d 90fb d1bd 120a 1c3e 3c6e 433d
000003d0: bb27 67bd 1b64 2b3e 1dd1 45bd a562 37be
000003e0: 681d 413d 33e6 12bd 97c2 803c 7e69 ff3d
000003f0: 1ed4 903c fccc 0e3e fca7 993c 155d 71bd
0.08904452 0.07400557 0.050371487 -0.026411805 0.21367185 0.07217787 -0.038789783 -0.027348572
-0.0043192673 0.11883054 0.18030636 0.0020500685 0.03729722 -0.23027344 -0.10362091 0.046551384
0.03564382 -0.054882128 0.074287646 -0.11540952 -0.276986 -0.1432739 -0.0919673 -0.15914203
0.19134595 0.031182172 0.090314955 -0.10892361 -0.05913064 -0.033607185 0.15085627 0.013026022
-0.03052323 0.044113107 0.06349552 -0.023627754 0.021935487 -0.1557811 0.06361947 -0.012248802
0.33540756 -0.0356018 0.029473038 -0.13236295 -0.046900608 -0.048493348 0.06643933 0.08164601
0.17588943 0.009251211 0.04522549 0.058563 0.059773743 0.04794046 0.12465083 0.04628249
-0.029506743 -0.13139401 0.044134397 0.049168948 0.018822962 -0.043854676 -0.0010534084 0.44803202
0.027705282 -0.02502499 0.00592425 0.04211563 0.19062547 0.020987548 0.040222082 0.03521377
0.0967688 0.025944361 -0.012915997 0.10343836 0.05474572 -0.0007731081 -0.07044725 0.030894738
0.0009424558 0.050306533 -0.1375321 0.034228977 0.080803685 0.027476028 0.046901114 0.038724523
0.10117771 0.051438678 -0.05224247 -0.10626319 -0.035204146 -0.013131889 0.15457816 0.23811874
-0.06819464 -0.2130632 -0.074564025 -0.34437653 -0.024494423 0.3012127 0.11963648 0.032938592
-0.06002998 -0.19191556 -0.10460125 -0.80541015 -0.17866263 -0.02348741 -0.09993076 -0.0011411401
-0.06988843 -0.09417832 -0.05025661 -0.2281737 0.06693901 0.023091232 -0.008237059 -0.10966242
-0.012316483 -0.043976296 -0.011307774 -0.1558633 -0.025681155 -0.10298884 -0.39682296 0.01471787
0.10765973 0.15344706 -0.008413574 -0.049815834 -0.49697772 0.08565062 -0.004636087 0.06179725
-0.0389564 0.09365838 0.06687721 -0.024181586 -0.09249257 -0.11032467 0.052012447 0.013981323
-0.043006532 -0.042955905 0.008556462 0.008926699 -0.09008188 0.11152015 0.066800356 -0.04343331
0.22688206 -0.022732915 0.17233385 0.06304013 -0.02011784 -0.041605797 0.041424803 -0.05981382
-0.041585352 -0.041808847 -0.033503897 0.14357667 -0.002524992 -0.033073954 0.17121905 -0.044183385
0.03544172 0.0129320575 -0.080425285 -0.08421175 0.00010678666 0.04370663 0.018207524 0.14928283
0.058720063 0.034279414 -0.028084107 0.06639662 0.060822465 0.02186552 0.1353624 -0.03304199
0.039630756 0.029578587 -0.029213564 -0.01862396 -0.08470462 0.053217903 -0.06300416 -0.71858054
0.06715693 0.00081069145 -0.067389734 -0.0021305934 0.18636534 0.11503413 -0.037726805 -0.002399342
0.14049675 0.008591773 -0.033677403 -0.3735146 -0.10478288 0.013358877 -0.022759961 0.04856557
-0.06596348 0.057251632 -0.05377803 0.045994468 -0.03099057 0.07055437 -0.07069347 -0.03893716
0.22128887 -0.16360623 -0.024675548 0.024901435 0.06644088 -0.037215445 0.08764871 -0.08225731
-0.011004937 -0.11133596 0.008175806 0.20518827 0.055626467 -0.6816555 -0.10097142 0.011897571
0.34716153 -0.2870116 0.093036026 -0.39842284 0.03695134 0.058322567 -0.008978814 -0.20637687
0.07818726 -0.1025306 0.15238217 0.04771255 -0.056434374 0.16737406 -0.04829513 -0.17908724
0.047147185 -0.035864066 0.015717788 0.12471293 0.01767927 0.13945383 0.018756859 -0.05892666

encoder.3.bias f4 [32]
00000000: 6355 9e3e d3cf c63e 22bc 0e3f 981c 593e
00000010: d92a a9bc 82b6 eabd 9115 413f 9e0e 7a3e
00000020: 0d04 87bd de07 153e cd9e 413e 48a9 e23d
00000030: 2485 823d 7289 6a3f 38b9 0e3e 3333 353f
00000040: a1f6 a23e 00fd 0d3e 5f27 e2bd 5d30 46bd
00000050: d50f 343e b0e0 ef3e e972 f23c a166 abbd
00000060: e5f3 77bd 4e1f 67bb bd71 1a3f 229b 4cbd
00000070: 6b95 693e c1a2 0e3f decb adbe fe66 9b3d
0.3092452 0.38830432 0.5575582 0.21202314 -0.020650314 -0.11460592 0.7542353 0.24419639
-0.065925695 0.14553782 0.18908234 0.11067444 0.06373051 0.91615975 0.13937843 0.7078125
0.31828788 0.13866043 -0.11042666 -0.048385967 0.17584164 0.4685111 0.029595809 -0.08369184
-0.06053533 -0.0035266462 0.603298 -0.049952634 0.22810905 0.5571709 -0.339446 0.075880036

encoder.5.weight f4 [2, 32]
00000000: 8ab7 953b 9cdb f73b 683f dcbe cff6 ce3d
00000010: a9e4 f93b 8520 873d ec0b f43d 2bd8 e23e
00000020: 9771 a8bd 9502 2fbe 351c 6fbd edb9 3f3e
00000030: c849 c2bd 132c aebf 9569 dbba 7ccb 57be
00000040: 1209 3abe af24 1fbe 1d9a 5f3c 44a2 56bb
00000050: 4a9a 18be 9780 4c3f fe50 11be c542 31bc
00000060: e651 1e3d 027e 153f 75da 5b3f bb78 8d3d
00000070: 022a 02be c1b3 da3d 62be 06be f3e9 77bc
00000080: 966a 06be 381b eebd 71ed 513f 321b 853d
00000090: 96ac 913d a34b b03d 055a 78bf c866 463f
000000a0: 05e3 e13d 37da d3bd 5d83 83bd 2b21 9f3e
000000b0: 7ac1 febd 7aab 163f 533f 8cbd b062 d03f
000000c0: ce53 37bb 0c50 31be 3a88 e7bc 942c 863d
000000d0: f4c1 6c3f d5fd 613f 68a4 3cbc 969c 813d
000000e0: 003b e53c 3bd2 fbbe d98f 5cbf c744 a3bc
000000f0: c279 09be 16a9 55be 07dc 42be 0e2c fbbc
0.0045689987 0.0075640213 -0.43017125 0.10105669 0.0076261354 0.065979995 0.119163364 0.44305548
-0.082247905 -0.17090829 -0.05837651 0.18723269 -0.09486729 -1.36072 -0.001673984 -0.21073717
-0.18167523 -0.15541337 0.013647583 -0.0032750526 -0.14902607 0.7988371 -0.14191052 -0.010819142
0.038652323 0.583954 0.85880214 0.06907793 -0.12711337 0.106788166 -0.13158563 -0.015131461
-0.13126597 -0.11626285 0.8200293 0.06499328 0.07112996 0.086081766 -0.9701236 0.7750058
0.11029629 -0.103443556 -0.0642154 0.31079993 -0.124392465 0.588554 -0.06848016 1.6280117
-0.0027973535 -0.17315692 -0.0282632 0.06551471 0.9248345 0.8827794 -0.011513807 0.063286945
0.027982235 -0.4918383 -0.86156994 -0.019930257 -0.13425353 -0.20865282 -0.19029246 -0.030660655

encoder.5.bias f4 [2]
00000000: 5952 f9bd 2fe1 bebd
-0.1217391 -0.09320294

decoder.0.weight f4 [32, 2]
00000000: a35f afbe b797 c8be 36a7 473f 1b73 1fbf
00000010: 1379 823e 5afc cc3e d846 26bf 1ebb 043f
00000020: 03fe 0e3d b075 583f d131 73bd 1706 2dbe
00000030: 4602 93bc 720a 46be 5357 09bf f5c8 00bf
00000040: d624 453e 3af1 17bf 9046 8dbe d5d6 d4be
00000050: 0e55 bf3e 4e4e 473f 3fd1 573d cefc a3b9
00000060: c25b 34bf 4cde 683e edb9 a1be 76cb 8cbe
00000070: 7635 41be 32e6 2c3f eee2 e43d 2499 3fbf
00000080: 7d00 d63f 7287 fdbd 2d9b c83e 768f ba3e
00000090: 9907 403f bced 2a3e 0223 7f3f b96c 00bf
000000a0: 25da a83e 6749 a1be 6ff0 b3be e838 da3e
000000b0: 899e aebe 0652 c3be 67c0 363d f918 303f
000000c0: ff3e f8be 40eb b33e 54ec 04bf 685a a03e
000000d0: 1bf7 023f 1fff 0f3f 4919 0d3f 799d febe
000000e0: b326 4c3c ebc6 8ebe d91f 21bf 965a bdbe
000000f0: 143b 293f 137e 6b3e 0dff 293f b008 9f3e
-0.34252653 -0.3917825 0.7798952 -0.6228501 0.25482997 0.4003628 -0.6495185 0.5184802
0.034910213 0.84554577 -0.05937368 -0.16896854 -0.01794542 -0.19339922 -0.5364887 -0.50306636
0.19252333 -0.5935246 -0.27592897 -0.41570154 0.3736958 0.7785386 0.052689787 -0.00031278137
-0.7045251 0.2274105 -0.31587163 -0.27498978 -0.1886805 0.6753875 0.11176096 -0.7484305
1.6718899 -0.1237935 0.3918089 0.36437577 0.75011593 0.16692251 0.9966279 -0.501659
0.3297893 -0.31501314 -0.35144374 0.4262154 -0.34105328 -0.38148516 0.044617083 0.68788105
-0.48485562 0.3514042 -0.5192311 0.31318974 0.51158303 0.5624866 0.5511671 -0.49729517
0.0124603985 -0.27886137 -0.6293922 -0.36983174 0.6610577 0.22997312 0.664048 0.31061316

decoder.0.bias f4 [32]
00000000: fa11 81be ae7a 3e3f 381c 94bf 9efd e73e
00000010: b35c 9ebf ef2f 203f 0174 8a3f 3e12 aebf
00000020: f6c7 143f e6f6 eebe d7b1 bb3e efb2 b33f
00000030: 8568 98be d99d 28bc 5adf c83e 6358 41bf
00000040: 1d8f 683e bf8b 9a3f d91c a4bf 5d29 4bbd
00000050: 9920 903f 2691 a5bf df4b fb3e a2fd 273f
00000060: d839 103f 3213 b83e decb 19bf 55f4 3cbf
00000070: 3160 813f 5a8c 8cbf 8dd9 50bf dc6a a83f
-0.25209028 0.74405944 -1.1571112 0.45310682 -1.237204 0.6257314 1.0816652 -1.3599317
0.58117616 -0.46672744 0.3665912 1.4038981 -0.29767242 -0.01029154 0.39232904 -0.7552549
0.22710843 1.2073897 -1.2821304 -0.049599994 1.1259948 -1.2934921 0.49081323 0.6562139
0.5633826 0.35952145 -0.600767 -0.7381032 1.010748 -1.0980332 -0.81581956 1.3157611

decoder.2.weight f4 [128, 32]
00000000: b1ab ae3d 32e3 c2be b4c4 083e 001b 733b
00000010: 23b7 423d 3f59 05bc c9ec 15bd 8a6c 0ebe
00000020: 0e28 073e 46b6 e03b 1413 103e 0b65 82bd
00000030: 91f4 acbc bc88 603d 841d d03c 0314 8c3e
00000040: ce1c 1fbe 2f2c 12bf d1d9 593e ba56 8a3e
00000050: 2ec6 22be bf1a be3c f6e3 ad3d 7ed7 a93d
00000060: 293c c63b 6151 e73d e019 d7be 0149 793e
00000070: 7811 b9bc 69ca db3a d559 3e3f 2113 86bf
00000080: 6309 e73c a4fc a5bd 6964 cfbd 0231 f13d
00000090: fb19 b8be 96f5 a7bd 884e e5bd 4f23 f8bb
000000a0: 46e9 d93d f7dc 80be a7c7 97bf 8321 9d3d
000000b0: 67e2 223d eda0 f5bb 4f22 9d3e e63d 873e
000000c0: 4854 9fbd db02 76be 7786 2fbf 1529 70bd
000000d0: 6fa4 74be a390 79be 5730 cb3c d281 e73e
000000e0: b5f2 48bd 9aec 7e3d 2c27 94be 16f1 a23e
000000f0: 7045 38be 9be7 013e 7dc7 49bf 4a76 233f
00000100: df0f 0b3e 681f 20be 16bf a8bc d1b0 163d
00000110: d771 aabe 34e7 27be c6d0 39be 736d 2b3d
00000120: 7f40 6fbe d8e7 39bc 9a71 74be 14cf 6bbe
00000130: 58c6 ea3d 90b0 8dbd 0736 353e 0316 5e3e
00000140: 8bb7 d43d 015e 73bf 14d3 4a3f de4b ba3d
00000150: efa4 3dbd 6d71 423e ee61 5ebd f146 683d
00000160: fe58 c23d 58a2 053e 489f 73be 9ddb 853e
00000170: 550d 5ebe 897d c4bd 6343 6f3f 511b 78bf
00000180: 66fe 3abc f2e0 dfbd 2b8e 0e3d a118 01be
00000190: 6716 de3d bc27 f6bc 4533 a8bd 4b42 233d
000001a0: 82a7 81bc 0da5 813d 78a2 af3a 19db f3bd
000001b0: c3ed 103e eca5 a63d 6683 aabd b5bb 753e
000001c0: 867f 14be 2e2f 0bbe 0ab4 d63e df6d 133e
000001d0: 1c9b 8f3d 0c27 7c3e 21c2 90bd 8332 45be
000001e0: 2419 fe3d a442 9f3d 06b0 08be f781 e13c
000001f0: cfb4 01be cf25 073e 57eb 493f 64b9 12bd
00000200: aba5 9bbf 3b70 a9bd dcf8 07be 2a1d 18be
00000210: b79f 92be 0036 4b3e e221 ad3e f56d 50bd
00000220: 5905 b93d 12e3 aabf c02b 8cbd fab6 bf3e
00000230: b1cc 10c0 2e0c debe f3ed e9bd 565f d4be
00000240: 788f 833e 084c 5f3e 6884 b63d 921c adbe
00000250: b345 323e 56ba e63e 2036 a9be 4e64 4ebe
00000260: e1a7 1dbe 1001 d8be b5fd abbe cb9c 6ebe
00000270: df03 e43d d2c3 ecbe 365d b33e 1e16 bd3e
00000280: 636d 84bf 268b 80bf 36e1 3cbf 4bb2 50bc
00000290: 02b7 f33d 01a0 c0bf ebfe 73bf ed5b fbbc
000002a0: 28dd 023e 4041 16be 4467 893e 9bb4 773e
000002b0: d19f 99bd c293 a0bf 8b21 5f3e 2e8d b93c
000002c0: 21a4 b9be 0725 cf3e 2adb 563e e515 05bf
000002d0: 45a5 b9bd 7456 21be 409c dfbf e2b5 3b3e
000002e0: 8bcd ff3d 98ac 19bd ef30 7fbe 923f e9bc
000002f0: e1ec 3a3f 70fb f5be e0cb 27be 75e6 4cbd
00000300: ee09 cbbe d4d6 263e a9a7 663e 47ad 83c0
00000310: 1c6d 9cbe b65e a53e 1d1d 8a3e f160 e4be
00000320: 5e5f 3cbd 19a3 83be f165 8dbe 22e7 f03e
00000330: fb9b 12be a997 05bf 3c9e c4bf 16e2 11bf
00000340: 2569 833e ceaa b03e 47aa 0c3e 7840 723d
00000350: f28b 0d3e cfa4 e4bd 4302 1dbd 3f96 3cbf
00000360: d18e 33c0 54ae fabf 7a99 a7be 8c6d 21bf
00000370: 042d e53c a605 17bc d333 c43e cd84 c43e
00000380: 40ea 53bc 89a5 aebd a2f5 773d 936d 98bd
00000390: 6a0c e7bc 13a0 cdbd de90 713d d4a4 0fbe
000003a0: c53d fe3c 4b4b b13c 5694 5d3d 3b39 13be
000003b0: 12b7 9cbd 6f87 a1bd e6cb 873d 5d6e c83c
000003c0: 875d b9bc b8f1 593c e6c7 5dbd ad26 0fbc
000003d0: e57f 83bc b43a e23b d211 05be 4836 503b
000003e0: 1619 58bc c33f d9bc 11fe 53bc cdc4 153d
000003f0: 7005 87bd aec6 44bd c522 3f3d b893 e7bd
0.08528841 -0.3806396 0.13356286 0.003709495 0.047537934 -0.008138954 -0.03660277 -0.13908592
0.13198873 0.006857666 0.14069778 -0.06366929 -0.021112712 0.0548179 0.0254047 0.27359018
-0.15538332 -0.5709867 0.21274497 0.27019292 -0.15895912 0.023206113 0.08490746 0.08293055
0.006049652 0.11294819 -0.4201193 0.24344255 -0.022591338 0.0016768697 0.7435582 -1.0474588
0.028202718 -0.08104828 -0.101265736 0.117769256 -0.35957322 -0.08201139 -0.11196619 -0.0075725685
0.106401965 -0.25168583 -1.1857804 0.076724075 0.039766695 -0.0074959905 0.30690238 0.26414412
-0.07779747 -0.24024527 -0.6856455 -0.05863293 -0.23890851 -0.24371581 0.024803324 0.45216233
-0.04905959 0.06223736 -0.28936136 0.3182456 -0.17995238 0.12686007 -0.7882002 0.6385237
0.13580273 -0.1563698 -0.02059893 0.03678972 -0.33289978 -0.1639679 -0.18146047 0.041852426
-0.23364447 -0.01134678 -0.2387146 -0.23028213 0.11463612 -0.06918442 0.17696391 0.21688084
0.103865705 -0.95065314 0.7922833 0.09096502 -0.04629987 0.18988581 -0.05429261 0.05670828
0.0948963 0.1305021 -0.2379123 0.26144114 -0.21684773 -0.095942564 0.934622 -0.9691668
-0.011413192 -0.10931577 0.03480355 -0.12607051 0.10844117 -0.030048244 -0.08212904 0.039858144
-0.015826944 0.06330309 0.001339986 -0.11907024 0.14153199 0.08137116 -0.083258435 0.23997386
-0.14501771 -0.13592216 0.41934234 0.14397381 0.07012007 0.2462427 -0.07068277 -0.1925755
0.12407139 0.077763826 -0.13348398 0.027527792 -0.12666629 0.13198017 0.78874725 -0.035821334
-1.2159933 -0.082733594 -0.13278526 -0.14854875 -0.28637478 0.19844818 0.33814913 -0.050886113
0.09034223 -1.3350546 -0.06844282 0.37444288 -2.2624934 -0.43368667 -0.11422338 -0.41478986
0.25695395 0.21806347 0.08911973 -0.3381086 0.174094 0.45064038 -0.33049107 -0.2015545
-0.15396072 -0.4218831 -0.33592 -0.23302 0.11133551 -0.4624315 0.35032052 0.36930937
-1.0345882 -1.0042465 -0.73781145 -0.012737821 0.1190014 -1.5048829 -0.9531085 -0.030683482
0.12779677 -0.14673328 0.26836598 0.2418999 -0.07501186 -1.2545092 0.2179014 0.022650328
-0.36258033 0.40457937 0.20982042 -0.51986533 -0.09064726 -0.15755635 -1.7469559 0.18331102
0.12490376 -0.037518114 -0.2492101 -0.028472695 0.730177 -0.48043394 -0.16386366 -0.05002447
-0.39656013 0.16292888 0.22524895 -4.114902 -0.30551994 0.3229882 0.26975337 -0.4460521
-0.045989387 -0.2571037 -0.27616838 0.4705134 -0.14317314 -0.5218454 -1.5360789 -0.56985605
0.25666156 0.34505314 0.1373683 0.059143513 0.13822916 -0.11164247 -0.038332235 -0.7366676
-2.8055918 -1.9584451 -0.3273428 -0.6305778 0.027975567 -0.009217655 0.3832079 0.3838257
-0.0129342675 -0.08527667 0.060536988 -0.074427746 -0.028204162 -0.10040297 0.058976047 -0.1402772
0.031035313 0.021642348 0.054096542 -0.143773 -0.076521054 -0.0788716 0.066306874 0.024466688
-0.022627605 0.013302259 -0.054145716 -0.008737248 -0.016052196 0.0069039706 -0.12995079 0.0031770635
-0.013189575 -0.026519662 -0.012938992 0.036564637 -0.06592834 -0.04804104 0.04666402 -0.11307472

decoder.2.bias f4 [128]
00000000: 6ff4 3bbe 90a0 f5bc 5da4 acbe 87d3 b8be
00000010: d6ea 873e 3355 893e 7a0f f93e 440b a3bd
00000020: 86aa 703e acf0 0f3f 78ab 0a3d 8068 9a3e
00000030: 4231 613e 2757 a03e c496 f43e b0a6 02be
00000040: 7808 ba3e f8ba cebd faeb 1b3f f449 e13e
00000050: 8123 07bf 7633 df3e aa7f ee3e 673b 03be
00000060: 5bf6 043e 66da 343e 9ddc 2a3e 9ff4 d73e
00000070: 4e3f af3e 1732 623e eae7 aa3d a751 28be
00000080: de7e f03e 6973 1f3e 7986 28bf 7b25 ae3e
00000090: 8bbd 67bd 0775 e5bd 1c58 e1bc 4c19 6dbe
000000a0: 9d83 493e 3dbc 86be b28f 7d3e ecb1 973d
000000b0: 3496 953e a8d7 4f3e 5adf 22bf 7a88 a93e
000000c0: 26fd b9be fd76 ad3e 3553 2c3e 4964 3a3e
000000d0: 1e0b cabe 5b47 ab3e 29cd 95bd 5bb5 0b3f
000000e0: 847d 9dbd bc88 ad3e 018f ca3d ca5c b3bd
000000f0: f64d c1bd 4203 cbbd a844 2f3e 95a0 f83c
00000100: fe61 8abe c2f7 223e 6c58 e23d 43b6 993d
00000110: b190 c8bd b672 cdbe 30d6 013e 0ed4 c23e
00000120: 1120 aa3e 27d4 8f3e fa48 c73e 4bf1 4d3b
00000130: 04ca bf3e ef42 583e e688 0ebe b830 163e
00000140: 6c40 7c3e e59b 85be eb5d 38bf 0079 2d3e
00000150: e31f f63e bf90 31bd f4db c53d 7d5a ee3e
00000160: e5e9 50be 317b 813e e2d5 7e3e a015 9d3e
00000170: d83c 3e3e fab0 b3bb c516 dd3e c3fe d93d
00000180: f65c 9abd 34ef f4bd 23e9 39bd e025 743e
00000190: 812c 823e 7398 433e a0d3 113c 68c0 023f
000001a0: aab5 723d ace4 583e 5081 123e 22fe 0b3e
000001b0: 5a0b 973e 8c13 d03e b7c0 e93d 1a67 08bd
000001c0: e138 6b3e 1e76 313e 5c09 c53e 0426 e2bb
000001d0: db49 d43e 4dd1 573e 2c0f a13e 52cb 0a3f
000001e0: 594e 0d3f db87 55bd 9afa 873e 5e5e 1a3f
000001f0: b7d2 fb3e c748 ce3e 4518 ee3e bb63 793d
-0.18354963 -0.029983789 -0.3371915 -0.36098883 0.26546353 0.26822814 0.4864462 -0.07961133
0.2350255 0.5622661 0.03385493 0.30157852 0.21991447 0.31316492 0.47771275 -0.12758899
0.36334586 -0.10094255 0.60906947 0.44001734 -0.5278855 0.4359395 0.46581775 -0.12815629
0.12984602 0.17661437 0.1668572 0.4217882 0.34227985 0.2208942 0.08345015 -0.16437398
0.46971792 0.15571369 -0.6583019 0.3401297 -0.056577247 -0.11203962 -0.027507834 -0.23154181
0.19679113 -0.2631549 0.24761847 0.07406983 0.29216158 0.2029711 -0.6362206 0.33111936
-0.3632595 0.33879843 0.16828616 0.18202318 -0.39461607 0.33452877 -0.07314522 0.545736
-0.07689956 0.33893383 0.09890557 -0.087579325 -0.09438698 -0.09912731 0.17116034 0.030350009
-0.27027887 0.15914825 0.110520214 0.07505467 -0.09793223 -0.4012658 0.12679362 0.3805241
0.3322759 0.28091547 0.38922864 0.003142434 0.37458813 0.21119283 -0.1391941 0.14667022
0.2463395 -0.260955 -0.7201831 0.16940689 0.48071203 -0.04335093 0.09661093 0.46553412
-0.20401724 0.252893 0.24886277 0.3068056 0.18577898 -0.0054837437 0.43181434 0.10644295
-0.07537262 -0.11959687 -0.045388352 0.23842573 0.2542458 0.19101124 0.008900553 0.5107484
0.05925528 0.21180981 0.14307141 0.13671163 0.29500848 0.40639913 0.114137106 -0.03330145
0.22970916 0.17330214 0.38483703 -0.0069015045 0.41462597 0.21075936 0.31456888 0.5421649
0.55197674 -0.052131515 0.2655838 0.6030024 0.491842 0.402899 0.4650289 0.060886126

decoder.4.weight f4 [784, 128]
00000000: a399 47bc ff52 203a e087 99bd 3d5b 6dbd
00000010: f911 b43b 0075 1abe 304d 9dbd 9ff9 9cbb
00000020: 14a7 03be 575e 7ebf 710c 90bd b6f9 f7be
00000030: f4e6 bfbd 075f 0ebe d4a8 67bd 9743 a8bc
00000040: 4480 28be e401 13bd 5568 5fbd 3b82 1fbe
00000050: 94d2 23bc 221f fdbc a5a4 c1bd 4dc8 363a
00000060: 439f 73bd 80ea 233c 54a2 a13c d211 c2bc
00000070: 26e4 adbd 8d49 edbd 4f60 d0bd baeb 1dbd
00000080: 2593 0fbe 9b50 c1bc 4c5f c4bd 01ab a6bd
00000090: 67c5 5b3d 1d6f 4d3d cdd3 91bd 9cd1 8fbc
000000a0: 93b3 fcbd c714 91be ea27 8fbd a182 56bc
000000b0: 6677 8fbe 1bfb c7bc 8644 99bd fcab 28bd
000000c0: 004c cbbd b1b4 b6bd 7552 c3bc 346c 21be
000000d0: 9754 97bd 9029 5dbd b483 253d 2ea8 ecbd
000000e0: a1c8 d33c aba1 57bd 8b4a 813b 22fe 613d
000000f0: c7bb 04bd e215 5339 d792 b4bd 2acd 6a3c
00000100: 77da b9bd 0b89 81bd 0315 e4bd e7cb 63bf
00000110: 0d19 cebc 969a 263d 4e6f 8ebd 98b9 8fbe
00000120: f24c e2be 43dc 98bd 7d72 a9bd 69b3 92bd
00000130: 79d3 d2be 1d2d e7be 5621 903c f97d 95ba
00000140: 69c7 9abd 2cee bebd f80c bfbc 0744 a0bd
00000150: 1d7a 09be 355d e8bc cd9c 03be 9d78 47be
00000160: ec63 85bd 2101 bcbd 06a1 edbd 759f 0cbe
00000170: 3b94 c1bd e040 02be d088 edbd 4ec9 84bc
00000180: f1fe 053b 6ec8 32bd a749 0cbe 4077 7dbd
00000190: efe2 34bd 7e12 133b 3989 7bbd 1c6b edbd
000001a0: f414 fdbb 5704 b9bd 53f2 9fbd 60a0 5ebd
000001b0: e60d f6bd eace 1cbe d155 07be f282 11bd
000001c0: e330 a6bd 6b8d febd 63bc 33be f688 143d
000001d0: a26a 4fbd 1114 f1bd 0cfe c3bd b174 94bd
000001e0: e9df 37be b2de cabc 2e61 2dbe 316c 4fbe
000001f0: b5b7 bbbd f57d 51be 18db 15be f0d0 2abc
00000200: fc13 a9bd 1440 8ebc 1121 3ebd 0e92 84bc
00000210: b0ba a6bd 0a41 05be 2989 333d 00bc 363c
00000220: df93 c8bd e44b 83bf 5387 9fbd 2162 0fbf
00000230: db0d 04be 3c13 d8bd e6d0 413c 02a0 a23c
00000240: 417d 0cbe 73f6 d53a 8d41 f0bd 6bc8 39be
00000250: ed11 e7bc 0767 e4bd e602 3cbd e559 1e3d
00000260: a77f 09bd 6831 7ebd 5b0e 46bb 9bda cbbc
00000270: 2e03 8bbc 9d8f 11be 7dc0 b9bc 180a d7bc
00000280: ffb7 55be c00e 94bd ca18 e0bd df43 56bd
00000290: c7b5 a0bc f290 213c 311a 88bd daf6 9dbd
000002a0: 5345 28be 4bfe bcbe 8bef 17bd ce90 353c
000002b0: d6ad 5fbe cd45 75bd d492 dabd 1e09 c0bd
000002c0: 4035 24bc 2bb4 18bd 3edc b0bc b8c2 16be
000002d0: 80ff 44bd f1e0 63bd 53e2 553d 7197 14be
000002e0: 95ba b83b 3f87 abbd 8586 213c cf0e 4e3c
000002f0: 828b 4bba 7efa 23bc 8560 85bd 8ad4 b2bd
00000300: f368 e8bd 8d01 e6bd 7d12 53bd 581c 79bf
00000310: b79d 6a3c a9a6 25bd 67a4 74bd 5083 a3be
00000320: 1932 dfbe cd58 62bd 87b2 29bc 6098 51bd
00000330: 5f6e cabe 8844 f7be 35e8 a8bd d306 49bd
00000340: 12eb 5abd 135f 28be 2425 b6bd f0a0 58bd
00000350: edcb 03be 33d4 8bbd 0d18 b8bd 2233 58be
00000360: 6374 b8bb 88a5 b4bd a5e5 aabd ee83 42bd
00000370: a255 53bd 02f0 dcbd 27fd 03be 3bed 4abd
00000380: 38ea 14bd d1bd 30bd 4802 07be 8992 9ebc
00000390: 2ddc e7bd f985 1cbd 2aa0 30bd d811 e4bd
000003a0: 9803 5f3c bff8 02be 59d2 1fbe 3bea 4f3c
000003b0: 3540 2ebe a6c9 c7bd 82f1 5cbd 055f 353d
000003c0: 0440 303c 5fa2 04be 4b7c 18be ab82 0abc
000003d0: e7dc 15be 1064 a7bd 53c6 02be cac1 fabd
000003e0: d74b 2abe 9d86 d3bd 59de eabd b43d 40be
000003f0: c0b3 8abd f47b 2ebe d5ec a4bd 6b52 d9bd
-0.012182626 0.0006115883 -0.07496619 -0.05794834 0.0054953066 -0.15083694 -0.07680738 -0.0047904993
-0.12856704 -0.993627 -0.07033623 -0.48432702 -0.09370223 -0.13903438 -0.05655749 -0.020540042
-0.1645518 -0.035890475 -0.05454286 -0.15577023 -0.009998936 -0.030898634 -0.094552316 0.0006972596
-0.059478056 0.01000464 0.019730724 -0.023690138 -0.084907815 -0.11586294 -0.101746194 -0.038554884
-0.14020975 -0.023598006 -0.09588489 -0.08138085 0.053655054 0.050154794 -0.07120476 -0.017556004
-0.123389386 -0.28336164 -0.06990035 -0.013092668 -0.2802078 -0.024411729 -0.07483773 -0.041179642
-0.09926605 -0.08921183 -0.02384303 -0.15763932 -0.07389181 -0.053994715 0.040408805 -0.11555515
0.025852503 -0.052644413 0.003945654 0.055174 -0.03240564 0.0002013068 -0.0881707 0.0143311415
-0.09074872 -0.06324967 -0.1113682 -0.88983005 -0.02515843 0.04067477 -0.069548234 -0.28071284
-0.4419933 -0.074638866 -0.0827379 -0.07163126 -0.41176966 -0.45151606 0.01759402 -0.0011405341
-0.07557566 -0.093227714 -0.023321614 -0.07825475 -0.13425489 -0.028364757 -0.12852784 -0.19479604
-0.06513199 -0.09179903 -0.116029784 -0.13732703 -0.09452101 -0.1272006 -0.115983605 -0.01620927
0.0020446146 -0.043648176 -0.13699971 -0.061881304 -0.044161733 0.0022441442 -0.061410163 -0.11592695
-0.007723445 -0.09034031 -0.078098916 -0.054352164 -0.1201437 -0.15313306 -0.1321633 -0.03552527
-0.08114793 -0.12429317 -0.17552333 0.03626343 -0.050638802 -0.117714055 -0.0956994 -0.072488196
-0.17956509 -0.024764393 -0.16931602 -0.20256115 -0.09165899 -0.20458205 -0.14634359 -0.010425791
-0.08255765 -0.01736454 -0.046418253 -0.016182926 -0.081410766 -0.13013092 0.043831978 0.011153221
-0.09793829 -1.0257535 -0.07789483 -0.5600911 -0.1289591 -0.10550544 0.01182959 0.019851688
-0.13719656 0.0016324058 -0.11731253 -0.1814286 -0.02820679 -0.111524634 -0.0459012 0.03865995
-0.033569004 -0.062058836 -0.003022096 -0.024884513 -0.01696929 -0.1421494 -0.022674793 -0.02624993
-0.2087097 -0.07229376 -0.10942228 -0.05231082 -0.019617928 0.009861218 -0.066456206 -0.07713099
-0.16432695 -0.3691276 -0.03709368 0.011081887 -0.21843657 -0.05988102 -0.106725365 -0.09376739
-0.010022461 -0.037281197 -0.021589395 -0.14722717 -0.048095226 -0.055634443 0.052217793 -0.14510895
0.0056374767 -0.083754055 0.009858732 0.012576773 -0.0007764624 -0.010008452 -0.0651255 -0.08731945
-0.113481425 -0.112307645 -0.051531304 -0.97308874 0.014319829 -0.040442143 -0.0597271 -0.3193612
-0.4359291 -0.05526047 -0.010357506 -0.051170707 -0.3953733 -0.48294473 -0.08247415 -0.049078774
-0.053446837 -0.16442518 -0.08893803 -0.052887857 -0.1287076 -0.06827583 -0.08988962 -0.21113256
-0.0056291088 -0.08820635 -0.083445825 -0.0474891 -0.051595338 -0.10787965 -0.12889539 -0.049542647
-0.03635618 -0.043149773 -0.13184464 -0.019356983 -0.11321292 -0.038213704 -0.043121494 -0.11136216
0.013611697 -0.12790202 -0.15607585 0.012690122 -0.1701668 -0.09755258 -0.053941257 0.04428007
0.01075745 -0.12952565 -0.14891164 -0.008454005 -0.14635049 -0.08173382 -0.12770967 -0.122439936
-0.16630493 -0.1032841 -0.11468191 -0.18773538 -0.06772566 -0.17039472 -0.080529846 -0.10611423

decoder.4.bias f4 [784]
00000000: 8483 d7bd b05e 95bd 44de 05be 68be 28be
00000010: daec 62bd 3848 85bd 9510 f8bd ce10 e4bd
00000020: 4697 20be 1298 d9bd aebf aebd b874 4dbd
00000030: f020 a7bd 8918 a1bd 3c90 4dbd eac1 16be
00000040: 69be dfbd e823 72bd 7234 0cbe 1fcf b7bd
00000050: 822a f4bd 8a01 d6bd 9840 f5bd 64cd 0cbe
00000060: 8e32 76bd 7618 29be c432 ddbd e190 a3bd
00000070: b1ea ddbd ff7d 17be 4d36 20be 1669 dabd
00000080: f78a 05be 7c76 c1bd a415 8ebd 9149 24be
00000090: 2771 e7bd 0872 2cbd e9ec b0bd f8a8 18bc
000000a0: 102a c1bb adbe cfbd fd2d 26bd 6b6d f8bc
000000b0: f448 bcbd 80a0 63bd 3466 97bd 3370 a5bd
000000c0: e735 5dbd ef8a 12be b104 1ebe 966a 2ebe
000000d0: fb83 04be b5dd 93bd d41c c6bd 0a1e acbd
000000e0: 652e 80bd e760 dbbd df42 e0bd 35fa 8fbd
000000f0: dd97 aabd 0942 1dbe 103b 0bbe eaf5 67bd
00000100: 62f4 7abd cefc 25bd 7cac 70bd 99d0 93bc
00000110: 9976 a5bd 330b a1bd 0623 32bd 415d 99bd
00000120: 367f 25bd dabf 1f3c 33bd 33bd e1de 303d
00000130: 61db d03c 267d 59bb 45c5 e1bc 1198 9fbd
00000140: 36c2 1abe 54a7 d7bd c29f b3bd cb7f 09be
00000150: 853d cbbd c957 efbd c70b 5fbd 3f49 a6bd
00000160: c7e6 a5bd 7760 c9bd 6039 dfbd e5db 3ebd
00000170: 3af3 84bd d7cf c0bd 5f14 04be 509c c0bd
00000180: 179c b9bc e3ce e0bd b04c 9bbd af68 dcbd
00000190: 5a5a 8fbd a19a 0a3d acb3 043d 8ccd 863c
000001a0: 7148 e4bc c570 ec3b fb92 babd 4763 76ba
000001b0: ee53 3ebd 4946 23be 58be 07be 1836 7abd
000001c0: f449 d5bd 5a9f 09be 5c53 81bd 6858 b8bd
000001d0: d411 2cbd cea1 88bd fec4 ffbc 1585 0abe
000001e0: cf4f f2bd 0efc ddbd 6c0c a5bc 8da0 c1bd
000001f0: ac6a 88bd 9aa8 e8bd 0741 28be 60a6 10be
00000200: 0f31 6cbd faab 29bc 1000 f4bd 7980 f0bd
00000210: c3b4 10be c3af 1abe 90aa 5cbe f6c2 26be
00000220: a5e8 d4bd 8e9f ffbd 9754 96bd a893 27be
00000230: 9c1c 13be 4c2e 05be 07d9 afbd 4bd7 30bd
00000240: 4bb8 e2bd e3b7 01be 367e 68bd 7e60 5cbd
00000250: 34c2 a0bd 917a 5bbd bd11 35bd f81d a93c
00000260: 0c33 8d3d 4cf4 66bc 397f e8bc 82e0 8ebd
00000270: f2a3 ca3b 72e8 46bd f160 cabc 460f 6dbd
00000280: 9425 7ebc 6b63 19be e245 6dbe a5af 2dbe
00000290: 0f49 aaba c2b4 de3c 2525 18bd 260b b3bd
000002a0: 4429 1dbe 61a0 f9bd c16d 20be 7508 22bd
000002b0: 8fac 9fbd 1e15 08be fbb4 0ebe b59d aabd
000002c0: 0489 d8bd a007 09bd a17e 00bd 20e0 87bc
000002d0: 50fc a3bd e769 84bd 8d31 6b3d a0de 9b3d
000002e0: 4fc9 03bb 6a51 6e3c c647 5cbd 3de4 d8bc
000002f0: eebc 63bd cb1c 0cbe e1ea 75be e30f 2dbe
00000300: 877d bcbc d342 5b3d e1d2 25bd 6a9e 1ebe
00000310: 9f55 e8bd da04 a4bd 2fa2 053c c9bd 6a39
00000320: ee1f 75bd a09a 2ebe bf74 73be d057 2cbe
00000330: 80a2 a7bd 9cf0 43bd 1294 88bc aaad 82bd
00000340: 4da6 e0bd bfc3 b4bc 3de1 3539 7dc3 093d
00000350: ce18 e2bc 73b2 d6bd c23f febc dad0 4cbd
00000360: 31e7 c7bd be5c acbd 0ffd 45be 4060 7abe
00000370: 7d40 eeba 4487 17bb a648 4e3c 7a60 c9bd
00000380: 5cec b0bd 473f 07bd e48c 3a3c 4c45 943c
00000390: 0d1f 0dbc 5c99 b3bd 253c 72be e770 f6bd
000003a0: d962 a1bd ab53 e1bc 957d a0bc 7fb4 adbd
000003b0: cba2 ebbd a66a 05be 9ae9 cfbd c736 59bc
000003c0: a75c a8bd d5dd febd 1cb6 f4bc fefb aa3d
000003d0: c796 11bc 40b9 11be 2370 7abe 5dc3 6abe
000003e0: 8ff7 173d 53f9 6f3d 235e 843c d445 adbd
000003f0: d421 fdbd 5fdf 72bd 0ecf 5abd fe61 a0bc
-0.105231315 -0.07293451 -0.13073069 -0.16478884 -0.05540166 -0.06507915 -0.12112538 -0.11136018
-0.15682706 -0.10624708 -0.08532654 -0.05016014 -0.08160579 -0.07866008 -0.05018638 -0.1472241
-0.1092499 -0.059116274 -0.13691881 -0.08975052 -0.1192217 -0.10449512 -0.11975211 -0.13750225
-0.060106806 -0.16513237 -0.108006984 -0.07986618 -0.108357795 -0.14794157 -0.15645714 -0.10664575
-0.13041292 -0.09446427 -0.06937721 -0.16043688 -0.11300879 -0.042100936 -0.08638937 -0.009317629
-0.005894907 -0.101437904 -0.0405712 -0.030325612 -0.09193602 -0.055572987 -0.073925406 -0.08078041
-0.054006483 -0.14310811 -0.15431477 -0.17032847 -0.12940972 -0.07220022 -0.09673467 -0.08404167
-0.06258849 -0.10711842 -0.10950255 -0.07030145 -0.08329747 -0.15357222 -0.1359675 -0.056631006
-0.061268218 -0.040524296 -0.058758244 -0.018043803 -0.08079261 -0.07863464 -0.043490432 -0.0748849
-0.04040452 0.009750331 -0.043881606 0.043181304 0.025495233 -0.0033186167 -0.027559886 -0.07792676
-0.15113148 -0.10529962 -0.08770706 -0.13427655 -0.09923843 -0.116866656 -0.05445459 -0.08119439
-0.08100658 -0.09832852 -0.10899615 -0.046596427 -0.06491704 -0.09414642 -0.12898396 -0.09404814
-0.022657437 -0.109769605 -0.07582986 -0.10762154 -0.06999655 0.033838872 0.03239791 0.016455434
-0.027866574 0.0072155916 -0.091100655 -0.0009398949 -0.04646676 -0.1594478 -0.13256204 -0.061086744
-0.10414496 -0.13439694 -0.06314728 -0.09001237 -0.04200919 -0.06671487 -0.031221863 -0.1352733
-0.118316285 -0.10839091 -0.020147525 -0.09454451 -0.06660971 -0.11360283 -0.16431056 -0.14125967
-0.057663973 -0.010355944 -0.119140744 -0.11743254 -0.14131455 -0.1510611 -0.2154944 -0.16285309
-0.10395936 -0.124816045 -0.07340353 -0.1636492 -0.14366382 -0.13005942 -0.085863166 -0.04317407
-0.11070307 -0.12667803 -0.05676099 -0.05380296 -0.07849541 -0.053583685 -0.04420637 0.020644173
0.06894502 -0.014096331 -0.028380977 -0.06976415 0.0061840946 -0.04856152 -0.024704428 -0.057875894
-0.015511889 -0.14979331 -0.2317119 -0.16961534 -0.0012991744 0.027185801 -0.0371448 -0.08742361
-0.15347773 -0.12188793 -0.15666868 -0.039558847 -0.07796585 -0.13289306 -0.13936226 -0.083308615
-0.10573009 -0.033454537 -0.031370763 -0.016586363 -0.08007109 -0.06465512 0.057420302 0.07610822
-0.0020109003 0.014545778 -0.053779386 -0.02647602 -0.0556001 -0.13682859 -0.2401538 -0.16900592
-0.023009075 0.053530525 -0.040484313 -0.15490118 -0.11344456 -0.08008738 0.008156343 0.0002238668
-0.059844904 -0.17051172 -0.23775004 -0.16830373 -0.08185291 -0.047836885 -0.016672168 -0.0638078
-0.10969219 -0.022065995 0.00017345413 0.033633698 -0.027599718 -0.10483255 -0.031036261 -0.050003864
-0.09760893 -0.08416127 -0.19334815 -0.24450779 -0.0018177178 -0.0023121396 0.012590563 -0.098328546
-0.08638832 -0.03301933 0.01138613 0.01809945 -0.00861336 -0.08769485 -0.23655756 -0.12033253
-0.07880182 -0.027505716 -0.019591132 -0.084816925 -0.1150566 -0.13028964 -0.10151978 -0.013257689
-0.08220797 -0.12444655 -0.029871993 0.08348845 -0.008886046 -0.14230824 -0.2445684 -0.22926088
0.037101325 0.058587383 0.01615817 -0.08460584 -0.12359968 -0.059295055 -0.05342012 -0.019577976
