02-Autoencoder/01-PT-MNIST-basic/dense-autoencoder.pth (torch, 844161 bytes, 12 tensors)

encoder.1.weight f4 [128, 784]
0	0xbb5946bc	-0.0033153733
1	0x3c46563d	0.012105522
2	0xbccfe3ce	-0.02537718
3	0xbccd0d6d	-0.025030816
4	0xbbd5d6a2	-0.0065258304
5	0x3cc0b11b	0.02352195
6	0x3c3a6fd5	0.011379202
7	0x3cc04d02	0.02347422
8	0x3c81e2fc	0.015855305
9	0x3b514e2b	0.003193746
10	0xbc4911c9	-0.012272307
11	0x3c0f36de	0.008741109
12	0x3dfa6e0f	0.12228023
13	0x3e3c92c1	0.18415357
14	0x3c73925f	0.014866441
15	0xbaec9729	-0.001805042
16	0x3c87d923	0.016583031
17	0xbc5c1ef2	-0.013435112
18	0x3c6d4473	0.014481652
19	0xbc925c83	-0.017866379
20	0x3cc7351a	0.024317313
21	0xbc4a3b4f	-0.012343242
22	0xbc13f81c	-0.009031322
23	0x3c770594	0.0150770135
24	0xbccabf4f	-0.024749426
25	0xbc766a18	-0.015039943
26	0x3c1d115a	0.0095866565
27	0xbc81617e	-0.015793558
28	0x3bbdcb68	0.00579207
29	0xbbbe5039	-0.005807903
30	0x3c81d730	0.01584968
31	0xbc0d9f20	-0.008643895
32	0xbbefdfbe	-0.0073203733
33	0xbd574027	-0.052551415
34	0xbe11df0b	-0.1424524
35	0xbdff7137	-0.12472766
36	0xbd74b020	-0.05973828
37	0xbbed5ad0	-0.0072434917
38	0xbe9d3206	-0.30702227
39	0x3bc521e6	0.006016004
40	0xbdb1b3cc	-0.08676872
41	0xbd6e123e	-0.058122866
42	0x3d22f05e	0.039780013
43	0xbe0be023	-0.1365972
44	0xbc35f1b6	-0.011104992
45	0x3da3e916	0.08003442
46	0xbe236653	-0.15957002
47	0xbede018d	-0.43360558
48	0xbee689c3	-0.4502698
49	0x3e08ad22	0.13347295
50	0x3e9697db	0.29412732
51	0x3e044491	0.12916781
52	0xbc7cc326	-0.015427386
53	0x3c261dd8	0.010138951
54	0x3cc5ea37	0.024159534
55	0x3c928175	0.017883996
56	0xbcb67d33	-0.022276497
57	0x3cba2e11	0.022727044
58	0xbd87111e	-0.06595062
59	0x3df5699a	0.119830325
60	0x3ea34b69	0.3189347
61	0x3e9e14f8	0.30875373
62	0x3e28b8e6	0.16476783
63	0x3eae66b3	0.34062728
64	0x3bc67ca4	0.006057339
65	0x3dc6fb4a	0.09715898
66	0x3dd26569	0.10273249
67	0x3c611684	0.013738278
68	0x3e26723d	0.16254516
69	0x3d8988c1	0.06715537
70	0x3cca8889	0.024723308
71	0xbdba0ade	-0.09084104
72	0xbdd66a77	-0.10469525
73	0xbdbac39e	-0.09119342
74	0x3b2c4599	0.00262866
75	0xbce852fb	-0.02835988
76	0xbe8413d6	-0.25796384
77	0xbe41bc29	-0.18919434
78	0x3ea21e11	0.31663564
79	0x3edbe494	0.4294783
80	0xbdd85c45	-0.10564474
81	0xbea18f76	-0.31554765
82	0xbca1739d	-0.019708449
83	0xbc94dd99	-0.018172072
84	0x3c51a897	0.012796543
85	0xbb23e6e4	-0.0025009448
86	0xbe4ca1ff	-0.19983672
87	0x3e39a898	0.1813072
88	0xbe4cb4f8	-0.19990909
89	0x3e439b35	0.19102176
90	0x3e886b30	0.26644278
91	0x3ed5963b	0.4171618
92	0x3de39bde	0.11113714
93	0x3e76c986	0.24100313
94	0x3d814c08	0.0631333
95	0xbd7537d9	-0.059867714
96	0xbdbedadc	-0.09319088
97	0xbc8804f6	-0.016603928
98	0xbd412555	-0.047154743
99	0x3b72f345	0.003707127
100	0x3d62effb	0.055404644
101	0x3e2eb59d	0.17061467
102	0x3e8b8b24	0.27254593
103	0x3ea53f09	0.32274655
104	0x3e5e412f	0.21704553
105	0x3e5f7f03	0.21825795
106	0x3e293f6b	0.16528098
107	0x3e84fe86	0.25975436
108	0xbce28556	-0.02765147
109	0x3d24decc	0.04025154
110	0x3ed86e94	0.42271864
111	0x3bc305ec	0.0059516337
112	0x3bb4f053	0.005521813
113	0xbd022b1e	-0.0317794
114	0xbe4cd94c	-0.20004767
115	0x3eca8008	0.39550805
116	0xbed5fdb7	-0.41795132
117	0xbdbf8c24	-0.093529016
118	0x3d5f6498	0.054539293
119	0x3e149803	0.14511113
120	0xbe2bbb56	-0.16770682
121	0x3ca4b3fb	0.020105353
122	0xbbe6fb69	-0.0070490134
123	0xbd620eca	-0.055189885
124	0xbd6b83bc	-0.05749868
125	0xbd912f3b	-0.070890866
126	0xbdd3967b	-0.10331436
127	0xbc2ff61f	-0.010739832
128	0x3da124e7	0.07868367
129	0x3e3b138d	0.18269177
130	0x3e4a1b8e	0.19737074
131	0x3d4df34a	0.050280847
132	0x3d887733	0.066633604
133	0x3dd9c5c7	0.10633426
134	0x3da96601	0.08271409
135	0x3e33705f	0.17523335
136	0x3ea2daa1	0.31807426
137	0x3e8cf191	0.2752805
138	0x3b8fac29	0.0043845368
139	0xbdd96127	-0.106142335
140	0x3c01a88d	0.007913721
141	0xbc4099f8	-0.011755459
142	0xbd5dcf86	-0.054152988
143	0x3e3678bd	0.17819495
144	0xbedd7363	-0.43252096
145	0x3d1f70e9	0.03892604
146	0xbd51aac6	-0.051188253
147	0xbe1539a8	-0.14572775
148	0xbdae8f76	-0.08523457
149	0x3cfc8ed6	0.030829828
150	0x3d8eab50	0.06966269
151	0x3a90cfa4	0.001104821
152	0xbbc33a8f	-0.0059579085
153	0xbd224bc2	-0.03962303
154	0xbcc56714	-0.024097003
155	0xbd0f0b79	-0.03492305
156	0x3dd9f2b0	0.10641992
157	0x3adaa370	0.0016680788
158	0xbdf35c59	-0.11882848
159	0xbd881bc8	-0.06645924
160	0xbda18026	-0.078857705
161	0xbd35ac20	-0.044353604
162	0xbcb0ca83	-0.02158094
163	0xbd0f352b	-0.034962814
164	0x3db9618a	0.09051807
165	0xbd634da3	-0.055493962
166	0x3e22dd2d	0.15904684
167	0x3d3cb95b	0.046075206
168	0x3cce258b	0.025164386
169	0x3b8987a6	0.0041970788
170	0x3d1c8a78	0.03821799
171	0x3daba7d8	0.08381623
172	0xbeae888f	-0.3408856
173	0xbd0fb45f	-0.035084125
174	0xbce44f0d	-0.027869726
175	0xbd368af0	-0.044566095
176	0x3bd3a6be	0.006459086
177	0xbdbccc27	-0.092186265
178	0xbb29f7f7	-0.0025935152
179	0xbdc0f131	-0.094210036
180	0x3ce78dd3	0.02826587
181	0xbdf19adf	-0.117971174
182	0x3c84a40c	0.016191505
183	0x3dca28d8	0.098710716
184	0x3d517b32	0.05114288
185	0xbc8be689	-0.017077701
186	0xbde7cd98	-0.11318511
187	0xbd3cf886	-0.046135448
188	0xbde983ff	-0.114021294
189	0xbe0db221	-0.13837482
190	0xbd1b8cbf	-0.037976023
191	0x3d92f8c9	0.07176358
192	0xbe06dcd8	-0.13170183
193	0xbe6df755	-0.23238881
194	0x3e372563	0.17885356
195	0xbd4e4c91	-0.05036599
196	0xbcd4d74f	-0.025981573
197	0xbd2bfd26	-0.041989468
198	0x3dbff2d8	0.09372491
199	0x3df467ed	0.11933885
200	0xbed25001	-0.41076663
201	0x3e0d3c48	0.13792527
202	0xbe3ac385	-0.18238647
203	0xbe42777a	-0.18990889
204	0xbd7aced1	-0.06123239
205	0xbdd9cc77	-0.10634702
206	0x3c7c1dbf	0.015387951
207	0xbd6b3887	-0.057426956
208	0xbd18d0dd	-0.037308563
209	0xbcb3da0d	-0.02195456
210	0xbdc952be	-0.09830235
211	0xbd4a4b93	-0.04938848
212	0xbc5dd90f	-0.01354052
213	0xbdb94c8a	-0.09047802
214	0xbda178d7	-0.078843765
215	0xbd266406	-0.040622734
216	0xbe0ccace	-0.13749239
217	0x3bcb1254	0.0061972532
218	0x3df1c47c	0.118050545
219	0x3e42680a	0.18985
220	0x3da0088b	0.078141294
221	0x3ba4393a	0.0050117048
222	0x3e6af2c6	0.22944173
223	0xbe275df6	-0.16344437
224	0xbe16c016	-0.14721712
225	0x3db48c12	0.08815779
226	0xbc93071c	-0.017947726
227	0xbdaa6058	-0.08319157
228	0xbe8adf82	-0.27123648
229	0xbd1a369e	-0.037649743
230	0xbe3b956b	-0.18318717
231	0xbde429e6	-0.11140804
232	0xbd0b9708	-0.03407958
233	0xbe07fc92	-0.13279942
234	0xbd8befcf	-0.06832849
235	0xbd868d85	-0.065699615
236	0xbd8362e1	-0.06415344
237	0xbd019753	-0.031638455
238	0xbe095224	-0.1341024
239	0xbe0dbfa3	-0.13842635
240	0xbbf802d7	-0.007568698
241	0xbda65a43	-0.08122685
242	0xbd3be4dd	-0.045872558
243	0x3da7acd3	0.081872605
244	0x3c2a1894	0.010381836
245	0x3e1afa1b	0.1513447
246	0x3e1382af	0.1440532
247	0x3ddfe8d1	0.10933078
248	0x3e54136f	0.20710538
249	0x3e2be691	0.16787173
250	0x3e1aee98	0.15130079
251	0xbe6c4969	-0.23074879
252	0x3d265e8b	0.040617507
253	0xbe1479e1	-0.14499618
254	0x3e159fdf	0.14611767
255	0x3cba395e	0.022732433

encoder.1.bias f4 [128]
0	0xbf006df7	-0.50167793
1	0x3f0455d7	0.5169348
2	0x3b185b68	0.0023247842
3	0xbc055863	-0.008138749
4	0x3e2ea2e3	0.17054324
5	0xbec3c10e	-0.38233227
6	0xbe259c16	-0.16172823
7	0xbe1f86f0	-0.15578818
8	0x3c909860	0.017650783
9	0xbf1ee763	-0.6207182
10	0x3f20239a	0.62554324
11	0x3bc01812	0.0058622444
12	0x3c333830	0.010938689
13	0xbf05d9b8	-0.5228534
14	0x3eac5909	0.33661678
15	0xbc767b92	-0.01504411
16	0xbc587a54	-0.013212759
17	0xbd01713a	-0.031602122
18	0x3f13e26e	0.5776738
19	0x3ef6a3a4	0.48171723
20	0xbd0ff4b1	-0.035145465
21	0xbf119300	-0.5686493
22	0x3dc2e395	0.09516064
23	0x3f1eed9d	0.6208132
24	0x3fbb6a9f	1.4641913
25	0x3ebf3946	0.37348384
26	0x3eb25477	0.34830067
27	0x3f735fe3	0.95068187
28	0xbf1a6de0	-0.60323906
29	0xbcbd0be4	-0.023076959
30	0x3f29e1d4	0.6636021
31	0x3c1d4219	0.009598278
32	0x3b0234aa	0.0019867816
33	0xbb7217fc	-0.0036940565
34	0x39cbea96	0.00038893957
35	0x3eb25a8f	0.34834716
36	0xbaffe730	-0.0019523855
37	0xbf836de8	-1.0267916
38	0x3f3b2cdf	0.7311534
39	0xbcd36688	-0.025805727
40	0xbe9bd848	-0.30438447
41	0x3bdd4be8	0.0067534335
42	0x3f6f093e	0.9337348
43	0xbf27eb91	-0.6559382
44	0xbcecadc4	-0.028891452
45	0xbcc5515b	-0.024086645
46	0xbe3d8862	-0.18509057
47	0x3ed48dc0	0.41514397
48	0x3f786eff	0.97044367
49	0xbde449c7	-0.111468844
50	0xba46ac2a	-0.0007578755
51	0xbf302220	-0.6880207
52	0xbc2ff5b8	-0.010739736
53	0xba94e048	-0.0011358345
54	0x3f14bc98	0.5810027
55	0xbbed402b	-0.0072403154
56	0xbcb7e2e0	-0.02244705
57	0xbdd1b665	-0.10239867
58	0x3b07f189	0.0020743331
59	0x3dff4986	0.12465195
60	0x3f315c92	0.69281876
61	0xbe98da4b	-0.29854044
62	0xbd5ad565	-0.053426165
63	0x3b4e1807	0.0031447427
64	0x3a064d13	0.0005123179
65	0x3c0d0605	0.008607392
66	0xbf84f797	-1.0388058
67	0xbb3a4431	-0.0028421993
68	0xbeb0d1fe	-0.3453521
69	0x3e004ca9	0.12529244
70	0xbd0a1485	-0.033710975
71	0x3b30c2a7	0.002697149
72	0x3f683de7	0.90719455
73	0xbc9ac761	-0.0188939
74	0xbe4fd7c5	-0.20297153
75	0x3c9b127f	0.018929718
76	0x3e899e97	0.26878807
77	0xbbcbcd3a	-0.0062195333
78	0xbd907d90	-0.07055199
79	0xbc9724dc	-0.018450193
80	0xbcf13718	-0.029445216
81	0xbf0a91b7	-0.54128593
82	0xbbbc8404	-0.005753042
83	0x3c427732	0.011869239
84	0x3cee7857	0.029110117
85	0x3f17f437	0.5935702
86	0xbf0ffe16	-0.5624708
87	0x3c2e1623	0.010625395
88	0x3f9f22c1	1.2432481
89	0xbe0e4c0b	-0.13896196
90	0xbc9e3f9b	-0.019317439
91	0xbeeb6640	-0.45976448
92	0xbd05ee8d	-0.032698203
93	0xbc08c095	-0.008346696
94	0x3e2d5bea	0.16929594
95	0x3f8dabf6	1.1068103
96	0x3f1a629f	0.60306734
97	0x3d9d3f5c	0.076781005
98	0xbdb60995	-0.088885464
99	0xbcc651a6	-0.024208855
100	0xbb69c020	-0.0035667494
101	0x3df0bb56	0.117544815
102	0x3f01f4c0	0.50764084
103	0xba89bca4	-0.001050849
104	0xbee04f8f	-0.43810698
105	0x3f2b7778	0.6697917
106	0xbee9a213	-0.45631465
107	0x3d23cd3f	0.03999066
108	0xbe2d25f9	-0.16909017
109	0x3ea06185	0.31324401
110	0x3eeb8ff9	0.4600828
111	0xbee443f8	-0.44583106
112	0xbe8a05db	-0.26957592
113	0x3e37abcd	0.1793663
114	0x3f232a1c	0.6373613
115	0x3dd52e7f	0.10409259
116	0xbe2652dc	-0.16242546
117	0xbf2d52d3	-0.67704505
118	0xbc96e258	-0.018418476
119	0x3e8fe840	0.2810688
120	0xbd032d7e	-0.032025807
121	0x3ad73337	0.0016418461
122	0xbeee44ae	-0.46536773
123	0xbd363589	-0.04448465
124	0xbcd7b06c	-0.026329242
125	0xbee5202d	-0.4475111
126	0x3e11ca1b	0.14237253
127	0xbc9fcfdc	-0.019508295

encoder.3.weight f4 [32, 128]
0	0x3dbbdc8e	0.09172927
1	0x3dc073e1	0.09397102
2	0x3d62a405	0.055332202
3	0xbcedac52	-0.029012833
4	0x3e33daa8	0.1756388
5	0x3de93915	0.11387841
6	0xbdb35db8	-0.0875811
7	0xbcaae6bd	-0.020861978
8	0xbb9b78d1	-0.004744627
9	0x3e11877c	0.1421184
10	0x3e00db47	0.12583648
11	0x3b139594	0.0022519575
12	0x3d59895e	0.05310952
13	0xbdfec7ce	-0.124404535
14	0xbdcd22d7	-0.10016411
15	0x3d517374	0.051135495
16	0x3d205fe5	0.039153952
17	0xbd76efb9	-0.06028721
18	0x3d43a642	0.047765978
19	0xbd8abc4b	-0.06774195
20	0xbde6ff8f	-0.11279213
21	0xbe2a7682	-0.1664677
22	0xbdbbde48	-0.09173256
23	0xbdde346d	-0.10849843
24	0x3e24ae31	0.16082074
25	0x3c575844	0.013143603
26	0x3db6094e	0.088884935
27	0xbd9439bc	-0.072375745
28	0xbd7028a2	-0.0586325
29	0xbd173635	-0.03691693
30	0x3ded58ca	0.11589201
31	0x3c6a6f84	0.014308814
32	0xbd0955cb	-0.033529084
33	0x3d467b6f	0.04845756
34	0x3d8ed86c	0.06974873
35	0xbc0d57c2	-0.00862688
36	0x3cc56400	0.024095535
37	0xbe1f7091	-0.15570284
38	0x3dc09914	0.09404197
39	0xbc5c729c	-0.013455059
40	0x3ecf1ea7	0.40453073
41	0xbd202fb3	-0.03910799
42	0x3d19361c	0.03740512
43	0xbdb74ad7	-0.089498214
44	0xbd5305a3	-0.051519047
45	0xbd5a30b1	-0.053269092
46	0x3db1df50	0.086851716
47	0x3dc17022	0.09445216
48	0x3e124e95	0.14287789
49	0x3bbd8fd9	0.0057849702
50	0x3d4b7c83	0.04967929
51	0x3da87807	0.082260184
52	0x3d8678ca	0.065660074
53	0x3d57b376	0.05266138
54	0x3d5cc9c6	0.053903364
55	0x3d503e1d	0.050840486
56	0xbd04c313	-0.0324126
57	0xbdbecee5	-0.09316806
58	0x3d4693d2	0.048480816
59	0x3de89d1e	0.11358093
60	0xbcdc8d95	-0.02692298
61	0xbd6e3e99	-0.058165167
62	0x3c0adfaa	0.008476177
63	0x3eedacfc	0.4642104
64	0x3dbe2166	0.09283714
65	0xbce131d1	-0.027489575
66	0x3bde1ba2	0.0067781964
67	0x3d3d7e4e	0.04626303
68	0x3e44a0de	0.19201991
69	0x3d5bf94b	0.05370454
70	0x3d34f94a	0.044183053
71	0x3d1e70d8	0.038681835
72	0x3ddcb6c9	0.10777051
73	0x3ce977c4	0.028499492
74	0xbb3ec248	-0.00291075
75	0x3db8c635	0.0902218
76	0xbc07a887	-0.008279926
77	0xba5e9fc1	-0.0008492433
78	0xbd347c2a	-0.044063725
79	0x3d0b01a2	0.033937104
80	0x3cb1a833	0.021686649
81	0x3d67fd1b	0.056637865
82	0xbe1d4e6a	-0.15361944
83	0x3d1a023e	0.037599795
84	0x3da68324	0.08130482
85	0x3c1f6196	0.009727856
86	0x3d7262e8	0.059176356
87	0x3d2e3c39	0.0425379
88	0x3db6d788	0.08927828
89	0xbc4a2216	-0.012337228
90	0xbd6b0f23	-0.057387482
91	0xbd96b729	-0.07359154
92	0xbd1e65cc	-0.0386713
93	0xbc6c575d	-0.014425126
94	0x3e0a7947	0.13522826
95	0x3eaa14ee	0.33219093
96	0xbcb7e566	-0.022448253
97	0xbe4e3f2f	-0.2014129
98	0xbde77dde	-0.11303304
99	0xbe8493ff	-0.25894162
100	0xbcdc6b4a	-0.026906628
101	0x3e9bd696	0.30437154
102	0x3df0b1a2	0.11752631
103	0x3cb1d04d	0.02170577
104	0xbd59ee33	-0.05320568
105	0xbdb0791b	-0.08616849
106	0xbdb27a3b	-0.0871472
107	0xbf2490ae	-0.64283264
108	0xbde7c611	-0.11317075
109	0x3b0fec9f	0.0021961106
110	0xbc06ca53	-0.008226949
111	0xbe0eda61	-0.13950492
112	0xbe218f00	-0.15777206
113	0xbdbb3053	-0.091400765
114	0xbd1948bb	-0.037422877
115	0xbe37b248	-0.17939103
116	0x3d2510c3	0.04029919
117	0x3b58e97b	0.003309815
118	0xbc143f55	-0.009048303
119	0xbdf31994	-0.11870113
120	0xbc5daa6f	-0.013529404
121	0xbd45dda8	-0.04830709
122	0xbcaf99e2	-0.021435682
123	0xbe51b563	-0.2047935
124	0xbce718fd	-0.028210158
125	0xbd1768c3	-0.036965143
126	0xbeba5990	-0.36396456
127	0x3c847141	0.016167285
128	0x3e09042e	0.133805
129	0x3e28ca98	0.16483533
130	0xbc176c8a	-0.009242186
131	0xbd6023d7	-0.05472168
132	0xbf045901	-0.5169831
133	0x3dc2e1e6	0.09515743
134	0xbccdd69b	-0.025126746
135	0x3cc994b2	0.024607036
136	0xbd2f47aa	-0.042792954
137	0x3db6ba9e	0.08922313
138	0x3da4fc12	0.08055891
139	0xbcd99a8f	-0.026562957
140	0xbc889a1d	-0.01667505
141	0xbda2615f	-0.07928728
142	0x3d4729ab	0.048623722
143	0x3c7ba116	0.01535823
144	0xbd4180e5	-0.047242064
145	0xbd4146a8	-0.047186524
146	0x3bf696ef	0.007525317
147	0x3c2eae7d	0.010661718
148	0x3e0d743d	0.13813873
149	0x3d9603b9	0.07324929
150	0x3d02e516	0.031956755
151	0xbd20372a	-0.03911511
152	0x3e443c5c	0.1916365
153	0xbd1c38f7	-0.038140263
154	0x3e1f2c40	0.15544224
155	0x39344c42	0.00017194546
156	0xbc306a89	-0.010767587
157	0xbd3b3333	-0.045703124
158	0x3d16306b	0.03666727
159	0xbd868fc3	-0.06570389
160	0xbd3b1ba8	-0.045680672
161	0xbd3c1d04	-0.04592611
162	0xbd16bf13	-0.036803316
163	0x3e1d3a26	0.15354213
164	0xbb35c653	-0.0027736619
165	0xbcdadfb6	-0.026718002
166	0x3d89eddc	0.06734821
167	0xbd46cbef	-0.04853433
168	0x3d51e74e	0.05124598
169	0x3c68be87	0.0142055815
170	0xbd964b36	-0.07338564
171	0xbd95cc52	-0.07314362
172	0x38f60056	0.00011730257
173	0x3d44a76f	0.04801124
174	0x3ce3d1fe	0.027810093
175	0x3e214832	0.15750197
176	0x3d61ab26	0.05509486
177	0x3d2ff6ad	0.042959858
178	0xbcfcb8be	-0.03084981
179	0x3da0778a	0.078353
180	0x3d88d4e5	0.066812314
181	0x3cc4c378	0.024018988
182	0x3e17856d	0.14796992
183	0xbd14aaba	-0.03629563
184	0x3d3250b1	0.043533985
185	0x3cd0cf91	0.0254896
186	0xbd03712e	-0.03209036
187	0x3ce6c274	0.028168894
188	0xbda58f35	-0.08083955
189	0x3daa60b3	0.08319225
190	0xbd419b31	-0.047267143
191	0xbf145987	-0.5794911
192	0x3d73a72a	0.059485592
193	0x3a69729d	0.00089053233
194	0xbd9bb2a5	-0.07602433
195	0xbb1961ad	-0.0023404167
196	0x3e4d8cb3	0.20073204
197	0x3e0f7d02	0.1401253
198	0xbd29bf45	-0.041442174
199	0xbb2cba56	-0.0026356182
200	0x3e0b2fba	0.13592425
201	0x3c1aa13c	0.009437855
202	0xbd6df0e2	-0.058091052
203	0xbec11f27	-0.3771908
204	0xbdbf2476	-0.09333126
205	0x3c706d46	0.01467449
206	0x3c1ca351	0.009560422
207	0x3d5a83db	0.053348403
208	0xbd40ec83	-0.047100555
209	0x3d823b97	0.06359022
210	0xbd635173	-0.055497598
211	0x3d4ef268	0.050524145
212	0x3c5569de	0.013025729
213	0x3d0580d0	0.03259355
214	0xbdb867a4	-0.09004143
215	0xbd2f318e	-0.04277187
216	0x3e38b020	0.18035936
217	0xbda51f86	-0.08062653
218	0xbcde0c9f	-0.027105628
219	0x3dc3fd7c	0.09569833
220	0x3d9578c5	0.072984256
221	0xbd27722a	-0.04088036
222	0x3dac7ad5	0.08421866
223	0xbd8c125e	-0.06839441
224	0xbb739f8a	-0.003717395
225	0xbe147c07	-0.14500438
226	0xbc4abca2	-0.012374075
227	0x3e31df0e	0.17370245
228	0x3d7a4905	0.061104793
229	0xbf23df4f	-0.64012617
230	0xbe061f23	-0.13097815
231	0xbd04f626	-0.032461308
232	0x3e95f434	0.29287875
233	0xbe755678	-0.23958766
234	0x3d3f84f2	0.046757646
235	0xbebf9ec2	-0.3742581
236	0x3d6b7375	0.057483155
237	0x3d80eed3	0.06295552
238	0xbdbb5fae	-0.09149109
239	0xbe8480d1	-0.2587953
240	0x3d95d0b8	0.073152006
241	0xbd50a7e5	-0.050941367
242	0x3ddf93a1	0.1091683
243	0x3d8aba7d	0.06773851
244	0xbdb64097	-0.08899038
245	0x3e394a9f	0.18094872
246	0xbd594c0f	-0.05305105
247	0xbe366117	-0.17810474
248	0x3d542209	0.05179027
249	0xbd215df5	-0.039396245
250	0xbcfaf5e0	-0.03063482
251	0x3d933dc4	0.07189515
252	0x3c9f1707	0.01942016
253	0x3df3f721	0.119123705
254	0xbeb7e280	-0.35914993
255	0xbd84911e	-0.064729914

encoder.3.bias f4 [32]
0	0x3e828ab7	0.25496456
1	0x3eae4701	0.34038547
2	0x3f0a6b50	0.54069996
3	0x3e77e2b1	0.2420757
4	0xbcb9d3ab	-0.022683939
5	0xbe00e988	-0.12589085
6	0x3f3de957	0.74184173
7	0x3e504641	0.203393
8	0xbd945007	-0.072418265
9	0x3ddfbb3c	0.10924384
10	0x3e25002c	0.16113347
11	0x3dac8197	0.08423155
12	0x3d7dcb2c	0.061961338
13	0x3f5f1526	0.87141645
14	0x3dc30f5f	0.09524416
15	0x3f2baca5	0.6706031
16	0x3e8708cf	0.26373908
17	0x3e16b8be	0.14718911
18	0xbdf86d25	-0.12130193
19	0xbd067269	-0.032823954
20	0x3e2684d1	0.16261603
21	0x3ed4fd5e	0.41599554
22	0x3bbdb409	0.005789284
23	0xbd7a73a8	-0.061145455
24	0xbd882f38	-0.06649631
25	0xbd176927	-0.036965515
26	0x3f222bf2	0.63348305
27	0xbd60c133	-0.05487175
28	0x3e3aa81f	0.18228196
29	0x3eeffb23	0.4687129
30	0xbe4ff0f0	-0.20306754
31	0x3dc0b3ac	0.0940927

encoder.5.weight f4 [2, 32]
0	0xbc640fcb	-0.013919781
1	0x3c6adbad	0.014334601
2	0xbed40774	-0.41411936
3	0x3dcbadae	0.09945236
4	0x3c09404a	0.008377144
5	0x3d946f0e	0.072477445
6	0x3e02f7ae	0.12789795
7	0x3ed6e8fc	0.41974628
8	0xbdb90847	-0.09034782
9	0xbe401561	-0.18758155
10	0xbd9eac72	-0.07747735
11	0x3e44d4df	0.19221829
12	0xbde7388a	-0.11290081
13	0xbfac2414	-1.344851
14	0xbc51761e	-0.012784509
15	0xbe454055	-0.19262822
16	0xbe4653cc	-0.19367903
17	0xbe2be60d	-0.16786976
18	0x3c759f5c	0.0149916075
19	0xbd4b3cd0	-0.049618542
20	0xbdb3ae41	-0.08773471
21	0x3f378c90	0.71698856
22	0xbe1dd0a6	-0.15411624
23	0x3cc9c122	0.024628226
24	0x3d2de93e	0.042458765
25	0x3f021d6a	0.5082613
26	0x3f571144	0.8401072
27	0x3d9b675d	0.07588074
28	0xbe0ab1d4	-0.13544399
29	0x3de5077c	0.11183068
30	0xbdd97612	-0.10618223
31	0xbd3f06cb	-0.046637338
32	0xbe123628	-0.14278471
33	0xbe044f3c	-0.1292085
34	0x3f4f7755	0.8104146
35	0x3d365ed0	0.044524014
36	0x3da00579	0.07813544
37	0x3dc1a856	0.09455936
38	0xbf7d459d	-0.98934346
39	0x3f3ab3c1	0.7293053
40	0x3df821df	0.121158354
41	0xbde6d7f6	-0.1127166
42	0xbdb9daaf	-0.09074914
43	0x3ea40197	0.32032463
44	0xbdfe9c65	-0.12432174
45	0x3f1d21e3	0.6137983
46	0xbd9d2f78	-0.076750696
47	0x3fc0026d	1.500074
48	0xbbcb8960	-0.0062114447
49	0xbe323221	-0.17401935
50	0xbcfe5557	-0.031046553
51	0x3dc9c399	0.098517604
52	0x3f3820d9	0.7192512
53	0x3f4ae373	0.7925331
54	0xbc8746b8	-0.016513214
55	0x3da46551	0.08027137
56	0x3cfbce4a	0.030738015
57	0xbecf48d7	-0.4048526
58	0xbf552131	-0.8325377
59	0xbcb358c6	-0.021892916
60	0xbe155824	-0.14584404
61	0xbe5e9a62	-0.2173858
62	0xbe2c2c55	-0.16813786
63	0xbd8cf801	-0.068832405

encoder.5.bias f4 [2]
0	0xbdd5639a	-0.10419388
1	0xbd900f57	-0.07034176

decoder.0.weight f4 [32, 2]
0	0xbeb6eb92	-0.357266
1	0xbede30e0	-0.43396664
2	0x3f4284b3	0.7598373
3	0xbf196429	-0.5991846
4	0x3e89991e	0.26874632
5	0x3ed0bfc8	0.40771317
6	0xbf289c3b	-0.6586339
7	0x3f08b3a7	0.5339913
8	0x3ca5f8ec	0.020260297
9	0x3f5612bc	0.83622336
10	0xbda76131	-0.08172835
11	0xbe46ad92	-0.1940215
12	0xbd1deebf	-0.038557764
13	0xbe6ad911	-0.22934367
14	0xbf010596	-0.5039915
15	0xbef06307	-0.46950552
16	0x3e4aa192	0.19788197
17	0xbf21a03f	-0.6313514
18	0xbe932b80	-0.28744125
19	0xbed27a85	-0.411091
20	0x3eba342a	0.36367923
21	0x3f4a31e0	0.78982353
22	0x3d31aa76	0.043375455
23	0xbc22a156	-0.009926161
24	0xbf3dd8e1	-0.74159056
25	0x3e8b61d9	0.2722309
26	0xbeb95e77	-0.36204883
27	0xbe9ae18c	-0.30250204
28	0xbe3ff338	-0.18745124
29	0x3f2ab3fe	0.66680896
30	0x3e0cd0cc	0.13751525
31	0xbf3dd9ee	-0.7416066
32	0x3fd27476	1.6441791
33	0xbde49c6f	-0.1116265
34	0x3ec28763	0.37993917
35	0x3eb51a3e	0.35371584
36	0x3f43ca82	0.7648088
37	0x3e158271	0.1460054
38	0x3f77e6d5	0.96836597
39	0xbefc10ff	-0.49231717
40	0x3ea6d0e1	0.32581237
41	0xbea17662	-0.3153563
42	0xbeacb2a3	-0.3373004
43	0x3ecee178	0.40406394
44	0xbebbf948	-0.36713624
45	0xbecfba66	-0.40571898
46	0x3d0b8641	0.03406358
47	0x3f2f6c76	0.68524873
48	0xbf0e26fb	-0.5552823
49	0x3ec74424	0.38919175
50	0xbf09e34a	-0.5386244
51	0x3ea905a1	0.33012107
52	0x3f06459a	0.52449954
53	0x3f0f4c14	0.5597546
54	0x3f0983ee	0.53716934
55	0xbeeba578	-0.4602468
56	0x3c726abd	0.014795956
57	0xbe9b0266	-0.30275267
58	0xbf2367d7	-0.6383032
59	0xbeb5f57a	-0.35538846
60	0x3f2873df	0.65801805
61	0x3e62f404	0.22163397
62	0x3f230bbb	0.63689774
63	0x3e974817	0.29547188

decoder.0.bias f4 [32]
0	0xbe800a90	-0.2500806
1	0x3f4e1232	0.80496514
2	0xbf91349a	-1.1344178
3	0x3ee48a1b	0.44636616
4	0xbf9bc574	-1.2169633
5	0x3f2fbe79	0.68650013
6	0x3f8fff66	1.1249816
7	0xbfaf704c	-1.3706145
8	0x3f162140	0.58644485
9	0xbf064c00	-0.52459717
10	0x3ebc2482	0.36746603
11	0x3fa9769b	1.323932
12	0xbe741712	-0.23836926
13	0xbcd12027	-0.025528027
14	0x3ed9b7ff	0.4252319
15	0xbf51cabf	-0.8194999
16	0x3eb53569	0.3539231
17	0x3fa0e88a	1.2570965
18	0xbfa0dbf5	-1.2567126
19	0x3bf8a3e7	0.007587898
20	0x3f92c4e0	1.1466331
21	0xbf9e4292	-1.2364066
22	0x3f013d8f	0.50484556
23	0x3f2f5fce	0.6850556
24	0x3f1e7271	0.61893374
25	0x3eb5999d	0.3546876
26	0xbf1a6e5b	-0.6032464
27	0xbf363543	-0.7117502
28	0x3f8a70e8	1.0815706
29	0xbf9350f0	-1.1509075
30	0xbf445779	-0.7669597
31	0x3faafb34	1.3357911

decoder.2.weight f4 [128, 32]
0	0x3d9c4988	0.076312125
1	0xbec33b5b	-0.38131222
2	0x3d7c3df7	0.06158253
3	0x3c4c5124	0.012470517
4	0x3d72f75b	0.059317928
5	0xbd3683fb	-0.04455946
6	0xbd973623	-0.07383373
7	0xbe1ba32d	-0.15198965
8	0x3e12b1c0	0.14325619
9	0xbb9ecbd6	-0.0048460765
10	0x3e0d4416	0.13795504
11	0xbd538e64	-0.051649466
12	0xbccff89d	-0.025387103
13	0x3d97c578	0.07410711
14	0x3c0574b0	0.008145496
15	0x3e877bef	0.2646174
16	0xbe4bbeb2	-0.19896963
17	0xbf0925a0	-0.53573036
18	0x3e2735bf	0.16329096
19	0x3e97e802	0.29669195
20	0xbe268301	-0.16260912
21	0x3caad185	0.02085186
22	0x3dbfbba0	0.093619585
23	0x3dba241b	0.09088918
24	0x3b2534d9	0.0025208502
25	0x3df973a1	0.121802576
26	0xbec3130d	-0.38100472
27	0x3e90a6f9	0.2825239
28	0xbd119864	-0.03554572
29	0x3caf77e1	0.021419467
30	0x3f46b95f	0.77626604
31	0xbf720964	-0.9454558
32	0x3d1fe311	0.039034907
33	0xbda46673	-0.08027353
34	0xbdbab6af	-0.091168754
35	0x3dd96687	0.10615259
36	0xbebfadb3	-0.3743721
37	0xbda8d317	-0.08243387
38	0xbdda82bb	-0.10669466
39	0x3c3cece1	0.011531086
40	0x3ddcd682	0.107831016
41	0xbe6c62ce	-0.23084566
42	0xbf8fb6c1	-1.1227647
43	0x3dc5f84e	0.09666501
44	0x3d3b9305	0.045794506
45	0xbc240885	-0.010011797
46	0x3e8c0a21	0.27351478
47	0x3e6ecaec	0.23319596
48	0xbdf8692a	-0.121294335
49	0xbe305ffd	-0.17224117
50	0xbed4e6b7	-0.4158227
51	0xbd46822b	-0.04846398
52	0xbe58802f	-0.21142648
53	0xbe72b531	-0.23701932
54	0x3cd8f053	0.026481783
55	0x3ecb6ed1	0.39732984
56	0xbd96706e	-0.07345663
57	0x3d6bf1f7	0.057603803
58	0xbe1484ad	-0.14503737
59	0x3e9dfb6b	0.3085588
60	0xbe214294	-0.15748054
61	0x3e155ce2	0.14586213
62	0xbe5b2679	-0.21401395
63	0x3f19df0a	0.60105956
64	0x3ddb86b1	0.1071905
65	0xbe29d9fe	-0.16587064
66	0xbd6c71f6	-0.05772587
67	0x3c8fbb69	0.017545419
68	0xbe9ed66b	-0.31022963
69	0xbe1f42b8	-0.15552795
70	0xbe11a86d	-0.14224406
71	0x3d6e365c	0.05815731
72	0xbe522698	-0.20522535
73	0x3d064422	0.03277982
74	0xbe5f0add	-0.21781488
75	0xbe6582f0	-0.2241323
76	0x3dde134f	0.108435266
77	0xbd8d8007	-0.06909185
78	0x3e2fcc6c	0.17167825
79	0x3e7cc040	0.24682713
80	0x3dbc237d	0.09186456
81	0xbf730969	-0.94936234
82	0x3f2c651a	0.6734177
83	0x3db09f61	0.08624149
84	0xbc8118b1	-0.015758844
85	0x3e49f2c4	0.19721514
86	0xbd16c0e1	-0.036805037
87	0x3d797684	0.06090404
88	0x3da66426	0.081245705
89	0x3dfb22b8	0.122624815
90	0xbe46cdba	-0.19414416
91	0x3e84ff80	0.2597618
92	0xbe286587	-0.1644498
93	0xbdafde95	-0.08587376
94	0x3f595f7a	0.8491131
95	0xbf763eb4	-0.9618943
96	0xbcce783b	-0.025203815
97	0xbdf6467b	-0.12025162
98	0xbd3caf86	-0.04606583
99	0xbe169a15	-0.14707215
100	0x3dfbb3d3	0.12290158
101	0xbd25ef1b	-0.040511232
102	0xbdc03c23	-0.0938647
103	0x3d941535	0.072306074
104	0xbc6af909	-0.014341601
105	0x3dc05dbf	0.09392881
106	0x3c9bce41	0.019019248
107	0xbd9de8cd	-0.07710419
108	0x3e0eea11	0.13956477
109	0x3da798c7	0.08183437
110	0xbdcd3499	-0.10019798
111	0x3e89288e	0.26788753
112	0xbe104d8d	-0.14092083
113	0xbd571c68	-0.052517325
114	0x3ea52d04	0.32260907
115	0x3e15652c	0.14589375
116	0x3d827def	0.06371676
117	0x3e6cf6a7	0.23140965
118	0xbdb452ad	-0.08804832
119	0xbe405e2d	-0.18785925
120	0x3e07d997	0.13266598
121	0x3d9bc46f	0.07605826
122	0xbe2fb139	-0.17157449
123	0x3d149c38	0.036281794
124	0xbe03388a	-0.12814537
125	0x3e0debaf	0.13859437
126	0x3f40423e	0.7510108
127	0xbd01b9bf	-0.031671282
128	0xbf960404	-1.1719975
129	0xbd05ab02	-0.03263379
130	0xbdebbc56	-0.115105316
131	0xbd7f40e6	-0.06231775
132	0xbe835eff	-0.25658414
133	0x3e2e66ea	0.17031446
134	0x3e9c92ce	0.30580753
135	0xbd64f49f	-0.05589735
136	0x3dfcfaef	0.12352549
137	0xbf939307	-1.1529244
138	0xbd34744f	-0.044056233
139	0x3eba7e5b	0.36424527
140	0xbfe2b6df	-1.7712058
141	0xbeaf27f8	-0.3421018
142	0xbdd4c784	-0.10389617
143	0xbed77079	-0.42077997
144	0x3e7c011a	0.24609795
145	0x3e5e432f	0.21705316
146	0x3d8123e1	0.063056715
147	0xbe925f35	-0.28588262
148	0x3da4c3d9	0.080451675
149	0x3eaaaf0c	0.33336675
150	0xbe80055f	-0.25004098
151	0xbe46bc2d	-0.19407721
152	0xbdf97117	-0.12179773
153	0xbea95ccc	-0.3307861
154	0xbea6adcc	-0.32554471
155	0xbe9873cf	-0.29775855
156	0x3d71ad7e	0.059003346
157	0xbf020a42	-0.507969
158	0x3eb08175	0.34473768
159	0x3ec02740	0.37529945
160	0xbf665527	-0.8997368
161	0xbf4cb831	-0.79968554
162	0xbf415268	-0.75516367
163	0xbc94213e	-0.018082257
164	0x3e0dfe0f	0.13866447
165	0xbfbee0f8	-1.4912405
166	0xbf6dd3db	-0.9290139
167	0xbe1b13be	-0.1514425
168	0xbd3e82be	-0.046511404
169	0xbe250d6c	-0.16118401
170	0x3e9ab543	0.30216417
171	0x3e80a41c	0.25125206
172	0xbdaabf10	-0.083372235
173	0xbf938aaf	-1.1526698
174	0x3e7851dc	0.24249977
175	0x3ccbd314	0.024880923
176	0xbed97f3d	-0.42479888
177	0x3ee5e0b2	0.4489799
178	0x3e24cf8c	0.16094798
179	0xbf232095	-0.6372159
180	0xbdf571d5	-0.11984602
181	0xbe268c75	-0.16264518
182	0xbfb48300	-1.4102478
183	0x3e53d707	0.20687495
184	0x3e07e850	0.13272214
185	0xbd3db893	-0.0463186
186	0xbe44d3ce	-0.19221422
187	0xbd001bf8	-0.031276673
188	0x3f3dd850	0.7415819
189	0xbf04cb6e	-0.5187291
190	0xbe35a15a	-0.17737332
191	0xbd1663e2	-0.03671635
192	0xbec6e33e	-0.38845247
193	0x3e25cd95	0.16191705
194	0x3e8d2966	0.27570647
195	0xc07ae063	-3.9199455
196	0xbe6197c3	-0.22030549
197	0x3e9be042	0.30444533
198	0x3e8dd696	0.2770278
199	0xbe8e6620	-0.2781229
200	0xbd93e0dc	-0.07220623
201	0xbe3e1b07	-0.18564998
202	0xbea59d0b	-0.32346377
203	0x3efed188	0.49769235
204	0xbe210c02	-0.15727237
205	0xbf0692be	-0.5256766
206	0xbfb50dba	-1.4144814
207	0xbf09f078	-0.5388255
208	0x3e81cc0e	0.25350994
209	0x3eb7e98f	0.3592038
210	0x3dff63c0	0.12470198
211	0x3d44fd0f	0.048092898
212	0x3e091940	0.13388538
213	0xbdfb2913	-0.12263694
214	0x3bd84d19	0.0066009876
215	0xbf3ef53c	-0.7459295
216	0xc01a20ca	-2.4082513
217	0xc008e25c	-2.1388159
218	0xbeb80421	-0.3594065
219	0xbf17d5cc	-0.59310603
220	0x3b90cb24	0.0044187475
221	0x3ea462f1	0.32106736
222	0x3ecf64f3	0.40506706
223	0x3eccb534	0.39981997
224	0xbc68c8bc	-0.014208015
225	0xbdbfd8c2	-0.09367515
226	0x3d883029	0.06649811
227	0xbda77059	-0.081757255
228	0xbcfdcd4f	-0.030981688
229	0xbde1dffc	-0.1102905
230	0x3d84ad98	0.06478423
231	0xbe1dc9f1	-0.15409066
232	0x3d0ba365	0.034091372
233	0x3cc2c12d	0.023773754
234	0x3d7366b1	0.059424106
235	0xbe21b91f	-0.15793274
236	0xbdac2601	-0.08405686
237	0xbdb16f5d	-0.08663819
238	0x3d952b67	0.07283669
239	0x3cdc2b6d	0.026876176
240	0xbccb9ebd	-0.024855966
241	0x3c6f6841	0.014612258
242	0xbd739f74	-0.05947824
243	0xbc1d3f88	-0.009597667
244	0xbc907331	-0.017633053
245	0x3bf8826f	0.0075839083
246	0xbe122cd1	-0.14274909
247	0x3b64b7a9	0.003489951
248	0xbc6d6115	-0.014488478
249	0xbceea4e1	-0.029131355
250	0xbc68de8d	-0.0142132165
251	0x3d2484bb	0.040165644
252	0xbd94518a	-0.07242115
253	0xbd58278e	-0.052772097
254	0x3d51f5b5	0.051259715
255	0xbdfe61f7	-0.12421029

decoder.2.bias f4 [128]
0	0xbe3ad91b	-0.18246882
1	0xbce4fd89	-0.027952926
2	0xbeaf539a	-0.3424347
3	0xbeae9550	-0.3409829
4	0x3e796d8e	0.24358198
5	0x3e8bc99d	0.27302256
6	0x3f03677b	0.51329774
7	0xbdb3195b	-0.087450705
8	0x3e42b798	0.19015348
9	0x3f1eab49	0.6198011
10	0x3d4f9088	0.050674945
11	0x3eb29280	0.34877396
12	0x3e56ced5	0.20977338
13	0x3ea6a9d3	0.3255144
14	0x3effe9ab	0.49982962
15	0xbe0f8491	-0.14015414
16	0x3eb206ef	0.34770915
17	0xbde316fa	-0.11088367
18	0x3f1ae3e6	0.60503995
19	0x3eda7a0a	0.42671233
20	0xbf0e9907	-0.5570225
21	0x3edd7fb2	0.43261486
22	0x3ede39a4	0.4340335
23	0xbe102788	-0.1407758
24	0x3e103a3e	0.14084718
25	0x3e26b3c4	0.16279513
26	0x3e1bf27d	0.1522922
27	0x3ec5e98c	0.38654745
28	0x3e9eeb6d	0.3103899
29	0x3e80b383	0.25136957
30	0x3dcd18ea	0.100145176
31	0xbe37bf80	-0.17944145
32	0x3edba4d5	0.42899194
33	0x3decd042	0.115631595
34	0xbf36893c	-0.71303153
35	0x3eabfbd5	0.3359057
36	0xbd2782f5	-0.040896375
37	0xbdfc0de2	-0.123073354
38	0xbcea228a	-0.028580923
39	0xbe89b0eb	-0.2689279
40	0x3e3933ef	0.18086217
41	0xbe841a04	-0.25801098
42	0x3e79b33e	0.24384782
43	0x3dd47036	0.10372965
44	0x3e82d589	0.2555354
45	0x3e0c9f3a	0.13732615
46	0xbf28e838	-0.6597934
47	0x3ea0cd46	0.3140661
48	0xbec5fb60	-0.38668346
49	0x3ea9de32	0.33177334
50	0x3df1031e	0.11768173
51	0x3e2e8194	0.17041618
52	0xbec71422	-0.38882548
53	0x3eb2355c	0.34806335
54	0xbda48df3	-0.08034887
55	0x3f09b8c5	0.5379756
56	0xbdacffd4	-0.08447233
57	0x3ea45dbd	0.32102767
58	0x3d8f3a1b	0.069935046
59	0xbdc506ad	-0.09620414
60	0xbdd4572f	-0.103681915
61	0xbddf014a	-0.10888918
62	0x3dfaa28e	0.12238036
63	0x3ba92299	0.005161595
64	0xbe9cfcb2	-0.3066154
65	0x3de55dc3	0.11199524
66	0x3d85748e	0.06516372
67	0x3d9f6ef9	0.07784838
68	0xbddc5118	-0.10757655
69	0xbee35a4d	-0.44404832
70	0x3dc6c359	0.09705228
71	0x3ecff52a	0.40616733
72	0x3e9975b6	0.2997262
73	0x3e5a91d5	0.21344693
74	0x3ec199e9	0.37812737
75	0xbc3a1ad3	-0.011358934
76	0x3ec9428b	0.3930858
77	0x3e70e0c9	0.23523249
78	0xbdd970ed	-0.10617242
79	0x3e1fbe33	0.15599899
80	0x3e4dc19f	0.20093392
81	0xbe90d1e3	-0.2828513
82	0xbf3de7ac	-0.7418163
83	0x3e2316a1	0.15926601
84	0x3ed0a937	0.407541
85	0xbd5c8a91	-0.053843085
86	0x3dad57aa	0.08463986
87	0x3ed873dc	0.42275894
88	0xbe46ba0f	-0.19406913
89	0x3e702058	0.23449838
90	0x3e7b9954	0.24570209
91	0x3e95a8b1	0.29230264
92	0x3e31e9ae	0.17374298
93	0xbcde8000	-0.027160645
94	0x3ede5310	0.43422747
95	0x3da5fdc7	0.08105045
96	0xbda9909d	-0.08279536
97	0xbe0686f2	-0.13137415
98	0xbd86f305	-0.06589321
99	0x3e8b1e0b	0.27171358
100	0x3e77d975	0.24204047
101	0x3e389f51	0.18029524
102	0x3c20302b	0.009777109
103	0x3f005deb	0.5014331
104	0x3d854dcd	0.0650898
105	0x3e44809e	0.19189689
106	0x3e0a07e9	0.1347958
107	0x3dc89811	0.09794629
108	0x3e619448	0.22029221
109	0x3ebe2024	0.37133896
110	0x3db43c46	0.08800559
111	0xbd15d63b	-0.03658126
112	0x3e705ec8	0.23473656
113	0x3e20f7fb	0.15719597
114	0x3eceb440	0.40371895
115	0xbbf86ba7	-0.0075811925
116	0x3ed450b4	0.41467822
117	0x3e23bb47	0.1598941
118	0x3e9b69d0	0.30354166
119	0x3f06d1ad	0.5266369
120	0x3f089a2f	0.53360265
121	0xbd4ff165	-0.05076732
122	0x3e84fd30	0.25974417
123	0x3f18f968	0.59755564
124	0x3ef84c1e	0.48495573
125	0x3ec9fb9c	0.39449775
126	0x3ef85c8a	0.48508102
127	0x3d7e5944	0.06209685

decoder.4.weight f4 [784, 128]
0	0xbaa57b8e	-0.0012625323
1	0x3c1a969c	0.009435322
2	0xbd921243	-0.071323894
3	0xbd62cfdc	-0.05537401
4	0x3c3b8810	0.011446014
5	0xbd8b446d	-0.068001606
6	0xbda8b903	-0.08238413
7	0xbbac6f05	-0.005262258
8	0xbe002306	-0.1251336
9	0xbf864bfa	-1.0491936
10	0xbd952669	-0.07282717
11	0xbf016a53	-0.5055286
12	0xbdb4878a	-0.088149145
13	0xbe0666b3	-0.13125114
14	0xbd6bab58	-0.057536453
15	0xbcb8d5d8	-0.022562906
16	0xbe25ee6a	-0.16204229
17	0xbd217c88	-0.039425403
18	0xbd28f12c	-0.041245624
19	0xbe1d55a8	-0.15364707
20	0xbc0404cc	-0.008057784
21	0xbcc1f49a	-0.023676205
22	0xbda98043	-0.08276417
23	0x3a48c84d	0.00076592417
24	0xbd64d212	-0.0558644
25	0x3c89c872	0.016819213
26	0x3ccc62b0	0.024949402
27	0xbc2389ca	-0.009981582
28	0xbd9b92e8	-0.075963795
29	0xbde22b82	-0.11043455
30	0xbdd65260	-0.104649305
31	0xbd28c1bd	-0.04120039
32	0xbe101dfe	-0.14073941
33	0xbc568413	-0.013093012
34	0xbd2c3cbc	-0.04205011
35	0xbdadca78	-0.084858835
36	0x3d7169dd	0.05893885
37	0x3d61aa50	0.055094063
38	0xbd227d19	-0.039670084
39	0xbb6ab5b5	-0.0035813872
40	0xbdd64b49	-0.10463578
41	0xbe9a4a3b	-0.30134758
42	0xbd94064c	-0.072277635
43	0xbc2640db	-0.010147299
44	0xbe882022	-0.26587015
45	0xbcb32dbf	-0.0218724
46	0xbd7c1d77	-0.061551537
47	0xbcbe754f	-0.023249296
48	0xbdca47aa	-0.0987695
49	0xbdc20842	-0.09474231
50	0xbc983972	-0.01858208
51	0xbe1eacad	-0.15495558
52	0xbd9eb66b	-0.07749637
53	0xbd3f36fd	-0.0466833
54	0x3d35d08d	0.044388343
55	0xbdce85e7	-0.100841336
56	0x3ce8a3ba	0.028398383
57	0xbd3bc29d	-0.045839895
58	0x3bb516ca	0.0055263983
59	0x3d783fba	0.06060765
60	0xbd11cde0	-0.03559673
61	0x3967dfd4	0.00022113259
62	0xbdad1fc4	-0.084533244
63	0x3ca8bae6	0.020596933
64	0xbda747ff	-0.08168029
65	0xbd2456f8	-0.040122002
66	0xbde6a01d	-0.11261008
67	0xbf7973bd	-0.9744223
68	0xbce264ce	-0.027635958
69	0x3d37e7b0	0.04489869
70	0xbd8c5ac4	-0.0685325
71	0xbe979644	-0.2960683
72	0xbedb944c	-0.4288658
73	0xbd872cf6	-0.066003725
74	0xbdacb648	-0.08433205
75	0xbd8bb1d8	-0.068210304
76	0xbed3e796	-0.41387624
77	0xbef66b1c	-0.48128593
78	0x3ca2aff8	0.019859299
79	0x3b4057c1	0.002934918
80	0xbd0fbfec	-0.03509514
81	0xbd9724e7	-0.073800854
82	0xbc811e5a	-0.015761543
83	0xbd89da4b	-0.06731089
84	0xbe0ca27f	-0.13733862
85	0xbceb66d0	-0.028735548
86	0xbdf79fd0	-0.12091029
87	0xbe21cb78	-0.15800273
88	0xbd7a89a9	-0.06116644
89	0xbdae98d4	-0.085252434
90	0xbddc8e82	-0.10769369
91	0xbe0842f9	-0.13306798
92	0xbda83b97	-0.08214491
93	0xbd904921	-0.07045198
94	0xbe01d8a5	-0.126803
95	0xbbeca966	-0.0072223423
96	0x3b1330b8	0.0022459459
97	0xbd4463da	-0.04794679
98	0xbe024ab0	-0.12723804
99	0xbd571cd4	-0.052517727
100	0xbd042192	-0.032258578
101	0x3ba8c698	0.0051506273
102	0xbd8a270b	-0.06745728
103	0xbdfbdd68	-0.12298089
104	0xbc0b0088	-0.008484013
105	0xbda5d606	-0.08097462
106	0xbcdd9a05	-0.027050981
107	0xbd662086	-0.05618336
108	0xbdeb17a6	-0.1147912
109	0xbe0e2060	-0.13879538
110	0xbe036e17	-0.12834965
111	0xbd1fd7e4	-0.03902425
112	0xbdad62e7	-0.0846613
113	0xbe069a69	-0.1314484
114	0xbe28e6bc	-0.16494268
115	0x3d232a1c	0.03983508
116	0xbd191d17	-0.037381258
117	0xbdeccd3c	-0.11562583
118	0xbdbf3919	-0.093370624
119	0xbd740e4c	-0.059583947
120	0xbe147986	-0.14499483
121	0xbc4e4a7e	-0.0125910025
122	0xbe1c1a5c	-0.1524443
123	0xbe3b6aa7	-0.18302403
124	0xbdb3c6fb	-0.08778187
125	0xbe2f0526	-0.17091808
126	0xbe0d4d3c	-0.13798994
127	0xbbd720b0	-0.006565176
128	0xbda4c678	-0.080456674
129	0xbc322551	-0.010873155
130	0xbd272c72	-0.04081387
131	0xbc393891	-0.01130499
132	0xbdad7852	-0.08470215
133	0xbd371634	-0.04469891
134	0x3d4febdf	0.050762054
135	0x3c48bac4	0.01225156
136	0xbdbaaf26	-0.09115438
137	0xbf8ab6ea	-1.0837071
138	0xbda7686b	-0.08174213
139	0xbf1713b0	-0.59014416
140	0xbe01675e	-0.12637088
141	0xbdbf6e74	-0.09347239
142	0x3c9784de	0.018495973
143	0x3cb2a3f4	0.021806695
144	0xbe064ad6	-0.13114485
145	0x3aeb08cd	0.00179317
146	0xbdddf8b4	-0.10838452
147	0xbe38a109	-0.1803018
148	0xbce9bca5	-0.028532336
149	0xbde417a9	-0.11137325
150	0xbcf37fa6	-0.029723953
151	0x3d2df200	0.042467117
152	0xbce0a30e	-0.0274215
153	0xbd7c595d	-0.06160866
154	0xb999d148	-0.0002933836
155	0xbc274167	-0.010208464
156	0xb89ec0e4	-7.569956e-05
157	0xbe0efeff	-0.13964461
158	0xbc8cce44	-0.017188199
159	0xbce255ab	-0.02762874
160	0xbe5db205	-0.2164994
161	0xbd87d5ac	-0.066325516
162	0xbd78e71b	-0.060767274
163	0xbd5861a8	-0.052827507
164	0xbcb089ca	-0.021550078
165	0x3c3179c5	0.010832255
166	0xbd1338dc	-0.035942897
167	0xbd92f8c1	-0.07176352
168	0xbe1a9402	-0.15095523
169	0xbecb0cd2	-0.3965822
170	0xbd122d45	-0.035687704
171	0x3c838b17	0.016057534
172	0xbe4af090	-0.1981833
173	0xbd767a79	-0.060175393
174	0xbdcc496a	-0.0997494
175	0xbdab5ea1	-0.083676584
176	0xba87b7ab	-0.001035442
177	0xbd1b2e1a	-0.037885763
178	0xbc873913	-0.016506707
179	0xbe126505	-0.14296348
180	0xbd4da192	-0.050202914
181	0xbd42a24e	-0.047518067
182	0x3d6af2aa	0.05736033
183	0xbe07ff6f	-0.13281034
184	0x3bcaebc8	0.006192658
185	0xbda2e74c	-0.07954273
186	0x3c4201d4	0.011841256
187	0x3c62597f	0.013815283
188	0xba5f973a	-0.00085293094
189	0xbc3420b9	-0.01099413
190	0xbd7c2d21	-0.061566476
191	0xbdbbe918	-0.091753185
192	0xbddf9ca8	-0.10918552
193	0xbdbc9d46	-0.09209685
194	0xbd3ae3f7	-0.04562756
195	0xbf887371	-1.066023
196	0x3c80dbd9	0.015729832
197	0xbd357fbe	-0.044311278
198	0xbd6cbeff	-0.057799336
199	0xbeaddf69	-0.3395951
200	0xbed8f7a8	-0.42376447
201	0xbd3e3d0b	-0.046444934
202	0xbb835982	-0.004008473
203	0xbd4355e5	-0.047689337
204	0xbeca329f	-0.39491746
205	0xbf04ab9a	-0.51824343
206	0xbdb8c984	-0.09022811
207	0xbd4ff172	-0.05076737
208	0xbc42ade8	-0.011882283
209	0xbe1ffb02	-0.15623096
210	0xbdb7d132	-0.08975448
211	0xbd258d36	-0.040417872
212	0xbe0572a4	-0.13032013
213	0xbd93c9ed	-0.07216249
214	0xbd9f5f32	-0.07781829
215	0xbe333224	-0.17499596
216	0x3b696339	0.003561212
217	0xbda2ca73	-0.079487704
218	0xbd908ecf	-0.070584886
219	0xbd09350b	-0.03349785
220	0xbd0ecc58	-0.034862846
221	0xbd3d7444	-0.046253458
222	0xbe1083b8	-0.14112747
223	0xbd34d81e	-0.044151418
224	0xbd239464	-0.03993644
225	0xbd422556	-0.047398888
226	0xbdfe89a1	-0.124285944
227	0xbbacab9f	-0.0052694823
228	0xbddcc85c	-0.10780403
229	0xbd1fe2fa	-0.03903482
230	0xbd4204e1	-0.047367934
231	0xbdf0fbc7	-0.11766773
232	0x3c74fa15	0.014952202
233	0xbdf976bb	-0.12180849
234	0xbde9e048	-0.114197314
235	0x3c937dbe	0.018004294
236	0xbe2d122b	-0.16901462
237	0xbd9ecff5	-0.077545084
238	0xbd290929	-0.0412685
239	0x3d473b6d	0.048640657
240	0x3c8c7ca7	0.017149283
241	0xbe0be75a	-0.13662472
242	0xbe0abd38	-0.13548744
243	0xbc182692	-0.00928654
244	0xbe11e213	-0.14246397
245	0xbd9c963a	-0.07645841
246	0xbe0324fc	-0.12807077
247	0xbdeb8d6b	-0.11501583
248	0xbe034dad	-0.128226
249	0xbdcd66ab	-0.10029348
250	0xbdbe8715	-0.093031086
251	0xbe29982f	-0.1656196
252	0xbd75029a	-0.059816934
253	0xbe0896eb	-0.1333882
254	0xbd873696	-0.06602208
255	0xbde48bd4	-0.111594826

decoder.4.bias f4 [784]
0	0xbda3f817	-0.08006304
1	0xbd36e3e5	-0.04465093
2	0xbddccd1f	-0.10781311
3	0xbe120e5c	-0.1426329
4	0xbcc3b64d	-0.023890639
5	0xbd0cd9a7	-0.034387257
6	0xbdc26524	-0.09491947
7	0xbdb1150f	-0.08646595
8	0xbe0a2e27	-0.13494168
9	0xbda32c2f	-0.07967412
10	0xbd64ed95	-0.05589064
11	0xbc81fe43	-0.015868312
12	0xbd63b7f4	-0.055595353
13	0xbd499f93	-0.049224447
14	0xbc9a9d6f	-0.018873898
15	0xbdfdef60	-0.12399173
16	0xbda7345f	-0.08164286
17	0xbcdc6c9b	-0.026907256
18	0xbde3fd20	-0.11132264
19	0xbd7daf5c	-0.061934814
20	0xbdc12905	-0.09431652
21	0xbd9cd948	-0.076586306
22	0xbdbec5ad	-0.093150474
23	0xbdeca972	-0.11555757
24	0xbcf4f5eb	-0.02990242
25	0xbe127292	-0.14301518
26	0xbdaa81bd	-0.08325527
27	0xbd5087cd	-0.05091076
28	0xbda9ab41	-0.08284617
29	0xbe002b88	-0.12516606
30	0xbe09cc99	-0.13456954
31	0xbda34957	-0.07972973
32	0xbdd94149	-0.10608155
33	0xbd8a1481	-0.06742192
34	0xbd1bf98b	-0.03807978
35	0xbe0eb6b6	-0.13936886
36	0xbdb21135	-0.08694688
37	0xbcf920ee	-0.03041121
38	0xbd91ea05	-0.07124714
39	0x3c5c881b	0.013460184
40	0x3c0e5e43	0.008689466
41	0xbdc00707	-0.0937634
42	0xbcee6039	-0.029098617
43	0xbcce4209	-0.025177972
44	0xbda1a8fd	-0.0789356
45	0xbd152a02	-0.036417015
46	0xbd7cd8df	-0.061730262
47	0xbd9c754c	-0.0763956
48	0xbd3c36a9	-0.045950565
49	0xbe01aae8	-0.12662852
50	0xbe0d0151	-0.13770033
51	0xbe19e1cc	-0.15027541
52	0xbdd56b98	-0.104209125
53	0xbd30a5ae	-0.043126754
54	0xbd8fff0c	-0.07031068
55	0xbd5845d3	-0.052800965
56	0xbcfb5101	-0.030678274
57	0xbda0c5fe	-0.07850264
58	0xbdab49a6	-0.08363657
59	0xbd2936b7	-0.041311946
60	0xbd61016a	-0.05493299
61	0xbe07962c	-0.1324088
62	0xbdf54554	-0.11976114
63	0xbd338551	-0.043828312
64	0xbd4393a2	-0.047748215
65	0xbcf8983e	-0.030346032
66	0xbd514d19	-0.051098917
67	0xbc29ff94	-0.010375876
68	0xbdb6fcaa	-0.089349106
69	0xbdaee781	-0.085402496
70	0xbd1cf502	-0.038319595
71	0xbd8b3b48	-0.067984164
72	0xbd239d0a	-0.039944686
73	0x3c1d659e	0.009606747
74	0xbd34fb13	-0.044184756
75	0x3d5065dd	0.050878394
76	0x3d16af68	0.036788374
77	0x3bdf16e2	0.0068081478
78	0xbc857e91	-0.016295703
79	0xbd7eb105	-0.062180538
80	0xbe07edc5	-0.13274296
81	0xbda0f202	-0.07858659
82	0xbd728395	-0.059207518
83	0xbde19c45	-0.11016134
84	0xbd8e9e59	-0.06963796
85	0xbdb7fd11	-0.089838155
86	0xbcb2e23b	-0.02183639
87	0xbd592479	-0.0530133
88	0xbd557010	-0.052108824
89	0xbd918a10	-0.071064115
90	0xbdf82c17	-0.121177845
91	0xbd0579ce	-0.032586865
92	0xbd279c17	-0.040920343
93	0xbd96a76c	-0.07356152
94	0xbdebd8bd	-0.11515949
95	0xbdb398ef	-0.08769404
96	0xbc0643ec	-0.008194905
97	0xbdccd46f	-0.10001456
98	0xbd774ecf	-0.060377892
99	0xbdc1a46c	-0.09455189
100	0xbd8f7a5c	-0.0700576
101	0x3cdc31a3	0.026879137
102	0x3d0ec5ba	0.034856535
103	0x3cb56bb3	0.022146082
104	0xbcae8ffc	-0.021308891
105	0x3c5ee084	0.013603333
106	0xbdb2fac4	-0.08739236
107	0x3c88cf9d	0.01670056
108	0xbce3de3f	-0.027815936
109	0xbdf8fe0c	-0.121578306
110	0xbddf1b21	-0.10893846
111	0xbce2d256	-0.027688187
112	0xbd9d1e98	-0.07671851
113	0xbddf57ea	-0.1090544
114	0xbcfe235e	-0.031022724
115	0xbd7c8d6b	-0.061658304
116	0x3b406b9f	0.0029361022
117	0xbd612f5d	-0.05497681
118	0xbcc31085	-0.023811588
119	0xbe02d66e	-0.12777111
120	0xbdbb6c2f	-0.09151494
121	0xbd9f72df	-0.07785582
122	0x3c735fad	0.014854354
123	0xbd8a0ad4	-0.067403466
124	0xbd1f8e36	-0.038953982
125	0xbda90784	-0.082533866
126	0xbdf9cf9b	-0.12197801
127	0xbdb9bc89	-0.09069163
128	0xbcf1b5c5	-0.02950562
129	0x3a13e6de	0.0005642007
130	0xbde0c557	-0.109751396
131	0xbdce0fde	-0.1006162
132	0xbdf97ad4	-0.12181631
133	0xbdf1f765	-0.11814765
134	0xbe379619	-0.17928351
135	0xbdec7c4a	-0.11547144
136	0xbd82a944	-0.06379941
137	0xbdf5d85c	-0.12004158
138	0xbd5efe93	-0.054442
139	0xbe11b00a	-0.1422731
140	0xbdf929bd	-0.12166164
141	0xbdd29ed1	-0.10284198
142	0xbd799d8e	-0.06094127
143	0xbb283bfa	-0.0025670514
144	0xbdc6862a	-0.096935585
145	0xbdf3acba	-0.11898179
146	0xbd0bdda1	-0.03414691
147	0xbcb30712	-0.021853957
148	0xbd5d9314	-0.054095343
149	0xbcf442ed	-0.029817069
150	0xbce36674	-0.027758814
151	0x3d33a40e	0.043857627
152	0x3dd2255c	0.10261032
153	0x3c83aa64	0.01607246
154	0x3ade7c13	0.0016974233
155	0xbd9005cb	-0.07032355
156	0x3cb9b76c	0.02267047
157	0xbd31f4c7	-0.04344633
158	0xbcaab2da	-0.020837236
159	0xbd98ebb8	-0.07466835
160	0xbcebe23c	-0.0287944
161	0xbe22ab7d	-0.1588573
162	0xbe5ace6e	-0.21367809
163	0xbe140ccd	-0.14458008
164	0x3c80c9b0	0.015721172
165	0x3ceaefc7	0.028678788
166	0xbcc5376c	-0.024074279
167	0xbd704c37	-0.058666434
168	0xbe05580d	-0.1302187
169	0xbdc5e845	-0.096634425
170	0xbe0ef45a	-0.139604
171	0xbd19d13a	-0.03755305
172	0xbd86d499	-0.065835185
173	0xbdeed3bc	-0.11661479
174	0xbe0073c2	-0.12544158
175	0xbd69502f	-0.056961235
176	0xbdba4862	-0.09095837
177	0xbcfee912	-0.031116996
178	0xbd1134d3	-0.035450768
179	0xbcd9b2a4	-0.02657444
180	0xbd9d61e5	-0.076846875
181	0xbd4e9820	-0.050438046
182	0x3d271a50	0.040796578
183	0x3d237f95	0.039916594
184	0xbcadf860	-0.021236598
185	0x3c96fd64	0.018431373
186	0xbd83a7a4	-0.06428459
187	0xbd437cd7	-0.04772648
188	0xbd96e6db	-0.07368251
189	0xbe1df4e0	-0.15425444
190	0xbe80ed65	-0.25181118
191	0xbe22c906	-0.15896997
192	0xbcf0d395	-0.029397765
193	0x3d3ee59f	0.046605702
194	0xbcc3d219	-0.023903893
195	0xbe0ad4a7	-0.13557683
196	0xbdb7c840	-0.089737415
197	0xbd44833d	-0.04797672
198	0x3c0decb7	0.008662394
199	0xbbc3e420	-0.0059781224
200	0xbd5f756e	-0.05455535
201	0xbe23220b	-0.15930955
202	0xbe65110e	-0.22369787
203	0xbe1aac92	-0.15104893
204	0xbdaf4e85	-0.08559898
205	0xbd840ce1	-0.06447769
206	0xbd19402c	-0.037414715
207	0xbdbb2211	-0.09137357
208	0xbdec828f	-0.115483396
209	0xbcac9ad8	-0.021069929
210	0xbccbd8f9	-0.024883734
211	0x3c06d297	0.0082289195
212	0xbd372b1d	-0.04471885
213	0xbdd871b2	-0.10568561
214	0xbd4e6d30	-0.050397098
215	0xbdcd51ea	-0.100253895
216	0xbe11d304	-0.14240652
217	0xbdb88f6d	-0.09011731
218	0xbe3b4f5a	-0.18291989
219	0xbe69c8e0	-0.22830534
220	0xbbc9dc7d	-0.0061603175
221	0xbb45a82e	-0.0030160057
222	0x3ccdd065	0.025123784
223	0xbd9f316a	-0.07773097
224	0xbd6b6261	-0.05746687
225	0xbc77cf8c	-0.015125167
226	0x3c422671	0.011849985
227	0x3c25300a	0.010082254
228	0xbbe12f89	-0.0068721217
229	0xbd94b958	-0.07261914
230	0xbe72159f	-0.2364106
231	0xbdf52b01	-0.11971093
232	0xbdd692f5	-0.104772486
233	0xbd71a46a	-0.058994688
234	0xbd676e57	-0.056501713
235	0xbdded643	-0.10880711
236	0xbdefbb49	-0.11705644
237	0xbdf0602c	-0.11737093
238	0xbe071f27	-0.13195477
239	0xbd39484b	-0.04523496
240	0xbd87aeb4	-0.06625119
241	0xbdd818bd	-0.105515935
242	0xbd4be220	-0.049776196
243	0x3cd7e7c8	0.02635564
244	0xbd90367c	-0.07041642
245	0xbe23a239	-0.15979852
246	0xbe6fd1c3	-0.23419861
247	0xbe465747	-0.19369231
248	0x3d43fb19	0.047846887
249	0x3daec610	0.08533871
250	0x3c5721c3	0.013130608
251	0xbd804fd0	-0.06265223
252	0xbdcba38b	-0.09943303
253	0xbd4d44db	-0.050114494
254	0xbd534674	-0.05158086
255	0xbca77e43	-0.020445948
